tasks/reacher/solutions/ddpg/solution_checkpoint/per_td3_critic_checkpoint.pth (torch_old, 341204 bytes, 10 tensors)

q_network_a.state_featurizer.mlp_layers.0.weight f4 [256, 33]
0	0xbdde68c5	-0.10859827
1	0xbe1d07fe	-0.1533508
2	0xbcd60952	-0.026127491
3	0xbe90b0f7	-0.28260013
4	0x3e147a8c	0.14499873
5	0xbf065c0d	-0.5248421
6	0xbcfb3d5b	-0.030668905
7	0xbde73aea	-0.11290534
8	0xbde7a285	-0.11310295
9	0xbe256b37	-0.1615418
10	0x3d70a086	0.058746837
11	0x3dc44695	0.09583775
12	0x3dcc8ed7	0.09988182
13	0x3de8e597	0.11371916
14	0x3e803054	0.2503687
15	0xbd339d47	-0.043851163
16	0x3ea2dcd9	0.31809118
17	0x3d7af0e6	0.061264895
18	0xbc691156	-0.014225325
19	0x3de57ecc	0.11205825
20	0x3de4455b	0.11146041
21	0x3e11f75e	0.1425452
22	0xbc3734e6	-0.011182046
23	0xbcde426f	-0.027131287
24	0xbd92f977	-0.07176488
25	0xbd1cdbe2	-0.038295634
26	0x3db3e9ff	0.087848656
27	0xbe06ca44	-0.13163096
28	0x3d9bbd9b	0.07604524
29	0xbe1da3d9	-0.15394534
30	0x3daf51fa	0.08560558
31	0xbd782b6e	-0.060588293
32	0x3e9a305b	0.30115017
33	0x3e1075ba	0.14107409
34	0x3d80f49b	0.06296655
35	0xbd59e630	-0.05319804
36	0x3eb9ca5f	0.3628721
37	0xbec3b07a	-0.38220578
38	0x3f1b14ca	0.60578597
39	0xbeb8f42d	-0.3612379
40	0x3c89c270	0.016816348
41	0x3d95dc86	0.07317452
42	0x3cefa1ff	0.02925205
43	0xbca8c378	-0.02060102
44	0x3cd35723	0.025798386
45	0x3cf02efb	0.029319277
46	0xbe15f014	-0.14642364
47	0xbcb19e85	-0.021682033
48	0x3e073172	0.13202456
49	0x3ca79ba0	0.02045995
50	0x3e078e55	0.13237889
51	0xbe330d72	-0.17485598
52	0xbc9b60ed	-0.018967116
53	0x3d285f0d	0.041106272
54	0x3cc5601f	0.024093686
55	0xbd2ce39d	-0.042209256
56	0x3b55cf60	0.0032624826
57	0xbc16386d	-0.009168726
58	0x3c14c52a	0.009080211
59	0x3e3871fa	0.18012229
60	0x3e04da5d	0.12973924
61	0xbda97a87	-0.08275323
62	0xbce39db8	-0.027785167
63	0xbd0f4bab	-0.034984272
64	0x3c8bd4f8	0.017069325
65	0xbfa1f472	-1.2652724
66	0x3e24b3dd	0.16084237
67	0xbd36063a	-0.044439532
68	0x3cfa29c4	0.030537494
69	0xbe80c4df	-0.251502
70	0x3ea37e00	0.31932068
71	0x3e98821e	0.29786772
72	0xbd4c7679	-0.04991767
73	0xbdbb2bd6	-0.091392204
74	0x3e36f6dc	0.17867607
75	0x3e9afa67	0.30269167
76	0xbd2e7a1a	-0.042596914
77	0x3cc35368	0.023843482
78	0x3d4bf0c7	0.04979017
79	0xbe151ed1	-0.14562537
80	0x3e344095	0.17602761
81	0x3d476d01	0.04868794
82	0xbe843abd	-0.25826064
83	0xbda78983	-0.08180525
84	0xbd9da7fb	-0.07698055
85	0x3e504eac	0.20342511
86	0xbc454d53	-0.012042361
87	0x3ce7c93d	0.0282942
88	0x3c560c6d	0.013064486
89	0xbe32528a	-0.17414299
90	0x3d7a9816	0.061180197
91	0x3d9dd2d9	0.077062316
92	0x3dfaf0b6	0.12252943
93	0x3e62a89b	0.2213463
94	0x3d9f95f4	0.07792273
95	0xbdb85f94	-0.09002605
96	0x3b6da319	0.0036260544
97	0x3e150b4e	0.14555094
98	0x3f1acdf5	0.60470515
99	0x3d0d6217	0.034517374
100	0x3d82744d	0.06369839
101	0xbd9e167d	-0.07719133
102	0xbeb443af	-0.35207888
103	0xbe91526d	-0.28383198
104	0xbf2d47fa	-0.6768795
105	0xbe88984e	-0.266787
106	0xbd919695	-0.07108799
107	0xbd5a7236	-0.053331576
108	0xbdad4e97	-0.084622554
109	0xbaa80f4e	-0.0012821944
110	0x3cac72cb	0.021050831
111	0x3c80f0da	0.015739847
112	0xbd347478	-0.044056386
113	0xbdca62c2	-0.09882118
114	0x3dfcf41e	0.12351249
115	0x3d2a495f	0.04157388
116	0xbd1e5b59	-0.038661335
117	0xbc32d8df	-0.010915964
118	0x3df9e4af	0.12201821
119	0x3befc311	0.007316955
120	0x3d3327a6	0.043738984
121	0xbb1ac28a	-0.002361449
122	0x3d06082e	0.032722645
123	0xbd8304bb	-0.06397387
124	0x3d32dc7b	0.043667298
125	0x3d49650c	0.04916863
126	0xbd5cb9ca	-0.05388812
127	0xbd4b988a	-0.04970602
128	0x3cccb8b8	0.024990425
129	0xbd08c227	-0.033388283
130	0x3e2c182a	0.16806093
131	0x3f376ea2	0.7165319
132	0x3dd828d2	0.10554661
133	0xbdf11faf	-0.11773621
134	0xbd621ebc	-0.05520509
135	0x3e0b97b3	0.13632087
136	0xbd27e8d7	-0.040993538
137	0xbe62de10	-0.22155023
138	0xbda44270	-0.080204844
139	0xbd927c31	-0.07152594
140	0xbde79c89	-0.113091536
141	0x3ea19d29	0.31565216
142	0xbd262f4a	-0.040572442
143	0xbce10af0	-0.027471036
144	0xbd49bdf7	-0.04925343
145	0xbd529559	-0.05141196
146	0xbcac308f	-0.021019248
147	0x3bd5f2c9	0.0065291864
148	0x3e772526	0.24135265
149	0xbe72493a	-0.23660746
150	0xbcc52f78	-0.024070486
151	0xbd88ee02	-0.066860214
152	0xbcc49008	-0.02399446
153	0xbd6d70cf	-0.05796891
154	0x3c99738a	0.018731851
155	0xbdb225fb	-0.086986504
156	0xbac59bf2	-0.0015076383
157	0xbda05818	-0.078293025
158	0x3ddc4a86	0.10756402
159	0xbd6ea03a	-0.058258273
160	0xbcdd526d	-0.027016843
161	0xbe1e964d	-0.15487023
162	0xbdd8ad67	-0.10579949
163	0x3e2541f2	0.16138437
164	0x3f824ab9	1.0179054
165	0x3e30c31b	0.17261927
166	0xbcabe678	-0.02098392
167	0x3e33ece6	0.17570838
168	0xbe880370	-0.26565123
169	0x3d489d48	0.04897812
170	0xbe0ba430	-0.13636851
171	0x3d814b95	0.06313244
172	0xbd909132	-0.07058944
173	0x3ea971dc	0.3309468
174	0x3d9bd32d	0.07608638
175	0xbcf593b2	-0.029977653
176	0x3cf4a5e7	0.029864265
177	0x3ca8f81e	0.020626124
178	0xbd920778	-0.07130331
179	0x3e354c21	0.17704822
180	0x3e298e41	0.16558172
181	0x3e9f1b1b	0.31075367
182	0x3ea18c9e	0.31552595
183	0x3ef27d7d	0.47361365
184	0x3ddac8a2	0.10682799
185	0x3d6b9ac3	0.05752064
186	0x3d2d92a1	0.042376164
187	0xbd32dec6	-0.043669485
188	0xbd503b9b	-0.050838094
189	0x3dff88ec	0.12477288
190	0x3d8882cf	0.06665575
191	0xbdc1821f	-0.09448647
192	0x3e413e63	0.18871455
193	0xbe36ad59	-0.17839564
194	0x3e1145f0	0.14186835
195	0xbca1a633	-0.01973257
196	0xbe1e3960	-0.15451574
197	0xbf08b9f5	-0.5340875
198	0x3d1ffe5d	0.03906094
199	0x3de39de2	0.11114098
200	0xbd55c1a4	-0.052186623
201	0xbeeccc83	-0.4624978
202	0xbcfd57cb	-0.030925652
203	0x3d8a6d51	0.06759132
204	0xbe124272	-0.1428316
205	0x3c9ddc22	0.019270007
206	0xbe4715f1	-0.19441964
207	0xbdc882f2	-0.09790601
208	0xbd0c3850	-0.03423339
209	0xbbd04ed8	-0.006357055
210	0x3a9a62b6	0.0011778686
211	0xbdd4885b	-0.1037757
212	0xbe5ca8c3	-0.21548752
213	0x3cb6dd12	0.022322211
214	0xbe1b45b1	-0.15163304
215	0xbd0935fb	-0.033498745
216	0x3e73002e	0.23730537
217	0x3dca14f9	0.098672815
218	0x3b39a828	0.0028328989
219	0x3cc4f8f6	0.024044495
220	0xbce5e54b	-0.028063437
221	0xbce4d1ed	-0.027932132
222	0xbd4f8d68	-0.050671965
223	0x3cdb4772	0.026767466
224	0xbdcb107c	-0.099152535
225	0x3e058215	0.13037904
226	0x3d6cfd41	0.05785871
227	0x3d0916ec	0.033469126
228	0xbdac3c6d	-0.08409963
229	0xbe2f9261	-0.17145683
230	0x3f611376	0.8792032
231	0x3c34b35a	0.011029089
232	0xbd99fc58	-0.07518834
233	0xbcec456f	-0.028841702
234	0xbcf5f974	-0.030026175
235	0xbe2fbe38	-0.17162406
236	0x3dec7e4c	0.11547527
237	0xbf067dd2	-0.52535737
238	0xbd746354	-0.05966504
239	0xbd2ce084	-0.042206302
240	0xbce36369	-0.027757363
241	0x3ca87426	0.020563196
242	0x3b7a9723	0.0038237057
243	0xbd30a615	-0.04312714
244	0x3d7d0d84	0.061780468
245	0x3d6f3c8e	0.05840736
246	0xbd58afe1	-0.052902106
247	0x3d531b90	0.051539958
248	0x3d2a4d4a	0.041577615
249	0xbca22a08	-0.019795433
250	0xbe69ef9c	-0.2284531
251	0xbaaf16bf	-0.0013358219
252	0xbd2cb73a	-0.042166926
253	0x3c70378c	0.014661681
254	0xbc8bef9e	-0.017082032
255	0x3cd27b47	0.025693549

q_network_a.state_featurizer.mlp_layers.0.bias f4 [256]
0	0x3bafc69f	0.0053642537
1	0xbd5d3fc0	-0.054015875
2	0x3decc97a	0.11561866
3	0xbdfdbe2b	-0.12389787
4	0x3e5110d1	0.20416571
5	0x3ddc2cb9	0.10750718
6	0x3d26a4e3	0.040684592
7	0xbd78644c	-0.060642526
8	0xbd8f8630	-0.07008016
9	0x3c908bdd	0.017644817
10	0xb9e64757	-0.0004392217
11	0xbd49be34	-0.049253657
12	0x3d3085a3	0.043096196
13	0x3dcd8551	0.10035194
14	0x3d114e5a	0.035475112
15	0xbd9d466e	-0.07679449
16	0x3dee479b	0.116347514
17	0xbd53211d	-0.05154525
18	0x3da22136	0.07916491
19	0xbcbbe977	-0.022938473
20	0xbcae9f70	-0.02131626
21	0xbd17c694	-0.037054613
22	0xbe3b8067	-0.183107
23	0x3d0dd465	0.034626383
24	0x3d4340b5	0.04766913
25	0x3e2f8e50	0.17144132
26	0x3e0bebf0	0.13664222
27	0xbde66443	-0.11249592
28	0xbd6f8ff1	-0.058486883
29	0x3e06cf40	0.13164997
30	0xbd52ace8	-0.051434427
31	0xbd281dcd	-0.041044045
32	0xbdb5697e	-0.08858012
33	0xbe8fc48f	-0.2807965
34	0x3caf1740	0.021373391
35	0xbe18a278	-0.14905727
36	0x3ce4e770	0.02794239
37	0x3db706de	0.08936857
38	0x3e8cf1af	0.2752814
39	0x3e04a03b	0.12951748
40	0x3e1b7010	0.15179467
41	0x3d973156	0.07382457
42	0x3e4e37cf	0.20138477
43	0xbda011e6	-0.07815914
44	0x3d90bf3a	0.070677236
45	0xbd77d13b	-0.060502272
46	0x3e37e955	0.17960103
47	0xbc812af3	-0.01576755
48	0xbacd64fe	-0.0015670357
49	0xbb8c2034	-0.0042763
50	0xbce28f22	-0.027656142
51	0xbe0f4828	-0.13992369
52	0xbd788c3f	-0.060680624
53	0x3d71d80b	0.059043925
54	0xbdeab646	-0.11460547
55	0xbd8e0fad	-0.06936584
56	0x3d007f12	0.031371184
57	0x3e2a7c2b	0.16648929
58	0xbc1c020f	-0.009521975
59	0xbe1eb5ec	-0.15499085
60	0xbdded2ae	-0.10880028
61	0x3d28b81b	0.0411912
62	0x3dead343	0.11466076
63	0xbdc7effc	-0.0976257
64	0xbdd3d785	-0.103438415
65	0x3e5e44f5	0.21705993
66	0xbd9b0add	-0.075704314
67	0x3ce3c850	0.027805477
68	0xbdeac677	-0.114636354
69	0xbd70f35e	-0.058825843
70	0x3e142f49	0.14471163
71	0xbc741a18	-0.014898799
72	0x3e75d36d	0.24006434
73	0x3e5ea830	0.21743846
74	0x3dfd5803	0.123703025
75	0xbe308ec3	-0.1724196
76	0x3c9fc423	0.019502705
77	0x3e55f170	0.20892882
78	0x3c1b6778	0.009485118
79	0xbd9e2578	-0.0772199
80	0x3e229116	0.15875658
81	0xbc01a480	-0.007912755
82	0x3e091994	0.13388664
83	0xbcb367c0	-0.021900058
84	0xbe51b218	-0.20478094
85	0x3e29377f	0.16525076
86	0x3e852edc	0.26012313
87	0x3b6291fe	0.0034571881
88	0x3df737e0	0.12071204
89	0x3e50a871	0.20376755
90	0x3d549089	0.051895652
91	0x3e9fce0d	0.31211892
92	0x3d4ef647	0.050527837
93	0xbd83eaf6	-0.064412996
94	0x3dc7618e	0.09735404
95	0xbe0d9fff	-0.13830565
96	0x3dbbb2aa	0.09164937
97	0xbe45089c	-0.19241565
98	0xbe04ade0	-0.12956953
99	0xbc5e85f6	-0.013581743
100	0xbd9df209	-0.0771218
101	0x3d0d1a0b	0.034448665
102	0xbe1c26fd	-0.15249248
103	0x3e40a984	0.18814665
104	0x3d1ea23e	0.038728945
105	0x3c54d7a2	0.012990864
106	0xbe29d013	-0.1658328
107	0x3e179a25	0.14804895
108	0xbd4db4ea	-0.05022136
109	0xbd5e5d11	-0.054287974
110	0xbd9f7637	-0.077862196
111	0xbd8853f3	-0.06656637
112	0x3e337e64	0.17528683
113	0x3d1ab3e9	0.037769232
114	0x3dd81db1	0.10552538
115	0x3e91c3ea	0.28469783
116	0xbdb44aeb	-0.08803352
117	0xbd661d60	-0.056180358
118	0xbd27a004	-0.040924087
119	0x3d1a16f6	0.037619554
120	0xbe3f3972	-0.18674257
121	0xbe761f76	-0.24035439
122	0x3da666ca	0.08125074
123	0x3bd88e54	0.0066087637
124	0x3d552995	0.05204161
125	0x3cd0aa3a	0.025471795
126	0x3de2a2fb	0.11066242
127	0x3de21992	0.110400334
128	0x3e03f231	0.12885357
129	0xbcd73981	-0.026272537
130	0x3e55fd1c	0.20897335
131	0xbe732a65	-0.23746641
132	0xbdf37468	-0.11887437
133	0x3d8a9abe	0.06767796
134	0xbe24d52b	-0.16096942
135	0x3d94f4e0	0.07273269
136	0xbbe68839	-0.007035282
137	0x3e5555b1	0.2083347
138	0xbd7e4916	-0.06208142
139	0xbd321966	-0.043481253
140	0x3d19ebac	0.03757827
141	0xbdf2e3eb	-0.11859878
142	0xbd05731f	-0.03258049
143	0x3cba9911	0.022778066
144	0x3da2c0ad	0.07946906
145	0x3e2304fd	0.15919872
146	0x3e121cf1	0.14268853
147	0xbbe7aeb2	-0.007070386
148	0x3e013dbe	0.12621209
149	0xbc4bdeed	-0.012443286
150	0x3e03e1cd	0.12879105
151	0x3e27e9e1	0.16397811
152	0x3d8f268f	0.06989776
153	0xbdc00836	-0.09376566
154	0xbdafe28e	-0.08588134
155	0xbe1f38bb	-0.15548985
156	0x3e4158f0	0.18881583
157	0xbe3179cc	-0.17331618
158	0xbe1c97f4	-0.1529234
159	0x3e06749c	0.1313042
160	0xbe03db97	-0.12876736
161	0xbe52a997	-0.20572506
162	0x3e19105f	0.14947651
163	0xbe7f4ffc	-0.24932855
164	0xbc2016dc	-0.009771075
165	0xbda00d25	-0.07815007
166	0x3e0bb381	0.13642694
167	0x3d1e215a	0.038606025
168	0xbda34759	-0.07972593
169	0x3e401f2a	0.18761888
170	0x3e2ff7f1	0.17184426
171	0x3c6612c5	0.014042561
172	0x3e7d8b3c	0.24760145
173	0xbd812437	-0.063057356
174	0xbe3af592	-0.1825774
175	0xbcc32860	-0.023822963
176	0xbe557d9e	-0.208487
177	0x3ded5d15	0.115900196
178	0xbe2975b1	-0.16548802
179	0x3dc71bab	0.09722074
180	0xbd7594d0	-0.05995637
181	0xbdc9c7f9	-0.09852595
182	0xbdd7217a	-0.10504432
183	0x3e80475e	0.2505445
184	0x3d775109	0.060380016
185	0xbe25e673	-0.1620119
186	0xbd02dd95	-0.0319496
187	0xbda7d23a	-0.081943944
188	0xbd85e052	-0.06536926
189	0xbde7e941	-0.113237865
190	0xbd3513aa	-0.044208206
191	0xbda29b23	-0.07939746
192	0x3e725d8b	0.23668496
193	0xbdadaad6	-0.0847985
194	0xbe7332c3	-0.23749833
195	0xbd7602b6	-0.06006118
196	0x3d0f5400	0.034992218
197	0x3e1f9b18	0.15586507
198	0x3ca27fb7	0.01983629
199	0xbe100e49	-0.1406795
200	0xbe49c92f	-0.19705652
201	0x3dbaef31	0.091276534
202	0x3d20ce28	0.039259106
203	0xbe6b06ea	-0.22951856
204	0xbe14a182	-0.14514735
205	0xbe589413	-0.21150236
206	0x3d5ea321	0.05435479
207	0xbdb923e4	-0.09040049
208	0x3b7f6760	0.0038971528
209	0xbd7e3385	-0.06206085
210	0x3d47672c	0.048682377
211	0x3e87fc79	0.2655981
212	0xbdb34437	-0.08753245
213	0xbdda8ec5	-0.106717624
214	0x3e3017b0	0.17196536
215	0x3cdb4031	0.026764007
216	0xbb16364a	-0.0022920542
217	0x3aad5c15	0.0013226295
218	0xbe069863	-0.13144068
219	0xbda7f96b	-0.082018696
220	0xbdb3a4ce	-0.087716684
221	0x3d666f46	0.056258462
222	0xbd50e873	-0.05100293
223	0x3e1721c4	0.14758974
224	0xbcc50ba6	-0.024053406
225	0xbcb8fbd3	-0.022581017
226	0xbdf0950b	-0.11747178
227	0x3db646d9	0.08900232
228	0xbd91e6a6	-0.07124071
229	0xbd5edc39	-0.05440924
230	0xbe6351fb	-0.22199242
231	0xbc4554c6	-0.012044137
232	0x3d62959d	0.055318464
233	0xbe639076	-0.22223076
234	0x3d1ed174	0.03877397
235	0x3e66b1c1	0.22528745
236	0x3dfd6cbc	0.12374255
237	0x3e2775ad	0.16353483
238	0x3d9583fb	0.07300564
239	0xbe147996	-0.14499506
240	0xbd1feeb8	-0.03904602
241	0xbc3bd58f	-0.011464491
242	0x3ca3eae2	0.020009462
243	0xbda2efc0	-0.07955885
244	0xbdae04ad	-0.084969856
245	0x3d6528fe	0.055947296
246	0x3db3cc02	0.08779146
247	0x3c6f32aa	0.014599482
248	0xbdfc983e	-0.123337254
249	0x3d21d3f4	0.039508775
250	0x3e21b2cb	0.1579086
251	0xbdfe2948	-0.124102175
252	0xbd34b1a5	-0.044114728
253	0x3de7888a	0.1130534
254	0xbe2d30b2	-0.16913107
255	0x3cc9485e	0.02457064

q_network_a.output_module.mlp_layers.0.weight f4 [128, 260]
0	0x3ce65e4b	0.028121134
1	0xbd870c3f	-0.06594133
2	0xbdfaa79d	-0.12239001
3	0x3e16001d	0.1464848
4	0xbe12743b	-0.14302151
5	0x3cff5f22	0.031173293
6	0x3d211793	0.039329123
7	0x3cc38879	0.023868786
8	0xbd778171	-0.06042618
9	0xbcb006e9	-0.02148767
10	0x3dfa901e	0.122345194
11	0x3e37e730	0.17959285
12	0xbd9e2689	-0.07722194
13	0x3e676ff7	0.22601305
14	0xbd4c82ec	-0.049929544
15	0x3d009dc5	0.03140046
16	0xbdb36728	-0.0875991
17	0x3e01f284	0.12690169
18	0xbd0856ba	-0.033285834
19	0xbdde70e5	-0.10861377
20	0xbdab0ff4	-0.08352652
21	0xbe050c32	-0.12992933
22	0x3c94d9fe	0.018170353
23	0x3dddc626	0.108288094
24	0x3df7af6d	0.12094007
25	0x3d138e90	0.03602463
26	0x3d7826d2	0.060583897
27	0x3e01abab	0.12663142
28	0x3d3c9893	0.046043944
29	0x3de56097	0.11200064
30	0xbca72439	-0.020403014
31	0xbd7ecda8	-0.062207848
32	0x3d8ff70a	0.07029541
33	0x3ddefe42	0.108883396
34	0x3ce77d11	0.028257878
35	0xbdc4188b	-0.09574994
36	0x3c62eb08	0.013849981
37	0xbd332b4a	-0.043742456
38	0x3cdfc898	0.02731733
39	0xbd3d82c4	-0.046267286
40	0xbbfd83c8	-0.007736657
41	0xbc936f08	-0.01799728
42	0xbde6a314	-0.112615734
43	0xbda390fb	-0.07986637
44	0x3de8adf0	0.11361301
45	0xbd6bea90	-0.057596743
46	0xbd1eafe8	-0.038741976
47	0xbc972649	-0.018450873
48	0x3e347707	0.1762353
49	0x3daff6cf	0.08591997
50	0x3d4ffd82	0.050778873
51	0x3db37fb7	0.08764594
52	0x3c3f30c1	0.011669339
53	0xbef468b8	-0.47736144
54	0xbde50678	-0.111828744
55	0x3e8537ce	0.26019138
56	0xbd2264ff	-0.0396471
57	0x3c81ea3e	0.015858766
58	0xbe142be9	-0.14469875
59	0x3dc1d91c	0.094652385
60	0xbceb1db8	-0.028700694
61	0xbd73a4f0	-0.05948347
62	0x3d494532	0.049138255
63	0x3c60f109	0.013729342
64	0x3e87c2e9	0.26515892
65	0x3c6a6129	0.014305391
66	0xbd8726fb	-0.06599232
67	0xbd912408	-0.070869505
68	0xbca385ac	-0.0199612
69	0x3def877c	0.116957635
70	0x3d7cf4ae	0.061756782
71	0xbe63306e	-0.22186443
72	0x3d446167	0.047944453
73	0xbd21d489	-0.03950933
74	0xbd809b34	-0.06279603
75	0xbd159ae1	-0.036524657
76	0x3cfebe49	0.031096594
77	0xbc826e87	-0.015921844
78	0xbd6d0adf	-0.057871696
79	0x3d7fb054	0.06242402
80	0xbe0aeda5	-0.13567217
81	0xbe4d5da0	-0.20055246
82	0x3d9b121e	0.07571815
83	0x3c8c80d0	0.017151266
84	0xbd4abefa	-0.049498536
85	0xbe0a9e0f	-0.13536857
86	0xbcc6392b	-0.024197182
87	0xbc112a3c	-0.008860167
88	0xbcf2815d	-0.0296027
89	0x3d3e9a93	0.046534132
90	0x3d7317cd	0.05934887
91	0x3cab007d	0.020874256
92	0x3d308ea2	0.043104775
93	0xbe008334	-0.1255005
94	0xbdfa0ff5	-0.12210075
95	0x3c2556bd	0.010091481
96	0xbd209647	-0.039205816
97	0x3d8962f3	0.06708326
98	0xbdf2199c	-0.11821291
99	0xbd0cdad6	-0.034388386
100	0xbcbcbaf5	-0.023038367
101	0xbbe642a3	-0.0070269867
102	0x3cff54ee	0.031168427
103	0xbd83126e	-0.063999996
104	0xbda53e33	-0.08068504
105	0x3db13cbc	0.08654162
106	0x3aea1c96	0.0017861302
107	0xbd250801	-0.040290836
108	0x3dce1b14	0.100637585
109	0x3e01f5b0	0.12691379
110	0xbd7f99b3	-0.06240244
111	0x3e53ce5b	0.20684187
112	0xbd875ee5	-0.066098966
113	0xbda9ae72	-0.08285226
114	0xbd9bdd90	-0.07610619
115	0xbd56bdec	-0.052427217
116	0xbd8c2db2	-0.06844653
117	0x3cba307a	0.022728194
118	0xbdc5fa01	-0.09666825
119	0xbdfd7363	-0.12375524
120	0xbe63a028	-0.22229064
121	0xbc325d72	-0.010886537
122	0x3d7e5c34	0.06209965
123	0xbcba36a9	-0.022731142
124	0xbc3c67ec	-0.011499386
125	0x3dc1c17c	0.09460732
126	0x3d546477	0.051853623
127	0x3d05ee5e	0.032698028
128	0xbde0c6e7	-0.109754376
129	0xbdb68d5b	-0.0891368
130	0x3d92e5dd	0.07172749
131	0x3e47c7f0	0.19509864
132	0x3db8b257	0.090183906
133	0xbcc40a5e	-0.023930725
134	0x3de3b3ec	0.11118302
135	0xbdc84f4f	-0.09780752
136	0xbd5cb344	-0.0538819
137	0x3a575712	0.00082145736
138	0x3dd5ead1	0.10445178
139	0xbdfe5439	-0.12418408
140	0xbd8f77f5	-0.07005302
141	0xbd86b434	-0.0657734
142	0x3dac15bf	0.08402585
143	0x3d9a64e4	0.075387746
144	0x3ceec0dd	0.029144699
145	0xbd106f65	-0.035262484
146	0x3d07bb0b	0.033137362
147	0xbd75fafd	-0.060053814
148	0x3c2a1386	0.010380631
149	0xbd83a1b6	-0.06427328
150	0xbd715189	-0.05891565
151	0xbdc384ee	-0.09546839
152	0x3d6cdc65	0.057827372
153	0xbda8ada4	-0.08236244
154	0x3d11871d	0.035529245
155	0x3c677fbb	0.014129574
156	0x3d3f662e	0.046728306
157	0xbc8d53a8	-0.017251804
158	0x3ce81dec	0.02833458
159	0xbd43e193	-0.047822546
160	0x3c38075e	0.011232225
161	0xbd34a4bc	-0.044102415
162	0xbccb5e07	-0.02482511
163	0x3e2e6caf	0.17033647
164	0xbcf3d140	-0.029762864
165	0xbdc6914f	-0.09695684
166	0x3d0c94ce	0.0343216
167	0xbe0fc063	-0.14038233
168	0xbd2b9b74	-0.0418963
169	0xbcb63965	-0.022244165
170	0x3d85a612	0.06525816
171	0x3cb575b4	0.022150852
172	0xbd09ca32	-0.033640094
173	0xbe0cb96c	-0.13742608
174	0xbd4749d4	-0.048654392
175	0x3ce36005	0.027755747
176	0xbdd82a98	-0.10554999
177	0x3dc6d613	0.097088
178	0xbc8c9887	-0.017162574
179	0x3d50453a	0.05084727
180	0xbd85783a	-0.06517072
181	0x3e02b54f	0.12764476
182	0xbd12c1d8	-0.035829395
183	0xbd8eb09a	-0.06967278
184	0xbc174dcd	-0.009234858
185	0xbde89482	-0.113564506
186	0x3d58b0d1	0.052903
187	0xbd1b8506	-0.037968658
188	0xbd8051f5	-0.06265632
189	0x3d5eb87d	0.05437516
190	0xbdc33a4e	-0.09532605
191	0xbd2734c4	-0.040821806
192	0x3d0483cb	0.03235225
193	0x3d637aa7	0.055536892
194	0x3da58f67	0.080839925
195	0x3d431112	0.0476237
196	0x3c64c322	0.013962539
197	0x3b94904b	0.0045338026
198	0x3a3ecf71	0.0007278836
199	0x3d2f20a4	0.042755738
200	0xbe2cc087	-0.16870318
201	0xbe01b652	-0.12667206
202	0x3ddffd8c	0.10937032
203	0x3dc2c19c	0.09509584
204	0xbd583186	-0.052781604
205	0xbd52b13c	-0.051438555
206	0x3c9a1e48	0.018813267
207	0x3da3436d	0.07971845
208	0xbd9dc466	-0.07703476
209	0xbc8ae9c0	-0.016957164
210	0x3d3c6f7d	0.04600476
211	0x3de22e0e	0.110439405
212	0x3d05371d	0.032523263
213	0xbd49779c	-0.049186334
214	0xbb8a72f3	-0.004225129
215	0xbd184fe5	-0.03718557
216	0x3d34bf8d	0.04412799
217	0x3d16c387	0.036807563
218	0xbdd515f4	-0.10404578
219	0xbd5be8d6	-0.053688847
220	0xbdeccbe1	-0.11562324
221	0xbcc63075	-0.024193028
222	0x3cfa7cfd	0.030577177
223	0xbe33bacc	-0.17551726
224	0x3c1c79f7	0.009550563
225	0x3c3c3afe	0.011488674
226	0xbde901f6	-0.11377327
227	0x3a28def0	0.00064419117
228	0xbe0840d7	-0.13305984
229	0xbe5832a0	-0.21113062
230	0xbde61c50	-0.11235869
231	0xbca491a8	-0.020088986
232	0x3d8d37ab	0.068953834
233	0xbe0dabcd	-0.13835068
234	0xbde80fdd	-0.11331151
235	0xbdecc9b7	-0.115619116
236	0x3dc111a0	0.0942719
237	0xbd7fe0b7	-0.062470164
238	0xbe0a2f5b	-0.13494627
239	0xbd236628	-0.039892346
240	0x3cf19450	0.029489666
241	0x3d9f0f8c	0.07766637
242	0xbdb21604	-0.086956054
243	0x3e22f34b	0.15913121
244	0x3d069751	0.03285915
245	0x3d182a58	0.037149757
246	0xbcbf5fa2	-0.023361031
247	0xbdc55c68	-0.09636766
248	0x3d82fa7b	0.063954316
249	0x3d6ea1df	0.05825984
250	0xbe319bfc	-0.1734466
251	0xbe792d1b	-0.24333613
252	0x3db58c65	0.08864669
253	0x3e049ee8	0.12951243
254	0xbd61667e	-0.055029385
255	0xbbfdce4f	-0.007745541

q_network_a.output_module.mlp_layers.0.bias f4 [128]
0	0xbc93595a	-0.017986942
1	0x3e4369aa	0.19083276
2	0x3dc7eaf9	0.09761614
3	0xbd919163	-0.071078084
4	0x3d1fb91a	0.038994886
5	0x3d038729	0.03211132
6	0xbcb3cf90	-0.02194956
7	0x3da7ccb7	0.08193343
8	0xbcd66bce	-0.026174452
9	0xbc54f799	-0.012998485
10	0xbd5bcee6	-0.05366411
11	0xbd9474a4	-0.0724881
12	0x3e3039cc	0.17209548
13	0xbc4f6ff0	-0.012660965
14	0x3e2354ce	0.15950319
15	0xbdd95cbf	-0.10613393
16	0x3ce48329	0.027894573
17	0x3d975b96	0.073905155
18	0x3c94750a	0.018122215
19	0x3dabf31b	0.08395978
20	0x3db3f324	0.0878661
21	0x3db605d4	0.088878304
22	0x3d645667	0.055746462
23	0x3d2c58ad	0.042076755
24	0x3d8538c6	0.06504969
25	0x3e335b9e	0.17515418
26	0xbd4dd41b	-0.050251108
27	0x3dbcc746	0.09217696
28	0x3d588813	0.052864145
29	0x3c69d9b3	0.014273095
30	0x3d9d8609	0.07691581
31	0x3e1a7941	0.15085317
32	0xbdd6a59b	-0.104808055
33	0x3c08186e	0.008306606
34	0x3e49e029	0.19714417
35	0x3defa356	0.11701076
36	0x3da3a7b8	0.07990974
37	0xbd7a6e2b	-0.06114022
38	0xbdf99c66	-0.12188034
39	0x3dc1a4b0	0.0945524
40	0xbd880889	-0.06642253
41	0xbdee5e16	-0.11639039
42	0x3e3b115a	0.18268338
43	0xbd2dba28	-0.04241386
44	0xbcf54e85	-0.029944668
45	0xbc80471f	-0.015658913
46	0x3c715d94	0.014731783
47	0xbb03d01a	-0.0020113052
48	0x3dc61541	0.096720226
49	0xbd25c484	-0.040470615
50	0x3e17fb40	0.14841938
51	0xbccac999	-0.024754332
52	0x3dfe6b7c	0.12422845
53	0x3dac244f	0.08405363
54	0xbe32020d	-0.17383595
55	0xbe28b22b	-0.16474216
56	0xbcf179e9	-0.029477077
57	0xbe0a84ac	-0.13527173
58	0x3c08520b	0.008320342
59	0x3de7122f	0.11282765
60	0x3cdcdbf8	0.026960358
61	0xbcbc4aba	-0.022984851
62	0x3d5655fc	0.052328095
63	0xbdbe32a1	-0.092870004
64	0xbc9dab36	-0.019246679
65	0x3e051bff	0.12998961
66	0xbd515341	-0.051104788
67	0xbc4f4be8	-0.012652375
68	0x3d302e16	0.0430127
69	0x3dfde416	0.123970196
70	0xbe34cc59	-0.17656077
71	0xbdfba5e8	-0.122875035
72	0xbc154633	-0.009110975
73	0x3e2be70c	0.16787356
74	0xbdadc37c	-0.08484551
75	0xbcbae1c9	-0.02281274
76	0x3e0e97b7	0.13925062
77	0x3dc0783f	0.09397935
78	0xbdf9ef69	-0.12203867
79	0xbd34aea9	-0.04411188
80	0x3b6c8075	0.0036087309
81	0x3dd93229	0.106052704
82	0x3cb340b0	0.021881431
83	0xbe281dd3	-0.16417627
84	0xbe0211cc	-0.12702101
85	0xbdd6276e	-0.10456739
86	0xbe2daf4c	-0.16961402
87	0xbde2f112	-0.11081137
88	0xbdb5f534	-0.088846594
89	0xbc72231b	-0.014778878
90	0xbe0d4767	-0.13796769
91	0xbd684685	-0.056707878
92	0xbd96bce0	-0.07360244
93	0x3e59e5e2	0.212791
94	0xbda680f4	-0.081300646
95	0x3b67e8c0	0.0035386533
96	0xbd48fd19	-0.049069498
97	0xbdc85e60	-0.097836256
98	0x3dafc470	0.08582389
99	0xbd924c37	-0.07143443
100	0xbaef94bd	-0.001827858
101	0x3e0c404f	0.13696407
102	0x3db50f71	0.08840836
103	0xbe501403	-0.20320134
104	0xbe2138cd	-0.15744324
105	0xbbbffe29	-0.0058591557
106	0x3da4b4cf	0.08042299
107	0x3b4ff6db	0.003173283
108	0xbda1a7c3	-0.07893326
109	0x3c6039bd	0.013685641
110	0x3c790ea5	0.015201245
111	0xbdf71830	-0.1206516
112	0x3d480207	0.04883006
113	0xbdf7e6d7	-0.12104576
114	0x3d8fbfdb	0.070190154
115	0xbd1b312b	-0.037888687
116	0x3cdd30b6	0.027000766
117	0x3dcfdb68	0.1014927
118	0x3e4baaf7	0.19889437
119	0xbbcb3fc0	-0.006202668
120	0xbd4dccc9	-0.050244126
121	0x3d9bda4a	0.07609995
122	0x3da7d804	0.081954986
123	0x3df1817d	0.11792276
124	0x3ddf621c	0.10907385
125	0x3e156df0	0.14592719
126	0xbd17815d	-0.036988605
127	0x3d9c6dc1	0.076381214

q_network_a.output_module.mlp_layers.3.weight f4 [1, 128]
0	0xbef4e109	-0.47827938
1	0x3dc99379	0.09842581
2	0x3e366bcf	0.17814563
3	0xbe206de9	-0.15666927
4	0x3e5aa0b3	0.21350364
5	0x3e960a13	0.2930456
6	0x3e82a9b4	0.25520098
7	0x3df6d984	0.120532066
8	0xbec22370	-0.37917662
9	0xbea98aa4	-0.33113587
10	0xbe254d5d	-0.16142793
11	0xbe4b6be9	-0.19865383
12	0x3e2dd1f9	0.1697463
13	0xbe2cac6f	-0.16862653
14	0x3e079315	0.13239701
15	0xbe5aa56e	-0.21352169
16	0x3e77eb67	0.24210893
17	0x3e577153	0.21039324
18	0x3e4b9241	0.1988001
19	0x3df9e06c	0.12201008
20	0x3e206556	0.15663657
21	0x3dd9f904	0.10643199
22	0x3e11d06a	0.1423966
23	0xbe7a96ca	-0.24471584
24	0x3e4e4199	0.20142211
25	0x3dbe26fa	0.09284778
26	0x3f1b162a	0.60580695
27	0x3e643c3d	0.22288604
28	0x3e4dc576	0.20094857
29	0x3e6abda8	0.2292391
30	0x3de1fa90	0.11034119
31	0x3da889cc	0.08229408
32	0xbe1c530a	-0.15266052
33	0x3e8586a3	0.26079282
34	0x3dfc803a	0.12329145
35	0x3e5c7f72	0.21532992
36	0x3e582707	0.21108638
37	0xbe400a91	-0.18754031
38	0xbe15bc46	-0.14622602
39	0x3eaf2289	0.34206036
40	0xbe01dc8e	-0.12681791
41	0xbe575fb0	-0.21032596
42	0x3dc08628	0.09400588
43	0x3e3957d8	0.18099916
44	0xbe301387	-0.17194949
45	0x3f54d797	0.83141464
46	0xbe985a5b	-0.29756436
47	0x3e2de93d	0.16983505
48	0x3dcb2c35	0.09920541
49	0xbe8bad54	-0.27280676
50	0x3e110219	0.14160956
51	0xbdf7f24a	-0.1210676
52	0x3e289e1f	0.16466568
53	0x3de43162	0.111422315
54	0xbe55c182	-0.20874599
55	0xbe045806	-0.12924203
56	0xbea0bb5e	-0.3139295
57	0xbdfc9126	-0.12332372
58	0xbeac2c31	-0.33627465
59	0x3d990f16	0.074735805
60	0x3e50d47b	0.20393555
61	0xbe31bdb8	-0.17357528
62	0xbeb6e43d	-0.35721007
63	0xbe3cefd1	-0.18450858
64	0xbe8bf383	-0.27334222
65	0x3de68641	0.11256076
66	0xbe005d09	-0.1253549
67	0x3f380418	0.71881247
68	0x3df3d285	0.11905388
69	0x3df8a223	0.121403
70	0xbdd96aa1	-0.10616041
71	0xbe07f2ba	-0.13276187
72	0xbe616121	-0.22009708
73	0x3dc749e1	0.09730888
74	0xbe1bf4f2	-0.15230158
75	0xbe899e68	-0.26878667
76	0x3dcebcce	0.100946054
77	0x3db2064e	0.08692609
78	0xbdef368e	-0.11680327
79	0xbe54977e	-0.20760915
80	0xbe2159fc	-0.15756983
81	0x3dabf0bf	0.08395528
82	0x3e8fc935	0.28083196
83	0xbe345473	-0.1761034
84	0xbe1d9599	-0.15389098
85	0xbe62caea	-0.22147718
86	0xbe5698f5	-0.20956786
87	0xbeb83721	-0.3597956
88	0xbe855a6c	-0.2604555
89	0xbe99e2c0	-0.3005581
90	0xbdbbadb8	-0.091639936
91	0xbdf97dc3	-0.1218219
92	0xbe13d726	-0.14437541
93	0x3de30ffe	0.11087035
94	0xbe147bcb	-0.14500348
95	0x3e265770	0.16244292
96	0xbea0b9cf	-0.3139176
97	0xbe2384d9	-0.15968646
98	0x3e192e5b	0.1495909
99	0xbe54f9ae	-0.2079837
100	0x3e420259	0.18946208
101	0x3dcc7651	0.099835046
102	0x3e980952	0.2969461
103	0xbe373696	-0.17891917
104	0xbe382403	-0.17982487
105	0x3e01b525	0.12666757
106	0x3e031265	0.12799986
107	0x3ea56472	0.32303196
108	0xbe64cd86	-0.22344026
109	0xbe9ed88d	-0.3102459
110	0xbe157244	-0.1459437
111	0xbe17eb6d	-0.14835902
112	0x3dea0815	0.11427323
113	0xbe113a1e	-0.14182326
114	0x3e866a0e	0.26252788
115	0x3e4e2a67	0.20133363
116	0xbe56863c	-0.20949644
117	0x3de48a80	0.11159229
118	0x3db36ed6	0.08761375
119	0x3ede2906	0.43390673
120	0xbe18947e	-0.14900395
121	0x3df78235	0.12085382
122	0x3da4de56	0.0805022
123	0x3e096f85	0.13421448
124	0x3d983711	0.07432378
125	0x3e017e03	0.12645726
126	0xbf2f1b04	-0.684006
127	0x3e913472	0.28360325

q_network_b.state_featurizer.mlp_layers.0.weight f4 [256, 33]
0	0xbe3bfd7b	-0.18358414
1	0xbd561993	-0.052270483
2	0xbd896a24	-0.06709698
3	0xbf1feca2	-0.6247045
4	0xbdbad0f9	-0.091218896
5	0x3dab6021	0.083679445
6	0xbe609a1c	-0.21933788
7	0xbe66f1e8	-0.22553217
8	0xbea62d55	-0.3245646
9	0xbdf4a9ae	-0.11946426
10	0xbafcd9f4	-0.0019291029
11	0x3cdb3c6e	0.026762214
12	0xbda27c50	-0.07933867
13	0x3da23c5d	0.0792167
14	0xbdb342bb	-0.08752962
15	0x3d9ac9e6	0.0755804
16	0xbd37d2b0	-0.04487866
17	0x3e45c3da	0.19312993
18	0x3dcd46f3	0.10023298
19	0x3d5c2d8d	0.053754378
20	0xbc631155	-0.013859113
21	0x3bffe124	0.0078088213
22	0x3c4379bc	0.011930879
23	0xbc89dc92	-0.016828809
24	0xbc81e52b	-0.015856346
25	0xbd39e6a8	-0.045385987
26	0x3cbf3cc9	0.023344414
27	0x3d44fd97	0.048093405
28	0x3e18f8ba	0.14938632
29	0x3de3bff8	0.111205995
30	0x3dd71d93	0.10503688
31	0xbe02accf	-0.12761234
32	0xbf7b5152	-0.9817096
33	0xbd769f60	-0.060210586
34	0x3c914b37	0.01773606
35	0xbdf2c69b	-0.11854287
36	0xbd27d6e1	-0.04097641
37	0xbf19594c	-0.5990188
38	0xbdb59aab	-0.08867391
39	0x3e8b0f33	0.27160034
40	0xbd042eb9	-0.03227112
41	0x3d894302	0.06702234
42	0xbdb71e8f	-0.089413755
43	0x3d29f3fe	0.041492455
44	0x3b1ceb61	0.0023944008
45	0xbd81b1de	-0.063327536
46	0x3c3cd13b	0.011524494
47	0x3dc87e28	0.097896874
48	0x3d965c6e	0.07341848
49	0x3e30b8d5	0.17258008
50	0xbe8426e6	-0.25810927
51	0xbe2dea57	-0.16983925
52	0xbf06362d	-0.52426416
53	0x3d0737b9	0.033012126
54	0x3d80c6b8	0.062879026
55	0xbb9508e1	-0.0045481776
56	0xbde846fd	-0.11341665
57	0xbc643fb9	-0.013931208
58	0xbc36da2c	-0.011160415
59	0xbe37f73f	-0.1796541
60	0x3e22de65	0.1590515
61	0xbe2e3a07	-0.17014323
62	0x3c227f30	0.009918019
63	0x3decd8f2	0.115648165
64	0x3e1eeea6	0.15520725
65	0xbe17f8ae	-0.14840958
66	0xbda3f97d	-0.080065705
67	0x3dd21fc4	0.10259965
68	0x3e25ec2b	0.16203372
69	0xbcf593c7	-0.029977692
70	0xbdb45554	-0.088053375
71	0xbe9674ff	-0.29386136
72	0xbecf565a	-0.4049557
73	0xbd3e8cc7	-0.046520974
74	0xbb46c0ef	-0.00303274
75	0xbc22ad35	-0.009928991
76	0xbc2e9a22	-0.010656865
77	0x3d8665c4	0.06562379
78	0xbce11b3a	-0.027478803
79	0x3d21db86	0.039515994
80	0x3d9cb959	0.0765254
81	0xbe8c2e40	-0.27379036
82	0x3db37f1b	0.08764478
83	0xbdf70876	-0.12062161
84	0xbdcf94f4	-0.101358324
85	0x3d202846	0.039100908
86	0x3b32faa5	0.002731004
87	0x3d181cb7	0.03713676
88	0xbc2be274	-0.010491002
89	0xbd48f6f1	-0.049063627
90	0x3c0a3b43	0.008436981
91	0xbd82fbca	-0.06395681
92	0xbd8df8b9	-0.06932206
93	0xbc9be858	-0.019031689
94	0x3e697810	0.22799706
95	0x3de4f26c	0.11179051
96	0x3ad4fddb	0.0016249971
97	0xbdaba5d0	-0.083812356
98	0x3f60b742	0.8777963
99	0xbdc9b8a8	-0.098496735
100	0xbc784266	-0.015152549
101	0x3d5454b8	0.051838607
102	0xbc292e0f	-0.010325923
103	0x3bf21267	0.0073874476
104	0xbebb7a73	-0.3661686
105	0xbdaf8619	-0.08570499
106	0x3d02c358	0.031924576
107	0x3e01c9cd	0.12674637
108	0xbde2c7df	-0.11073279
109	0xbb90df8c	-0.00442118
110	0x3b0921f2	0.0020924774
111	0xbc3f4e3f	-0.01167637
112	0x3e5dfaa5	0.21677645
113	0x3e050f56	0.12994131
114	0xbe38b56c	-0.18037957
115	0xbdd7c4a0	-0.1053555
116	0x3da05e01	0.0783043
117	0xbd83e2e3	-0.064397596
118	0xbd06261a	-0.03275118
119	0x3cd69a5d	0.026196653
120	0xbd1f574d	-0.038901616
121	0x3cdca38e	0.026933458
122	0x3dd59d46	0.10430388
123	0x3d67f491	0.05662972
124	0xbccb0095	-0.024780551
125	0xbe294611	-0.16530634
126	0xbd4b4c25	-0.049633164
127	0x3dde83b1	0.10864962
128	0x3dd2eef4	0.10299483
129	0x3e510b98	0.20414579
130	0xbdd114c2	-0.10209037
131	0xbf4bd9dd	-0.7962931
132	0x3e365879	0.17807187
133	0xbe048f07	-0.12945186
134	0xbd834f10	-0.06411564
135	0xbeb0f855	-0.34564462
136	0x3f20ffb1	0.62890154
137	0x3f032069	0.5122133
138	0xbe05bd2d	-0.13060446
139	0xbc6b9ccb	-0.014380644
140	0x3ddd4a38	0.10805172
141	0x3ba5da1a	0.0050614
142	0xbd37b002	-0.04484559
143	0xbdc5a8cb	-0.09651335
144	0x3cf9b749	0.030482905
145	0xbd58c077	-0.052917924
146	0xbd2b3653	-0.041799854
147	0x3d27ce55	0.040968258
148	0x3e2fb5d5	0.17159207
149	0x3d1799d5	0.03701194
150	0x3c7ed6ba	0.0155541245
151	0x3b971962	0.00461118
152	0xbd9e2873	-0.07722559
153	0xbc372bc6	-0.01117987
154	0xbc819315	-0.015817204
155	0x3dbacd8b	0.091212355
156	0xbe02586c	-0.12729043
157	0xbc092512	-0.008370655
158	0xbdfec60c	-0.12440118
159	0x3d41c43e	0.04730629
160	0x3db7b716	0.08970468
161	0x3d9f4f20	0.07778764
162	0xbe157802	-0.1459656
163	0x3da62dc4	0.08114198
164	0x3ca8c8ae	0.020603504
165	0x3e582534	0.21107942
166	0xbe6231a4	-0.22089249
167	0xbd2ad776	-0.041709386
168	0x3dd3a0ab	0.10333379
169	0xbee257d2	-0.44207627
170	0x3a4a1972	0.000770948
171	0xbe52135c	-0.20515198
172	0x3db3b788	0.0877524
173	0xbdecca92	-0.11562075
174	0x3cfcfab8	0.03088127
175	0x3d873108	0.06601149
176	0xbc9caf7c	-0.019126646
177	0xbd516d87	-0.051129844
178	0xbe2d9535	-0.16951449
179	0x3db759a5	0.08952645
180	0xbe00e593	-0.12587576
181	0xbd222ac3	-0.039591562
182	0xbda3db16	-0.08000772
183	0xbe20fe2d	-0.1572196
184	0x3da815d3	0.08207288
185	0xbc9c03f8	-0.019044861
186	0x3d06fff4	0.03295894
187	0xbe27f8c7	-0.16403495
188	0x3ca2bf19	0.019866513
189	0x3dc11cd4	0.09429327
190	0xbd790b04	-0.06080152
191	0xbd2acd18	-0.0416995
192	0xbdb5ab7a	-0.08870597
193	0x3e2900e6	0.16504249
194	0xbdbbf7f6	-0.09178154
195	0x3d3cae69	0.046064768
196	0xbd681ec2	-0.056669958
197	0xbd269907	-0.040673282
198	0xbd8c1b00	-0.06841087
199	0x3d13b68d	0.036062766
200	0xbdb4b00d	-0.088226415
201	0xbebf1758	-0.37322497
202	0x3f1588fc	0.58412147
203	0x3f6e992d	0.9320248
204	0x3e4018d5	0.18759473
205	0x3e03b008	0.1286012
206	0x3de1a01d	0.11016867
207	0x3cbb78e9	0.022884803
208	0xbd66d621	-0.056356553
209	0xbd675f90	-0.05648762
210	0x3ce286f7	0.027652247
211	0xbdcfec49	-0.1015249
212	0xbe43880d	-0.19094868
213	0x3afe17ee	0.0019385794
214	0xbddf7664	-0.10911253
215	0x3d041b90	0.03225285
216	0xbe0d7762	-0.13815072
217	0xbc9dffc2	-0.019286994
218	0xbc0f86dd	-0.008760181
219	0xbc710c9c	-0.014712479
220	0xbbeaded5	-0.007167677
221	0x3c3c0a30	0.011477038
222	0xbd9d177e	-0.076704964
223	0xbcf13d70	-0.029448241
224	0x3d61bff4	0.0551147
225	0x3ddddb3e	0.10832833
226	0x3c978efc	0.018500797
227	0x3d1b5cec	0.037930414
228	0xbda27148	-0.07931763
229	0xbddcef3f	-0.1078782
230	0xbee3bb0b	-0.4447864
231	0xbde243f0	-0.11048114
232	0x3da7a1cd	0.08185158
233	0xbcd8efa8	-0.026481465
234	0x3e74fa54	0.23923618
235	0xbe011918	-0.12607229
236	0xbdfa2a0e	-0.122150525
237	0x3d93da15	0.0721933
238	0x3e1505e5	0.1455303
239	0x3d403cef	0.04693311
240	0x3d409750	0.047019303
241	0xbd1f0219	-0.03882036
242	0x3d3944ac	0.045231506
243	0x3c8bc45b	0.017061403
244	0xbd4ddb2b	-0.050257843
245	0xbd5e4c02	-0.054271705
246	0x3cade796	0.021228593
247	0xbc107a60	-0.008818239
248	0x3df94cca	0.121728495
249	0x3d49015c	0.049073562
250	0xbcd4565f	-0.025920091
251	0x3a9aecbb	0.0011819819
252	0x3d953c5a	0.07286902
253	0x3cf44482	0.029817823
254	0xbe256d03	-0.16154866
255	0x3bff1383	0.0077843084

q_network_b.state_featurizer.mlp_layers.0.bias f4 [256]
0	0x3c755f21	0.014976294
1	0x3d6f35f0	0.05840105
2	0xbdb9353b	-0.09043356
3	0x3e416694	0.18886787
4	0xbd99f515	-0.07517449
5	0xbe0a8b13	-0.13529615
6	0x3e03f3fa	0.12886038
7	0xbd9ec510	-0.077524304
8	0x3e1e7384	0.15473753
9	0xbead6474	-0.33865702
10	0x3e750073	0.23925953
11	0x3e22ed48	0.15910828
12	0xbd16f387	-0.03685334
13	0xbccb6a3b	-0.024830928
14	0x3e0dd9a7	0.13852559
15	0x3d03abfa	0.03214643
16	0x3e0192cc	0.12653655
17	0x3da340e7	0.079713635
18	0xbe61b239	-0.22040643
19	0xbde65998	-0.112475574
20	0xbd9e3175	-0.07724277
21	0x3e04acba	0.12956515
22	0x3d9012c4	0.07034829
23	0x3d68acd8	0.05680546
24	0x3e7a019b	0.24414675
25	0xbd3e13e2	-0.04640568
26	0xbe196d72	-0.14983156
27	0xbe3b2313	-0.18275099
28	0x3dea7c5f	0.11449503
29	0x3e2e2a3a	0.17008296
30	0x3e5be594	0.21474296
31	0xbe776306	-0.24158868
32	0x3b56aa3c	0.0032755276
33	0x3cb1ed47	0.021719588
34	0xbd03195f	-0.032006618
35	0xbe08c40b	-0.13356034
36	0xbe21ea41	-0.15812017
37	0x3e0ac903	0.13553242
38	0xbea7f0dc	-0.3280095
39	0xbe13814e	-0.14404795
40	0x3e818168	0.25294042
41	0xbe0e580f	-0.13900779
42	0xbc05c4b6	-0.008164575
43	0x3d9b0b62	0.075705305
44	0xbd8dd038	-0.0692448
45	0x3cd19e7d	0.025588268
46	0x3e5dbadc	0.21653312
47	0xbce52a7f	-0.027974365
48	0xbe0ce423	-0.13758902
49	0xbc8bdb36	-0.017072301
50	0xbda4f034	-0.080536276
51	0x3cce59b4	0.025189258
52	0x3c1871cd	0.009304476
53	0xbe81da20	-0.2536173
54	0xbe1920ff	-0.14953993
55	0x3c93eed3	0.018058216
56	0x3e8b4ed5	0.27208582
57	0x3d75f0f0	0.06004423
58	0xbdce61b7	-0.100772314
59	0xbd44d86b	-0.048057955
60	0x3d20738b	0.03917269
61	0xbe0a1a45	-0.13486584
62	0x3e0027d8	0.12515199
63	0xbd50692a	-0.050881542
64	0x3d20c9a8	0.039254814
65	0x3c4dfcc9	0.012572476
66	0xbc2976c5	-0.010343258
67	0x3e00dd0d	0.12584324
68	0xbea5abc9	-0.32357624
69	0x3e1176a5	0.14205416
70	0x3de13465	0.109963216
71	0x3d4c5575	0.049886186
72	0xbdc9b84b	-0.09849604
73	0xbe0ce260	-0.1375823
74	0xbbbfa477	-0.005848463
75	0xbe72d437	-0.23713766
76	0xbdc74acf	-0.097310655
77	0x3e5e84c8	0.2173034
78	0x3d149401	0.03627396
79	0x3e18f7ca	0.14938274
80	0x3db2e642	0.087353244
81	0x3e327245	0.17426403
82	0xbe78db03	-0.24302296
83	0x3e897bb6	0.26852196
84	0xbdd4877b	-0.10377403
85	0xbdf4892e	-0.119402274
86	0xbd0ab0c9	-0.03386
87	0x3dc9515a	0.0982997
88	0xbda0be3a	-0.07848783
89	0x3e988ea1	0.29796317
90	0x3ca4fe7b	0.020140877
91	0x3e02a83f	0.12759493
92	0x3db2f27b	0.08737656
93	0xbccb81fb	-0.024842253
94	0xbe0d5d7e	-0.13805196
95	0x3c9da3b2	0.019243095
96	0x3ce9c888	0.028538004
97	0xbdc72f85	-0.097258605
98	0xbd8b04d4	-0.0678803
99	0x3ca7e52a	0.020495016
100	0x3d540707	0.051764514
101	0x3e51b3b5	0.20478709
102	0x3da4abb8	0.08040565
103	0xbe66554d	-0.22493477
104	0x3e500cbb	0.20317356
105	0xbe7cc65e	-0.24685046
106	0xbd900f45	-0.070341624
107	0x3cc88cf6	0.024481278
108	0x3e2a98c5	0.1665984
109	0x3d6695d5	0.056295235
110	0xbd882c8f	-0.06649124
111	0xbd9f9eae	-0.077939376
112	0xbd8e9c4e	-0.069634065
113	0x3e3fbf69	0.18725361
114	0x3d1583da	0.036502697
115	0xbb0e9c92	-0.0021760804
116	0xbe6d8631	-0.23195721
117	0x3e2869ff	0.16446684
118	0xbd619bdc	-0.05508028
119	0xbde1f42f	-0.110329024
120	0x3e578197	0.21045528
121	0xbe4981c5	-0.1967841
122	0xbc0fc599	-0.008775138
123	0xbdac44f6	-0.08411591
124	0x3dc8f2dd	0.098119475
125	0xbdc9fe2d	-0.09862933
126	0xbe3f836b	-0.18702476
127	0x3d8439c6	0.06456332
128	0xbd52b96d	-0.051446367
129	0x3cb4974d	0.022044802
130	0x3d596c40	0.05308175
131	0xbd8e41c2	-0.06946136
132	0x3c8adc78	0.01695083
133	0xbdd543e8	-0.10413343
134	0x3e3fcd66	0.18730697
135	0xbda020f1	-0.07818783
136	0x3e22fb0c	0.1591608
137	0x3ca246b3	0.019809103
138	0x3e53fd1b	0.20702021
139	0x3e0d5c79	0.13804807
140	0x3e37ab95	0.17936547
141	0xbe2ed0b0	-0.17071795
142	0x3e1be6ea	0.15224805
143	0xbe480011	-0.19531275
144	0xbdb411c0	-0.08792448
145	0x3e3ef2e9	0.1864735
146	0xbd8ffd65	-0.07030753
147	0xbdd4f23f	-0.10397767
148	0x3dea6dad	0.114467
149	0x3d5fc36d	0.054629732
150	0x3d5727d5	0.05252822
151	0x3d1a8c5f	0.037731525
152	0xbe567da4	-0.20946366
153	0xb9912eee	-0.0002769152
154	0x3d157129	0.03648487
155	0x3c90c018	0.017669722
156	0xbcc9c010	-0.024627715
157	0xbd7deeb5	-0.061995227
158	0x3e41d535	0.18928988
159	0x3d43c7e4	0.047798052
160	0x3dd1288e	0.10212813
161	0xbd62f755	-0.055411655
162	0x3d8aaf84	0.06771758
163	0x3e24e41d	0.16102643
164	0xbd9beb8e	-0.07613288
165	0x3ccbed93	0.024893558
166	0x3d9d8513	0.076913975
167	0x3d4ffb30	0.05077666
168	0xbcf4df3a	-0.029891599
169	0x3e0b15cd	0.13582535
170	0xbd300ab0	-0.042978942
171	0xbe3a0601	-0.18166353
172	0x3deab669	0.11460573
173	0x3df4b276	0.11948101
174	0x3d49af42	0.049239404
175	0xbda6b80a	-0.081405714
176	0xbd9ca37b	-0.07648369
177	0x3d169d3c	0.036771044
178	0x3d04898d	0.03235774
179	0x3d14306e	0.036179
180	0xbdc172c0	-0.09445715
181	0x3e25d5ae	0.16194794
182	0x3d26eead	0.040754963
183	0x3e0dbe3d	0.13842101
184	0xbce4cac0	-0.02792871
185	0x3e94c46c	0.29056108
186	0xbc722c0a	-0.014781008
187	0xbe657455	-0.22407658
188	0x3de788ec	0.11305413
189	0x3aed0d89	0.0018085699
190	0xbdb91aa1	-0.09038282
191	0xbe71abf0	-0.23600745
192	0x3e6d9001	0.23199464
193	0x3dc8ab3e	0.09798287
194	0x3d38a183	0.045075905
195	0x3dc827ce	0.09773217
196	0xbe26b479	-0.16279782
197	0xbd35ce3e	-0.04438614
198	0xbd83c90f	-0.06434833
199	0xbe11f006	-0.14251718
200	0xbc12c737	-0.008958629
201	0xbd86ebe9	-0.06587965
202	0xbe1a00e0	-0.15039396
203	0xbe58c544	-0.21169001
204	0xbdad233d	-0.08453987
205	0x3d6524ab	0.055943172
206	0xbe174212	-0.14771298
207	0x3e24b64e	0.16085169
208	0x3dbcddcb	0.09221991
209	0x3cc51182	0.0240562
210	0xbdd1b191	-0.10238946
211	0x3c816b36	0.015798192
212	0x3cc86d42	0.02446616
213	0x3e4ba4f7	0.19887148
214	0x3dbcc2cc	0.09216842
215	0x3ac2d15c	0.0014863419
216	0x3b291fa6	0.0025806217
217	0x3e142457	0.14466988
218	0xbdf3ec96	-0.119103596
219	0x3d92916b	0.071566425
220	0x3c6bb0b9	0.014385396
221	0x3c7d03a4	0.0154427625
222	0xbb92b573	-0.004477197
223	0xbcc18f22	-0.023627821
224	0x3e0d1d36	0.13780674
225	0xbd8f234f	-0.069891565
226	0x3d839ac5	0.06426004
227	0xbe5022b2	-0.20325735
228	0xbeb1e245	-0.34742942
229	0x3e2e6ffa	0.17034903
230	0xbe88af7c	-0.26696384
231	0x3e07de3c	0.1326837
232	0x3e20be1b	0.1569752
233	0xbc96ae7e	-0.018393751
234	0xbe3123c9	-0.17298807
235	0xbd9a6a79	-0.07539839
236	0x3e0cacc1	0.13737775
237	0x3d636d73	0.0555243
238	0xbde83e28	-0.1133998
239	0x3d87765a	0.06614371
240	0x3dc727ce	0.09724389
241	0xbe5f3fc7	-0.21801673
242	0xbc90ef64	-0.017692275
243	0x3e745a7c	0.23862642
244	0xbda801f2	-0.08203496
245	0xbda74395	-0.08167187
246	0x3ad2e4c0	0.0016089901
247	0x3d912ac7	0.07088237
248	0x3dea2195	0.114321865
249	0xbd4f789c	-0.05065213
250	0x3dd3321d	0.10312293
251	0xbdcf7de1	-0.10131431
252	0xbe04dda4	-0.12975174
253	0xbdbd54cc	-0.09244689
254	0x3d709ece	0.058745198
255	0xbdb1c347	-0.08679824

q_network_b.output_module.mlp_layers.0.weight f4 [128, 260]
0	0xbd1d0ecb	-0.038344186
1	0x3d38c57b	0.045110207
2	0xbdc6ee8b	-0.09713467
3	0x3d03f7a4	0.03221859
4	0x3c5b186e	0.013372524
5	0x3cb132e5	0.021630714
6	0x3d774a48	0.060373574
7	0xbe1e0aee	-0.15433857
8	0xbda0000d	-0.0781251
9	0xbe132e2e	-0.14373085
10	0xbccee93c	-0.0252577
11	0xbe0ac063	-0.13549952
12	0xbc87c809	-0.016574876
13	0xbe3a5cbb	-0.18199436
14	0xbb9f7cd4	-0.0048671756
15	0xbe172c68	-0.14763033
16	0xbdb08467	-0.08619004
17	0xbdb8a3bb	-0.09015604
18	0x3c52f1b7	0.012875012
19	0x3d66b5dc	0.05632578
20	0xbdba36ce	-0.090924844
21	0xbc84df28	-0.01621969
22	0x3c67bf5e	0.014144747
23	0x3cbd9c57	0.023145838
24	0xbcc1b54d	-0.023646021
25	0x3c552c2e	0.013011022
26	0x3e1f61b1	0.1556461
27	0x3ca99ea4	0.020705529
28	0x3db6e730	0.08930814
29	0xbc9a99aa	-0.0188721
30	0xbd5d5b33	-0.054042052
31	0xbd5ededd	-0.054411758
32	0xbbee1e09	-0.007266764
33	0x3d71a891	0.058998648
34	0x3d134a9a	0.035959817
35	0xbe41b7f4	-0.18917829
36	0x3d0a8090	0.033814013
37	0xbc3fc79d	-0.011705306
38	0xbe084c36	-0.13310322
39	0x3d3523e0	0.044223666
40	0x3da0c8d8	0.07850808
41	0x3c9d32dd	0.019189293
42	0x3d9abed0	0.07555926
43	0xbd4ff1a7	-0.050767567
44	0x3db0d26e	0.08633886
45	0xbbbe972b	-0.0058163605
46	0xbe6bf5d1	-0.2304299
47	0xbd3252fc	-0.04353617
48	0x3dde1856	0.108444855
49	0xbcbe79a4	-0.023251362
50	0xbe5c3ccd	-0.21507569
51	0xbcec88f5	-0.0288739
52	0x3da9a2f4	0.08283034
53	0x3c914e46	0.017737519
54	0xbc9128c5	-0.017719636
55	0x3d5e47ee	0.054267816
56	0xbd9b72bf	-0.075902455
57	0x3d00574a	0.031333245
58	0xbcc9758a	-0.02459218
59	0xbcbed0a3	-0.023292845
60	0xbcd60225	-0.02612407
61	0xbd896613	-0.06708922
62	0x3cb8c374	0.022554137
63	0x3ca46790	0.020068914
64	0x3e32de52	0.17467621
65	0xbdd2ab7e	-0.10286616
66	0x3cf585d9	0.02997105
67	0xbd721f94	-0.059112146
68	0xbc2018cd	-0.009771538
69	0xbcfa5b4e	-0.030561116
70	0xbd97ff07	-0.074216895
71	0xbeabdc83	-0.33566675
72	0xbda67039	-0.081268735
73	0xbd33688a	-0.043800868
74	0xbd6437eb	-0.05571739
75	0xbe23075d	-0.15920778
76	0xbd1328e2	-0.03592766
77	0x3c57daeb	0.013174753
78	0xbed8e5a5	-0.42362705
79	0x3c9b3c11	0.01894954
80	0xbd5d577b	-0.054038506
81	0xbd86394c	-0.06553897
82	0x3d22be97	0.039732542
83	0xbcad6960	-0.02116841
84	0xbd80a329	-0.0628112
85	0xbccedbd8	-0.025251314
86	0x3d5c817c	0.053834423
87	0xbd4e0dc3	-0.050306093
88	0x3e2497ec	0.16073579
89	0x3c993856	0.01870362
90	0xbcd5e481	-0.026109936
91	0x3db6aecd	0.08920059
92	0x3e00368c	0.12520808
93	0xbc9abc23	-0.018888539
94	0x3c2de063	0.01061258
95	0xbd3c6fd4	-0.046005085
96	0x3be68f92	0.007036158
97	0x3be3f7b0	0.006957017
98	0x3d129d7b	0.035794716
99	0xbc7fb719	-0.015607619
100	0x3e2e3b51	0.17014815
101	0x3e2c74e2	0.16841462
102	0xbdc5e05d	-0.096619345
103	0xbd6115fb	-0.054952603
104	0xbe01bd84	-0.1266995
105	0x3df3a1b1	0.118960746
106	0x3b976e8c	0.0046213325
107	0x3e18c5a8	0.1491915
108	0xbe2c91e7	-0.16852532
109	0xbcc429dd	-0.023945743
110	0xbdcd676a	-0.1002949
111	0xbd391c8b	-0.045193236
112	0x3db226b2	0.08698787
113	0xbcc0fab3	-0.023557043
114	0x3d1d8c5f	0.038463946
115	0xbe045ebe	-0.12926766
116	0xbe54a0e6	-0.20764503
117	0xbcaff51b	-0.02147918
118	0xbc572c22	-0.013133081
119	0xbe05dd56	-0.13072714
120	0x3de40ea1	0.11135603
121	0x3cfa9bb0	0.030591816
122	0x3de80768	0.11329538
123	0xbdb7f938	-0.089830816
124	0x3d39f959	0.045403812
125	0xbd9cb9bc	-0.076526135
126	0x3d848b35	0.06471864
127	0x3d009d05	0.031399745
128	0x3ca13f32	0.019683454
129	0xbbf50402	-0.0074772844
130	0xbc3acdd8	-0.011401616
131	0xbc5e15d1	-0.013555006
132	0xbc57c0b0	-0.013168499
133	0xbdff2f47	-0.12460189
134	0x3d36984a	0.044578828
135	0x3cf49b3c	0.029859178
136	0x3d4dc025	0.05023207
137	0x3cd89cf7	0.026442034
138	0x3d9d39c0	0.076770306
139	0xbe324597	-0.17409359
140	0x3d34920f	0.044084605
141	0x3cc469ba	0.023976196
142	0xbd8b617d	-0.06805704
143	0xbe0c26d6	-0.1368669
144	0xbe27a596	-0.1637176
145	0x3dc6837a	0.09693046
146	0xbdf4f4b7	-0.11960738
147	0xbda1d2ee	-0.0790156
148	0x3d2a2037	0.04153463
149	0xbc869d8b	-0.016432544
150	0xbd4f056b	-0.050542276
151	0xbd803d00	-0.06261635
152	0xbe2e48cb	-0.17019956
153	0x3d089fe5	0.033355612
154	0x3d86b56a	0.06577571
155	0xbd9f0c3a	-0.07766004
156	0xbdb90884	-0.09034827
157	0x3e267a65	0.16257627
158	0x3de73155	0.11288706
159	0x3dc005f3	0.09376135
160	0x3e1a23a5	0.1505266
161	0x3d7b1803	0.061302196
162	0xbcfdcc3b	-0.030981174
163	0x3cd9cc10	0.026586562
164	0x3d1b5668	0.0379242
165	0x3ded73c3	0.115943454
166	0xbd9496f7	-0.07255357
167	0x3ce030cb	0.027367016
168	0xbd8a043a	-0.067390874
169	0xbbb359ad	-0.0054733367
170	0xbcb9d40b	-0.022684118
171	0x3d716be8	0.058940798
172	0xbd593ba2	-0.053035386
173	0xbd0f1956	-0.03493627
174	0x3d261413	0.040546488
175	0x3d0963f1	0.033542577
176	0x3e11795f	0.14206456
177	0xbdfa4192	-0.12219538
178	0xbc997044	-0.01873029
179	0xbd15acac	-0.036541626
180	0x3cd6f7ac	0.026241146
181	0xbd9618bc	-0.073289365
182	0x3c708802	0.014680864
183	0xbe0c847d	-0.13722415
184	0xbdfb874e	-0.12281667
185	0xbc350385	-0.011048202
186	0xbdb0c785	-0.08631805
187	0xbd0d75b8	-0.034536093
188	0xbdcbac0a	-0.09944923
189	0x3cb3b9d9	0.021939205
190	0x3e1c10bb	0.15240757
191	0x3cd6a2a1	0.026200594
192	0xbc928b15	-0.017888585
193	0x3db9a215	0.09064118
194	0xbe0f0eab	-0.13970439
195	0x3b8604ec	0.004089942
196	0x3dfdec45	0.123985805
197	0x3ca0414b	0.019562384
198	0x3ca785b6	0.0204495
199	0x3ba7f9e2	0.005126224
200	0xbb234bef	-0.0024917086
201	0x3d58c7c5	0.05292489
202	0x3c5e7ac0	0.013579071
203	0x3d08daa2	0.03341163
204	0x3d1bc930	0.038033664
205	0x3c08fb09	0.008360633
206	0x3d619de3	0.055082213
207	0xbb1137e2	-0.0022158553
208	0x3b85db58	0.0040849857
209	0xbdda8c89	-0.10671336
210	0x3dc614e2	0.09671952
211	0xbd12c238	-0.035829753
212	0xbd846d02	-0.06466104
213	0x3da672d6	0.08127372
214	0xbe7696c2	-0.24080947
215	0xbdc1e198	-0.09466857
216	0xbd8eb21d	-0.06967566
217	0x3d234ad5	0.039866287
218	0x3dbc43cb	0.09192618
219	0x3d63d0f0	0.05561918
220	0x3d553720	0.052054524
221	0xbd8e3541	-0.06943751
222	0x3cc61b6b	0.024182996
223	0x3d205e29	0.039152298
224	0xbe1cca51	-0.15311553
225	0x3be41132	0.0069600577
226	0xbd8fb89d	-0.07017634
227	0x3d911cbb	0.07085558
228	0xbe17eeec	-0.14837235
229	0x3ab65fce	0.001391405
230	0xbe32598d	-0.17416973
231	0x3cf215bb	0.029551378
232	0x3da2f2a3	0.079564355
233	0xbc9fa454	-0.019487537
234	0x3d9fd1d6	0.07803695
235	0x3e144468	0.1447922
236	0xbe08a73a	-0.13345042
237	0xbd4c535c	-0.049884185
238	0x39088df0	0.00013022847
239	0xbd8feb08	-0.070272505
240	0xbdb1d1df	-0.08682608
241	0xbcd15317	-0.025552316
242	0x3cc07f34	0.023498155
243	0xbd17eded	-0.037092138
244	0xbd4a36b8	-0.04936859
245	0xbca9cefb	-0.020728579
246	0xbde7348b	-0.11289319
247	0xbd23f9ea	-0.04003326
248	0xbd76b51d	-0.060231317
249	0x3b688d9f	0.0035484803
250	0x3e3a366d	0.18184824
251	0x3bed04e8	0.007233251
252	0xbdceeee6	-0.1010416
253	0x3e26abf0	0.16276526
254	0xbcd2a956	-0.025715511
255	0xbd9b3c37	-0.075798444
