tasks/reacher/solutions/ddpg/solution_checkpoint/per_td3_critic_checkpoint.pth (torch, 343387 bytes, 10 tensors)

q_network_a.state_featurizer.mlp_layers.0.weight f4 [256, 33]
00000000: e0a6 a1bd afb1 81be e9f4 1d3e dbfe 1cbf
00000010: 5ce6 aabd 87ca 45be b082 a8be e864 973c
00000020: 257f 6b3d bc8e 7cbd 7ed5 16bd e129 67bd
00000030: 315c ef3d ef72 4e3d 359e 523e 5ce2 74bd
00000040: b83d 45be 3491 a03c 7cfd b93c 132b d7bd
00000050: 6a7c 48bb 3436 b63d ce4e 67bd 0970 503c
00000060: 12cd 923c 697b d63c 0838 ef3c 2a43 83be
00000070: decf 883d d9a3 1dbe a964 573e 6d2b 78bd
00000080: dd48 04be 78b1 683e 7535 de3d 83a4 c03c
00000090: 0a8e 053f 7aab 8dbe ee1c 69bc 113c 4fbe
000000a0: a1e6 f9bc d326 18bd 06c2 2ebc c16c 043d
000000b0: 7062 c63c 8c38 e03b e8a7 59be c5ca 24bd
000000c0: 0836 01bd 312e 10be f4c7 803b bf88 7ebe
000000d0: 8919 e73a cd94 88bb 4823 223c 7809 43bd
000000e0: 69ff 90bc ba4c 80bd 7295 f33c b23d 263e
000000f0: 8a98 9d3d 84f3 92bc b69d e3bc 2dd4 913c
00000100: fbd4 8b3c c3d5 3fbf 80c0 2e3e e2be 37be
00000110: b9e9 8c3c 40d2 e7bd 5462 dc3e a4ad 7d3e
00000120: cfe9 983e f5c3 93bd 52b2 373e 4501 0c3d
00000130: 796e 69bd b902 7b3b 81c6 b83d 5683 19be
00000140: 5cdf 473e 9478 7e3d a977 83bd 7f49 3ebd
00000150: eb1c b63c 905a e63d 9964 263d e5bb 763d
00000160: d875 d93c 7766 2cbe b7fc 073e 8144 dd3d
00000170: 0a0d 6d3a 54f3 a83e 45b8 5a3d 945f b8bd
00000180: c510 d7bd 4e0b 153e 6b60 85bd 94bc db3c
00000190: 2025 033c 226c 9abd 86ed 82be c1fe 06bc
000001a0: b2e0 523e 6a4a a2bd 59d7 9a3c 08c5 d33d
000001b0: 1978 5dbe 3056 3e3c ac77 9fbd 15e9 f5bc
000001c0: 7237 94bd f939 62be 4a30 ff3d 296e 4cbc
000001d0: 773c 833d 3c17 143e c3b1 8e3d 47d4 51bc
000001e0: 84cf 8c3d 3ce3 953c ef6e edbc e886 c1bd
000001f0: c40f 29bd c3f4 0dbc 22ce 06bd 1f7a fcbd
00000200: bcb8 cc3c 68ae 5ebd 2918 2c3e 676c 063f
00000210: 4bce d3bd 660c eb3c c980 20be 5dc8 a8bd
00000220: 69bd 1dbe 0309 653e d7dd 03be 326f 7dbd
00000230: 642c f6bd d2a0 4fbd 64ac 9c3b 8981 82bd
00000240: 9de1 acbd e64f 7fbd 8fc8 8dbd fc2e a7bd
00000250: c94b f5bd 2938 70bd 9aec c1bd a04d 3f3e
00000260: 4834 263c af89 4d3d 80ba 64bd e106 d9bd
00000270: 1f19 063e 6851 27be 93bc 343e fbb8 a33d
00000280: afe0 d23d 4d96 1ebe d4da 79be f241 253e
00000290: 792c b13d 0c33 663e 00b5 0cbe 0501 b03d
000002a0: ab32 233e 6986 26be 9f3b a8be e844 653e
000002b0: 1001 3abe f06c b83c 59c7 153e f2bc 933c
000002c0: 8fb7 09ba ebb6 02bc 2a7b 91bd eefd dc3d
000002d0: b50c 1a3e 7931 74be 0557 553d a99e 23bc
000002e0: 7056 ff3d e5c6 8b3d 927a 563c 3465 c7bd
000002f0: 5fbb dbbd 980c 0b3d b4d8 1bbb 4d04 c7bc
00000300: 3a2f 2b3e 5473 21be ef45 113e 0ce8 ec3a
00000310: 6039 1ebe e52d 003f d113 273d f396 983d
00000320: 3911 713b 81e5 8cbd af83 263c 309a 88be
00000330: b2bc 0a3e 319a dabc e3bb cdbd 3ba6 8abe
00000340: 97ca 42bc f961 3d3d ec75 10bc b5ad 2fbe
00000350: fb8d f0bd 9574 63bc 744a 7e3d a53c 93be
00000360: 94e2 0c3e 63cf 91bc 27f2 35bd de85 40be
00000370: d350 f4bc 8d04 1a3c 5349 b1bd 818e 103d
00000380: 6cb1 fabc 71ec 893e 3c29 3d3e ed16 093d
00000390: 0675 64be 6192 2fbe c6b5 213e e560 023e
000003a0: 2d9f 7d3c b5bb ccbd 1c06 e1be af41 c63e
000003b0: d194 4bbe 871e ff3d a7cf cdbc bcd6 833e
000003c0: e11c 393b 8988 973d 2253 0dbd 0803 52bd
000003d0: 08f1 943c ae66 dfbc c339 033e 545c 34bd
000003e0: ae74 1e3d ed12 abbd f256 57be 4b14 d6bc
000003f0: 2717 373c c699 47bd 7cc8 ee3c b541 0f3d
-0.07893157 -0.25330874 0.15425457 -0.6132638 -0.08344719 -0.1931554 -0.32912207 0.018480733
0.0574943 -0.06165956 -0.036824696 -0.056436423 0.11687506 0.050402578 0.20568164 -0.059786186
-0.19261825 0.019600488 0.022703879 -0.10506263 -0.0030591735 0.08897057 -0.05647164 0.012722024
0.01792005 0.026181893 0.029201522 -0.2563718 0.066802725 -0.15394534 0.21034493 -0.06058829
-0.1291842 0.22723949 0.1085004 0.023515945 0.5216986 -0.2766989 -0.014228089 -0.20237757
-0.03050548 -0.0371464 -0.010666376 0.03233028 0.02421686 0.0068426784 -0.21255457 -0.04023244
-0.03154567 -0.1408012 0.0039300863 -0.24856852 0.0017631511 -0.004168129 0.009896107 -0.047616452
-0.017699914 -0.062646344 0.029734347 0.16234472 0.0769511 -0.017938383 -0.027785163 0.017801369
0.01706933 -0.7493555 0.1706562 -0.1794391 0.017201291 -0.11319399 0.43043768 0.2477327
0.29865882 -0.0721511 0.17939118 0.0341809 -0.05699012 0.0038301183 0.090222366 -0.14991507
0.19518799 0.06212671 -0.06419308 -0.04645681 0.022230586 0.11247742 0.04062328 0.060237784
0.02654545 -0.16835962 0.13279997 0.10804082 0.00090427755 0.32998145 0.05339839 -0.09002605
-0.105012454 0.14555094 -0.06512531 0.02682332 0.008004457 -0.07540156 -0.2557184 -0.008239449
0.20593527 -0.079243496 0.018901514 0.10340315 -0.21627845 0.011617228 -0.077864975 -0.030018369
-0.07237138 -0.22092427 0.12460382 -0.012477436 0.06408017 0.14461988 0.06967499 -0.0128069585
0.06875518 0.01829683 -0.028983561 -0.094495595 -0.0412748 -0.008664313 -0.032911427 -0.1232798
0.024990432 -0.054365546 0.16806091 0.5250916 -0.10342082 0.028692435 -0.15674128 -0.08241341
-0.15404285 0.22366719 -0.12877594 -0.061873622 -0.120201856 -0.05069048 0.0047812928 -0.06372363
-0.0844147 -0.062332056 -0.06923019 -0.081632584 -0.119773455 -0.05864731 -0.09468956 0.18681955
0.010144301 0.050180133 -0.055841923 -0.10597015 0.1309552 -0.16339648 0.1765006 0.079942666
0.10296761 -0.15487023 -0.24399883 0.16138437 0.086510606 0.2248041 -0.13740921 0.085939445
0.15937297 -0.16262211 -0.32857987 0.22389567 -0.18164468 0.022512883 0.14626826 0.018034432
-0.00052534876 -0.007978181 -0.0710357 0.10790621 0.1504391 -0.23846997 0.05208494 -0.009986558
0.124676585 0.068250455 0.0130907465 -0.097361 -0.107290976 0.033947557 -0.0023780288 -0.024294043
0.16717234 -0.1576665 0.14186834 0.0018074526 -0.15451574 0.5007003 0.040790383 0.07450666
0.0036783947 -0.06879712 0.010163232 -0.26680136 0.13548544 -0.026684852 -0.10045602 -0.2707995
-0.0118891215 0.046236012 -0.008817177 -0.17156108 -0.117458306 -0.013882776 0.062082723 -0.28757206
0.13758308 -0.017799085 -0.044420388 -0.18801066 -0.029823696 0.009400499 -0.086565636 0.035292152
-0.03060218 0.26938203 0.18472761 0.03346913 -0.22310266 -0.17145683 0.15791997 0.12732275
0.015479845 -0.0999674 -0.43949974 0.38721988 -0.19880988 0.124569945 -0.02512343 0.25749767
0.0028245973 0.07399089 -0.03450311 -0.051272422 0.018181339 -0.027270641 0.12815003 -0.044033363
0.038685493 -0.08353219 -0.21029261 -0.026132723 0.011174954 -0.048730634 0.029148333 0.034974772

q_network_a.state_featurizer.mlp_layers.0.bias f4 [256]
00000000: 7e39 053e 833e a1ba 9db6 e43b 275b 14be
00000010: 3417 873d a324 043e 635a c9bd 4452 3abe
00000020: 6bf5 f2bc d381 a1be 3967 963d a68d 423d
00000030: adb1 253d 2b8e fd3d 7a3d 3e3e 6b24 0dbd
00000040: a8d7 493e a2f9 c43d 6f9d 963d 476a 1cbc
00000050: f8d2 b03d b2b2 4cbe b21d d0bd d572 d93c
00000060: 12ba 003d a59e 1b3e c352 313e 0399 f3bd
00000070: 9832 ccbc e1d1 513e 5253 74bd 4dce d3bc
00000080: c102 e63b a948 58be 193a 973d 37e9 a8bd
00000090: e96e 8cbd 79b5 133d 3b2b b63e 67a6 0f3e
000000a0: c518 eb3d b362 a03c b982 c03d 1d2d 8ebd
000000b0: 6c92 443e 0719 cbbd fa6d a83d 920d eabd
000000c0: 262e 8e3d 25a6 a23d 17c5 b13d 5496 ff3c
000000d0: ca8a ef3d 7409 cabd 7fa5 ddbb 2092 64be
000000e0: 30a8 023d 80bf 0a3d 75a1 bfbd b25d 47be
000000f0: 43a5 18be 1508 083e 4ddd 3b3d 2c28 3dbe
00000100: 62bb 06be e64e 2b3e 28ba 93bd ba24 10bd
00000110: ac29 4d3d c9cf 21be cefc 3f3e d667 e1bc
00000120: eeaa 7b3e ebbe e83d c8d3 3b3e ba42 19be
00000130: c43b 5cbc c875 793e d458 623d 6557 bebc
00000140: 277e e2bc a85e 613d 1163 1c3e 7978 cebc
00000150: 9817 3cbe e23e e73d 8532 b13d 430f 57bd
00000160: 64f0 f13d 5173 3c3e f88c ca3c 96e6 473e
00000170: 8fea 64be bf38 91be 8e74 393d ff6d 8cbd
00000180: ecca c23d 1fd8 81be f1b2 a1bd cc09 2fbb
00000190: 413d 90bd d6fd a93d 9474 a4bd a546 453e
000001a0: e88b 10bd 0223 393e 3949 84bd a9cf 8c3d
000001b0: 89a1 cfbd fff8 f43d c4bb 5bbd ab25 abbd
000001c0: 2196 f23d 51d7 ad3d 036f 34bc 8c51 283e
000001d0: 32e3 fd39 a3dd 373b 9729 17bc 975a cb3d
000001e0: e17e 0fbe e173 25be 9718 ba3d 35cb 1f3d
000001f0: cbb2 8ebd 0ec9 11bd 5f0c bf3d d8fb 67bd
00000200: 6ee1 863d 824a 28bd da7d 623e 6026 32be
00000210: 5982 03be 9ce4 e63d 3526 8cbc d7fe 973c
00000220: a6f0 aebd c967 7c3e f63b 64be 929a b13c
00000230: 76c4 a23c 8ea8 b23d 66f8 32bd 8d10 3dbd
00000240: efe9 3e3e bef1 183e 3f2e 083e 6984 36bc
00000250: f919 253d 0e78 b4bd e7cb 7b3d 43c0 b23d
00000260: f1ee 06be 1b88 0fbe 8c72 e1bd 7e64 06be
00000270: a355 823d 1782 c3bd 2519 dabd f3fe 233e
00000280: f1f9 41be 62f0 1fbe ba38 b53d ca32 91bc
00000290: fdb8 ae3c 5a36 bb3c 2529 603d 9f19 353d
000002a0: fb45 1abe e45c 8c3e 6710 123e 339b 9abd
000002b0: ea2b 543e 34f1 94ba 687b 31be a453 56bd
000002c0: fb07 fbbd 928d a13b efc6 86be 7eda 5c3e
000002d0: fa35 05be 5bf7 07be 0736 acbd 111d 643e
000002e0: 5d5c e43d 05b0 00be 798d 973d d9ff febd
000002f0: d066 84bd 4690 12bb a604 a8bd 0f38 4abc
00000300: 5844 613d a633 44be 1de6 e3bd 4bd2 4bbd
00000310: 360b a53d d890 353e 7333 11be 27ca 3ebe
00000320: ea39 aebc 8258 ba3c 90d6 5abb 2da7 28be
00000330: 5e0a 0abe 954e abbd 45af bc3d ea94 57bd
00000340: 8240 693d 5026 20be bd43 623c 05f8 5f3e
00000350: a077 43bd 1297 a1bd 03ff 293e 0b37 54bd
00000360: 1f2a 95bd c717 d5bd e715 22be 6801 4fbd
00000370: dad1 92bd f11e 073e 80f1 61bd aabf 893e
00000380: 6f5b 193d 8509 583d 6826 cdbd 11d0 20bd
00000390: 3293 b8bc 7bd1 8a3d 9253 32be aff6 4b3d
000003a0: 9840 aa3d 6d01 19bc 8c90 083e 32b2 593e
000003b0: 556b 0d3d 76bb d73d 06e8 153e 13c4 31be
000003c0: 51a7 f6bd 0db4 7abd bf01 c4bc 4d85 3dbe
000003d0: 0ef2 12be 8c67 4bbd 5ff9 e93d b1c7 b1bd
000003e0: 0e78 18be b805 583d c13e 2a3e 086c 9ebd
000003f0: e15b 87bd aa80 2f3d 4ade 0abe 331e 56bc
0.13010213 -0.0012301955 0.006979777 -0.14487897 0.065962225 0.12904601 -0.09831693 -0.18195444
-0.02965804 -0.3154436 0.07343907 0.047498368 0.040452648 0.12380632 0.18578139 -0.03445856
0.19711173 0.09617926 0.07354247 -0.009546823 0.08633989 -0.19990042 -0.10161914 0.026544014
0.03142745 0.15197237 0.17316727 -0.11894419 -0.024926469 0.20490219 -0.059649773 -0.025855208
0.0070193713 -0.21121468 0.07384128 -0.08247607 -0.06857092 0.036061738 0.35579857 0.14028321
0.11479334 0.019578313 0.09399933 -0.069421984 0.1919648 -0.09916883 0.08224101 -0.114283696
0.06942396 0.07941846 0.0868017 0.031199612 0.11696394 -0.09865084 -0.0067641134 -0.22321367
0.031898677 0.033874035 -0.09356967 -0.19469336 -0.14906792 0.13284333 0.045865346 -0.18472356
-0.13157418 0.16729316 -0.07213241 -0.035191275 0.05008857 -0.1580192 0.18748781 -0.027515333
0.24576923 0.1136454 0.18342507 -0.1496686 -0.013441984 0.24361336 0.055260494 -0.023235032
-0.027648045 0.05502191 0.15272166 -0.02520393 -0.18368375 0.11291291 0.08652214 -0.05250479
0.11813429 0.18403365 0.024725422 0.19521555 -0.22355102 -0.28363606 0.04527717 -0.068569176
0.095113605 -0.253602 -0.078954585 -0.002670872 -0.07042933 0.083003685 -0.08030048 0.1926523
-0.035289675 0.1807976 -0.064592786 0.068755455 -0.10138232 0.11961555 -0.053645864 -0.08356794
0.11845041 0.08488334 -0.011012795 0.16437358 0.00048425194 0.002805569 -0.009226224 0.09929388
-0.14013244 -0.16157486 0.090867214 0.039012153 -0.06967696 -0.03559213 0.093285315 -0.05663666
0.06585966 -0.04108668 0.22118321 -0.17397451 -0.12842692 0.112740725 -0.017108062 0.018554134
-0.08541994 0.24648966 -0.22288498 0.02168015 0.01986907 0.087235555 -0.043693922 -0.046158362
0.18643926 0.14935967 0.13298891 -0.0111399675 0.040307973 -0.08811961 0.061473753 0.08728077
-0.13177086 -0.14016764 -0.11008176 -0.13124272 0.0636399 -0.09546297 -0.10649327 0.16015224
-0.18943001 -0.15619043 0.0884871 -0.017724413 0.021328444 0.022853065 0.05472674 0.044213887
-0.15065758 0.2741462 0.1426407 -0.07549133 0.20719877 -0.0011363388 -0.17332232 -0.05232586
-0.122573815 0.0049302066 -0.2632365 0.21567723 -0.13008872 -0.13277952 -0.084087424 0.22276713
0.111504294 -0.12567146 0.07400031 -0.12451143 -0.064649224 -0.0022363826 -0.082040116 -0.012342467
0.05499682 -0.19160327 -0.11127875 -0.049761098 0.08058779 0.17731035 -0.14179783 -0.18631802
-0.02126785 0.022747282 -0.003339205 -0.16470022 -0.13480517 -0.08364598 0.092131175 -0.05263225
0.056946285 -0.15639615 0.013810095 0.21871956 -0.047721505 -0.078901425 0.16601186 -0.051810306
-0.072834246 -0.10404926 -0.15828668 -0.05053845 -0.07168932 0.13195397 -0.055161953 0.2690404
0.037440713 0.052743454 -0.10017091 -0.039260928 -0.022531126 0.067782365 -0.17414692 0.049795803
0.083131015 -0.009338719 0.1333639 0.21259382 0.034526188 0.10533802 0.14639291 -0.17359953
-0.12043632 -0.061206866 -0.023926614 -0.18507881 -0.14350149 -0.049659297 0.11424517 -0.08680666
-0.14889547 0.05273983 0.16625501 -0.07735449 -0.066093214 0.042847313 -0.13561359 -0.0130687235

q_network_a.output_module.mlp_layers.0.weight f4 [128, 260]
00000000: a245 8ebd 6426 7d3d 6aaa cbbd 6ffb c7bd
00000010: e5bd ad3c 2155 2f3b 4fd9 89bd 0421 3f3b
00000020: 2d86 bfbd 079e 9ebd c025 a53d 34b2 7e3c
00000030: 294e a9bd a1fe 0d3d 374a 663d fa0f 3c3d
00000040: 3903 213c dd1e e83a ecb2 a7bc 6b85 22bc
00000050: e2f3 9a3d 6eee 10be d7c0 293e db5a 33bd
00000060: ebf0 1f3d 5648 58bc cef7 fcbc 9509 bebd
00000070: 0ae2 db3c 3892 19be 64b0 2b3c 18fc 17be
00000080: ad2f 50bc 85a6 703d 230c e2bd 88f9 003e
00000090: dc20 923d 715c 82bc 5bbd 8abd ad3e 85bb
000000a0: 569c 51bb 5b3d 81bc 22e8 503c e730 3d3d
000000b0: 0211 a23c f535 9a3c d0aa b33b 5dc4 813d
000000c0: 6f2d 55bc a8e8 233d b263 fa3d a7e2 0e3d
000000d0: 97ed 7b3c 5178 3d3d 0a58 c6bd 74b8 1cbd
000000e0: 2565 81bb 96af ddbc 5f84 dcbd 4b92 9c3d
000000f0: 1ab8 39bb 6e0e edbc 83e2 8bbd 5023 11bd
00000100: 3204 20bc 394b bebc 83ec bfb8 91d7 e3bc
00000110: 3a8e a2bc 88bd eebb 7967 0c3d 1bb6 47bd
00000120: f09c b9bd e4c7 0bbb f045 06be 091f 03bd
00000130: 2a5d 5dbd 1877 7abe 2f4b 00bd 799b 233d
00000140: 4993 b33d a122 14be e05e a83c e29d 363d
00000150: 856e c5bc b098 8bbd 5b7a 0abe d62c 37bd
00000160: 3c78 ccbd 7716 46bd f218 a0bb c17b cdbc
00000170: a8d8 83ba 5816 7cbd 568b 25bb 6943 1c3d
00000180: 98fc e3bd 2b7d c23c 1718 6f3d 28e7 33bd
00000190: 2340 f1bd 11b8 ac3d c68f a5bc d951 82bb
000001a0: 8942 483d 19a5 183d 6947 d83b 1acc e13c
000001b0: 752b ebbc fd50 1f3c 2fbf a43b b5c7 e53d
000001c0: 0fcb 4d3d aaa9 293d bc33 063d ebeb 863d
000001d0: 1465 8f3d a149 883d c328 27be 0d09 453d
000001e0: 7a50 a93c 54f8 96bd ef06 21bd 028a a83d
000001f0: 8a1c 4ebd 45d4 453d 207f 713d 3649 833b
00000200: 8b10 89bd 0854 313c fe92 cf3b 8999 e0bd
00000210: 223b 1abe 9c57 193d 54a2 d3bc a71d 05bd
00000220: 7329 74bc 2daa d33d 9459 533d 7a73 753d
00000230: b9f3 82bd 3d7e a5bd c46a 12bd 202b a83c
00000240: 8a7a a43b 62bb 513d 455a 143e ea40 19bd
00000250: 6685 f8bc e3ad 92bd 53d7 7d3d ade2 f93c
00000260: 7649 d6bd f0ff 613d 9f06 593c 1a91 5f3e
00000270: ed3f 75ba 20f3 e53c 4621 af3d bd41 623c
00000280: 5473 0cbe 4243 093d 60d3 cbbc d452 a53b
00000290: 44fe 3f3c 1e86 f1bd a0a3 c73c 022c 93bc
000002a0: b3b3 bc3c a725 b4bd 8cf2 2ebb 795a 8cbd
000002b0: 0d82 073d 79b2 20bd d925 0ebb 5645 9e3d
000002c0: e8b3 d13d 2ed7 313e e254 033d d2fa d33d
000002d0: f7a3 493d dbde b8bc 43ff 16bd 18a8 d13d
000002e0: ff0e a83c f25a 4cbd e93c 9f3d 2921 c8bd
000002f0: c97c 1a3d 1725 1e3e 0e6b 32bd 3f7b abbb
00000300: 8b25 bc3d 3cc2 ff3c b97c 0f3e 929c 753d
00000310: 2dea 68bc 2574 043c 4e57 723d 37d4 b1bd
00000320: 4188 ddbd ac02 94bd 5a86 3dbd 97ec 893d
00000330: 3d73 2fbd ffb7 013e 26b8 ac3c df67 14bd
00000340: f702 1fbd e7bf 88bd b04b 3e3d 581d c939
00000350: db2f 303d 09fa 2b3d 1cf6 4bbc 03c3 01be
00000360: 77ef 5a3d e935 c9bc 4fad 7f3c 1041 83bd
00000370: 441d e6bc 5ca6 a93d 5917 583d fb34 b23a
00000380: 2032 ad3c 024b 85bc 37d1 013d 2fab 04be
00000390: 9644 053c 22fa 1ebe 3d5b a0bc 8f29 9a3c
000003a0: 059b b13d 3240 30bc b6c4 e7bb 63be f3bb
000003b0: 56f2 a63d 1095 17bd eb23 453d bead 1a3d
000003c0: 82d3 fc3d b4c5 66bd e163 573d bb43 54bd
000003d0: 9b6c 9bbd b51a c93d 9c72 0dbd 5f39 df3c
000003e0: e3cc a13d dc38 23bd 9919 08be aeaf 323c
000003f0: ca49 ee3a 1cb9 9e3d 1e44 923c a193 81bd
-0.06946875 0.06180419 -0.09944613 -0.09764754 0.021208713 0.0026753622 -0.067309014 0.0029163966
-0.09351764 -0.07744985 0.08063841 0.015545417 -0.08266861 0.03466666 0.05622312 0.045913674
0.0098274285 0.0017709393 -0.020471059 -0.009919505 0.07566048 -0.14153454 0.16577469 -0.04378782
0.039048117 -0.01320084 -0.030879881 -0.092791714 0.026841182 -0.14997184 0.0104790665 -0.1484226
-0.012706679 0.058752555 -0.11037471 0.12595189 0.07135174 -0.01591322 -0.06774398 -0.0040663094
-0.0031984053 -0.015776327 0.012750657 0.046189215 0.0197835 0.018824557 0.005483009 0.063362814
-0.0130113205 0.0400168 0.122260466 0.03488412 0.01537647 0.04625732 -0.09684761 -0.038261846
-0.003948825 -0.027061265 -0.10767435 0.07645091 -0.0028338493 -0.028937545 -0.06830313 -0.035434067
-0.009766625 -0.023229228 -9.1516435e-05 -0.027812751 -0.01984321 -0.0072857775 0.034278367 -0.048757654
-0.090631366 -0.002132886 -0.13112617 -0.03201202 -0.054043926 -0.24459493 -0.0313217 0.039943192
0.08768327 -0.14466335 0.020553052 0.044584163 -0.024100551 -0.06816232 -0.13523237 -0.044720493
-0.099838704 -0.048361268 -0.004885786 -0.025083425 -0.0010059075 -0.061544746 -0.0025260053 0.038150225
-0.11132163 0.023741325 0.058372583 -0.04392162 -0.11779811 0.084335454 -0.020210158 -0.003977042
0.048891578 0.037266824 0.0066003096 0.027563144 -0.028707245 0.009723899 0.0050276737 0.11219732
0.05024248 0.04142157 0.03276418 0.065879665 0.07001701 0.066546686 -0.16324143 0.048104335
0.020668257 -0.073715836 -0.039313253 0.08229448 -0.050320186 0.04829814 0.058959126 0.00400653
-0.066926084 0.010823257 0.0063346615 -0.109667845 -0.1506162 0.037437066 -0.02583424 -0.03249898
-0.01490246 0.10335193 0.0515991 0.05992458 -0.06394143 -0.08080719 -0.03574635 0.020528376
0.0050194906 0.051204093 0.1448756 -0.037415422 -0.030337047 -0.071620725 0.061972927 0.030503595
-0.1046323 0.05517572 0.0132462075 0.21832696 -0.0009355534 0.028070033 0.08551268 0.013809619
-0.13715869 0.033511408 -0.024881065 0.0050452743 0.0117183365 -0.11793159 0.024370015 -0.01796532
0.023034906 -0.08796244 -0.0026694862 -0.06853194 0.03308301 -0.039232705 -0.002169004 0.077280685
0.102393925 0.17367241 0.032063372 0.103505746 0.049228635 -0.022567203 -0.03686453 0.102371395
0.020514963 -0.04989142 0.077752896 -0.0977195 0.03771666 0.15443836 -0.043559127 -0.005233198
0.09186848 0.031220548 0.14012422 0.05996377 -0.014215988 0.008084332 0.05916529 -0.08683055
-0.10817004 -0.07227072 -0.046270706 0.06734579 -0.04283451 0.12667845 0.021083903 -0.03623187
-0.038821187 -0.066772275 0.0464589 0.0003835957 0.04301439 0.0419865 -0.012448814 -0.12672047
0.053451028 -0.02456184 0.015605285 -0.06408894 -0.028090127 0.08283684 0.05275664 0.0013596112
0.021142066 -0.016271118 0.031693663 -0.12955926 0.008134028 -0.15525106 -0.019574756 0.018818645
0.08672146 -0.010757493 -0.0070730103 -0.0074384673 0.08151691 -0.03700739 0.048129957 0.03776335
0.123450294 -0.05634089 0.052585486 -0.051822405 -0.07589074 0.09819547 -0.03453313 0.027249036
0.07900407 -0.039849147 -0.13291015 0.010906143 0.001817995 0.077501506 0.017854746 -0.06326986

q_network_a.output_module.mlp_layers.0.bias f4 [128]
00000000: afff 19bd 68fb ee3d b4df 413d 48f0 b2bd
00000010: e70c 52bc 9d39 d63d f619 c1bc a327 c63b
00000020: 1f9c 4fbd 1a66 68bd 0387 1f3c 09a2 5a3d
00000030: e21c bc3d 789d 96bb 7620 dd3d 7e29 18bd
00000040: 2559 74bc da04 863d 054d aa3d ac3f fa3c
00000050: 24a9 04bc 2765 403d bd8d 693d af59 183d
00000060: b117 ad3d 93b9 7e3d 8f2d 0cbd 26c3 3b3d
00000070: eb27 0e3d 6b00 b33c 864b bb3d 9d57 f13d
00000080: c147 32bd 4c75 ba3c 2083 df3d ce81 e43d
00000090: 9ee7 793d 4455 7e3d 9f1a bbbb a7fc aa3d
000000a0: 6b8a 933d f139 7fbd cdcf ef3d d96f 203d
000000b0: 5d5c 2ebc 0666 0a3d f63f 5d3b 3a50 403c
000000c0: fecf dc3d b014 21bd 7513 333d c159 f23d
000000d0: a7c2 103b f553 523d 06f5 47bd 2da1 43bc
000000e0: 8e9e 003e 3083 bbb9 cb51 a03c 73b2 6c3d
000000f0: 6d8c fa3c 56de 863c fa9e 3c3d 3370 603c
00000100: 52c5 4bbc dd63 cd3d 063c 62bc 58e7 8e3c
00000110: ed75 b83b 7ebc 053e b5d2 19be c17b 4abd
00000120: f6ea bcbc 1c79 293e aab2 bebd 238f 4abd
00000130: fe43 8b3d 75d2 1e3d d22f 9bbd 16af eabd
00000140: 579b 8cbb 52ef bd3d cd5a 043d 9810 21bd
00000150: 8c3c 703d 6df0 bcbd 8e08 533d b22a afbd
00000160: 2d54 5b3d 58d5 a73c 6e3c 2abe 31b8 58bd
00000170: 3235 02be e911 9c3d 0b21 b5bc 9c3d 1ebc
00000180: 88ff 36bd d55e 7339 993d 8e3d 7afc 97bd
00000190: a451 8abd d0f6 d93d 61b7 593d 5682 90bd
000001a0: 10a0 ebbd 12a2 fcbd f2c8 19bd 150e 27bd
000001b0: 7b08 673d 3e12 9abb e5af 033d f6e7 97bd
000001c0: 9136 0f3d 241d 0bbe c70b fe3d 5d2b 46bc
000001d0: 8a02 163d 6328 aa3d 33f8 153e 0b0c 15be
000001e0: 4271 77bd 404d e93b 8c86 b63d 4e05 383d
000001f0: 571d 363d a60b d43d c35a 33bd 2fad ad3d
-0.037597355 0.11669046 0.04733248 -0.08737236 -0.012820459 0.104602076 -0.02357195 0.0060472055
-0.050685998 -0.056737997 0.009736779 0.053377185 0.091851965 -0.0045964085 0.10797207 -0.037148945
-0.014913832 0.06543894 0.083154716 0.03054794 -0.008096967 0.046971466 0.057019938 0.037194904
0.084517844 0.062188696 -0.034223136 0.045840405 0.034706037 0.021850785 0.09145264 0.11784289
-0.04352546 0.02276101 0.10913682 0.11157571 0.061011903 0.062093034 -0.0057099606 0.08348971
0.072041355 -0.062311117 0.11709557 0.039169166 -0.010642138 0.033788703 0.0033760048 0.0117378775
0.10781859 -0.03932637 0.043719728 0.118335254 0.0022088678 0.0513496 -0.048817657 -0.011940283
0.12560484 -0.00035765162 0.019570252 0.05778737 0.030584538 0.01646344 0.04605005 0.013698625
-0.012437182 0.10028813 -0.013808256 0.017444298 0.005629292 0.13060185 -0.15021785 -0.049434427
-0.023061257 0.16550106 -0.09311421 -0.049452912 0.06800078 0.038774926 -0.075774804 -0.11459176
-0.004290979 0.09274162 0.032313157 -0.039322466 0.058651492 -0.09225545 0.05152183 -0.08553065
0.053547073 0.020487472 -0.16624615 -0.052910034 -0.12715605 0.076206036 -0.022110483 -0.0096582435
-0.044677287 0.00023209614 0.069453426 -0.07421203 -0.06753853 0.10642779 0.0531534 -0.070561096
-0.11505139 -0.123356 -0.037545152 -0.040784914 0.056404572 -0.0047018817 0.032150168 -0.0741729
0.034964148 -0.13585335 0.1240459 -0.0120953 0.036623515 0.083084844 0.14645462 -0.14555375
-0.060410745 0.0071198046 0.089123815 0.044926934 0.044461574 0.10353784 -0.04378773 0.08480298

q_network_a.output_module.mlp_layers.2.weight f4 [1, 128]
00000000: f726 f2bd 3796 bc3d d46f 343e 429a 76be
00000010: 679d ad3e 8c67 c03d 5339 ae3e d70c 5c3e
00000020: c5f6 e1be acb8 9abe c5a1 c2be fd2f ebbe
00000030: 8d30 d03d baf6 5bbe eb47 bd3d fb99 0fbe
00000040: 8733 973e 5d4c ca3d e3a0 243e 6e6f 3f3e
00000050: e3a2 88be 3150 023e 952a 123e 66e5 71be
00000060: a620 de3d 8443 253e 5743 c13e 42ba 2e3e
00000070: ffe8 923e b347 9b3e 9368 c33d 482d 7d3d
00000080: af02 91be e616 ab3e 7705 0c3e 0fa8 043e
00000090: ea42 ab3e fe0b d53e bd0c fcbd d0e8 833e
000000a0: b655 4e3e f0fa 4bbe 49b1 ae3d f549 d83d
000000b0: ff52 f8bd 4969 133f 8040 aabe 0bd6 213e
000000c0: 7ab0 df3d bd67 38be 5153 133e 0a4b b33d
000000d0: 3e4b 27be 857d a83d 9a60 14be 9bf5 c03d
000000e0: 9025 c43d 6129 f53d 619e e7be d681 dc3d
000000f0: e63a dc3d 9a0f 0dbe 0dc7 c33e 15fb a2be
00000100: 0cf2 12be 3cab e73d addb 2fbe 1a25 f03e
00000110: 7e81 0c3e 311b cd3d 21c0 f1bd d682 46be
00000120: cc00 45be a084 b33d 8167 23be 07b2 1abe
00000130: f971 063e abda e33d 8301 f4bd 2d57 59be
00000140: db68 18be 0c08 ec3d 95dd dc3d 0c1d a13e
00000150: 8f67 2c3e 0785 1fbe 4a45 843e 79fa 99be
00000160: e448 ce3e be34 93be 7f52 07be 1a28 fdbd
00000170: b303 30be 8cfa 0f3e caeb 10be 33ad 4d3e
00000180: 8eeb 8dbe e1b9 0bbe aa71 fc3d 9839 cbbd
00000190: 76f4 753e 8c31 d53d 2cb5 803e 0537 1fbe
000001a0: 695f 20be 0755 b5bd 079b 7dbe ba47 bfbe
000001b0: d884 a2be 4f84 c7be 7d72 a8be f517 3dbe
000001c0: 1876 903d 9573 30be 1387 b73d 1af9 943e
000001d0: 1d95 9fbe a8f7 1d3e b884 a33d a216 8fbe
000001e0: ab99 8fbe 2246 0c3e 80ef bb3d 76d7 043e
000001f0: 3c94 903d 244f ce3d 4d4a 3fbe 31d4 aa3e
-0.11823838 0.09208339 0.17620784 -0.24082282 0.3390915 0.0939475 0.3402811 0.21489273
-0.44133583 -0.30219018 -0.38014045 -0.4593505 0.1016551 -0.21480837 0.09242233 -0.14023583
0.295315 0.098778464 0.16076998 0.18694851 -0.26686773 0.12725903 0.14274056 -0.23622665
0.10846071 0.16139036 0.3774669 0.17063239 0.28693387 0.3032814 0.0954143 0.06181076
-0.2832236 0.33415908 0.1367396 0.12954734 0.3344949 0.41610712 -0.12307117 0.2576356
0.20149884 -0.19919944 0.08529908 0.10560981 -0.12125205 0.5758253 -0.33252335 0.15804307
0.10922332 -0.18008323 0.14387251 0.08754547 -0.16337296 0.08227066 -0.14489976 0.094218455
0.09577477 0.11970783 -0.4523802 0.10766952 0.107534215 -0.13775483 0.382378 -0.31832185
-0.14350146 0.11311957 -0.17173643 0.46903306 0.13721272 0.10014952 -0.11804224 -0.19385847
-0.19238585 0.087655306 -0.15957452 -0.15106975 0.13129415 0.11125692 -0.11914351 -0.21224661
-0.14883749 0.11524972 0.10784451 0.31467474 0.1683638 -0.1557809 0.25834113 -0.30073908
0.40289986 -0.28751177 -0.13215064 -0.123611644 -0.17188911 0.1406042 -0.14152446 0.20085602
-0.27718776 -0.13645126 0.12326367 -0.099230945 0.24019036 0.10409841 0.25138223 -0.15548332
-0.15661396 -0.08854108 -0.2476617 -0.3735941 -0.31741977 -0.3896813 -0.32899848 -0.1846617
0.070537746 -0.17231591 0.0896131 0.290963 -0.31168452 0.15426505 0.079842985 -0.27946955
-0.28046927 0.13698629 0.091765404 0.12972817 0.070595235 0.100736886 -0.18680687 0.33365014

q_network_b.state_featurizer.mlp_layers.0.weight f4 [256, 33]
00000000: 84a8 95be c83f 0bbd c5bd 823d 5123 10bf
00000010: c1b3 e93e 9be0 78be b1db 2dbf 3716 373d
00000020: 0699 a3bc 458d a9bd b6b7 16bd 1f5f 66bc
00000030: a1e3 37bd 7413 7f3d 5abb e9bc 5b9f 453d
00000040: 246b c03c 22a4 f8bc 24da fdbd af27 3ebd
00000050: 324f b93a eb4f 0b3c 0483 1dbd 1b60 adbd
00000060: 2ffa 5f3c c82d 543d 0682 97bc 0aaf 953c
00000070: efb3 973d f6bf e33d 9318 0a3e cfac 02be
00000080: 87d1 3fbe d524 66be 66b1 893d 0de2 59bc
00000090: 8bf7 2a3e 4187 d2bd 1a0f d13d 3662 ce3e
000000a0: 009f 33be fd49 213d 745e c5bb afdb 813d
000000b0: 3925 5abd 1614 ecbd d3cf 063d 8142 3e3e
000000c0: 42fc 4abd d6ee a63e a70f 52be cc87 473e
000000d0: 061a b9bd 2aa8 4d3d fb7d 6dbd 097a 283c
000000e0: 6ed6 80be 2f75 9dbc d503 b4bc 90dd 97bd
000000f0: 1962 ed3d 1434 35be 2a7f 223c f599 223e
00000100: a6ee 1e3e 3f7f b23e fa5a b9bd 33dd 763d
00000110: d4f8 8b3e da85 b9bd 9632 3bbb 22dc 6f3e
00000120: 5991 66be f25f df3c 722f efbd d1ed bfbd
00000130: 6f00 623c 50db a0bb d4c1 443c b91e 353c
00000140: 5962 3c3d b23b 9ebe dda5 a1bc de95 413d
00000150: dd8f c73d 97cf 023c e96c 22bc 7cb7 cbbc
00000160: 196c 6f3b bc19 e2bc 5ebf 44bc 3400 93bd
00000170: 1c82 59bd f637 c3bd 17c5 583e 6df2 e43d
00000180: 0692 9f3d d0a5 abbd b61a 2e3f a607 a5bc
00000190: ca3f c83d 8928 543d 996c 3cbe c762 b4bd
000001a0: a9a6 75be bc46 573c b227 00bc 1553 373c
000001b0: eb9b 553e 8d81 4dbc 0181 133d f816 5ebd
000001c0: 232a 5c3e c60f 083b 1331 28be 72e2 2c3d
000001d0: 7e03 93bb e673 84bc c29f 083d b82a 703c
000001e0: 9445 6a3d 91d2 50bd ddf3 0c3e e5ab 6a3d
000001f0: d8d7 dd3a f1c9 0dbe b262 333d f64e fd3d
00000200: f5ee d23d f4c0 e23d c214 d1bd 5a1a 52bf
00000210: 5fcd 9fbd f58d 22be 4fc9 29be 7918 fdbe
00000220: 19a0 a53d e0ec 65be 94c8 703e e2fe f3bd
00000230: 72c2 4d3c b7f3 da3b ec95 90bd d316 2bbd
00000240: 4469 79bc 172f 0c3d d9f3 61bd 3fb6 22bc
00000250: 7afa 66bd b425 b53c 4577 6c3d 9cc8 b13c
00000260: d293 c9bd 3a74 ae3c 3c8f 29be 4941 153e
00000270: 9c54 adbd 7a9e debd f023 80bd 556b 02bd
00000280: 32aa 133e 1f4f 9f3d f5d6 88bd c62d a63d
00000290: 96a1 893e e43d 743e 3e86 8cbe e208 26bd
000002a0: af6f 3a3e 73f9 63be 6c6b 53be 58b9 1e3f
000002b0: 36d5 2a3d 35c9 c33c a4de f03d a9ce d3bd
000002c0: 696a bc3d 2879 8abc d7cb 23be cb19 463e
000002d0: 93e4 33be 46c3 e5bc 9160 813d 8561 1e3c
000002e0: 71fb 073e 9984 33bc 8408 46bc 3b08 c5bd
000002f0: c577 403d 9fa5 8d3d 3daf 5fbd e1a8 f73b
00000300: 77fc c7bd fbee 903d f6f7 bbbd ae51 613d
00000310: c21e 68bd bdd5 60be 1539 04bd 517b 91bb
00000320: 5cfb 463a 197d 46be 406c 0c3f 6356 aa3e
00000330: 56b0 f5bc 1cee 3d3e ec3d e13b ebc0 34be
00000340: a331 ccbc 3874 a5bd 89ae fa3d 7157 86be
00000350: 58cc 01be 1e6f 503d f486 99bd 949b d83b
00000360: 0541 c13d 3d28 703d d99f e33c f410 3ebd
00000370: fa6f 5fbc d191 f5bb e5c9 4abd edfc 06bd
00000380: ae8e e93d 0a18 9b3d 6c2f 1c3d ea5c 1b3d
00000390: 605c 3fbd 3fef dcbd af57 f3be 5fbf 0abd
000003a0: 7448 eebc 665b 52bd 8d48 acbd da35 5b3e
000003b0: 7282 2a3c 5916 dc3e a86a 9f3e 3fb8 4c3d
000003c0: 90da 83be cc76 f2bc 015b 79bc 1046 893d
000003d0: 22a6 12be 3788 dc3c 0d1a 61bd d118 08be
000003e0: 3309 8a3c d17d 88bd de9a 29bd 058c 48ba
000003f0: 7121 64bd ec4d 37bd ca2f 16be afb5 0c3d
-0.2923013 -0.033996373 0.06383852 -0.5630389 0.45644954 -0.2430443 -0.6791335 0.04469892
-0.019970428 -0.08278898 -0.036796294 -0.014060765 -0.04489482 0.06227441 -0.028531719 0.048247676
0.023488589 -0.030351702 -0.12395123 -0.046424564 0.0014137982 0.008502941 -0.038455024 -0.08465596
0.013670488 0.051801473 -0.018494617 0.018271942 0.074073665 0.11120598 0.13485937 -0.12761234
-0.18732272 -0.22474988 0.06723289 -0.013298524 0.16695993 -0.10279704 0.102079585 0.40309304
-0.17541122 0.0393772 -0.0060232226 0.063407294 -0.053258155 -0.115272686 0.03291304 0.18580057
-0.049556978 0.32604092 -0.20513783 0.19485396 -0.09038167 0.050209202 -0.057981472 0.010283002
-0.25163597 -0.019220917 -0.021974484 -0.074153066 0.11590976 -0.17695647 0.009918014 0.15879042
0.15520725 0.34862706 -0.090505555 0.060269546 0.27338278 -0.09058733 -0.0028564087 0.23423818
-0.22516383 0.02726743 -0.11678971 -0.09371532 0.013794049 -0.0049089566 0.012009103 0.011054688
0.04599223 -0.3090492 -0.01973241 0.047262065 0.097442366 0.007984064 -0.0099136615 -0.024867766
0.0036532937 -0.027600162 -0.012008516 -0.07177773 -0.053102598 -0.09532158 0.21168934 0.111790515
0.07791524 -0.083812356 0.6800951 -0.020145249 0.09777792 0.05179647 -0.18400802 -0.08807903
-0.23989357 0.013139423 -0.007821964 0.011189242 0.20860259 -0.012543094 0.0360117 -0.054221123
0.21500449 0.0020761355 -0.1642497 0.042208143 -0.0044865003 -0.016168546 0.033355482 0.014658622
0.05719526 -0.05098206 0.13764901 0.057292838 0.0016925288 -0.13846566 0.043795295 0.12368576
0.10299484 0.11071959 -0.10209037 -0.8207146 -0.07802843 -0.15874465 -0.165807 -0.49432734
0.08087177 -0.22453642 0.23514014 -0.119138494 0.012558566 0.006681885 -0.07059845 -0.041769814
-0.015222851 0.034224596 -0.055164192 -0.009931146 -0.056391217 0.022112705 0.05773093 0.021702103
-0.098426476 0.021295656 -0.16558546 0.14575686 -0.084634036 -0.10870071 -0.062568545 -0.03184064
0.14420393 0.07778763 -0.06681625 0.08114199 0.26881093 0.23851734 -0.2744617 -0.040535815
0.18206666 -0.22263126 -0.20646447 0.6200156 0.04170724 0.023899654 0.11761215 -0.10342152
0.091999836 -0.016903475 -0.15995727 0.19345777 -0.17567663 -0.028047215 0.06317247 0.009666805
0.13279511 -0.010956907 -0.012086991 -0.096207105 0.04698922 0.06916355 -0.05461048 0.0075579737
-0.09764951 0.07076832 -0.09178154 0.055009536 -0.056669958 -0.21956535 -0.032281 -0.0044397493
0.0007590556 -0.19383658 0.54852676 0.33269033 -0.02999131 0.18547863 0.0068738367 -0.17651717
-0.024926012 -0.080788076 0.12240321 -0.26238587 -0.12675607 0.05088722 -0.074964434 0.006610343
0.094362296 0.058632124 0.027786182 -0.046402887 -0.013637537 -0.0074941893 -0.049508948 -0.032956053
0.11404167 0.075729445 0.038131163 0.037930407 -0.046718955 -0.1078782 -0.47527835 -0.033873912
-0.029087283 -0.051356696 -0.084122755 0.21407261 0.010407077 0.429858 0.3113606 0.0499804
-0.25752687 -0.029597662 -0.015219451 0.067028165 -0.14321187 0.026920421 -0.054956485 -0.13290717
0.01685009 -0.066646226 -0.04140746 -0.0007650259 -0.055695955 -0.044752046 -0.14666668 0.034352954

q_network_b.state_featurizer.mlp_layers.0.bias f4 [256]
00000000: 527d 373d 02f6 cf3d 11b9 67bc 9077 c33d
00000010: 262e 823b bb62 01be ef55 253e 3a72 42be
00000020: e1f3 413e b197 52be 09d6 783e e769 613d
00000030: c71e f3bd 164d babd 7f54 a43d f2da e43d
00000040: f71a 803d afc4 233d 8c9a 00be 9cf1 57bd
00000050: fb96 a7bd 10ba 543e c944 5e3e 00a4 4dbd
00000060: 6df7 2e3e a907 03be feae 12be 4013 05be
00000070: 98d4 7c3d 31f7 363e d3d2 653e f4ca 1cbe
00000080: f27c 9e3d c882 d43d 619d 83bb 698c e4bd
00000090: eff3 a9bc 743a 103e b0ae 81bd 02cf 17be
000000a0: 6aaa 2a3e a668 07be 0592 80bd 0f29 233e
000000b0: 5e52 8abd e3c2 26be b042 db3d 2450 49bc
000000c0: 71c5 b3bd 70aa 5ebc 6941 cdbd 73f3 3a3d
000000d0: d9da 0abe 7505 50be 147b 4c3c 90e8 cd3d
000000e0: 4e75 143e d6d9 b63d 3ceb 5dbd cdd2 39bd
000000f0: 057c f33d 24b8 48be b246 2e3e 46cd 49bd
00000100: 633b 613e 4271 adbc 32d9 74bd 1213 f53d
00000110: 6204 28be fbc9 1bbe 0d05 b43d 6966 36bd
00000120: fc07 683d 932a 32be f076 30be f45f 63bd
00000130: 3bb7 0dbc a258 203e b7ad 613d 4ca0 4c3d
00000140: bae1 43bd 61ed 0b3e eec5 a6bd 4e5c bc3d
00000150: 979b b4bd f6ed 0bbe 8fe6 09bd e9fe 3c3d
00000160: 8ee7 0fbe a1dc 3d3e 0d55 863d af7a 1f3e
00000170: f6e9 603d 1870 31bd 8ec0 b8bc 515b dd3c
00000180: 2112 84bd 526e 85bd a460 02bd 0a92 ddbc
00000190: 83b1 11bd 9208 d13c 00f8 76bd 2059 1bbe
000001a0: 21a9 183e 3dd8 1abe e661 163c 5636 273e
000001b0: 7270 e23d 707e e33d f275 983d b112 873d
000001c0: b01d 6cbe 1792 773e 1332 94bd e7c9 3a3c
000001d0: a7d4 18be 1105 1f3e 1bf2 74bd cebb 24be
000001e0: a8aa 493e 70b0 5ebe b123 933d 17aa 8bbe
000001f0: 0ba9 113d cac2 5fbc 3102 6cbe d5d5 7b3d
00000200: 2d42 11bd b465 933d 5429 92bd 0cb0 aabd
00000210: a6ed b33d f7aa 74bd c81c 163e 263b 30be
00000220: a687 613e 6c68 0bbc f372 263e 3a06 b93d
00000230: a3db 323e d92c 03be d49c a33d d538 8cbd
00000240: f4bf 4ebe 8bb0 d63d 1653 14be b6b4 b3bd
00000250: b86f 8e3e 3211 663c 3bde 483d ac54 7dbd
00000260: acdc b43c caae 89bd 9bb8 a73d c04b a33d
00000270: ca3e d5bc b76e cebd 38cc d23d 8788 e93d
00000280: 325d 4f3d c8ea 76be 9c4a 08bd 5ef4 d93d
00000290: 3aa5 afbc 74be ffbc 38ed 0e3e bb85 8f3d
000002a0: e1d3 0a3b 178f 973d cd3c 38bd 721b 29be
000002b0: 073b 9e3c 0708 623e 831a 55bd 51d8 a23d
000002c0: 2e6c 0bbe 2d1e c73b 756d b03d dec0 c63d
000002d0: dcd2 59bc b2f7 e3bc 9ae7 d43c baef 483d
000002e0: e93c 08bd 3eca 7b3e b3ef 65bc bd7b 94be
000002f0: 0ece 9a3d fcbb c43d ae7a 98bc ccc0 30be
00000300: ce26 7a3e b726 c53d 18a6 ffbd 8595 713d
00000310: 0a31 90ba b431 013d 4ed2 01be 1bfb 8bbc
00000320: 70bc 203d 7e11 a43b d15e cebd fdfa 10be
00000330: 9995 52bb bb3e 3d3d 1003 c7bd 8a81 a43d
00000340: f335 233d 369e bd3d bebb 1ebe d671 1dbc
00000350: 86e1 d2bb e643 053e 8d57 b83d 2701 573d
00000360: d5bb e3bc d1c0 143e 0c46 0ebe 9e32 d73c
00000370: 6906 253b 5f0d a8bd ce7b 97bd e196 96bd
00000380: 78bf d43d 8c4e bbbd 500f bd3d 5c92 66bd
00000390: 7d72 d2bd 6555 903c e789 1cbe cf5f 463e
000003a0: dd45 b93d 930f 2b3d 34f6 bcbd c291 18be
000003b0: 92c6 e23d 51fd a03c 1c6f a0bd 39f6 9d3b
000003c0: 557a 513d 0da2 74be 253f aabd 118c 133e
000003d0: d3a4 03bd 8689 16be 5b0b acbd 8442 893d
000003e0: 552a 063e 51e7 25bd b950 79bd aff0 d8bd
000003f0: 23c8 5ebe a1c5 17be 0433 be3d ae06 2ebe
0.04479725 0.10154344 -0.014143244 0.09544289 0.0039727865 -0.12635319 0.16146062 -0.18988886
0.18940689 -0.20565678 0.24300398 0.055032637 -0.11871105 -0.09096734 0.08023929 0.11174573
0.06255143 0.039982494 -0.12558955 -0.05272065 -0.08183094 0.20774102 0.21705927 -0.05020523
0.17086573 -0.12795891 -0.14324567 -0.12995625 0.061726183 0.17867734 0.22443704 -0.15311795
0.07738675 0.10376507 -0.0040165638 -0.111595936 -0.0207462 0.14084798 -0.06332147 -0.14825061
0.1666657 -0.13223514 -0.06277851 0.15933631 -0.067539915 -0.16285281 0.10706079 -0.012287173
-0.08777893 -0.01359044 -0.100222416 0.045642328 -0.13560046 -0.20314582 0.012480516 0.100541234
0.14497873 0.08928268 -0.054179415 -0.04536705 0.11888889 -0.19601494 0.17019156 -0.04926803
0.2199531 -0.02117217 -0.059777446 0.11966528 -0.16407922 -0.15213768 0.08790026 -0.04453126
0.05664824 -0.17399053 -0.17232871 -0.05551143 -0.008649643 0.1565881 0.055097308 0.04995756
-0.04782269 0.13664772 -0.08143221 0.09197293 -0.08818739 -0.13664994 -0.033667143 0.04614154
-0.14053175 0.18541194 0.06559191 0.15574144 0.054910623 -0.04331979 -0.022552755 0.027021082
-0.0644877 -0.065151826 -0.031830445 -0.027047176 -0.03556968 0.025516782 -0.060295105 -0.15170717
0.14908268 -0.15121551 0.009178614 0.16329321 0.110566035 0.111081004 0.07444371 0.06595362
-0.230582 0.24176823 -0.072361134 0.011400676 -0.1492487 0.15529276 -0.059801202 -0.16087267
0.19694006 -0.21746993 0.07184542 -0.27278206 0.035561603 -0.013657281 -0.23047711 0.061483223
-0.0354635 0.07197133 -0.07136789 -0.083343595 0.08785562 -0.059733357 0.14659417 -0.17210063
0.22024402 -0.008508783 0.16254787 0.09034391 0.17466597 -0.12810077 0.07988897 -0.06846777
-0.20190412 0.10482892 -0.1448482 -0.08774702 0.2781961 0.014042186 0.04904006 -0.061848328
0.02207788 -0.067227915 0.081895076 0.079734325 -0.026030917 -0.10079711 0.10292858 0.11402994
0.050625987 -0.24113 -0.033274278 0.106423125 -0.02144109 -0.031218745 0.1395768 0.07007929
0.0021183419 0.07400339 -0.04497986 -0.16514376 0.019315256 0.22073375 -0.052027237 0.07951415
-0.13615486 0.0060765953 0.08614627 0.09704755 -0.013294902 -0.027828071 0.025989342 0.049056746
-0.033261213 0.24588868 -0.0140341995 -0.29000655 0.07558833 0.09606168 -0.018613186 -0.17261046
0.24428865 0.09626525 -0.12482852 0.058980484 -0.0011000943 0.03154154 -0.12677881 -0.01708751
0.039242208 0.005006968 -0.100766785 -0.14158244 -0.0032132624 0.046202403 -0.09717381 0.0803252
0.03984637 0.09258692 -0.15501305 -0.00960966 -0.006435576 0.13014182 0.09001074 0.052491333
-0.027799526 0.14526679 -0.13893908 0.026269253 0.0025180823 -0.08205675 -0.07396661 -0.073529966
0.10388082 -0.09145841 0.09231436 -0.056291923 -0.10275743 0.017618844 -0.1528698 0.19372486
0.090465285 0.0417629 -0.09226647 -0.14899352 0.110730305 0.01965204 -0.078336924 0.004820612
0.051142056 -0.23889942 -0.08312825 0.144089 -0.03213961 -0.14700899 -0.084006034 0.0670214
0.13102086 -0.040503804 -0.060868 -0.10592782 -0.21756034 -0.14821483 0.09287074 -0.16994736

q_network_b.output_module.mlp_layers.0.weight f4 [128, 260]
00000000: 8e32 d4bb 9b0b 393d 9e09 e6bd b6f1 27bc
00000010: aa4b 133e 39a6 c23d e6f3 a8bc fcab 67bd
00000020: efef 2dbd d6aa 12be 8d8e c93d 8fc5 643d
00000030: 31d1 30bd 9169 abbd 8b68 0b3d 2323 b8bd
00000040: a5a6 8fbd 1de6 a0bb a2bb 993d 2844 5a3d
00000050: a480 403a bbe7 e63c 52ce 1ebe 0141 8ebd
00000060: 8a14 bdbc 1983 793d 34d9 d3bd 770f 7b3d
00000070: c098 06be 7d5a ecbd bd18 fabd d470 0c3e
00000080: e3bc bf3b 8c98 31be 3f9c fcbb 0dcd 3f3d
00000090: 2734 dc3d a01a 853b e415 cd3b ffb1 be3c
000000a0: eab3 fe3d cda0 5e3c 14c1 48bd 578d 1b3c
000000b0: fec0 03bd 1d86 5bbd baa8 14be f139 433e
000000c0: ff10 1abe ebd9 43ba e218 f33c 60e5 023e
000000d0: 345c 0dbd 96db ae3d f51d 693c 9bf5 8cbc
000000e0: 0dc8 3bbe 8df3 2cbc ef96 e33c d89a 67bc
000000f0: fb72 583d f92e 1bbe 94ae 20be 963b 0c3c
00000100: e55f b4bd dfe5 9ebe 93fe 863d 2ddb 1f3e
00000110: a0c2 18be 83ab 49be 957c f8bd af19 f23d
00000120: d9a4 e8bd 1088 863d 2c2f 1e3d 8e0c 4cbd
00000130: d688 fabd d20b 6c3e c449 23be 2b2a 04bd
00000140: a86e 043d bce8 e03c d4f1 88bc 16f5 6bbd
00000150: 66c4 cbbd 9a41 aa3b 2f58 233d 82c1 7dbd
00000160: 5d04 e8bd 38a8 7e3d ae21 1ebb 4c04 e13c
00000170: 6e5e 993d 55af 2cbd 0be8 83bd 0511 d13c
00000180: ebb5 3b3d 9583 d93c 3923 82bc 48c1 353d
00000190: af72 29bd 08fd e4bd 7797 e7bc 1c6f a23b
000001a0: 6829 81bd 0b6a ebbc 7283 3a3d 281e 263d
000001b0: 5e77 77bc b705 9c3d 3a8e a0bb d639 edbd
000001c0: 48fa 833e fcea 363c 847f ed3c 5991 01bc
000001d0: f5c7 893d ae1d a1bd bbbe 04bd 3df6 00be
000001e0: 7c9d ee3c 5f3c d53c d778 43bd 1e48 5dbe
000001f0: 4b79 47bd 6e19 05be 8f8c 543d 7597 8cbc
00000200: 5422 3dbd 132e 85bd 30c5 823d 8a4f f33c
00000210: eba3 cf3c a5d3 f4be 1799 75bd afb3 a1bc
00000220: ada4 9a3d 9d77 b9bc 2c91 473d 3a70 2d3b
00000230: 9a10 afbc 901c f23c ea89 80bd 252b 0fbe
00000240: 9721 173e 00ac 4abe ef77 dfbc eaf9 a4bc
00000250: a131 043e 1aa4 cabd bb3b c83c 8488 edbd
00000260: 7a6a 0bbc 553b 5f3d a43d 6abd 4440 ffbd
00000270: a4ae a13c 614b 213e c369 c8bd 2757 333d
00000280: 6635 86bb f9c5 a03c 858c 803c 0a60 a53d
00000290: 5827 92bd b0eb 703d fd59 78bd b179 3bbc
000002a0: b87c 59bd 1b16 10bd 9cc1 3d3d 7423 89bc
000002b0: 8ce1 37bd 9698 23bc 25b5 66bd 302e 793c
000002c0: e3e2 cf3d 4b1b 5f3d c3c3 213d e047 b9bc
000002d0: 5a66 a0bd 76ae d4bb 7a92 bbbc 998e dc3d
000002e0: 8c84 c2bb 2425 c13c af09 73bd 3205 8b3d
000002f0: 5ff5 61be ff7d b4bd ceaa 8d3d cf20 bc3d
00000300: 581e 20bd d261 333d 3634 6b3c 6575 083e
00000310: 0949 bc3d 7190 b8bb 0499 4c3e 5e3b 9f3d
00000320: 6d6a 1c3d cfa1 d13d 5b68 fb3c 321c e7bc
00000330: 5ad4 1d3d 52f0 923a fc0b 0fbd ac5d 0bbd
00000340: d7e5 cebc 1dba 0a3d 6406 ab3d 014b 063e
00000350: 7705 6dbe 1b2a bfbd 2a1a 073c 3b67 963d
00000360: f2bd 11be 2cf7 f9bd d15c e23c 8bbd d3bc
00000370: ddf1 533d 79c0 d1bc e5e6 0fbd a4d0 e0bd
00000380: bf6a 9c3d a083 503d bbe1 703e e138 983d
00000390: 8777 3abd 6600 263e 58b6 9bbe 15b2 75bb
000003a0: 9df5 7a3d b130 37bb fac4 1b3d 665a e73c
000003b0: 7097 58bd d691 883d 8769 853b 35b4 85bc
000003c0: d75d a63c c676 91be 54eb 003e 59de e5bb
000003d0: ed08 ed3b e94f 3b3d dc24 d1bd 030b a9bd
000003e0: 6029 203d 54dc 4e3d 58ad e43d 83d2 bebc
000003f0: ee75 89bd 8a91 323d 7aa0 eebd 7a3a c1bc
-0.006475753 0.045177083 -0.11232303 -0.0102504995 0.14384332 0.09504361 -0.020624112 -0.0565605
-0.042465147 -0.14322981 0.098416425 0.05585247 -0.04316825 -0.083697446 0.034035247 -0.08991077
-0.07014207 -0.004910244 0.07506491 0.053287655 0.00073433877 0.02818667 -0.15508392 -0.06945992
-0.023081083 0.06091604 -0.103441626 0.061294045 -0.13144207 -0.11540697 -0.1221175 0.13714916
0.0058513745 -0.17343348 -0.0077090557 0.04682641 0.10752135 0.004062012 0.006258713 0.023278235
0.1243666 0.013588143 -0.04901226 0.009494147 -0.032166474 -0.053594697 -0.14517489 0.19065072
-0.15045546 -0.0007471132 0.029674951 0.12782812 -0.03451176 0.085379764 0.014228334 -0.017206958
-0.18338032 -0.010556114 0.027781932 -0.014136039 0.05284403 -0.15154637 -0.15691596 0.008559128
-0.08807353 -0.31034753 0.06591525 0.15610953 -0.14917994 -0.19694333 -0.12133137 0.11821305
-0.11359567 0.065689206 0.038619205 -0.04981666 -0.12233131 0.23051384 -0.15946108 -0.032266777
0.032332093 0.027454726 -0.016716875 -0.05760678 -0.099495694 0.0051958086 0.03987902 -0.06195212
-0.11328957 0.062172145 -0.0024128961 0.02746787 0.07488714 -0.042159397 -0.06440743 0.02552081
0.045827787 0.026552001 -0.015885936 0.04437378 -0.041369136 -0.111810744 -0.028270466 0.004957093
-0.06306726 -0.028737089 0.045535512 0.040556103 -0.015104143 0.076182775 -0.004899767 -0.11583297
0.25776887 0.011164423 0.028991468 -0.007908189 0.06727592 -0.07866989 -0.032408457 -0.12593932
0.029127829 0.026029764 -0.047722664 -0.21609542 -0.04869966 -0.12997982 0.05189186 -0.017162064
-0.046175316 -0.065029286 0.06385267 0.029701013 0.025346717 -0.47817722 -0.05996045 -0.019739
0.07550941 -0.022640044 0.04872243 0.0026464597 -0.02137022 0.029554635 -0.06276305 -0.13981302
0.14758907 -0.19792175 -0.027278868 -0.0201387 0.12909557 -0.09894581 0.024442544 -0.11598304
-0.008509273 0.054499943 -0.05718769 -0.124634296 0.019736595 0.15751411 -0.097857974 0.043784287
-0.004095721 0.01962565 0.015692005 0.080749586 -0.071364105 0.05881852 -0.060632695 -0.011442588
-0.053097457 -0.03517733 0.04632722 -0.016740538 -0.044892833 -0.00998511 -0.056325097 0.015208766
0.10150697 0.054469388 0.039493334 -0.02261728 -0.07832022 -0.006490524 -0.022896994 0.10769386
-0.005936211 0.02357728 -0.059335407 0.067881 -0.22066258 -0.08813094 0.06917344 0.09185945
-0.039091438 0.04379446 0.01435571 0.13326032 0.09193618 -0.005632453 0.19980246 0.07774995
0.038187433 0.10235941 0.030689409 -0.028211687 0.038532592 0.0011210537 -0.03492354 -0.03402488
-0.02525608 0.033868898 0.08350828 0.13114549 -0.23146616 -0.09334203 0.008245984 0.073439084
-0.14232615 -0.122053474 0.027632149 -0.025847217 0.05174433 -0.025604473 -0.035132308 -0.10977295
0.07637548 0.050906777 0.2352361 0.07432724 -0.045524146 0.1621109 -0.30412555 -0.0037490178
0.06126939 -0.0027952606 0.03802965 0.028241348 -0.052878797 0.06668441 0.0040714177 -0.016321281
0.020308418 -0.2841093 0.1258977 -0.0070150313 0.00723373 0.045730505 -0.102121085 -0.082540534
0.03910196 0.05050309 0.11165875 -0.02329374 -0.067119464 0.043595828 -0.11651702 -0.023587454

q_network_b.output_module.mlp_layers.0.bias f4 [128]
00000000: ed55 623d 2efe 913d f606 663d d4e1 b3bc
00000010: cd1f 98bd 27cc a03c 4487 873d ccb6 853d
00000020: 4623 713c 1fe4 533c 8485 bf3c b3bb ec3c
00000030: 1cc7 56bd 1153 d83c 6401 8bbc 82b3 e23d
00000040: d85b 8dbb cfd0 5f3c bbea 833d 4df5 5d3d
00000050: 20b0 a23d b3da 14be 0665 07bd 23e6 c4bc
00000060: 10f8 093e a251 5f3d 0179 63bc 1ec1 c63d
00000070: b61b 2e3c 065f 1d3c c0ae e43d 2740 98bc
00000080: 0c38 2bbc debe 8fbc d53e bc3d 4df1 003e
00000090: 5d92 e83d 8207 de3d b80e 75bd bb49 d43c
000000a0: 6fca 5d3d 5a5f a53d e5e5 eb3d 0f03 01bd
000000b0: 1069 93bb f758 c63d 6d43 bebd bf35 b13d
000000c0: a399 103d aa6c f43d 5a73 08bd f577 ab3a
000000d0: 8198 d33c d3f1 8b3d 1162 fbba d13a b8bd
000000e0: 7e29 8c3d 3d50 ca3d 6aef a7bc 23e5 ddbc
000000f0: 2d5e 653d 3fa2 7e3d 67c5 be3c 34c6 98bd
00000100: f0bb 5e3d d111 9d3d 41f0 853d cc8f d2bd
00000110: b95e cf3d 19c1 05bc bef8 6abc e67c 9bbd
00000120: 9e36 913d 943f f7bd 2f4e 3e3d 8f18 9f3d
00000130: 3adc fe3d 97d3 b2bd 4ac6 54bd ba86 813d
00000140: a797 a63c 1dcb a83d bc52 87bd cd47 123d
00000150: b91f d33d d8c2 4e3d 4d90 74bd e3bb 373c
00000160: ac01 103c b72b b7bc d1f3 143d dbbd 5c3d
00000170: 9525 783c 931f d73d 4982 fbbd 8e24 e63d
00000180: eb02 6cbc 5ee6 0f3e 6b16 a23c 2f4e bebd
00000190: b8cc 44bd 9b5f df3d 90d9 f33d 550e 133d
000001a0: 4e38 a63d fb6a 453d cca0 f3bc 600a d53c
000001b0: a601 0cbc 9d5b 35bd b630 98ba d49c 63bd
000001c0: 7b73 89bc b4fd fd3d 1d9d d53b 9b77 d43d
000001d0: bae0 1c3c 905a 083d 8af7 ea3d 32db 763d
000001e0: 9d4f b8bd 4319 38bd 7855 bcbd 53c8 503d
000001f0: 902a 51bd 4f8c e93c 3a31 0b3d 18b2 6b3d
0.055257726 0.07128559 0.056158982 -0.02195827 -0.074279405 0.019628597 0.06617597 0.06529006
0.0147178825 0.012932806 0.023379095 0.028898096 -0.05243598 0.026406797 -0.016968437 0.11069395
-0.004313927 0.013660624 0.06441256 0.054189015 0.079437494 -0.14536552 -0.033055328 -0.024035519
0.13473535 0.05452121 -0.01388383 0.09704803 0.010626724 0.009605175 0.111661434 -0.018585278
-0.010450374 -0.017547067 0.09191672 0.12592049 0.113560416 0.10841276 -0.05982849 0.025914064
0.054148134 0.080748275 0.11518458 -0.031497058 -0.0044986084 0.096849374 -0.09290204 0.086528294
0.03530277 0.119347885 -0.033313133 0.0013082015 0.025829555 0.06833234 -0.0019179006 -0.08995593
0.068438515 0.098785855 -0.020499904 -0.0270868 0.055998016 0.06216645 0.023287488 -0.07459679
0.05437845 0.07669414 0.065399654 -0.10281333 0.10125489 -0.008163714 -0.014341531 -0.07592182
0.070904955 -0.120726734 0.04646128 0.07768356 0.12444349 -0.08731764 -0.051946916 0.06324525
0.020335985 0.08241866 -0.06607577 0.035713006 0.10308785 0.050478786 -0.05970793 0.011214229
0.008789461 -0.022359712 0.036365334 0.053891998 0.015145679 0.10504069 -0.12280709 0.11237441
-0.014404993 0.14052722 0.01978608 -0.09292256 -0.048046798 0.10906907 0.11906731 0.03590234
0.08116208 0.048197728 -0.02973976 0.026005924 -0.008545315 -0.044276822 -0.0011611197 -0.055569485
-0.016778698 0.12401906 0.0065189735 0.103743754 0.009575063 0.033289492 0.114729956 0.060267635
-0.0899956 -0.044945966 -0.09195989 0.050972294 -0.05106598 0.028509287 0.033982493 0.05754289

q_network_b.output_module.mlp_layers.2.weight f4 [1, 128]
00000000: 357e 3a3e 5959 363e 0e01 c53e 5ba4 eabd
00000010: efe7 5cbe e721 99be ead9 b83e 59ed aa3e
00000020: 829b d13e a529 473e 7da0 f13d 6590 acbe
00000030: af85 08be b519 0bbf 2ae4 5a3e daf1 be3d
00000040: fe76 04be ccc6 853e f14e 913d 34de d33d
00000050: 2c38 e43e 04c9 88be 8b76 27be 45ed ddbe
00000060: c664 023e 746a d63d 993f 2cbe 0fab b13e
00000070: 1d37 4c3e a0d1 d13e 5d2f 0d3e f672 23be
00000080: 68bd 933e 3158 0fbe 9587 003f fa55 023e
00000090: 422d ed3d afe0 263e 0f78 f3bd ee3c 113e
000000a0: 7de9 cd3d 46e1 cf3d 2cf7 a53d 09e3 a13e
000000b0: 90fd 0d3e 6427 5f3e 7321 3dbe a54f c83e
000000c0: e6a4 cf3d af3d a33d 769a 8d3e 8bb6 70be
000000d0: 04cc 7e3d 5c55 a73d 9e60 0f3e 7686 a6be
000000e0: c460 a83d 267d ee3e 4132 1e3e 6c13 19be
000000f0: e873 6a3e c9c6 8ebe 085a 043e f716 3fbe
00000100: 08af 52be 0695 fb3d ef22 6b3e fcea b6bd
00000110: f703 cc3d 674f 1cbe 5255 fd3e 9ba8 19be
00000120: c074 d63d 2c8e b5be 93ed 493e c12c b93d
00000130: edd1 a83d 020e 03be b9d6 20be e0f2 823e
00000140: 89c5 cc3d 2e75 193e fb7d 42be e2dd 0d3e
00000150: 327a d33d 6523 2f3e 1821 16be f4ff 2dbe
00000160: 8f37 54be 1dc9 17bf 8ad6 b73d 8643 e93d
00000170: 05fb 783e fc2e e43d 3510 d2bd 39d6 703d
00000180: e0bf bdbd 1697 a93d 43e2 893e cae3 d5bd
00000190: 005d b3bd cbbb b73d a51a 213e 5573 d03d
000001a0: 96df 3e3e 3e9e cb3d 54fe aebe 8f9d a63d
000001b0: 8cfa 42be ff69 30be ef96 b03d 83b3 e2bd
000001c0: 2f30 17be f9a5 dd3d 7d27 e3be 1580 a83e
000001d0: 1e97 193e 6668 be3e a960 ca3d 866b d43d
000001e0: f35c 2abe 1bcf 92be 0554 62be 2126 863d
000001f0: f670 babd fb65 38be f99b c53d 246e 773e
0.18212207 0.17807521 0.38477367 -0.114571296 -0.2157285 -0.29908678 0.36103755 0.33384207
0.40938956 0.1944948 0.11798189 -0.33703914 -0.13332246 -0.543361 0.213761 0.09323473
-0.12936017 0.26128232 0.07095135 0.10345116 0.44574106 -0.26715863 -0.16353814 -0.43345085
0.12733755 0.10469523 -0.16821136 0.3470082 0.19942899 0.40980244 0.13787599 -0.15961823
0.28855443 -0.13998486 0.5020688 0.1272811 0.11580898 0.16296647 -0.11888134 0.14183399
0.100543 0.101503894 0.08103785 0.31618527 0.13866258 0.2179237 -0.18469791 0.39123264
0.10138874 0.079707496 0.27656907 -0.23507135 0.062206283 0.08170578 0.140017 -0.3252446
0.082215816 0.46579856 0.15448858 -0.14948815 0.22895777 -0.27886036 0.12924969 -0.18661104
-0.20574582 0.12284283 0.22962545 -0.089315385 0.09961694 -0.15264665 0.49479157 -0.15005724
0.10471487 -0.3546003 0.19719534 0.09041739 0.08243165 -0.12798312 -0.1570691 0.25575924
0.09998614 0.14986107 -0.1899337 0.13854173 0.10326041 0.17103346 -0.14661062 -0.1699217
-0.20724319 -0.5929125 0.08976467 0.11389832 0.24314506 0.11141774 -0.102569975 0.05879805
-0.09265113 0.082807705 0.26930436 -0.10443838 -0.08757973 0.089713655 0.1573282 0.10178248
0.18639979 0.09942292 -0.34178412 0.08135521 -0.19040889 -0.17227934 0.08622538 -0.110693954
-0.14764474 0.108226724 -0.44366065 0.3291022 0.14999053 0.37189025 0.09881718 0.10372071
-0.1663702 -0.28673634 -0.22102363 0.06550241 -0.09103577 -0.18007652 0.0964889 0.24163109
