tasks/reacher/solutions/ddpg/solution_checkpoint/per_td3_actor_checkpoint.pth (torch, 171045 bytes, 6 tensors)

mlp_layers.0.weight f4 [256, 33]
000000 b1 c9 98 3e a4 91 57 3e d5 ba 84 bd bb e1 52 3e
       0.29841378 0.21051651 -0.06480948 0.20593922
000010 6c 41 45 3e a8 a7 b8 be b9 0f e0 3e 05 be 98 3e
       0.19263238 -0.36065412 0.43761995 0.29832473
000020 a8 0f 32 bd f9 62 9f 3d ab 66 03 be 16 a6 46 be
       -0.043471962 0.077825494 -0.12832133 -0.19399294
000030 ce 10 08 bd ac 40 86 be 85 d3 a1 be 71 cf 50 3d
       -0.03321915 -0.26221216 -0.3160669 0.05097908
000040 ab 5d 9a 3e ce cc 86 bb 08 fe f6 3d 81 30 4e 39
       0.30149588 -0.00411377 0.12060171 0.0001966376
000050 62 89 b4 3d 1f 7f c4 bd a3 7c de bd 9b 43 43 3e
       0.08815266 -0.09594559 -0.10863616 0.19068758
000060 fc ea b3 3d 71 b2 e9 3d d2 98 12 3e e5 4d ce bd
       0.08785054 0.11410988 0.14316109 -0.10073451
000070 55 1d 34 be 2e 83 34 bd fe b1 03 be 4e 03 1a 3e
       -0.17589314 -0.044070415 -0.12860867 0.15040323
000080 a9 21 69 3e 53 52 73 be e6 28 6b be c3 bb 47 3e
       0.22766747 -0.23761873 -0.2296482 0.19505219
000090 7b c8 50 be 78 79 07 3e 51 b5 4f 3e 05 95 01 3f
       -0.20388977 0.1322993 0.2028401 0.5061801
0000a0 6c 23 20 be 21 cb 80 3e 72 5b 69 3e f5 3e 5e bd
       -0.15638512 0.25154975 0.2278879 -0.05425926
0000b0 ae cd fc bc 31 e6 8b 3b 59 03 29 3e d4 1d c2 3c
       -0.030859794 0.0042693843 0.16505183 0.023695864
0000c0 4c 09 29 be c8 2c eb 3c 25 df 2d 3e 10 41 5d 3e
       -0.16507453 0.028707877 0.16979654 0.2160685
0000d0 9e f1 9d bd 40 cd 02 bd d5 23 33 3e 1c 8a 06 3e
       -0.077121004 -0.031934023 0.17494138 0.13138622
0000e0 d4 5c 75 3d 62 97 00 bd 60 f5 17 be 51 32 93 be
       0.05990298 -0.03139437 -0.14839697 -0.28749326
0000f0 ba 99 1d 3d dc ae 12 bd 22 2e d3 bd e6 35 be 3d
       0.038476683 -0.03581129 -0.103115335 0.09287624
000100 ef b6 c3 3d 75 01 88 3f a9 ac ad 3e 19 01 db 3e
       0.09556376 1.0625445 0.33920792 0.42774275
000110 30 dc 31 be 6d 9b 39 3f e8 f7 8a 3e c4 3d 15 3e
       -0.17369151 0.72502786 0.27142262 0.14574343
000120 b3 75 77 3e 2a 9e 8c 3e 22 00 ca 3e 0d e2 de 3d
       0.24165992 0.2746442 0.39453226 0.108829595
000130 d3 86 5d bd bf 6f 52 3e bd d8 06 3e a5 e5 07 bf
       -0.054083657 0.2055044 0.13168617 -0.53084785
000140 00 3b ad bd 0f 92 cf 3e 58 8c 1d be e1 fc 90 ba
       -0.08458519 0.4054112 -0.15385568 -0.0011061692
000150 71 0a 49 3e c3 6d 67 be 17 89 e0 bc e5 f2 18 3e
       0.1963289 -0.22600465 -0.02740912 0.14936407
000160 53 cc f0 3c d2 75 fd bd be a9 bd 3b 6f 84 86 3e
       0.029394304 -0.12375988 0.005788057 0.26272914
000170 3d 17 67 3e fa 8f a8 3c c2 a3 89 be 82 44 e7 bd
       0.22567458 0.020576466 -0.2688275 -0.11292364
000180 c8 96 06 3e 8b 3c 15 3d 19 b9 68 bf 15 7e 07 3d
       0.13143456 0.03643469 -0.90907437 0.033079226
000190 6f 58 3c 3e a3 f4 5a 3e 85 fa c8 3d e2 5a c5 be
       0.1839311 0.21382384 0.09813408 -0.385459
0001a0 1b 22 0b be 1c ca f7 bd e0 02 0c be f9 5e a4 3e
       -0.13587229 -0.12099096 -0.13672972 0.32103708
0001b0 af 54 1d 3d e9 80 1b 3d b9 1a 77 3d 32 b4 2b be
       0.03841084 0.037964735 0.06032822 -0.16767958
0001c0 18 f6 d0 bb e7 7c 01 bd 80 3a 2d be 72 31 88 3d
       -0.006376993 -0.031613257 -0.16916847 0.06650056
0001d0 d4 5f 12 bd a5 b7 e4 bb f6 a3 62 3d 69 a2 12 3b
       -0.03573592 -0.0069799 0.055332147 0.0022374636
0001e0 d0 79 54 3e e0 5c e3 bd 50 5d 71 bd fd ac 0f bd
       0.20749593 -0.11101699 -0.05892688 -0.035077084
0001f0 2c 54 f9 bc a2 d8 a4 be f7 4f 0b be 97 47 90 3e
       -0.030435644 -0.32196528 -0.13604723 0.2817962
000200 5d 70 79 bd 38 a6 4d bd ad ab 17 bd 71 40 b3 bf
       -0.060898174 -0.050207347 -0.037028957 -1.4004041
000210 78 2c 87 3d f0 62 26 be 97 96 8d 3e ba e2 9e 3e
       0.066002786 -0.16248679 0.27653953 0.31032354
000220 aa 99 84 bd 8b a3 26 bf 85 44 50 be 6a 71 54 3e
       -0.064746216 -0.65093297 -0.20338638 0.20746389
000230 f6 f3 43 3e 12 dd 6f 3d 56 6e 02 3d c2 19 d3 3c
       0.19136032 0.05856044 0.031843506 0.025769118
000240 ba 5c f3 bc 7f 83 8a bd 2b 5b 0b 3d 1e 97 7f be
       -0.029707301 -0.06763362 0.03402249 -0.2495999
000250 fc 9e 28 3e ff e9 da bd 6e 87 04 3e 41 10 b0 bd
       0.16466898 -0.106891625 0.12942287 -0.0859685
000260 97 60 a3 3d 1a cf 4a be 75 73 df 3e 1c c2 7f bd
       0.079774074 -0.19805565 0.43642774 -0.062440977
000270 5d 58 4b bd 24 ae fe bd 75 16 aa bd 4b d2 75 be
       -0.049644817 -0.124355584 -0.083050646 -0.24006002
000280 b2 49 c6 bc 27 ff 0b bd 08 6f 59 3c 9e e9 19 be
       -0.024205063 -0.03417888 0.013271101 -0.15030524
000290 7d 64 84 3e 38 f3 06 be 13 99 03 bd 2f d0 81 bd
       0.25857916 -0.13178718 -0.032128405 -0.06338536
0002a0 54 de c0 bd ec cd ac be 85 58 5d 3e 44 7d b2 bd
       -0.09417406 -0.33750856 0.21615799 -0.08715299
0002b0 47 45 11 3e 2f 3f 1d be 5b f9 03 bc 2c b7 43 3e
       0.14186583 -0.15356134 -0.008055056 0.19112843
0002c0 38 b9 9c 3d ef 4c b1 3d 66 d8 94 3d 63 08 27 be
       0.07652515 0.08657252 0.07267837 -0.16311793
0002d0 2e 25 2d 3e ec 64 a3 3e a7 ba 85 3d cb 13 36 be
       0.16908714 0.31912935 0.06529742 -0.17780988
0002e0 ea a5 54 3e d3 20 aa 3d 4e 4d 8d bd 1e d0 aa bd
       0.20766416 0.08307042 -0.0689951 -0.083404765
0002f0 4a fc 31 bd a9 02 9e bd 74 73 a8 3d 66 8a 02 3e
       -0.043453492 -0.07715351 0.08225146 0.12748107
000300 ca 22 8b be 94 44 be be 1a 51 fb bd b9 a1 59 3d
       -0.2717498 -0.37161696 -0.12271328 0.053132746
000310 af bd cf bd a6 fe 84 bf 42 d8 19 be 2a a9 2d 3e
       -0.10143601 -1.0390213 -0.15023902 0.16959062
000320 80 7a 44 bd 9a 32 b6 3e 57 11 9f be 02 38 26 bf
       -0.047968388 0.3558548 -0.31067917 -0.6492921
000330 70 5a 2b bf 41 96 0e 3d 31 9a a7 3e f1 5b e5 3e
       -0.6693487 0.034811262 0.32734826 0.44796708
000340 b7 44 cd 3d 8e 49 7c 3d 59 cd d1 3d 29 72 c1 3e
       0.10022872 0.061593585 0.10244245 0.3778241
000350 ec d5 9b 3d 1e f1 d4 3c 77 0e cc be 1c b9 82 be
       0.07609162 0.02599388 -0.39854786 -0.25531852
000360 f0 36 e4 bd 31 5d 41 3d c1 4f 4d 3d 0a 6e 43 be
       -0.11143291 0.047208015 0.050124887 -0.19084945
000370 10 26 c5 be 13 ce 81 3e ff 5b 63 3e 50 22 11 bd
       -0.38505602 0.25352535 0.22203062 -0.035433114
000380 e8 9f 80 be 43 1a 1e be 2b 3d 15 be c8 66 4a bd
       -0.25122 -0.15439706 -0.14574115 -0.049414426
000390 d4 98 3a 3e dd 2d d3 bc 1b ee ab 3e 65 65 40 3e
       0.18222362 -0.025778705 0.33580098 0.18788679
0003a0 85 34 e6 3d 95 f4 26 3e c5 8c 38 3f 33 ce 01 3e
       0.11240486 0.16304238 0.720898 0.12676315
0003b0 11 5b 90 be 57 97 7a be 1c 0f 39 bd 4e bb 20 bc
       -0.28194478 -0.24471794 -0.045180425 -0.009810282
0003c0 97 5c d7 bd 36 41 08 bd 95 36 a4 bc 0e c4 0c 3e
       -0.10515707 -0.033265315 -0.020045558 0.13746664
0003d0 3f 81 b0 bd 15 e4 45 be cc 93 51 3e 18 18 81 be
       -0.08618402 -0.19325288 0.20466536 -0.25213695
0003e0 7f 3a df 3d 5e de e8 3d 6e 8f 92 3d e5 64 47 bd
       0.10899829 0.11370538 0.07156263 -0.048680205
0003f0 64 75 71 bd 33 8a 1a 3d 70 4f 81 be f9 a1 f0 bc
       -0.058949843 0.037729453 -0.25255919 -0.02937411

mlp_layers.0.bias f4 [256]
000000 b6 43 e2 3c f3 93 4a 3e aa bb bf ba 15 56 72 3e
       0.027620178 0.19783 -0.0014628072 0.2366565
000010 7c e7 29 3e 7a 38 43 bc 9a 80 a0 3d 9e 05 dd 3c
       0.1659221 -0.0119153205 0.07837029 0.026980218
000020 ac 30 1d bd be 47 8d 3d 88 79 8a 3d d5 a3 2c 3c
       -0.038376495 0.06898449 0.067614615 0.0105371075
000030 b5 97 d0 3d 44 ce c4 bd 95 ef 26 3d 28 be 61 3d
       0.10185186 -0.096096545 0.040755827 0.055112988
000040 c4 b0 4f be 38 b7 84 bd 3c 3d a5 3d 72 92 30 be
       -0.20282274 -0.06480259 0.0806832 -0.17243364
000050 a4 f7 c5 3d 9e c0 23 3e c2 a9 aa bd d3 17 76 bd
       0.09666374 0.15991446 -0.0833316 -0.060081314
000060 52 48 ef 3d 59 b2 e3 bd f7 e3 eb bc c2 64 8c 3d
       0.11683716 -0.111180015 -0.028795226 0.068551555
000070 56 e9 07 3e 0e bc a6 3e 57 a7 41 3e a0 d6 23 be
       0.13272604 0.3256535 0.18911491 -0.15999842
000080 22 3d 1f be 47 ee 83 3c a7 75 3d 3e f5 b7 3a be
       -0.15550664 0.01610483 0.18501912 -0.18234237
000090 51 de a0 3e 68 f9 32 3d ff c9 2f 3d 28 83 b0 3d
       0.31419614 0.043694884 0.042917248 0.08618766
0000a0 cb 33 bf be df 47 09 bd 3e d9 40 3e 0d 6e f5 bb
       -0.37344202 -0.033515807 0.18832871 -0.0074899257
0000b0 30 a0 58 3e 6c 42 84 bd 4e e8 ff 3b b1 e5 4b 3e
       0.21154857 -0.064579815 0.0078096753 0.19911839
0000c0 ae 8f 9b 3e 4e 50 3f bd a2 93 4f be 5f d7 ad 3e
       0.30383056 -0.046707444 -0.20271161 0.33953378
0000d0 4a d4 52 be 32 98 a8 bd 3a 7f b3 bd a1 6a 4c 3e
       -0.20588794 -0.08232154 -0.08764501 0.1996255
0000e0 22 1f 99 3d 07 50 97 3e 39 6c 64 3e db ee e3 bd
       0.07476641 0.29553244 0.22306909 -0.111295424
0000f0 0b 1b 1b be 52 85 f9 3d 90 fc 2a be 66 61 13 3d
       -0.15147035 0.12183632 -0.16697907 0.03598156
000100 21 cb b4 3d e7 8a 86 be 43 48 92 3d 82 66 ec 3d
       0.08827806 -0.2627785 0.07142689 0.11542989
000110 06 ca 01 3e 6f 3e 0c 3d 3b d5 83 3d 14 d4 2d 3e
       0.12674722 0.03423923 0.06437155 0.16975433
000120 a5 21 59 be 58 e6 3a 3b cb cd f1 3d 3e e5 82 3e
       -0.2120424 0.0028518643 0.1180683 0.25565523
000130 26 b7 a2 3c ad 28 3c bb 6d f3 6e 3e 72 fd 2f 3d
       0.019862723 -0.0028710768 0.23335047 0.042966314
000140 08 00 36 3d 2d 12 5e 3e 32 a0 f2 bd ff 6d 4a 3e
       0.044433624 0.21686621 -0.11846961 0.19768523
000150 be 40 46 3d 16 4f 65 be eb 39 89 3d eb f1 11 3e
       0.048401587 -0.2239345 0.067005 0.1425244
000160 8a 53 0e 3e 1e db 57 3e 59 8b 44 3e 4b c8 39 3d
       0.13899055 0.2107968 0.19193782 0.04535703
000170 32 c3 36 3e 6f be c2 bd cd 37 d1 bd 7d 3e 52 3e
       0.17847899 -0.095089786 -0.10215721 0.2053165
000180 4f 3e b6 bc bb 32 19 bd d5 53 42 3e 9e a1 3b 3b
       -0.022246508 -0.037401896 0.18977292 0.0028630267
000190 60 ca ab 3e 88 3c 23 3e 55 a5 85 3d 9b 72 96 3d
       0.33552837 0.1594106 0.06525675 0.07346078
0001a0 ab 19 07 3e d6 cb 1f 3e 99 e3 d4 bb 88 60 de 3d
       0.13193385 0.15605101 -0.0064968583 0.108582556
0001b0 7d 00 8f 3d cc 42 23 be ad 51 ac 3d 1e 69 25 3e
       0.06982515 -0.1594345 0.08414016 0.1615338
0001c0 48 f5 cb bd 60 39 7e 3e 95 7a f7 bd d0 79 63 3c
       -0.09958893 0.24826574 -0.120839275 0.013884023
0001d0 cf fc bc 3d a9 00 e2 bd 77 e7 8c be ef e8 68 bd
       0.09227907 -0.11035282 -0.27520344 -0.056862768
0001e0 80 47 84 3e f8 b9 48 bd 64 92 3f 3e 05 16 dd bc
       0.258358 -0.04900548 0.18708187 -0.026988039
0001f0 63 68 2f 3a 9d 27 ea 3d 3a f5 0b 3e 64 28 6d 3e
       0.0006691275 0.11433337 0.13667765 0.23159939
000200 11 62 e7 bd 21 fb d1 3d a7 38 8f be 6d cc c5 bd
       -0.112980016 0.10252977 -0.2797291 -0.09658132
000210 4d 1a 08 3e 2a 5f ac 3e 75 b1 80 bd 3e 0f bc 3d
       0.13291283 0.33666354 -0.06283847 0.09182595
000220 8a 1d db bb 2c 31 56 3e 6c e9 04 be 7a 90 0a be
       -0.006686871 0.20917195 -0.12979668 -0.13531676
000230 56 f3 50 3e 7b ad 26 3d f9 67 09 bc 30 d5 f4 bd
       0.20405325 0.040692788 -0.008386605 -0.11954725
000240 ac 59 9d 3e cd a6 9c bc 27 4c 83 3a b6 d4 05 bd
       0.30732477 -0.019122506 0.0010017202 -0.03267356
000250 15 ba 4b 3e ee 47 0d 3e 39 f2 b7 bd bf 4d 10 bd
       0.19895203 0.1379697 -0.08981747 -0.035230394
000260 a5 99 1b 3d 02 75 2f bc 23 3d 19 3e f7 aa a9 3d
       0.037988324 -0.010709049 0.14964728 0.08284562
000270 e1 e7 d1 3d fb 67 fd 3d b0 84 2f 3e f6 64 6d be
       0.102493055 0.12373348 0.1714046 -0.23183045
000280 f6 58 b5 3e 7e 90 f4 bd 9b 44 09 3e 48 0b c1 bd
       0.35419434 -0.11941622 0.13405077 -0.0942598
000290 1e cf 03 be a4 07 86 3d fe b4 f0 3d 71 5e 81 be
       -0.12871978 0.06544426 0.117532715 -0.25267366
0002a0 18 7d 01 3d af 3b 9e 3e 0e 41 24 3d 87 3d a3 3e
       0.03161344 0.3090491 0.040101103 0.3188288
0002b0 01 7c d3 3e 2b f4 d0 3e bb e2 38 3d 3e 7c 2e 3e
       0.41305545 0.40811285 0.045138102 0.17039582
0002c0 c9 7f 87 3e b7 27 94 bd 31 13 89 3d d4 1f 24 3e
       0.2646468 -0.072341375 0.066931136 0.16027766
0002d0 60 db 9b 3c f7 ea 81 3e 4b 03 ce bd 01 84 8c bc
       0.019025505 0.25374576 -0.10059222 -0.017152788
0002e0 82 d2 0a 3e 14 9e 08 3e c6 ca bb 3d a3 f3 e7 bd
       0.13556865 0.13341552 0.09169535 -0.11325767
0002f0 70 f8 43 bd 7d bd 92 3e e3 c0 5a 3d d2 7e 66 3d
       -0.04784435 0.28660193 0.053406607 0.05627329
000300 64 07 c6 bd 7e 3a 60 3e 43 e1 3f 3e f3 14 82 3b
       -0.096693784 0.21897313 0.18738274 0.0039697825
000310 eb 3a 66 3c 00 8f 21 3d 7b 3f 1c 3e e1 5c 95 bd
       0.014052133 0.039443016 0.15258591 -0.07293106
000320 52 bb 1c be b9 d8 90 3d 7b fc a9 bd 4c 37 de bc
       -0.15305832 0.070725866 -0.0830011 -0.027125977
000330 8c 02 aa 3d f2 8a b0 bc 80 bf 10 3e 29 8f 3e 3e
       0.08301267 -0.02155063 0.14135551 0.18609299
000340 44 89 36 be e8 16 6e bc a6 7c c9 3c 16 b9 fb 3d
       -0.178258 -0.014531828 0.02459557 0.12291162
000350 6c 9a 88 3e 71 af 29 3d 33 39 9e bd f7 e8 09 3e
       0.26680315 0.04142708 -0.07725754 0.13467775
000360 67 dd 0c 3d a5 8c 89 3e 50 04 84 bc 83 db 09 3e
       0.034390833 0.26865116 -0.016115338 0.13462643
000370 2d 82 45 3e f1 36 19 bc ba 68 e4 bd 1e 52 45 be
       0.1928794 -0.009351478 -0.111527875 -0.19269606
000380 87 e5 18 3e 45 53 40 bd 92 11 60 bd 0f 9b 28 bd
       0.14931308 -0.046954412 -0.054704256 -0.0411635
000390 8a 78 00 bd ad 6a aa 3d 0d 78 4d 3c d2 e5 e2 3d
       -0.031364955 0.08321128 0.012540829 0.11078991
0003a0 77 f4 4b be 1d 09 cc bd c3 65 f6 3d 7a db 67 bd
       -0.19917475 -0.09962676 0.12031128 -0.056605794
0003b0 b5 3b 3c 3a a2 23 91 bd 33 43 75 3e f7 52 31 bc
       0.0007180528 -0.070868745 0.23951416 -0.010823003
0003c0 b1 08 09 3e b1 b0 17 bd d5 95 8b 3e cd 53 05 3e
       0.13382222 -0.03703374 0.2726275 0.13020249
0003d0 37 89 ef 3d 0e ad 86 bd 5a 3f fe bb 39 3d 23 3e
       0.116960935 -0.06575976 -0.007759017 0.15941323
0003e0 ed 4e 9d 3e e9 68 77 bd 62 9c 4b 3e 4b ce 80 bd
       0.30724278 -0.060402784 0.19883874 -0.06289347
0003f0 26 e1 72 3e 1b 38 4d bd 5b 5d 14 3c 9a ef 49 3e
       0.237187 -0.050102334 0.009055461 0.19720307

mlp_layers.2.weight f4 [128, 256]
000000 b3 a5 2f bc b3 ff 3d 3c 92 e8 41 be ff af a4 3d
       -0.010720658 0.011596608 -0.18936375 0.08041381
000010 98 0b 2f 3e fb 1a f5 be fb 78 b6 bd 27 2a da bd
       0.17094266 -0.47872147 -0.08909794 -0.10652571
000020 3b 7a 06 3e f1 85 60 be ce 7a 75 3c 64 b7 94 be
       0.13132565 -0.21926095 0.014982892 -0.29046166
000030 35 7f 07 be f2 1a eb be 14 a3 4b bd 8d 09 e3 3d
       -0.1323212 -0.45918995 -0.04971607 0.11085806
000040 5c b9 91 3d 59 cd 11 be de 5c 85 3d 4c bd bc bc
       0.071154326 -0.1423849 0.06511854 -0.023039483
000050 64 68 cf bd 36 d4 e1 bb 08 d6 e0 3c 4a ca 32 be
       -0.10127333 -0.0068917526 0.027445808 -0.1745998
000060 de a4 1d 3d 3c 8a d6 bc 80 59 f4 bc 83 20 9d 3d
       0.038487308 -0.026188962 -0.029827833 0.07672217
000070 09 58 f2 3d 14 5b e9 be 2a 23 65 be c2 d5 5d bd
       0.118331976 -0.455773 -0.22376695 -0.054158933
000080 a1 06 e1 bd 59 e3 3f ba 32 62 ac 3c 71 54 33 3c
       -0.109875925 -0.0007319949 0.021042917 0.010945425
000090 1d 5c a7 3d 5d 61 99 bd 13 7d c2 be d8 87 33 3d
       0.08171866 -0.07489274 -0.3798605 0.043830723
0000a0 d8 2c b9 3c f4 ba 7f 3c ac 0d 7a bd 0a 4d 34 3e
       0.022604391 0.015608538 -0.061048195 0.17607513
0000b0 8b 9c a8 3c 03 dd 16 be ef 52 d8 3d d9 7c d2 3e
       0.020582458 -0.14732747 0.10562693 0.41110876
0000c0 8b 13 39 3d 6e c1 24 bd 7e b8 1b be bb d5 a3 bd
       0.045184653 -0.04022353 -0.15207097 -0.0799975
0000d0 7d b9 69 bc 71 65 83 3e e1 a0 de bd c9 17 0b 3e
       -0.014265415 0.2566333 -0.10870529 0.13583292
0000e0 f4 cb d3 3e 3b 75 c2 bc fa 27 10 be 83 4a 60 be
       0.4136654 -0.02373754 -0.1407775 -0.21903424
0000f0 75 ad 9f bd b1 a4 e8 3d 0d 01 7b bd 1d 9d e8 bd
       -0.07796756 0.113595374 -0.0612803 -0.11358092
000100 93 8c 6c 3e 95 d9 96 3c d2 f9 1e 3e f0 87 2e be
       0.231005 0.018414298 0.15524986 -0.17044044
000110 cb 02 e0 bc e4 8f 37 be ab 3a c4 3d 10 f2 97 be
       -0.027345082 -0.17925984 0.095815025 -0.29676867
000120 39 0e 9b 3c ea 86 38 bd 05 70 bb 3d 8b 62 7e bb
       0.01892768 -0.04505054 0.091522254 -0.003881606
000130 b4 8c 5b be 12 70 a6 bd fc 51 43 3e 14 e1 4a 3d
       -0.21440393 -0.081268445 0.19074243 0.049531057
000140 b3 9c c0 bc ee 0b 6b 3d 12 23 cc be 0d 89 cc bc
       -0.02351222 0.057384424 -0.39870507 -0.024967695
000150 20 dd 7d 3e ab dc b9 bd f1 bd 86 3d 32 16 f4 3c
       0.24791384 -0.09075292 0.06579197 0.02979574
000160 94 be 8a be 17 df 98 bd 69 d5 8f 3c 6c c5 d8 3d
       -0.27098525 -0.07464426 0.017557817 0.1058453
000170 19 2f 9e bd 82 25 18 3c 14 52 88 bd 91 46 57 3c
       -0.07723827 0.009286286 -0.0665628 0.013139383
000180 3d 0d 0f be 4a 81 4f 3d 7d 7b 83 be bd 13 84 be
       -0.13969894 0.05066041 -0.25680152 -0.2579631
000190 58 64 c1 3d cd 09 25 3d f8 c4 81 bc f6 41 78 3c
       0.09442967 0.04029255 -0.015840992 0.015152445
0001a0 76 98 45 be f2 1a 6f 3e 60 6d d2 3d ce 00 08 3e
       -0.1929644 0.23350123 0.10274768 0.13281557
0001b0 a1 c6 d5 3d ac 58 53 3d 8e 59 0e 3f 25 f2 b4 bd
       0.10438276 0.051598236 0.556054 -0.08835248
0001c0 84 71 50 be 8b de d3 bd 4f aa c2 3d 7b 64 94 bc
       -0.20355803 -0.10345181 0.0950514 -0.01811432
0001d0 31 3f f2 bd 01 65 22 3e 37 c3 29 3e 0c 95 99 3d
       -0.11828459 0.15858842 0.16578375 0.074991316
0001e0 19 7b 16 3e d3 a4 0a be c6 4c b6 3d e3 5f 45 3e
       0.14695396 -0.13539438 0.08901362 0.19274859
0001f0 82 16 4f 3e cb 14 6a ba 32 a7 00 3d cd 1a ea bd
       0.2022343 -0.000892949 0.03140945 -0.11430893
000200 34 0c ac bd 29 1c ba 3d 90 bb 5d 3e 5e 7a 3a 3e
       -0.08400765 0.090874024 0.2165358 0.18210742
000210 1c 2d da bd bd da b1 3d b8 30 8e 3d cf 89 3b bb
       -0.10653135 0.08684299 0.06942886 -0.0028616076
000220 c0 69 48 3e 33 5c 3a 3d b2 a8 ff 3c 4d 5e 88 bd
       0.1957159 0.045498084 0.03120837 -0.066586114
000230 c1 b4 55 3d 28 b4 c2 3e 44 4a e7 bd 30 e1 83 3c
       0.052174333 0.38028073 -0.11293462 0.016098589
000240 9e 91 4b be 48 7d 06 3e 86 34 e3 bc e0 5b c4 3d
       -0.19879767 0.13133729 -0.027735006 0.09587836
000250 94 4f 19 bd b4 d3 36 3e a0 57 75 3e ab 9b c0 be
       -0.037429407 0.17854196 0.23959208 -0.37618765
000260 00 c4 68 be 5b 25 a1 3d 87 65 9e bd 84 ac db be
       -0.22731018 0.07868453 -0.077342086 -0.42905056
000270 17 ba 05 be 28 0d 26 be 6c f7 5f bd 63 89 17 3e
       -0.13059269 -0.16215956 -0.05467932 0.14798503
000280 e8 05 b1 3c aa b8 9e bc 55 e6 c1 3d da 81 8c be
       0.021609262 -0.019375164 0.094677605 -0.2744282
000290 b9 64 27 be af c1 80 3e 75 bc 9c 3d f8 64 aa 3d
       -0.16347016 0.2514777 0.07653133 0.083200395
0002a0 84 09 7b 3c 38 d4 b1 bc c6 8d 99 3c 0b e2 7f bd
       0.015322093 -0.02170764 0.01874436 -0.06247143
0002b0 d0 c2 c2 bd 14 fc 28 be d9 75 c3 bc 73 41 7b bd
       -0.09509814 -0.1650241 -0.023859905 -0.061341714
0002c0 3e ce a0 bd a2 e2 77 3e 65 d2 0e 3d 4b 92 92 3e
       -0.078518376 0.24207547 0.034868617 0.28627238
0002d0 8a 59 f8 3d dd 30 4f bd 07 42 d2 3c 9a e1 f1 3c
       0.12126453 -0.05058371 0.02566625 0.02952652
0002e0 12 c3 d5 bc 93 c2 aa 3d 39 79 95 3d 79 13 02 3e
       -0.026093993 0.08337893 0.07298512 0.1270274
0002f0 a5 12 99 bd 7b 2b a8 be fd ce c1 be d9 44 52 3d
       -0.07474259 -0.32845673 -0.37853232 0.05133519
000300 60 d8 06 bd 8f 46 38 be 18 c4 38 be 74 8f 9c 3d
       -0.032921195 -0.17995666 -0.18043554 0.07644549
000310 17 27 95 3c c4 ff 96 3c 8c 48 11 3d 52 41 11 be
       0.018207116 0.018432505 0.035469577 -0.14185074
000320 2e b1 4e be 49 53 a8 bc 51 cb 2a 3e 45 65 0d bd
       -0.20184776 -0.020547526 0.16679122 -0.034520406
000330 c6 7f 4d be b6 6f 71 be 0c 28 96 bb 6b 3c aa 3c
       -0.20068273 -0.2357777 -0.0045824107 0.020780763
000340 fd 4f 04 3e ed 7d e3 bd b3 35 14 3e db a4 06 be
       0.12921138 -0.11108003 0.1447361 -0.13148825
000350 41 a8 c0 bc 98 47 e1 3b 3a f9 de 3d f4 a7 11 3d
       -0.02351773 0.0068749897 0.1088738 0.035560563
000360 2b 08 7a 3d ea 0a b6 3a 7e 05 02 3d 1b 80 e4 3d
       0.061042946 0.0013888751 0.03174352 0.11157247
000370 d5 52 99 3a e3 42 85 3e fc 40 1a 3e 8e 91 ab bd
       0.001169766 0.26027593 0.15063852 -0.08377372
000380 2b 88 24 3e 67 42 75 3d 17 3e 9d 3d 9c a7 df 3c
       0.16067569 0.05987778 0.07677858 0.027301602
000390 ec 9a 71 3c d0 4b 5f 3c 25 95 94 bd 4d a2 1f 3e
       0.014746409 0.013628915 -0.072550096 0.15589257
0003a0 f6 1e 0e bd 1d 8a 87 3d ac df 5a bd ac f8 2a be
       -0.034697495 0.0661814 -0.053435966 -0.16696423
0003b0 16 cd aa 3e 42 23 13 3e 51 d3 16 be 07 48 2d 3c
       0.33359593 0.14368919 -0.14729048 0.010576255
0003c0 f5 b1 fd be f2 82 f3 3c e9 b8 d1 3d c6 40 af be
       -0.49549833 0.029725526 0.10240347 -0.34229106
0003d0 9c 50 83 3d 0c 7e ad bd 92 ff 9d 3d e8 3d c1 3b
       0.064118594 -0.08471307 0.07714762 0.0058972724
0003e0 1b 93 06 bd 78 10 91 3c bb 36 00 bd 69 36 96 bd
       -0.032855134 0.017708048 -0.031302195 -0.07334597
0003f0 27 b6 15 bc ce b4 b0 3c 13 50 35 3d 65 67 57 bd
       -0.009137667 0.02157059 0.044265818 -0.05258884

mlp_layers.2.bias f4 [128]
000000 48 b8 b2 bd d7 e8 92 bd 32 49 6f 3c 2a d3 b5 3c
       -0.08726555 -0.07173317 0.0146048535 0.022195417
000010 72 72 05 be c9 d9 0f bd 5d da be bd 9c e5 0a bd
       -0.13031939 -0.035119805 -0.09318993 -0.03391038
000020 04 be 46 3d ce 97 f3 bd 80 5c db bc 84 ea 86 bd
       0.048521057 -0.11894189 -0.026777506 -0.06587699
000030 48 3b 78 bd 30 15 7c 3d 49 05 97 bb 01 10 44 3c
       -0.06060341 0.061543643 -0.0046087843 0.011966706
000040 58 eb 0f 3d 74 9d 5b 3d 93 d7 8d bd 4d 26 cc bc
       0.03513655 0.053616956 -0.06925883 -0.024920607
000050 ec cc d6 bd 73 87 86 bd 52 46 63 bd 24 a3 fd 3b
       -0.104883045 -0.06568804 -0.055486985 0.007740395
000060 a3 cc e8 bc bc a7 83 bd d4 40 8a bd 44 ba fc bc
       -0.02841789 -0.06428477 -0.06750646 -0.030850537
000070 e9 91 1a 3d 64 8e cd bd 02 e8 d5 bd da cd 7c bd
       0.037736807 -0.100369245 -0.104446426 -0.061719753
000080 2e 95 78 bc ef d9 7e bc c7 57 88 3b 07 dc 7d bc
       -0.015172286 -0.015554889 0.0041608545 -0.015494353
000090 d8 0e 11 b4 3d 94 56 3d b9 e4 b8 3c fc 56 8d bd
       -1.3509577e-07 0.052387465 0.022570001 -0.069013566
0000a0 dd 85 85 3d d7 45 e3 3b 1a 18 12 bd 61 f7 9d bd
       0.06519673 0.006935816 -0.035667516 -0.077131994
0000b0 20 91 df ba 98 38 75 3d 2d e8 12 bd 0c 4c 6f 3c
       -0.00170568 0.059868425 -0.03586595 0.014605533
0000c0 71 10 50 3d 9d 69 98 bb 97 27 2f bd 71 d9 1e 3c
       0.05079693 -0.004651262 -0.042762365 0.009695397
0000d0 10 e8 8b 3c 46 a1 14 bd 0b b3 d3 bc 09 91 db 3d
       0.01707843 -0.036286615 -0.02584221 0.10721023
0000e0 e9 a0 cf bd b3 05 cf bc 94 9b 4a 3d 98 8f 13 bd
       -0.10138113 -0.025271272 0.049464777 -0.036025614
0000f0 65 27 98 3d e1 14 ff bb 4a ed 13 3d b3 e5 88 3d
       0.07429389 -0.0077844714 0.03611497 0.06684437
000100 7b ee b5 bd 11 aa ab 3c 4a 26 78 3d c9 2a c4 bd
       -0.08883377 0.020955117 0.06058339 -0.09578473
000110 46 70 ab 3c 04 2c f2 36 e9 d9 9b bc 55 91 b0 3d
       0.02092756 7.217286e-06 -0.019024806 0.0862147
000120 53 85 bc 3d d8 e5 fa 3c 5f 53 c3 bd 0f 8a c2 3d
       0.09205117 0.030627176 -0.09537386 0.09498989
000130 b8 6f 7a bd ba 1f be 3d 05 72 6c 3c 2f 6a c4 bc
       -0.0611417 0.09283395 0.014431481 -0.023976414
000140 fb cc bb bd 20 d4 b6 3c 44 57 d0 bd 2d 13 20 3d
       -0.09169956 0.022317946 -0.101728946 0.039080787
000150 c7 38 a2 bd 47 05 b4 bd 41 c5 5d bd 53 13 82 3d
       -0.07920986 -0.08790069 -0.054143194 0.06351342
000160 c6 98 79 bd 83 17 96 3d f7 c5 a8 bb 09 3d 03 3e
       -0.06093671 0.07328703 -0.0051505524 0.12816252
000170 e6 cb 32 3c 79 27 c5 3d d8 04 0f bd 55 d5 ee bd
       0.010912871 0.096266694 -0.03491673 -0.116617836
000180 d7 d4 da bb 07 81 8b bc 20 2c 82 bb 57 30 cf bc
       -0.0066782045 -0.017029298 -0.0039725453 -0.025291605
000190 80 8b fe 3c 0d d2 db bc 48 98 6b 3d 81 82 a2 bd
       0.031072378 -0.026833558 0.057518274 -0.07935048
0001a0 d9 a9 50 3d 59 9b 4a bd 7e 91 37 ba 57 ab b3 3d
       0.05094323 -0.049464557 -0.0007002576 0.08772915
0001b0 7f 50 f4 3c 1b 4f 05 3d b9 f3 2b 3d 68 00 33 3c
       0.02982354 0.032546144 0.04198048 0.01092539
0001c0 81 68 31 3d e5 c8 b1 3c 84 47 89 3d 9e 40 fa bb
       0.043312553 0.02170224 0.06703094 -0.0076370975
0001d0 76 a9 e0 3d 46 98 a7 3d 92 3f 1e 3e eb 8d 0f 3d
       0.10969822 0.08183341 0.15453938 0.035047453
0001e0 a1 8a cd bd b6 52 83 3d 55 65 0b bc 63 ff 89 3d
       -0.10036207 0.0641226 -0.008508046 0.06738164
0001f0 b9 ed 13 be 53 fe 0d bd ad 70 43 3d f7 8b ff 3b
       -0.14446153 -0.03466637 0.047714878 0.0077986675

mlp_layers.4.weight f4 [4, 128]
000000 38 a2 13 bf e5 5e 38 be ed 93 28 bf 33 db dc 3d
       -0.576694 -0.1800495 -0.65850717 0.107839964
000010 5e 87 62 be a1 14 5d 3c c9 67 e9 bd 3f 80 a0 3e
       -0.22121951 0.013493688 -0.113967486 0.31347844
000020 05 0f 22 3d 8c 4a 79 bf 20 0c ca 3e 44 c1 75 3d
       0.039565105 -0.97379375 0.39462376 0.059998766
000030 df d0 7c 3d d8 b3 5f bc 9b 88 c9 3e ba 30 b8 bd
       0.061722632 -0.013653718 0.39362034 -0.08993669
000040 5b 22 e6 3d f6 ab 9c 3e 65 ec a4 3e a7 e4 f9 3a
       0.112370215 0.30599946 0.32211605 0.0019065336
000050 cf 24 04 bc 23 c0 c0 3c fd 3a 33 bd 78 0b 52 be
       -0.0080654165 0.023529118 -0.043757427 -0.20512187
000060 b9 7e 96 3c 80 a6 35 3e 15 61 f5 bd a2 1d 76 bc
       0.018370973 0.17739296 -0.119814076 -0.015021713
000070 3e 5a e2 bd ac 15 9b 3e d4 56 80 3e 87 f3 06 3f
       -0.110523686 0.30289972 0.25066245 0.52715343
000080 38 29 65 be 49 54 9a be c6 e9 00 3e 37 ab fd 3d
       -0.22379005 -0.3014243 0.12589177 0.12386172
000090 3f 9e bf bd 8c e1 14 3e 51 99 e6 bd 59 f8 b7 3e
       -0.09356355 0.14539164 -0.112597115 0.35931662
0000a0 88 a8 8c 3e bb c6 04 3d a1 40 d4 bd b5 e4 9c 3c
       0.2747233 0.032416087 -0.103638895 0.019152025
0000b0 28 81 98 3e dd de 7b 3e 99 d1 64 be 97 5b 04 bd
       0.29786038 0.24596734 -0.2234558 -0.03231391
0000c0 be 31 9d 3d b3 41 b7 3d 6c 71 0a be f8 5d 53 be
       0.07675503 0.08948078 -0.1351983 -0.20641315
0000d0 a9 70 3f 3e ed 6c 1a 3e 4f db 9a bd 07 5c dc be
       0.1869532 0.15080614 -0.07561361 -0.4303896
0000e0 90 0b 43 bd 39 1d b8 bd 3b f4 53 3e 5b 25 f3 3d
       -0.04761845 -0.08989949 0.20698635 0.11872359
0000f0 01 95 b5 3d 91 5f 3a be cc dc aa bd 0c 08 ae 3d
       0.08866311 -0.18200518 -0.08342895 0.084976286
000100 9e 7b 08 bc 2c 0e 78 3e 66 c7 45 3e 07 ab 0e bd
       -0.008330254 0.24224156 0.19314346 -0.034831073
000110 27 82 4d be 0c d4 d8 3e 3f 70 ac bd 4a e7 79 3d
       -0.2006918 0.4234928 -0.08419847 0.06101159
000120 d6 1d ef be 47 51 ec 3d 32 2a 3f be c0 5e 97 3e
       -0.4670245 0.1153894 -0.1866844 0.29564476
000130 7c 92 c1 be c4 3c ba 3d ff f3 e7 bd 81 79 1b bd
       -0.3780707 0.090936214 -0.113258354 -0.037957672
000140 fc ac a6 3d 70 ed 04 3d db 0a a8 3e 3e 1d ab be
       0.08138463 0.032453 0.32820782 -0.33420748
000150 d3 23 9a 3e 20 99 bd bd 9e ed b2 be 5f 5d 89 be
       0.30105457 -0.09257722 -0.34946913 -0.2682905
000160 03 4c 81 3d 6b d2 0c 3e 18 92 df be 20 5e 9c be
       0.06313326 0.13752143 -0.43666148 -0.30540562
000170 45 18 6d 3d a7 33 55 be eb 6e c1 be 48 ff 89 3e
       0.057884473 -0.20820485 -0.37779936 0.26952577
000180 ab c4 51 be 27 f1 fe be 94 13 82 3e 33 6f d5 3d
       -0.20485179 -0.4979336 0.25405562 0.104216
000190 a8 42 6e 3d 39 f3 2d 3e 09 51 9b be 93 e4 31 be
       0.058169037 0.16987313 -0.30335262 -0.1737235
0001a0 e4 79 d0 3e 64 09 5f be d2 33 8e 3e 6b 2c 1c 3e
       0.40717995 -0.21780926 0.2777391 0.15251319
0001b0 5e 73 41 3e b1 16 08 bf c7 b2 93 3e 4c b6 99 3d
       0.18891665 -0.53159624 0.28847334 0.075054735
0001c0 e7 5e f9 3d 4c d0 89 be be 47 9c bb 79 7c b6 be
       0.12176304 -0.2691673 -0.0047692945 -0.3564184
0001d0 3a 87 82 bd 7b a9 bf bd b3 fe 43 be 64 b9 42 be
       -0.06373449 -0.09358498 -0.19140129 -0.19016033
0001e0 49 b8 b0 3e 32 8e 46 3e 6a 4c 06 3e 96 b6 a0 bd
       0.34515598 0.1939018 0.13115087 -0.078473255
0001f0 c7 08 93 3d 6b 92 f8 bc 56 4f fb bc a1 79 04 bc
       0.071794085 -0.030343255 -0.030677479 -0.008085639
000200 48 2a b4 bd e4 da 8a 3e cf 17 34 3d b6 7d 13 3f
       -0.08797127 0.27120125 0.04396802 0.57613695
000210 93 cc b3 be 1e 42 bd be ce 98 80 be 92 91 44 3f
       -0.35117015 -0.36964506 -0.2511658 0.7678462
000220 2c c6 54 3e ec 8c b0 be 31 39 5d be 02 a9 28 3e
       0.20778722 -0.34482515 -0.21603848 0.16470721
000230 24 99 f4 3d 06 5f de 3e 0a 15 55 bb 49 1b ac be
       0.11943272 0.43431872 -0.003251376 -0.33614567
000240 e3 08 00 3f 17 54 82 3e 23 45 00 3f e2 ec c4 3b
       0.5001356 0.2545478 0.50105494 0.006009684
000250 3e 3b 9a 3e 84 ca b7 be 88 63 70 be ea 67 86 3e
       0.30123323 -0.35896695 -0.23475468 0.26251155
000260 67 13 b7 be 9a 4f 67 be 42 bb 03 bf 61 74 6d be
       -0.3575699 -0.2258896 -0.5145761 -0.23188926
000270 04 b2 d1 3e b0 e5 7d be ca 2d 4b 3e 63 b6 1b 3e
       0.40956128 -0.2479465 0.19841686 0.15206294
000280 e7 c8 43 bd 5d 98 4a be e6 e9 06 3e c8 fa a7 3e
       -0.047799017 -0.19784684 0.13175163 0.32808518
000290 4c 22 e9 3e e3 bb c8 be 0c de f6 3d 65 d2 7b 3d
       0.4553398 -0.39205846 0.12054071 0.061479945
0002a0 a4 d8 04 bd c6 d0 99 3e 53 dc 08 3e e2 05 55 3f
       -0.032433167 0.30042094 0.13365297 0.832121
0002b0 68 57 d9 3d 17 0c d1 3d ce a1 94 be 53 88 b4 bb
       0.106123745 0.10207384 -0.29029697 -0.005509415
0002c0 c2 e3 b9 3d c2 f1 1c 3e 6f 1b 21 be 25 0e 3d 3e
       0.090766445 0.15326598 -0.15733121 0.18462427
0002d0 75 f6 99 3e 28 66 3f 3e ff c3 07 bf 05 78 11 be
       0.30070844 0.18691313 -0.5303344 -0.1420594
0002e0 6b 53 2b be 0e f1 e5 be 90 d2 8b 3e e7 d1 05 bf
       -0.1673104 -0.44910473 0.27309084 -0.5227341
0002f0 b9 d4 0e 3d 65 8d 65 be 2d 16 4c 3d b9 54 05 3f
       0.034870837 -0.22417219 0.049825836 0.520824
000300 4d a1 aa be a9 cf b6 3e 07 1d 36 3e 11 61 86 bf
       -0.33326188 0.35705307 0.1778451 -1.0498372
000310 fb d4 09 3c 37 23 09 bf 29 00 ea bd b9 dc b7 3e
       0.008412595 -0.5356936 -0.11425812 0.35910586
000320 00 33 9c 3e 86 f7 dd 3d 97 fd e0 be f4 64 84 3e
       0.3050766 0.10838227 -0.43943474 0.2585827
000330 d8 11 32 be 2b 66 ba 3c 52 d9 1a bf 5e 40 84 3d
       -0.1738962 0.022753796 -0.60487854 0.064575896
000340 5f 99 ee be 76 ba 0a 3a 2a d8 4d bf 00 f2 ac 3d
       -0.46601388 0.0005292067 -0.80407965 0.08444595
000350 17 21 09 bf f8 9e 56 3d 35 e7 b1 3e 6c 69 a3 3e
       -0.53566116 0.0523977 0.3474671 0.31916368
000360 dc c8 c0 3d c3 d5 89 3e b3 59 8e 3e ab d8 aa 3d
       0.09413311 0.269209 0.2780281 0.083421074
000370 12 6d 15 3d 92 07 16 3e 95 63 50 3e aa 32 41 bf
       0.03648097 0.14651325 0.20350488 -0.7546793
000380 1f bf 35 be 8f 45 97 be bb c9 db be 23 0f c4 3e
       -0.17748688 -0.29545256 -0.42927346 0.38292798
000390 d7 ee be 3e ff cc 7f be 7a 8b 35 3f 6c 19 27 bf
       0.37291595 -0.24980544 0.7091595 -0.65273166
0003a0 cd 5e b2 be f0 b3 89 bb ed a7 56 3d 13 b5 13 3e
       -0.34837952 -0.0042023584 0.05240624 0.14424543
0003b0 a5 8c 5e be 3a 56 03 3d c9 a4 fc 3d f6 24 e5 bd
       -0.21733339 0.032064654 0.12336118 -0.1118869
0003c0 4c 4f b7 3e 41 9e e8 3e 82 fd 98 be 07 75 87 be
       0.35802686 0.45433238 -0.2988091 -0.26456472
0003d0 b1 7b c2 3c cb ea d9 bc d4 81 fa 3c 2f a6 55 bf
       0.023740621 -0.026601216 0.030579485 -0.834567
0003e0 bf 34 0a be 5d b2 23 be 64 9e 58 3e b7 09 d7 3e
       -0.13496684 -0.15986009 0.21154171 0.419996
0003f0 d7 ad c4 3e 1a ef 66 bd e9 2e 08 be 19 ee 51 bd
       0.3841388 -0.05638037 -0.13299145 -0.05125246

mlp_layers.4.bias f4 [4]
000000 67 b9 67 3c c3 96 92 3d df 04 db bc 65 43 0d 3d
       0.014143324 0.07157662 -0.026735721 0.0344881
