tasks/reacher/solutions/ddpg/solution_checkpoint/per_td3_actor_checkpoint.pth (torch_old, 169768 bytes, 6 tensors)

mlp_layers.0.weight f4 [256, 33]
0	0x3dfbdf93	0.12298503
1	0x3d38469a	0.044989206
2	0xbe8abec3	-0.27098665
3	0xbe0f9243	-0.14020638
4	0x3e6078a6	0.21921024
5	0x3f21dad8	0.63224554
6	0x3b893cf8	0.0041881762
7	0xbd191e96	-0.037382685
8	0xbda12e3e	-0.07870148
9	0x3ce77a4a	0.028256554
10	0xbcd9c11e	-0.026581343
11	0xbd9613e0	-0.073280096
12	0xbda5a293	-0.08087649
13	0xbe11b58d	-0.14229412
14	0xbe362165	-0.17786177
15	0xbb93df20	-0.0045126826
16	0x3e68739f	0.22700356
17	0x3d2fd011	0.042923037
18	0x3c4f96c9	0.012670227
19	0x3db1d77c	0.086836785
20	0x3db1a86a	0.086747006
21	0x3de1b06a	0.110199764
22	0xbdad8512	-0.08472647
23	0x3c06d442	0.008229317
24	0xbe176b47	-0.14787017
25	0x3e0fa126	0.14026317
26	0x3e01c000	0.12670898
27	0xbe91ac1f	-0.2845163
28	0xbd087be8	-0.03332129
29	0xbd34832c	-0.044070408
30	0x3d61f39c	0.055163965
31	0x3e1a034e	0.15040323
32	0xbf35698b	-0.7086417
33	0xbe099f4b	-0.13439672
34	0xbe144030	-0.1447761
35	0x3e0ec66b	0.13942878
36	0x3c15ee9a	0.009151125
37	0x3e1f8632	0.15578535
38	0x3ef1f54a	0.47257453
39	0x3edd1838	0.4318254
40	0xbe71e5d1	-0.23622824
41	0xbe5da241	-0.21643926
42	0xbdd5265e	-0.104077086
43	0xbdc2543e	-0.09488724
44	0xbb97b2c7	-0.004629466
45	0x3cc9e8dd	0.02464717
46	0x3d92fa36	0.0717663
47	0x3d648cba	0.05579827
48	0xbe379f64	-0.17931896
49	0x3d24ccbd	0.040234316
50	0xbe808c5f	-0.25107095
51	0x3ec794c0	0.38980675
52	0x3dee848e	0.116463766
53	0x3d8a0db1	0.06740893
54	0xbe5533cd	-0.20820542
55	0x3e8ac9ba	0.2710703
56	0x3d3619bc	0.044458136
57	0xbdea58ca	-0.114427164
58	0xbdb3bb38	-0.087759435
59	0xbe46b54f	-0.19405101
60	0x3d3bdf68	0.045867354
61	0x3eb908e8	0.36139607
62	0xbdd32e22	-0.103115335
63	0x3daf13d8	0.08548707
64	0x3dc3b6f0	0.09556377
65	0xbedda6cc	-0.43291318
66	0x3d72c8d2	0.05927355
67	0x3e2fee80	0.17180824
68	0x3d28ba9c	0.04119359
69	0x3e9e3a0e	0.30903667
70	0xbf0ffa91	-0.5624171
71	0x3dd8877d	0.10572717
72	0x3e31e5af	0.17372774
73	0x3afaf302	0.0019145908
74	0x3e115f14	0.14196426
75	0x3dd4be2d	0.10387836
76	0xbd01ccdd	-0.031689513
77	0xbe36c266	-0.17847595
78	0x3cb21c7d	0.0217421
79	0xbeb7fe1c	-0.35936058
80	0xbec551f7	-0.38539097
81	0x3defcbde	0.117088065
82	0x3eb62ae5	0.355796
83	0xbed81569	-0.42203835
84	0xbd029773	-0.031882714
85	0xbbdda212	-0.006763705
86	0x3b9b979a	0.004748297
87	0x3e01dff9	0.12683095
88	0x3e2948a7	0.16531621
89	0xbdf78044	-0.120850116
90	0xbdc02b97	-0.09383314
91	0x3d008dd7	0.03138527
92	0x3e6a307d	0.2287006
93	0x3e8b4265	0.27199093
94	0xbe167fda	-0.14697209
95	0xbde74482	-0.11292364
96	0xbdf5b89f	-0.11998104
97	0x3d153c8c	0.036434695
98	0xbf8a1958	-1.0788984
99	0x3dcb1bc7	0.099174075
100	0x3a112e86	0.00055382436
101	0x3e1faa8a	0.15592399
102	0x3d7e1b1d	0.062037576
103	0x3e877044	0.2645284
104	0x3ec17f64	0.37792504
105	0x3de4a7e8	0.11164838
106	0xbdf1ada3	-0.11800697
107	0x3edabb4a	0.42721015
108	0x3dc92ed2	0.098233834
109	0xbc827d37	-0.015928848
110	0x3c730cad	0.014834565
111	0x3e0e8f0e	0.13921759
112	0xbe0ddeaf	-0.13854478
113	0x3d33c950	0.04389316
114	0xbc988a9b	-0.01862078
115	0xbf441d3a	-0.76607096
116	0x3d30c391	0.043155257
117	0xbe678748	-0.226102
118	0xbd03416c	-0.032044813
119	0x3d04704d	0.03233366
120	0xbd02ee38	-0.031965464
121	0xbe282911	-0.16421916
122	0xbd3a146f	-0.045429643
123	0x3d57c8d7	0.05268177
124	0xbe100a76	-0.1406649
125	0xbe8d4355	-0.27590433
126	0xbe786dc8	-0.24260628
127	0x3da6e29a	0.081486896
128	0xbd79705e	-0.060898177
129	0x3d66cde5	0.0563487
130	0xbd17abac	-0.037028953
131	0xbf4c6dab	-0.7985484
132	0x3e345437	0.1761025
133	0xbe8dad6d	-0.27671376
134	0x3e959eae	0.29222625
135	0x3dd13a0e	0.10216151
136	0x3ecaeb53	0.39632663
137	0x3eb38a68	0.35066533
138	0x3cff8d01	0.031195166
139	0xbe10ab32	-0.14127806
140	0xbec80593	-0.39066753
141	0x3e850b8d	0.25985375
142	0xbac2afe3	-0.0014853444
143	0xbd8fd839	-0.07023663
144	0x3d3c6dd5	0.04600318
145	0xbe157780	-0.14596367
146	0x3ea1ad77	0.31577656
147	0x3cc36e2a	0.023856241
148	0xbe85b99a	-0.26118165
149	0xbeda29f4	-0.42610133
150	0x3d90c969	0.07069666
151	0x3e4f9ebb	0.20275395
152	0xbd4deb56	-0.050273262
153	0xbc944b55	-0.018102327
154	0x3ea5f03c	0.32409847
155	0xbdbf7d9d	-0.09350131
156	0x3d457c94	0.04821451
157	0x3dad5a8e	0.084645376
158	0xbe3495f1	-0.17635323
159	0xbe8cdc6c	-0.2751192
160	0xbdc679ac	-0.09691176
161	0xbd0bff28	-0.034178883
162	0x3d45f12f	0.048325714
163	0xbe19e99e	-0.15030524
164	0xbf22b7fe	-0.63562
165	0xbe1b16f9	-0.15145482
166	0xbdd708f0	-0.104997516
167	0xbe9fc0f7	-0.31201908
168	0x3e7278bf	0.23678873
169	0xbe12fe7c	-0.1435489
170	0x3e8d423e	0.275896
171	0xbf39e4f8	-0.72615004
172	0x3dea563f	0.114422314
173	0xbeb72ad8	-0.35774875
174	0xbdef93b4	-0.11698094
175	0x3e0621d0	0.13098836
176	0xbd763196	-0.060105883
177	0xbdba1f14	-0.09087959
178	0x3e1e9bf2	0.15489176
179	0xbe3af060	-0.18255758
180	0x3db40cae	0.08791481
181	0xbecd8592	-0.4014097
182	0xbe8fd16b	-0.2808946
183	0xbdca24ef	-0.09870326
184	0x3e995ac8	0.29952073
185	0x3d451cf5	0.04812332
186	0x3de3c781	0.11122037
187	0xbd848b3c	-0.06471869
188	0x3caede0c	0.021346115
189	0xbe634b76	-0.22196755
190	0x3dc8ead3	0.09810414
191	0x3e2b6ea7	0.1674143
192	0x3d301fda	0.042999126
193	0x3e157aa8	0.14597571
194	0xbdfb511a	-0.12271328
195	0xbe85f2c8	-0.2616179
196	0xbdcfbdaf	-0.10143601
197	0x3eaabddb	0.33347973
198	0x3df7bfc6	0.12097125
199	0x3c556d7c	0.013026591
200	0xbe2d38da	-0.16916218
201	0x3e16269b	0.14663164
202	0xbc416893	-0.011804718
203	0xbf8456bb	-1.0338968
204	0xbeaba49f	-0.33524033
205	0x3df59edd	0.119931914
206	0xbe5ff250	-0.21869779
207	0x3e4a1e45	0.1973811
208	0xbdb26b57	-0.0871188
209	0x3d9e0560	0.07715869
210	0xbc06a742	-0.008218588
211	0x3dee6cbf	0.116418354
212	0x3ca147fe	0.019687649
213	0xbdc145c4	-0.09437135
214	0x3f50d839	0.8157993
215	0xbe8049fb	-0.25056443
216	0xbda1ca2f	-0.078998916
217	0xbe9da216	-0.30787724
218	0xbd5ef37c	-0.054431424
219	0xbe12ad40	-0.14323902
220	0xbe1da4e7	-0.15394937
221	0x3c827157	0.015923185
222	0x3d1e1e47	0.038603093
223	0x3ee1cd58	0.44101977
224	0xbe5a2cc2	-0.21306136
225	0x3d71ed33	0.0590641
226	0xbe1025ec	-0.14076966
227	0xbd4a66c8	-0.049414426
228	0xbcffe117	-0.03123526
229	0xbcd32de0	-0.02577871
230	0xbf0bb039	-0.5456577
231	0x3db74f5f	0.08950686
232	0x3da327ea	0.079665974
233	0x3e951cfb	0.29123673
234	0x3f3d81fe	0.7402648
235	0xbe9645a2	-0.2935
236	0xbf2314a2	-0.6370336
237	0xbe7bc2c1	-0.24586011
238	0xbd7d5b64	-0.061854735
239	0xbdeab56e	-0.11460386
240	0x3e827616	0.25480717
241	0x3e08d8a8	0.13363898
242	0xbc6529fe	-0.0139870625
243	0xbddb985e	-0.10722421
244	0xbd5fcbf3	-0.05463786
245	0xbea26c11	-0.31723073
246	0x3e187b22	0.14890721
247	0x3e1c946b	0.15290992
248	0x3e87242a	0.26394778
249	0x3e2abace	0.16672823
250	0xbe397e9c	-0.18114704
251	0xbc879894	-0.016552247
252	0x391b928a	0.00014836542
253	0x3dde4868	0.10853654
254	0x3d44eff1	0.04808039
255	0xbd7a178c	-0.061057612

mlp_layers.0.bias f4 [256]
0	0x3e5876ea	0.21139112
1	0x3e4304af	0.19044755
2	0xbe817944	-0.2528783
3	0x3eafbb1d	0.34322444
4	0x3e4dcd7d	0.20097919
5	0xbea74160	-0.32667065
6	0xbe0a5451	-0.13508727
7	0xbdfa50f9	-0.122224756
8	0x3c782254	0.015144903
9	0x3e134d38	0.14384925
10	0xbdbd25d9	-0.092357345
11	0x3ce19f52	0.02754179
12	0x3dbc3a33	0.09190788
13	0xbdd658da	-0.10466166
14	0x3b91b275	0.0044463226
15	0x3d88274d	0.06648121
16	0xbd0a3539	-0.033742163
17	0x3d16c2f3	0.03680701
18	0x3cfbfcec	0.030760251
19	0xbe45c8ea	-0.19314924
20	0xbd99c751	-0.0750872
21	0x3df39ff8	0.11895746
22	0x3d827aa0	0.06371045
23	0x3e074e45	0.13213451
24	0x3d87e38e	0.066351995
25	0xbdcd6ab6	-0.10030119
26	0xbe47aaf2	-0.19498804
27	0x3d96a981	0.07356549
28	0x3ddea4c3	0.108712696
29	0x3dcc874f	0.099867456
30	0x3e215db2	0.15758398
31	0x3c87df24	0.016585894
32	0xbdb395b3	-0.08768787
33	0x3ec0d273	0.3766056
34	0xbccb4642	-0.024813775
35	0xbdbc4e3d	-0.0919461
36	0x3e8a0ba4	0.26962006
37	0x3c859eef	0.016311137
38	0xbe91f1a8	-0.28504682
39	0x3da3510e	0.07974444
40	0x3d3a6421	0.045505647
41	0xbdd1a9a7	-0.10237437
42	0x3e63b8b2	0.22238424
43	0xbde610e8	-0.11233693
44	0xbc5fffd6	-0.013671836
45	0xbe482fda	-0.19549504
46	0x3da199fb	0.078906976
47	0x3df40ec9	0.119168825
48	0x3e4672d8	0.19379747
49	0xbdcaf4d4	-0.099099785
50	0xbd83f0ed	-0.06442437
51	0x3e83c6c0	0.25737572
52	0xbe19a10c	-0.15002841
53	0x3c60833b	0.013703163
54	0x3d0ca7cb	0.034339707
55	0x3cea65b4	0.028612949
56	0xbd401de2	-0.0469035
57	0x3dec4e33	0.11538353
58	0x3e0c94c3	0.13728623
59	0x3dbe3388	0.092871726
60	0x3de4b19a	0.11166687
61	0xbd2fa3bc	-0.04288076
62	0xbe9d01dc	-0.3066548
63	0x3e71687a	0.23575011
64	0xbe468e2f	-0.19390176
65	0x3abf81e3	0.0014610853
66	0x3c932595	0.017962256
67	0x3e4f753f	0.2025957
68	0xbd3db7a4	-0.04631771
69	0x3ce90898	0.02844648
70	0x3dc6ba5f	0.09703516
71	0x3dab65d9	0.08369035
72	0xbd82f938	-0.06395191
73	0xbdde2a9c	-0.10847971
74	0x3da65fe6	0.0812376
75	0x3e91935e	0.28432745
76	0x3d544d82	0.05183173
77	0xbe6fddbd	-0.2342443
78	0x3db749e7	0.08949643
79	0xbe82c985	-0.25544372
80	0x3e057ea1	0.13036586
81	0x3e8cd3e2	0.27505404
82	0xbe8f4785	-0.27984253
83	0x3e93fb86	0.28902835
84	0xbe30a6df	-0.17251156
85	0xbdc5f6b0	-0.096661925
86	0x3d45f322	0.048327573
87	0x3e169537	0.14705358
88	0xbdb572bf	-0.08859777
89	0x3e5e94a4	0.2173639
90	0x3d84eabf	0.06490087
91	0x3c51fda5	0.012816821
92	0x3de90c65	0.11379317
93	0x3dc937bc	0.098250836
94	0x3d2f3c1d	0.042781938
95	0xbe94e845	-0.29083458
96	0x3df6191a	0.120165065
97	0xbce33989	-0.027737396
98	0x3e5cba59	0.21555461
99	0xbbee9fed	-0.007282248
100	0xbe0bc884	-0.1365071
101	0x3df4d3c1	0.11954451
102	0x3da2b945	0.079454936
103	0xbe39b415	-0.18135102
104	0xbd516b9d	-0.05112802
105	0x3db343b9	0.087531514
106	0xbcf79b92	-0.030225549
107	0x3c03b14c	0.008037876
108	0xbcac2d04	-0.021017559
109	0xbe347f29	-0.17626633
110	0x3df50507	0.119638495
111	0x3dfe88a4	0.12428406
112	0xbd052f42	-0.03251577
113	0x3de1ff39	0.11035008
114	0xbd54cf70	-0.05195564
115	0xbe284a27	-0.16434537
116	0xbd4e7faa	-0.05041472
117	0x3cff2044	0.031143315
118	0xbd8751f3	-0.066074274
119	0x3d464860	0.048408866
120	0x3e2bcdd2	0.16777733
121	0x3e39b030	0.18133616
122	0x3e43ac00	0.19108582
123	0x3c1ac59d	0.009446529
124	0xbdee9e10	-0.11651242
125	0xbd47edce	-0.048810773
126	0x3d84749d	0.06467555
127	0x3dd89750	0.105757356
128	0xbe1ca5a0	-0.15297556
129	0x3eb08dbd	0.34483138
130	0xbce0194a	-0.027355809
131	0xbd35990e	-0.044335417
132	0x3df06b17	0.11739176
133	0x3df30b28	0.11867362
134	0xbd00a9ba	-0.031411864
135	0x3d080adb	0.033213478
136	0xbe2d2bde	-0.16911265
137	0x3e1b9582	0.15193751
138	0xbd499e1f	-0.04922306
139	0xbe89d327	-0.2691891
140	0xbba475b4	-0.005018914
141	0xbdf60790	-0.12013161
142	0xbdc457d9	-0.09587068
143	0xbd8e5ec3	-0.06951668
144	0x3ea120da	0.31470376
145	0xbe907d11	-0.28220418
146	0xbdd4c433	-0.103889845
147	0xbe080c9a	-0.13286057
148	0x3ddd0553	0.10792031
149	0x3e4603a1	0.19337322
150	0x3e2f44a5	0.1711603
151	0xbdb27665	-0.08713988
152	0xbe44dc84	-0.19224745
153	0x3cb00e24	0.021491118
154	0xbcdb4c58	-0.026769802
155	0xbe30d702	-0.17269519
156	0x3e17dad0	0.14829564
157	0xbc872303	-0.016496187
158	0xbd0e69ab	-0.03476874
159	0xbe218a38	-0.15775383
160	0x3dd62338	0.10455936
161	0xbdfd33de	-0.123634085
162	0x3e6be1be	0.23035333
163	0xbde19aff	-0.11015891
164	0x3e1f38d0	0.15549016
165	0x3dcb2f3e	0.0992112
166	0x3eacea05	0.33772293
167	0xbe149781	-0.14510919
168	0xbe7d6207	-0.24744426
169	0x3e0cebf1	0.1376188
170	0xbdc144a2	-0.09436919
171	0x3d8deffb	0.06930538
172	0x3e1040d2	0.14087227
173	0x3e66db2f	0.2254455
174	0x3e59a326	0.21253642
175	0xbd870605	-0.06592945
176	0x3ea1dfba	0.31616002
177	0x3ddc6205	0.10760883
178	0x3d905668	0.07047731
179	0xbe9f852f	-0.311563
180	0xbe83f0c8	-0.2576964
181	0x3c37af25	0.011211191
182	0xbe639a5e	-0.22226855
183	0xbde0dfa0	-0.10980153
184	0xbb2259ef	-0.0024772843
185	0x3d937540	0.07200098
186	0x3d91df2f	0.07122647
187	0xbd78ab37	-0.06071016
188	0x3ce8a3b4	0.028398372
189	0x3d4ea3f8	0.05044934
190	0xbebd0636	-0.369188
191	0x3ca01ce2	0.019545022
192	0x3e380356	0.17970023
193	0x3e3dca1f	0.18534134
194	0x3e441428	0.19148314
195	0x3e5f03e5	0.2177883
196	0xbd23bca1	-0.039974812
197	0xbe0f972b	-0.1402251
198	0xbdd5e5bc	-0.10444209
199	0xbd007c4f	-0.03136855
200	0x3dbf61fe	0.093448624
201	0x3dd36147	0.103212886
202	0x3d18c15b	0.037293773
203	0xbe3ca91d	-0.18423887
204	0xbd7d148f	-0.061787184
205	0x3df85dc7	0.121272616
206	0x3da1bc95	0.07897297
207	0x3e7846ce	0.2424576
208	0xbe21274e	-0.1573765
209	0x3dc9f183	0.09860518
210	0x3e830bb2	0.2559486
211	0x3e1334eb	0.14375655
212	0x3e3c5a4b	0.18393819
213	0x3df87740	0.1213212
214	0xbc7ed76e	-0.015554292
215	0x3e0c8c09	0.13725294
216	0x3cda0746	0.026614796
217	0x3e6f4382	0.23365596
218	0x3d87463b	0.06605192
219	0x3e75ddf3	0.24010448
220	0x3db1eaca	0.086873606
221	0xbeab09f4	-0.3340603
222	0xbe4d288e	-0.20035002
223	0xbe29e476	-0.16591057
224	0x3db6ce56	0.08926074
225	0xbe10b26d	-0.14130564
226	0xbe915426	-0.28384513
227	0x3ce8a12e	0.028397169
228	0x3c656a11	0.014002339
229	0xbe39b40e	-0.18135092
230	0xbdbe4d3a	-0.092920735
231	0x3e07b5df	0.13252972
232	0xbe1a6caa	-0.15080515
233	0xbe47a1aa	-0.19495264
234	0x3dba40b6	0.09094374
235	0x3e04d759	0.12972774
236	0x3db604d2	0.08887638
237	0x3d0a1da0	0.03371966
238	0x3e29e7d0	0.16592336
239	0x3dde6ed6	0.10860984
240	0x3dc6d9e7	0.0970953
241	0x3d1ff5c3	0.039052736
242	0xbcf62514	-0.030046977
243	0x3e07bb17	0.13254963
244	0x3e9e55d4	0.30924857
245	0x3dc4971a	0.09599133
246	0x3e138612	0.14406613
247	0x3e06406b	0.13110511
248	0x3e45039c	0.19239658
249	0xbc4c60ae	-0.012474222
250	0x3dfbd7b0	0.122969985
251	0x3d4b1d3d	0.04958843
252	0x3d8461c4	0.0646396
253	0x3d785d95	0.06063612
254	0x3d83971b	0.064253055
255	0x3e3f3103	0.1867104

mlp_layers.3.weight f4 [128, 256]
0	0x3d8130d4	0.06308141
1	0xbd813a8e	-0.063099965
2	0x3df5d44d	0.12003384
3	0xbd0683e4	-0.032840624
4	0xbc312bc3	-0.010813656
5	0xbc1f89f8	-0.009737484
6	0xbdbd4300	-0.09241295
7	0x3ba14e51	0.004922666
8	0xbd590e42	-0.052992113
9	0xbc240f52	-0.010013418
10	0x3e42f22a	0.19037691
11	0x3c83122a	0.015999872
12	0x3d2423e4	0.04007329
13	0xbdbb878d	-0.09156714
14	0xbc9b6de7	-0.018973304
15	0x3d93b3d5	0.072120346
16	0x3dc5ff41	0.096678264
17	0xbdf57eda	-0.11987086
18	0xbda0548e	-0.078286275
19	0xbcd26712	-0.025683913
20	0x3dca5ff0	0.0988158
21	0x3d219ce8	0.039456278
22	0xbceab2ad	-0.028649652
23	0xbd74d914	-0.059777334
24	0xbc3c31a0	-0.011486441
25	0x3d27df5e	0.040984504
26	0xbd8f7175	-0.07004062
27	0xbc891832	-0.01673517
28	0x3d29f181	0.04149008
29	0xbdc7fdef	-0.09765231
30	0xbd348d2d	-0.04407995
31	0x3c05b501	0.0081608305
32	0xbcbb7404	-0.022882469
33	0xbcf0e35b	-0.029405287
34	0x3d729eb5	0.059233386
35	0xbd63ab82	-0.055583484
36	0x3d98cf48	0.07461411
37	0x3deee758	0.11665219
38	0xbc9d164e	-0.019175675
39	0x3c29f434	0.010373164
40	0x3d9f387e	0.07774447
41	0x3da8b70c	0.082380384
42	0x3c4f0378	0.012635104
43	0x3db577cf	0.08860742
44	0xbd4ed66b	-0.050497454
45	0xbd81ae96	-0.06332128
46	0x3c6eab8c	0.014567267
47	0xbc9e3efa	-0.019317139
48	0x3d4adb89	0.04952577
49	0xbda2e5b8	-0.079539716
50	0xbd79753c	-0.06090282
51	0x3d9157df	0.07096838
52	0x3da0e863	0.07856824
53	0x3c814c58	0.015783474
54	0xbd9c8ee1	-0.076444395
55	0x3cd5e0e0	0.026108205
56	0x3bb65403	0.005564214
57	0x3de0defa	0.109800294
58	0x3d171e89	0.036894355
59	0xbdb2a611	-0.08723081
60	0x3cca157d	0.02466845
61	0x3d6a540e	0.057209067
62	0xbc722df5	-0.014781465
63	0x3d9d7459	0.07688207
64	0x3c3df995	0.0115951495
65	0xbd95d4e0	-0.07315993
66	0xbad51f2c	-0.00162599
67	0xbb40ff3d	-0.002944901
68	0x3d719d01	0.05898762
69	0xbc965e9f	-0.018355666
70	0x3e11b86d	0.14230509
71	0x3c1b96e0	0.009496421
72	0x3c5de5f0	0.013543591
73	0xbd260694	-0.040533617
74	0x3df9c6d3	0.12196126
75	0xbc099ce7	-0.008399225
76	0x3e1db40c	0.15400714
77	0xbd158f0b	-0.03651337
78	0x3de1de7a	0.11028762
79	0x3ca8a68e	0.020587232
80	0x3dfb6ac4	0.12276223
81	0x3e16028c	0.14649409
82	0xba7ce2f8	-0.0009646858
83	0xbb5bda9f	-0.0033547056
84	0xbd8249b1	-0.06361712
85	0xbc81ba54	-0.015835918
86	0x3e25fcbe	0.16209695
87	0x3c80eab1	0.01573691
88	0x3cb51708	0.022105709
89	0xbd9345a4	-0.07191017
90	0x3c06fbe2	0.0082387645
91	0xbc86a75f	-0.01643723
92	0xbdb6ea75	-0.08931438
93	0xbd358350	-0.044314682
94	0x3cb0406b	0.021515092
95	0x3bbc293f	0.0057422216
96	0x3e23f82c	0.16012639
97	0x3d02bf4a	0.03192071
98	0xbc7b9be0	-0.015356988
99	0x3de18a28	0.11012679
100	0x3d67b54b	0.05656938
101	0xb9fbd12e	-0.00048030302
102	0xbd8f6b3f	-0.070028774
103	0x3d70bca4	0.05877365
104	0x3e25ce6a	0.16192022
105	0x3c4faa67	0.012674904
106	0x3d35ccf4	0.04438491
107	0x3d88d148	0.06680542
108	0x3a7c0841	0.0009614267
109	0x3da4a22e	0.08038746
110	0x3d23a8a7	0.03995576
111	0xbbe93f97	-0.007118176
112	0x3c33d8c5	0.010976975
113	0x3d8d0a8c	0.06886777
114	0x3cb55996	0.022137444
115	0xbe1df4d3	-0.15425424
116	0x3da91c96	0.082574055
117	0x3b54a93e	0.003244951
118	0x3d70f606	0.058828376
119	0x3d7f374b	0.06230859
120	0x3c4e6b94	0.012598891
121	0xbc948437	-0.018129451
122	0x3d6b3434	0.05742283
123	0x3d4805d6	0.04883369
124	0x3d546120	0.051850438
125	0xbdd26ad6	-0.102742836
126	0xbdec7161	-0.11545063
127	0xbc4e6b59	-0.012598836
128	0x3da5fd36	0.08104937
129	0x3d658181	0.056031708
130	0x3c6c4227	0.014420069
131	0x3dbc9844	0.0920873
132	0x3c1c96a1	0.009557397
133	0xbd7ea7fa	-0.062171914
134	0xbd565ed7	-0.05233654
135	0xbc8bbec0	-0.01705873
136	0xbcedbd84	-0.029021032
137	0x3b8c9268	0.004289914
138	0x3d458182	0.04821921
139	0x3dc1cb13	0.094625615
140	0x3dab5578	0.08365911
141	0xbcb82f16	-0.02248339
142	0x3c89dac9	0.016827958
143	0x3d84d90c	0.06486711
144	0xbe34a230	-0.17639995
145	0x3dbf7050	0.09347594
146	0xbdb9e3e9	-0.090766735
147	0x3c624f67	0.013812876
148	0x3caf4af1	0.02139804
149	0xbc82e115	-0.015976468
150	0xbd70b7e0	-0.058769107
151	0xbdde1bbe	-0.10845135
152	0x3dce6c91	0.10079301
153	0x3dc10e0a	0.09426506
154	0xbdd0747f	-0.1017847
155	0x3d27f73c	0.041007265
156	0xbd07e747	-0.033179548
157	0x3db6d2cf	0.08926927
158	0x3dd84388	0.105597556
159	0xbdd48310	-0.10376561
160	0x3d2f66fa	0.042822815
161	0x3d3330aa	0.04374758
162	0xbdc09784	-0.09403899
163	0xbd146fd0	-0.036239445
164	0x3d1da7d1	0.03849012
165	0x3d44e1c3	0.048066866
166	0xbd064f6f	-0.032790598
167	0x3cadb4bd	0.021204347
168	0xbd7c0022	-0.061523564
169	0xbcfca66b	-0.030841073
170	0x3db89d28	0.0901435
171	0x3d264455	0.04059251
172	0xbd626fff	-0.05528259
173	0x3e249ffc	0.16076654
174	0x3d4e1340	0.050311327
175	0xbd5e1da1	-0.054227475
176	0xbccaafb5	-0.024741987
177	0x3e047ea7	0.12938939
178	0x3bcc730f	0.006239302
179	0x3e0d6d79	0.13811292
180	0x3cd30d9b	0.025763324
181	0xbd181882	-0.037132747
182	0x3c7d0831	0.0154438475
183	0x3d3cf7f6	0.04613491
184	0x3b1cb0fc	0.0023909202
185	0xbdd877d0	-0.105697274
186	0xbd797953	-0.06090672
187	0x3dfe1d64	0.124079496
188	0x3ddb2a8e	0.10701476
189	0xbdc106a9	-0.094250984
190	0x3e253850	0.16134763
191	0xbccb989a	-0.02485304
192	0xbd8ee79a	-0.06977768
193	0x3e1948c2	0.14969161
194	0xbdbcf810	-0.09227002
195	0xbdb22309	-0.08698089
196	0xbd8e6c9a	-0.06954308
197	0x3cf3fffc	0.029785149
198	0x3d39ac87	0.04533055
199	0x3d19f341	0.0375855
200	0xbb7126cd	-0.0036796809
201	0xbd96efd9	-0.07369966
202	0x3dd6670b	0.10468873
203	0x3d0428dc	0.03226553
204	0x3d70b80e	0.05876928
205	0xbe2189e7	-0.15775262
206	0xbd895212	-0.06705107
207	0x3d6d8c51	0.057995144
208	0x3c6777f4	0.01412772
209	0x3ca143bc	0.019685619
210	0x3e098e4d	0.1343319
211	0x3e199799	0.14999236
212	0x3ca20ba1	0.019780936
213	0xbd63a551	-0.05557758
214	0x3e2ff8d9	0.17184772
215	0x3c72b0d1	0.014812664
216	0x3bb4c74d	0.0055169226
217	0x3d45ecc0	0.048321486
218	0x3d99a702	0.07502557
219	0x3e28b4d8	0.16475236
220	0x3bed62a6	0.007244426
221	0x3d0f09cb	0.03492145
222	0x3d40a0d1	0.047028366
223	0x3d2eae8d	0.042646933
224	0xbc6ce92a	-0.0144598875
225	0x3d1d3c24	0.038387433
226	0x3e026bac	0.12736386
227	0x3d0b06c3	0.033941995
228	0xbd43226e	-0.047640257
229	0x3cdaefca	0.026725668
230	0xbcd9802d	-0.026550377
231	0xbd09aa7c	-0.033609852
232	0xbca02a9f	-0.019551573
233	0x3d7f80d6	0.062378727
234	0xbdb820d1	-0.08990634
235	0xbd766823	-0.060157906
236	0x3db04e58	0.08608693
237	0xbcf0940d	-0.029367471
238	0xbdbf6913	-0.09346213
239	0x3e419013	0.18902616
240	0x3e2405ea	0.16017881
241	0xbdf6a34f	-0.120428674
242	0x3c1cb17e	0.009563802
243	0xbbe42048	-0.006961856
244	0x3d931c6e	0.07183157
245	0x3cef9e49	0.029250281
246	0x3d42afc4	0.047530904
247	0x3d20e3c5	0.039279718
248	0xbd70c694	-0.05878313
249	0xbcbac358	-0.022798225
250	0xbda55428	-0.08072692
251	0x3d71cd44	0.059033647
252	0x3d1be7e0	0.03806293
253	0xbddfaf88	-0.10922152
254	0xbd7de390	-0.0619846
255	0x3c687a64	0.014189336

mlp_layers.3.bias f4 [128]
0	0x3d223e6b	0.039610308
1	0x3c507fc5	0.012725775
2	0xbca65c81	-0.020307781
3	0xbdbcdf88	-0.09222323
4	0xbda1cefd	-0.07900808
5	0x3cb9fd2b	0.022703728
6	0x3d905ef8	0.07049364
7	0xbc68b2cb	-0.014202784
8	0x3c818d65	0.015814492
9	0x3b81dcd2	0.0039630914
10	0xbd8cf311	-0.06882299
11	0xbcf349b2	-0.029698227
12	0xbb98ea7d	-0.004666625
13	0xbc3dc201	-0.011581899
14	0x3d0556ff	0.03255367
15	0x3d8f996b	0.07011684
16	0xba709205	-0.0009177032
17	0x3d8fa1e7	0.07013302
18	0xbd37be93	-0.04485948
19	0xbd274475	-0.04083677
20	0x3cbfcc99	0.02341299
21	0x3b8c163b	0.004275111
22	0xbe119280	-0.14216042
23	0x3bbeb25f	0.0058196033
24	0xbc2053e2	-0.009785624
25	0xbd381fa8	-0.044952065
26	0xbdb6430e	-0.088995084
27	0xbc43f557	-0.011960349
28	0x3d8650cc	0.065583795
29	0x3c886864	0.01665134
30	0x3b867c05	0.0041041397
31	0x3d103738	0.03520891
32	0xbd843e82	-0.06457235
33	0xbd0cd59c	-0.0343834
34	0x3d6756db	0.056479316
35	0x3cee4f28	0.029090479
36	0xbda67ed6	-0.08129661
37	0xbd81287f	-0.06306552
38	0xbda360ac	-0.07977423
39	0xbdcb233a	-0.09918828
40	0x3d3c5dea	0.045988
41	0xbd391a9d	-0.045191396
42	0x3cb3d4c9	0.02195205
43	0xbd5dabc9	-0.054118905
44	0xbd3d3f3c	-0.046202883
45	0x3c51b97f	0.012800573
46	0x3ce3b53d	0.027796382
47	0x3c24338f	0.010022058
48	0xbbe39374	-0.006945068
49	0x3d1366b6	0.035986625
50	0x3cbee87e	0.02330422
51	0xbbbdbdbf	-0.0057904418
52	0xbd84c9eb	-0.06483825
53	0xbc0966c3	-0.008386317
54	0x3c182bf2	0.009287821
55	0x3d4a6832	0.049415775
56	0x3cd64088	0.026153818
57	0x3d1f534a	0.03889779
58	0x3c9c0faa	0.019050438
59	0x3bd28eb2	0.006425702
60	0xbd18e27c	-0.037325367
61	0x39cb813e	0.0003881547
62	0x3d2e0f87	0.042495277
63	0x3da5be23	0.08092906
64	0xbd3a81c9	-0.04553393
65	0x3dacdb87	0.08440309
66	0xbbbdf252	-0.005796709
67	0xbd41e041	-0.047333006
68	0xbcdbcd15	-0.02683119
69	0x3da1cc10	0.0790025
70	0xbd75f9fb	-0.060052853
71	0x3d0c719e	0.03428804
72	0xbdb87882	-0.0900736
73	0xbce77445	-0.028253684
74	0xbc83e879	-0.016102063
75	0xbcbcd717	-0.023051782
76	0xbd532149	-0.051545415
77	0xbca35681	-0.01993871
78	0xbc4dca1f	-0.012560396
79	0x3dbd892c	0.09254679
80	0xbdc1e66e	-0.09467779
81	0xbd3d6cbf	-0.046246286
82	0x3dc7cf17	0.09756296
83	0xbd1574fe	-0.036488526
84	0x3c76cb5b	0.015063132
85	0xbd29708c	-0.0413671
86	0x3d53d56d	0.05171721
87	0x3d2f844f	0.04285079
88	0xbd29b497	-0.04143199
89	0xbd38f777	-0.045157876
90	0x3d73ba3a	0.05950377
91	0x3d89e7ee	0.0673369
92	0xbd2d8be2	-0.04236973
93	0xbdf2e5ed	-0.11860261
94	0xbbea76c1	-0.00715527
95	0x3d2baf96	0.0419155
96	0x3d758e16	0.059949957
97	0x3c4a29b5	0.012339045
98	0x3d03f0fb	0.03221224
99	0xbd845ab8	-0.06462616
100	0xbc1a3def	-0.00941418
101	0x3d5fdd75	0.054654557
102	0x38fcc7e8	0.00012053532
103	0x3d3ed2ec	0.04658787
104	0x3d0928dc	0.033486232
105	0xbcab8242	-0.020936135
106	0xbdb463e9	-0.08808119
107	0x3d8536b3	0.06504574
108	0x3dd6a200	0.10480118
109	0xbd551e5b	-0.052030902
110	0xbdd15a7b	-0.10222336
111	0x3c813141	0.015770556
112	0x3db59ffa	0.08868404
113	0x3b4e77b2	0.003150445
114	0x3d5daa53	0.054117512
115	0x3cdb0a67	0.026738359
116	0x3d1c6a0a	0.038187064
117	0xbd6038a8	-0.05474153
118	0x3d9cf80e	0.076645
119	0x3d3a392d	0.045464683
120	0xbe050e7d	-0.12993808
121	0xbc57d7c8	-0.013174005
122	0xbdb9cb25	-0.0907195
123	0xbd31172f	-0.043235
124	0xbb93997e	-0.0045043817
125	0xbb798444	-0.0038073221
126	0xbdcb7225	-0.09933881
127	0xbb26a4c6	-0.0025427802

mlp_layers.5.weight f4 [4, 128]
0	0x3ccfacd6	0.02535097
1	0x3e271fca	0.1632072
2	0xbd873272	-0.066014186
3	0x3f57dca4	0.84321046
4	0x3d6fc860	0.058540702
5	0x3e452409	0.19252028
6	0xbd9b2097	-0.075745754
7	0xbedd419a	-0.43214113
8	0x3d2c81ea	0.042116083
9	0x3f0c2171	0.5473853
10	0x3ce74a35	0.028233627
11	0x3d9f31f1	0.077731974
12	0x3e34e5c3	0.17665772
13	0x3d1e0e4d	0.038587857
14	0x3dec4212	0.115360394
15	0xbe34b9a2	-0.17648938
16	0xbe4bb7cb	-0.1989433
17	0x3ed870bb	0.42273507
18	0xbe032e73	-0.12810688
19	0x3d86b5ad	0.06577621
20	0x3e12f52e	0.14351341
21	0x3cee4890	0.029087335
22	0xbed39096	-0.41321248
23	0x3d356b73	0.044291925
24	0x3db20262	0.08691861
25	0xbe3d79fa	-0.18503562
26	0xbebb74de	-0.366126
27	0x3ec1070b	0.37700686
28	0x3d407f40	0.046996355
29	0xbeaa6dcb	-0.3328689
30	0xbe818dd2	-0.25303513
31	0xbdde0e4c	-0.10842571
32	0xbe099bc7	-0.1343833
33	0x3ec2b99d	0.38032237
34	0x3db312a9	0.087437935
35	0x3dd0e72e	0.10200344
36	0xbe2d55ea	-0.16927305
37	0xbe04500c	-0.1292116
38	0x3eab55c1	0.33463863
39	0x3d6f7e05	0.05846979
40	0x3e58e22d	0.21180029
41	0x3f28d528	0.6595025
42	0x3e2bc79f	0.16775368
43	0xbe7e62de	-0.24842402
44	0xbbe2dad1	-0.0069230576
45	0xbf4c8bfa	-0.7990109
46	0x3d068742	0.032843836
47	0xbe4bdf6f	-0.19909452
48	0x3e76f7bc	0.2411794
49	0x3f114cf5	0.5675805
50	0x3d403990	0.046929896
51	0xbdeec527	-0.116586976
52	0x3f27f4e1	0.6560803
53	0x3d9ca67c	0.07648942
54	0x3e4c9a98	0.19980848
55	0x3cebac55	0.028768698
56	0x3e3aeaaf	0.18253587
57	0x3e07623a	0.13221064
58	0x3d9d0691	0.07667268
59	0xbd836561	-0.06415821
60	0xbe3191fe	-0.17340848
61	0xbe09619f	-0.13416146
62	0xbe23103e	-0.15924165
63	0xbee7a2d2	-0.4524141
64	0xbef7e626	-0.48417777
65	0x3e782ba8	0.24235404
66	0xbea2a243	-0.3176442
67	0x3dc6382d	0.096786834
68	0x3eaec3bc	0.34133708
69	0x3ea122b1	0.3147178
70	0xbd7031ed	-0.058641363
71	0x3df72720	0.120680094
72	0x3ee9facc	0.45699155
73	0x3c3a654d	0.011376691
74	0x3eeae321	0.4587641
75	0xbe8c1975	-0.27363172
76	0xbd39ae70	-0.045332372
77	0xbf260864	-0.64856553
78	0xbea48416	-0.32132024
79	0x3e9f57a4	0.31121552
80	0x3e025d66	0.12730941
81	0x3f4a8da9	0.79122406
82	0x3e62a9d6	0.221351
83	0x3e6272b0	0.22114062
84	0xbee5b972	-0.44868046
85	0x3e308658	0.17238748
86	0x3c511c64	0.0127631165
87	0x3efd079f	0.49419877
88	0x3ec7b79b	0.39007267
89	0xbe103816	-0.14083895
90	0x3c3c5de2	0.011496993
91	0xbc1183cb	-0.00888152
92	0xbe1ef9c9	-0.15524973
93	0xbe04291f	-0.12906311
94	0x3d8934d0	0.06699526
95	0xbea77199	-0.32703856
96	0xbeda822e	-0.42677444
97	0xbeb43b80	-0.35201645
98	0xbd8149ba	-0.0631289
99	0xbeaf4917	-0.3423545
100	0xbd03ebb6	-0.032207213
101	0x3e6eb35c	0.23310608
102	0xbe401a4d	-0.18760033
103	0x3d8a3271	0.06747902
104	0xbe9f5e3f	-0.31126592
105	0xbeea0e7c	-0.45714176
106	0xbe7e13ca	-0.24812236
107	0x3e3b7c1b	0.18309061
108	0x3d864485	0.06556038
109	0xbea708e1	-0.32623962
110	0xbdf6658f	-0.120310895
111	0x3dac74f1	0.08420742
112	0x3e41cc58	0.18925607
113	0x3f4e2b15	0.8053449
114	0xbef31345	-0.4747564
115	0xbbaae886	-0.0052157072
116	0x3f15ee4c	0.5856674
117	0xbde9d2e1	-0.11417175
118	0x3d21ab14	0.039469793
119	0x3cbd0682	0.023074392
120	0x3a53879b	0.0008069218
121	0xbe2de641	-0.16982366
122	0x3e0a1da1	0.13487865
123	0xbeedde8e	-0.46458858
124	0xbe0b9384	-0.13630491
125	0x3c29bd39	0.010360056
126	0xbe7ef79f	-0.24899147
127	0x3e551792	0.20809773
128	0x3c2f3534	0.010693837
129	0xbae5f452	-0.0017544127
130	0xbe12291a	-0.14273492
131	0x3f2f349a	0.6843964
132	0xbeb7455a	-0.357951
133	0x3f1af812	0.60534775
134	0x3c94ea6b	0.018178185
135	0x3e087d8f	0.13329147
136	0x3d7113c8	0.058856755
137	0x3c84dd26	0.016218733
138	0x3ea054c4	0.3131467
139	0x3e34a7a6	0.17642078
140	0x3d4b965e	0.04970395
141	0x3e4ec3b0	0.20191836
142	0xbec31403	-0.38101205
143	0xbf5a8bf5	-0.8536981
144	0xbeafc594	-0.34330428
145	0xbd97a692	-0.07404818
146	0x3e41d731	0.18929745
147	0x3e4be392	0.1991103
148	0xbb96618e	-0.004589266
149	0x3b73e09d	0.0037212737
150	0xbdd017bb	-0.10160776
151	0x3d696e82	0.056990154
152	0x3c4fab21	0.012675078
153	0xbf0df808	-0.5545659
154	0x3e2d3adb	0.16916983
155	0x3e329f22	0.17443517
156	0xbe3cabd9	-0.1842493
157	0xbf3b463b	-0.7315404
158	0xbf1cfc17	-0.6132216
159	0xbe410c06	-0.18852243
160	0x3e46f0e6	0.19427833
161	0x3d8809a2	0.06642462
162	0x3e81be8a	0.25340682
163	0xbd8662dc	-0.06561825
164	0x3e7700bd	0.24121375
165	0xbc307236	-0.0107694175
166	0x3edb99c7	0.4289076
167	0xbeea8c66	-0.4581024
168	0x3e55536e	0.20832607
169	0x3e36dc33	0.17857437
170	0xbc2635b0	-0.010144636
171	0xbde72149	-0.112856455
172	0x3df2c805	0.11854557
173	0x3f20ca11	0.6280833
174	0x3c7b6050	0.015342787
175	0xbf12331c	-0.57109237
176	0x3e43bbc2	0.19114593
177	0xbec24a8a	-0.37947494
178	0xbc16430f	-0.009171261
179	0x3d010a18	0.031503767
180	0x3efebc59	0.49753073
181	0x3d2ab335	0.04167481
182	0xbd547d84	-0.051877514
183	0x3d8ec2e9	0.0697077
184	0xbf348926	-0.7052177
185	0xbe15594f	-0.1458485
186	0x3e00dbdd	0.12583871
187	0x3c9f9f34	0.019485094
188	0x3e8212f3	0.25405082
189	0xbe9d2f65	-0.30700222
190	0xbe4e0e97	-0.20122753
191	0x3f1b9dbe	0.6078757
192	0x3ec5a66f	0.3860354
193	0xbe37b2e2	-0.17939332
194	0x3e6ce01e	0.23132369
195	0xbdfac129	-0.122438736
196	0xbd67b39d	-0.056567777
197	0x3e69b68c	0.22823542
198	0x3e8eac9d	0.27866068
199	0x3ea3dabb	0.32002816
200	0x3f15f04b	0.5856978
201	0x3e0ce5d4	0.13759547
202	0xbeb7023f	-0.357439
203	0x3e29db91	0.16587664
204	0xbea86529	-0.3288968
205	0x3eb2d0e9	0.3492501
206	0xbee927db	-0.4553822
207	0x3d1a961f	0.037740823
208	0xbf3964d5	-0.7241948
209	0x3d914333	0.07092895
210	0xbe26bdb1	-0.16283299
211	0xbeb29f21	-0.3488703
212	0x3c78f660	0.015195459
213	0xbd8374e4	-0.064187795
214	0xbc0becc6	-0.008540338
215	0x3ed8406c	0.4223665
216	0x3c995eee	0.018722024
217	0x3ea4a37a	0.32155973
218	0x3dba6590	0.09101403
219	0xbef5fdf9	-0.48045328
220	0xbefde66f	-0.4958987
221	0x3f11d29f	0.5696201
222	0xbd819f3d	-0.063292004
223	0x3db32c3a	0.0874867
224	0xbdc8f7f0	-0.09812915
225	0x3e1a1d82	0.15050319
226	0xbd6d2ef1	-0.057906095
227	0x3d9bc991	0.07606805
228	0xbebcd814	-0.36883605
229	0xbeed4a6a	-0.46345836
230	0x3e807d59	0.25095633
231	0xbec63c69	-0.38717964
232	0xbdb8460f	-0.089977376
233	0x3f08017d	0.5312727
234	0x3ecea466	0.403598
235	0x3e92f760	0.28704357
236	0xbda80944	-0.08204892
237	0x3e3d69b7	0.18497358
238	0xbe67a403	-0.2262116
239	0xbeabbd41	-0.33542827
240	0x3eb46dd6	0.35240048
241	0xbc946f85	-0.018119583
242	0xbc3be2e6	-0.011467671
243	0xbdbf2ab4	-0.09334317
244	0x3ed495aa	0.41520435
245	0x3e58b1e6	0.21161613
246	0x3c53721d	0.012905625
247	0x3d702b41	0.058635
248	0x3e5e1a57	0.21689735
249	0xbb751bd8	-0.003740063
250	0x3f1be6d8	0.60899115
251	0x3f2fe67b	0.6871106
252	0x3ce2bd68	0.027678207
253	0x3cd12289	0.025529163
254	0xbf55c7d5	-0.83508044
255	0x3d72740e	0.05919271

mlp_layers.5.bias f4 [4]
0	0x3d56ac53	0.052410435
1	0xbd114f36	-0.035475932
2	0x3d7b2498	0.061314195
3	0xbc6620a7	-0.014045871
