tasks/crawler/solutions/ppo/solution_checkpoint/ppo_actor_checkpoint.pth (torch_old, 296028 bytes, 36 tensors)

std f4 [1, 20]
00000000: ff74 473e f72b 4a3e d04f 3f3e 1700 4b3e
00000010: b1e5 2a3e a878 403e 8cd3 2c3e 909c 403e
00000020: 43f9 053e 47fd eb3d 3301 ef3d ae08 023e
00000030: 1bf7 4b3e 25ba 4a3e c86d 493e 080e 4d3e
00000040: e163 493e a3a3 4b3e 400c 4a3e caa9 493e
0.19478224 0.19743334 0.1868279 0.19824253 0.16689183 0.18796027 0.16877574 0.18809724
0.13083367 0.11522918 0.116701506 0.12698624 0.19918482 0.19797571 0.19670784 0.20024884
0.19667007 0.19886641 0.19731236 0.19693676

actor.mlp_layers.0.weight f4 [129]
00000000: 1785 803a 4f91 083c 7cd2 3e3f 0d7e 493f
00000010: 447e 543f a218 503f 7c91 613f 2058 523f
00000020: 5173 433f 36ff 533f 3498 d635 64b1 3e3f
00000030: f570 393f aaa1 433f 9699 3f3f 76e4 293f
00000040: 0cad 393f 3498 d635 5877 563f bf33 433f
00000050: 667e 3f3f c8a0 323f 289a 453f 59ff 363f
00000060: 5211 1e3f 4314 443f 6ed2 353f 7a94 333f
00000070: 2b7d 1c3f 3498 d635 13c7 2b3f 22f6 4a3f
00000080: a25d 4b3f cb82 463f e3c1 433f 684d 493f
00000090: 8f48 353f 5f9a 453f 1967 3c3f fe30 3c3f
000000a0: 85e4 5d3f a07c 383f 3498 d635 3498 d635
000000b0: 90f0 1f3f 3498 d635 df40 4d3f ae24 2e3f
000000c0: c951 3f3f 56ab 463f fc2d 373f daa7 353f
000000d0: fa81 263f 4874 433f e16c 2c3f 771a 1d3f
000000e0: ab31 2a3f 3498 d635 e365 2f3f fad8 4b3f
000000f0: d836 3e3f 8866 583f fe67 4b3f 74fc 333f
00000100: c23e 323f 8700 4d3f 8bfb 403f 4577 443f
00000110: e73d 643f a0f0 3b3f 3498 d635 3498 d635
00000120: 5dba 1d3f 3498 d635 8f87 383f f3fe 5b3f
00000130: 6605 413f d221 303f 10f9 343f 7cc9 483f
00000140: 0f79 1f3f d56c 2f3f 9a6c 1e3f 4459 283f
00000150: 9317 253f 3498 d635 5da4 2e3f e901 513f
00000160: c79f 623f 6cfa 4a3f 54a5 423f 8dc2 4b3f
00000170: 2c68 3e3f 545a 583f ef97 473f 92d8 443f
00000180: 09af 613f 7450 413f 3498 d635 3498 d635
00000190: fad9 233f 3498 d635 1c03 4b3f 8f06 5c3f
000001a0: 3497 363f 358a 393f 086c 253f a40c 493f
000001b0: 9911 373f 4b89 373f c9c8 2c3f c487 3e3f
000001c0: 8757 2b3f 3498 d635 95db 253f 37f3 5a3f
000001d0: fffe 543f e633 4a3f 08bb 3a3f cf78 363f
000001e0: 2515 443f af4f 553f 1d23 483f 105c 3b3f
000001f0: 334a 5e3f 4b4a 343f 3498 d635 3498 d635
00000200: 4b48 1b3f
0.0009805289 0.0083354255 0.74539924 0.78707963 0.83005166 0.81287587 0.88112617 0.8216572
0.76347834 0.82811296 1.5988539e-06 0.74489427 0.72437984 0.76418555 0.7484373 0.6636423
0.72529674 1.5988539e-06 0.83775854 0.76250833 0.74802244 0.6977658 0.7718835 0.7148338
0.6174518 0.76593417 0.71024215 0.7014843 0.6112849 1.5988539e-06 0.6710064 0.7928182
0.7943975 0.77543324 0.7646772 0.7863374 0.7081384 0.77188677 0.73594815 0.73512256
0.8667682 0.7206516 1.5988539e-06 1.5988539e-06 0.62476444 1.5988539e-06 0.8017711 0.6802472
0.7473417 0.7760519 0.7155454 0.70959246 0.6504208 0.76349306 0.67353636 0.6136851
0.6648204 1.5988539e-06 0.6851484 0.79627955 0.74302435 0.8453145 0.79455554 0.7030709
0.6962701 0.8007893 0.75383824 0.7674449 0.89156955 0.7341404 1.5988539e-06 1.5988539e-06
0.6161249 1.5988539e-06 0.72081846 0.85935897 0.7539886 0.68801606 0.7069254 0.7843244
0.62294096 0.6852544 0.6188446 0.6576121 0.64489096 1.5988539e-06 0.6821955 0.8164354
0.8852505 0.79288363 0.7603352 0.79593736 0.74377704 0.8451283 0.7796621 0.7689296
0.8815771 0.75513387 1.5988539e-06 1.5988539e-06 0.6400448 1.5988539e-06 0.7930162 0.8594751
0.7132447 0.7247651 0.6461797 0.78534913 0.71511227 0.7169387 0.67493874 0.7442591
0.6693043 1.5988539e-06 0.6478818 0.85527366 0.83201593 0.7898544 0.7294164 0.7127809
0.76594764 0.8332471 0.7817858 0.7318735 0.8683197 0.7042586 1.5988539e-06 1.5988539e-06
0.60657185

actor.mlp_layers.0.bias f4 [129]
00000000: 4ad5 28ae 4fbf a32f c15e fab2 5c30 d432
00000010: 0ddf 6032 bacc 8232 a0f6 3333 5b02 4633
00000020: e465 58b3 32d3 dc32 d4b3 24a2 e18e d032
00000030: 0d45 76b2 7fe8 73b2 5e42 a730 0ba8 1531
00000040: 04d0 2e32 d37e c99f 7bd6 97b3 f6f3 6032
00000050: 2985 f5b2 6be7 b4b1 23ed ef33 839e eb32
00000060: 233b 1db3 02ce 2033 ae24 4a33 b0ad 11b3
00000070: c2a2 f6b1 f077 90a1 53ba 94b2 a827 5a33
00000080: d0d4 6b32 75b3 2332 6a40 5433 5325 e5b1
00000090: aae0 8d32 eb88 1a33 a28d 3432 d670 f132
000000a0: fbac b232 de0b 2a33 d784 c7a2 efe6 0b9f
000000b0: bcd0 8833 11f6 21a2 a7e6 f7b3 03f7 0433
000000c0: 6b7b 1d32 2d9e a8b3 ebc6 e0b2 825a 8033
000000d0: 7dae f132 193e 7f32 669a 7eb2 eba2 9732
000000e0: 03b2 f132 fa8e 49a2 952f b932 1eae 4f31
000000f0: 4124 d932 1e34 c431 56fb b733 df15 7b32
00000100: 7142 91b3 73ff 4a33 2fae a233 08aa cb33
00000110: e5bc 0c34 21e1 cdb3 1414 f121 99ad daa2
00000120: e5cf b4b3 970b 8022 7ce7 86b3 44bd 0833
00000130: 1f48 2c31 4b14 19b3 60a2 1e33 dbb4 5431
00000140: e918 0233 72ef ddb2 38c3 47b3 a1a6 c1b3
00000150: 2bb6 eb32 4ed1 1521 5aae 95b2 f7c6 7033
00000160: 0206 a3b3 4309 88b2 0d7d 9db3 cb1b 9e33
00000170: 92a3 2233 712b 35b4 faee 4134 3343 b9b2
00000180: 735c 9bb1 6d51 d232 01bd 9ba1 67a8 9222
00000190: b63c 3c32 9e7e 929d 0b21 65b3 23b4 96b2
000001a0: b2fe 1bb2 0edd eb31 274b 8bb3 7c8f 6d32
000001b0: e647 92b3 8ef0 89b2 a8f9 e832 c364 39b3
000001c0: 1d20 9cb2 33fe b222 9a96 06b1 c453 c7b3
000001d0: a13b dc33 b727 f8b2 6301 d230 f1e6 c432
000001e0: 693c 3a32 c2fe ea32 e19c 29b2 0021 eab3
000001f0: 6dee 9c32 f1d4 85b1 1b24 cba2 a6a8 ed20
00000200: b0c7 2133
-3.8388216e-11 2.978546e-10 -2.914692e-08 2.470204e-08 1.3089232e-08 1.522709e-08 4.190099e-08 4.610261e-08
-5.0384088e-08 2.5707411e-08 -2.2321345e-18 2.427936e-08 -1.4334785e-08 -1.4197325e-08 1.2169712e-09 2.1777875e-09
1.017543e-08 -8.5336624e-20 -7.070499e-08 1.3093986e-08 -2.8582308e-08 -5.2649987e-09 1.117244e-07 2.7429683e-08
-3.6608196e-08 3.7440266e-08 4.706515e-08 -3.391841e-08 -7.1780457e-09 -9.789567e-19 -1.7314198e-08 5.0793147e-08
1.3727188e-08 9.5286525e-09 4.941868e-08 -6.6690204e-09 1.6516726e-08 3.5980445e-08 1.05095825e-08 2.8107404e-08
2.080059e-08 3.9592003e-08 -5.4079708e-18 -2.962542e-20 6.370962e-08 -2.1949835e-18 -1.1543789e-07 3.09583e-08
9.166665e-09 -7.8518816e-08 -2.616749e-08 5.976928e-08 2.813544e-08 1.4857073e-08 -1.4819852e-08 1.76528e-08
2.8137043e-08 -2.731627e-18 2.1558472e-08 3.0221439e-09 2.5278611e-08 5.710276e-09 8.567319e-08 1.4615096e-08
-6.764174e-08 4.726412e-08 7.575397e-08 9.4838526e-08 1.3107235e-07 -9.587007e-08 1.633611e-18 -5.9272822e-18
-8.419719e-08 3.470674e-18 -6.281968e-08 3.1837104e-08 2.507029e-09 -3.5641545e-08 3.693492e-08 3.0952865e-09
3.029064e-08 -2.5836673e-08 -4.651085e-08 -9.0175725e-08 2.7440441e-08 5.0760176e-19 -1.7425169e-08 5.6060312e-08
-7.591372e-08 -1.5836696e-08 -7.333629e-08 7.362504e-08 3.786733e-08 -1.6872742e-07 1.8061465e-07 -2.1567393e-08
-4.521604e-09 2.4484246e-08 -1.0553237e-18 3.9751682e-18 1.0956844e-08 -3.8776797e-21 -5.334827e-08 -1.7544215e-08
-9.0800985e-09 6.864531e-09 -6.486362e-08 1.382784e-08 -6.811733e-08 -1.605829e-08 2.7121885e-08 -4.316531e-08
-1.8175394e-08 4.851614e-18 -1.9585173e-09 -9.2818965e-08 1.0255395e-07 -2.888906e-08 1.5279905e-09 2.2922423e-08
1.0840361e-08 2.7357036e-08 -9.872765e-09 -1.0902477e-07 1.8269214e-08 -3.895018e-09 -5.506149e-18 4.0260964e-19
3.766735e-08

actor.mlp_layers.0.running_mean f4 [129]
00000000: aef2 7f3f f4c5 e93a dcb7 2c3c 78d5 e93f
00000010: 0efe 573f 6185 65bc 76b9 9b3c 743f 013d
00000020: a7c7 753f c580 e8bc 0000 0000 ef46 ad40
00000030: 5a14 2dbe 120c f5be 49bd a23c 58ac 1a3d
00000040: 0103 2cbd 0000 0000 df4c ad40 456b 8abd
00000050: 632e fdbe 03eb 093d b009 c6bc cb86 45be
00000060: f085 0e3f 4ba4 a13d 2e49 11bf d1e8 053f
00000070: ff89 043f 0000 0000 dfcd ca3e 8305 903e
00000080: 1fed ac40 36a2 083e a888 f8be 9dab 47bd
00000090: dccb 58be 5350 8fbe 7c9b 753f de16 d1be
000000a0: cfaf 7bbf 06f0 1c3f 0000 0000 0000 0000
000000b0: 5305 023f 0000 0000 d9a9 ad40 69af c2bd
000000c0: 4acb 00bf f3ee 18bd 623d 473d 7e51 0cbe
000000d0: 8b7c 0cbf d578 993d 3405 14bf 3207 073f
000000e0: 21fa df3e 0000 0000 3c66 043f 06b9 823e
000000f0: ae60 ad40 48b8 c83d db27 ffbe 1fa6 963d
00000100: 2899 4f3e ec9f 67be 63e0 64bf 8747 eabe
00000110: a5b3 6fbf 2f70 283f 0000 0000 0000 0000
00000120: 908b f63e 0000 0000 6fe6 ad40 d10f e8bd
00000130: efd4 04bf c769 79bd e7a7 ed3c e5ef 10b7
00000140: f7b9 13bf 3d62 6b3d f73b 103f 7302 103f
00000150: 369a ec3e 0000 0000 f6aa 123f c3d8 443e
00000160: 28d8 a440 5994 653e 4c8d 25bf 4577 a8bd
00000170: bf70 a9bd 5ea5 61be 88d0 83bf b828 bebe
00000180: 61eb 803f 7ea1 0d3f 0000 0000 0000 0000
00000190: 079e f63e 0000 0000 aac5 ad40 4d1d a4bd
000001a0: 26dc e8be 01a3 8c3d 325d 2f3d d08e 98bd
000001b0: e5f4 0e3f 555d b73d 20d7 0d3f 095c fb3e
000001c0: 3249 083f 0000 0000 3b04 f23e 9e3c 3d3e
000001d0: 2c1b a540 671e 3b3e 8ec8 86be f04b 10be
000001e0: c966 cdbd 6861 1dbe 5186 843f 8631 87be
000001f0: 4541 853f b4ea 093f 0000 0000 0000 0000
00000200: 3321 023f
0.99979675 0.0017835484 0.010541882 1.826827 0.8437203 -0.014008851 0.019009333 0.031554654
0.9600777 -0.028381715 0.0 5.414909 -0.16902295 -0.4786077 0.019865649 0.037762016
-0.041995052 0.0 5.4156337 -0.06758741 -0.49449453 0.03367139 -0.024174541 -0.192897
0.5567312 0.078926645 -0.5675229 0.52308375 0.51773065 0.0 0.39610192 0.28129205
5.4039454 0.13343129 -0.4854176 -0.048747648 -0.21171516 -0.2799097 0.95940375 -0.4083776
-0.9831514 0.61303747 0.0 0.0 0.50789374 0.0 5.4269834 -0.09506113
-0.50310194 -0.037337255 0.048642524 -0.13702962 -0.5487754 0.0749375 -0.5782044 0.52745354
0.4374552 0.0 0.517185 0.25531787 5.4180517 0.09800774 -0.49835095 0.07355904
0.20273268 -0.22619599 -0.89404887 -0.45757696 -0.9363349 0.6579618 0.0 0.0
0.48153353 0.0 5.434379 -0.11331142 -0.5188741 -0.060891893 0.029010726 -8.638924e-06
-0.57705635 0.057466734 0.563415 0.5625374 0.46211404 0.0 0.57292116 0.19223313
5.1513863 0.22419871 -0.64668727 -0.08225874 -0.08273458 -0.22035739 -1.0298014 -0.3714044
1.0071832 0.5532454 0.0 0.0 0.4816744 0.0 5.430379 -0.08013401
-0.4548046 0.06867028 0.042813487 -0.07449114 0.5584243 0.089533485 0.5540638 0.49093655
0.5323669 0.0 0.47268853 0.18480155 5.159567 0.18273316 -0.26324886 -0.14091468
-0.1002937 -0.15369189 1.035349 -0.2640497 1.0410544 0.53873754 0.0 0.0
0.5083191

actor.mlp_layers.0.running_var f4 [129]
00000000: d1a6 5c34 546b 5c33 f8b8 9a39 067e 213d
00000010: 67ba 9f3d a81d bb3c 761d 3f3e 57c6 c13c
00000020: 422f ae3c e53d 013d 0400 0000 f16c 2a40
00000030: 3344 733f 8be9 da3f d9f8 4f40 24c3 8b3f
00000040: dc87 2640 0400 0000 0342 3e40 a3b1 2340
00000050: ea33 0040 7c49 ac40 36ce e13f eb12 3d40
00000060: a20a 9c3a 4a77 373b 8f2c e93a 1dd8 943c
00000070: 602b 873c 0400 0000 77d4 423c 4407 4f3e
00000080: 6b18 0c41 8369 c440 ca6c ca40 430a 0a41
00000090: 4cce 3040 7519 f740 100d 803c f3b9 c63c
000000a0: d73c e03c 4d45 053d 0400 0000 0400 0000
000000b0: bb5a 553c 0400 0000 19bb 4040 0b7b 2740
000000c0: 589b fb3f 58be 7e40 5d41 ad3f fac2 4540
000000d0: fedd 993a 02a2 4c3b 09a3 b13a 5321 ad3c
000000e0: 3ac5 7f3c 0400 0000 49ab 5f3c 12be 423e
000000f0: 4b0a 0341 c7e7 9f40 fda9 bd40 6a04 be40
00000100: 1148 0d40 8bfb ed40 00f4 853c fb02 883c
00000110: 8977 bd3c ed0c 073d 0400 0000 0400 0000
00000120: d2e8 4b3c 0400 0000 a32c 3840 c978 f33f
00000130: 8650 f83f 905a 1c40 4790 a73f 1e6d 3440
00000140: 1fce 8e3a 73d0 1a3b d35f 873a d229 ab3c
00000150: 9ec1 8e3c 0400 0000 a580 553c 0b15 1f3e
00000160: 139c 6a41 f62b 3041 2c95 eb40 81b5 3c41
00000170: d539 1f40 d464 ab41 ee4c f83c 6a1c 743d
00000180: 31f0 f83c 6c06 7c3d 0400 0000 0400 0000
00000190: e288 483c 0400 0000 d5c5 3540 567d 0440
000001a0: 3b23 e03f d8a9 0340 361c b63f e963 1a40
000001b0: 080b 2e3b 9e75 433b c17d 9c3a 672d 153d
000001c0: 1287 a23c 0400 0000 f3dd 6f3c 824c 1a3e
000001d0: f9b5 7741 e65b 4c41 6c47 a040 6a45 3341
000001e0: f038 4640 4f37 ab41 ca76 943c a739 aa3d
000001f0: 71bb 203d 3031 763d 0400 0000 0400 0000
00000200: a2ce 4a3c
2.0549784e-07 5.1320356e-08 0.0002951098 0.039426826 0.07799225 0.02284129 0.18663582 0.023654146
0.021262769 0.031553168 6e-45 2.6628993 0.9502594 1.7102522 3.2495635 1.0918927
2.6020422 6e-45 2.972779 2.557717 2.0031686 5.3839703 1.7641056 2.9542797
0.0011905024 0.0027994686 0.0017789769 0.018169457 0.016500175 6e-45 0.011891476 0.20217615
8.755961 6.13788 6.32578 8.627505 2.7625914 7.7218575 0.015631229 0.02425859
0.02737276 0.032536794 6e-45 6e-45 0.01302212 6e-45 3.0114195 2.616885
1.9656782 3.9803677 1.3535572 3.0900254 0.0011739132 0.0031224494 0.0013552617 0.021134054
0.015610987 6e-45 0.013651677 0.19017819 8.190013 4.997043 5.9270005 5.938039
2.2075236 7.436956 0.0163517 0.016602984 0.023128288 0.03297131 6e-45 6e-45
0.012445645 6e-45 2.8777244 1.9021236 1.9399574 2.4430275 1.3090905 2.81916
0.0010895169 0.002362278 0.001032824 0.020893965 0.017426308 6e-45 0.0130311595 0.15535371
14.663104 11.010733 7.3619595 11.7943125 2.4879048 21.424232 0.03031012 0.05959741
0.03038797 0.061529562 6e-45 6e-45 0.012239667 6e-45 2.8401997 2.07015
1.7510751 2.0572414 1.4227359 2.412348 0.0026556868 0.0029824744 0.0011939333 0.036420252
0.019839797 6e-45 0.014640319 0.15068248 15.481927 12.772436 5.0087185 11.204447
3.0972252 21.402006 0.01812305 0.083117776 0.039241258 0.060105503 6e-45 6e-45
0.012378367

actor.mlp_layers.1.weight f4 [128, 129]
00000000: ec41 7a38 0f16 8539 d8ca 14bd 7d67 77bd
00000010: 0a68 86bd 01f7 003d 32b6 efbb 82aa 59bd
00000020: bbf2 353b 4bec 87bc 4d6d 70ab 0231 8c3c
00000030: d69f cd3c b5ec 69bd 0d6f 413d b693 c3bc
00000040: 6126 023d 0764 40a9 4f6e 963c 9617 c93c
00000050: 2cfd f03c 3bc3 53bd 137e 01bc 6223 87bd
00000060: e4e2 803d 3d7c 20bd c5de d63c 933e 423d
00000070: e638 bcbc a162 3429 888c 053d b155 8d3d
00000080: 02ec 413c e4e8 843d 5433 19bd 7d28 97bc
00000090: a057 163d d863 f43c 5049 b1bb dd77 4d3d
000000a0: 6c3e a63b 69dc 63bd b4a2 6d2b 60e0 172a
000000b0: 024f 9cbd ef79 6d2a 5040 973d 4b04 4b3d
000000c0: ec5f e13c 23e7 4fbb 1936 ad3c 7b35 273d
000000d0: 9a16 55bd 4bb7 913c 2a6a b83c 7665 d8bc
000000e0: ab46 2bbd 84ff 34a7 8aaf eaba 498a e6bc
000000f0: 508e 1dbc c981 8e3d 6b67 593d 5650 3dbd
00000100: 32c5 8d3d cac9 82bd 2284 fdbc 8f70 6d3d
00000110: dc8e 833c ba43 b13b 6575 272b ebde 4e28
00000120: bdae 74bd 58ef 63aa e6f9 603d 68ad e1bc
00000130: 1585 1abc d364 bebb 4c33 77bd 8fa3 5e3d
00000140: 0553 b5bc 5067 1a3d d0e2 863d caf7 b5bc
00000150: 5ba0 c2bc 0dd0 3cab 5cd3 193d cd39 89bb
00000160: 6ee8 7abd b617 a5bc 174b f5bb 7dbf 1d3d
00000170: dc0a 0dbd 5221 65bd ab81 4e3d f107 a3bc
00000180: f94d 883c f76e a23d 971a 5cab d2e0 2c2b
00000190: 9be9 bebc decf 212b 3ea3 8d3d e879 3f3d
000001a0: e1a0 183d c57e e1bc 968a 863b 8098 54bd
000001b0: b6bd 263d 09b7 00bd 5b91 7bbc 0d61 56bb
000001c0: 476c 76bc 194c 40aa f8ef 313d 5293 efbb
000001d0: b89a 9a3c fc44 c4bc 0e00 79bd df13 c53c
000001e0: d607 9bbc 604d 8d3d f115 ac3c 2e51 823d
000001f0: 830a 8f3d c48d 67bd cfe6 f3aa 8eb3 1a2b
00000200: c57b 2d3d 47a6 9d37 abda 69ba a333 e1bb
00000210: cb7d ea3c ed04 653d bd9b b83c e121 33bc
00000220: 6270 833d ce66 e5bc a0d9 463c aea4 a529
00000230: 6d81 3c3d 4d34 8d3c 0c7f cc3c 0a14 363d
00000240: bbdd 7ebd 6d74 b3bc e83b 88a9 492a 3abd
00000250: af58 673d 015a 883a da5c 8abd 4a89 8ebc
00000260: fd8a 6f3c bff1 35bb 7d36 12bd c151 733d
00000270: 670e 8f3b 4ce6 f53b 0b6b c729 cfba 423c
00000280: 4c89 733d 2c16 e1bc e6ae 393d c1a4 9abb
00000290: bc02 bb3b 0549 bf3b 4cee 813d 6d2e 473d
000002a0: decf a9bd c9ff 2d3d f03b d33c 3c8a a1aa
000002b0: 4b0c 8daa 44bd 5dbd 292e 9929 b5ed 11bd
000002c0: d50e 09bc 2e70 363d 0733 273c d8ef 69bd
000002d0: 1320 8fbd 4203 f1b9 dc4a 0b3d 472c 90bd
000002e0: 2d44 2b3d 2fbb 74bd 667e 042b 3f0f 3abc
000002f0: a3b4 8cbd 2f3a b33b 47f0 503c 8166 25bd
00000300: f60c 00bd 398d b8bc e39f 30bd 20dc 7f3c
00000310: adc2 f7bc ed92 80bc 72bb 24bc de74 48ab
00000320: 7914 d4aa 923c 9cbc 2816 432b 9cd2 3d3d
00000330: 4cb6 673d 83be 613d 5b7f ef3c 529a aabd
00000340: 357a 903c 8505 1c3d e15e 673d 4d49 be3c
00000350: 4ab6 d3bc e819 143d 6f38 3caa f74a 60bd
00000360: 6e33 543d 4fa3 80bd c0be 623c fcb0 1ebd
00000370: f2a5 80bd 5704 63bd b228 a23c bd2b 1b3d
00000380: 9046 99bd c48f a6bd d081 78bc 054e ac2a
00000390: 69fe 8b2a 472e 0b3d 2bfb 4c2b 5bb8 69bd
000003a0: 9866 153d b1de b13a fd4d 02bd 70c8 cd3c
000003b0: ea71 953d 7bee 153d 4d56 40bd d91f 92bb
000003c0: 45d6 ccbc ef66 4b3d c753 8bab 2bf4 8abc
000003d0: da5d 113d 6a21 843d 1fd3 e2bc 7309 87bd
000003e0: 00f6 84bd 8bcb 113d a647 133d 1040 9b3d
000003f0: 85c3 3cbd 93e4 273c f491 61bd a68c 26ab
5.966604e-05 0.00025384172 -0.03632626 -0.06040143 -0.065628126 0.03148556 -0.0073154205 -0.053141125
0.0027763087 -0.016592165 -8.5416814e-13 0.017113212 0.02510063 -0.057110507 0.047225047 -0.023874145
0.031774882 -4.2719324e-14 0.018363146 0.02454738 0.029417597 -0.05169986 -0.007903594 -0.065985456
0.06293276 -0.039180983 0.026229272 0.047422957 -0.02297635 4.0053576e-14 0.032604724 0.0690111
0.011836054 0.06489733 -0.037402466 -0.018451924 0.03670466 0.029832765 -0.005410351 0.05016314
0.0050733592 -0.05563012 8.442511e-13 1.348934e-13 -0.07632257 2.1092133e-13 0.073853135 0.04956464
0.02751156 -0.0031723462 0.02114396 0.040822487 -0.052023508 0.017787596 0.02251156 -0.026415568
-0.04181544 -2.5118533e-15 -0.0017905098 -0.028142111 -0.0096164495 0.06958348 0.053077143 -0.046219192
0.06922378 -0.063861445 -0.030946795 0.057968672 0.016059332 0.005409685 5.9493236e-13 1.1483635e-14
-0.059736956 -2.0244689e-13 0.05492582 -0.027548507 -0.009431143 -0.005810359 -0.060351655 0.0543552
-0.022134313 0.037696183 0.0658623 -0.022212882 -0.023758104 -6.7079746e-13 0.037555084 -0.0041877986
-0.06125682 -0.020152908 -0.007485758 0.038512696 -0.034434184 -0.05593998 0.05041663 -0.019901248
0.016638743 0.07931321 -7.81966e-13 6.1418676e-13 -0.023304751 5.7487164e-13 0.069159016 0.04674712
0.0372628 -0.027526269 0.004105876 -0.051903248 0.040708266 -0.031424556 -0.01535448 -0.0032711655
-0.015040464 -1.7079427e-13 0.043441743 -0.007311263 0.018872604 -0.023958676 -0.060791068 0.024057327
-0.018924635 0.06899524 0.021006556 0.0636314 0.06984427 -0.056531683 -4.3325627e-13 5.4960973e-13
0.042354364 1.8793287e-05 -0.00089208287 -0.0068726107 0.028624436 0.0559129 0.0225352 -0.01093337
0.0641792 -0.028003123 0.012136847 7.356039e-14 0.046021868 0.017236853 0.024962924 0.044452704
-0.062223177 -0.021906102 -6.050005e-14 -0.045450483 0.05648106 0.00104028 -0.06755991 -0.017399449
0.01462054 -0.00277625 -0.035696495 0.05940414 0.0043657306 0.00750426 8.855944e-14 0.011885359
0.05945711 -0.027476393 0.04533281 -0.004719347 0.005707113 0.005837562 0.0634428 0.04862826
-0.08291601 0.042480264 0.025785416 -2.8695264e-13 -2.5055161e-13 -0.054135576 6.8025724e-14 -0.035627086
-0.008365353 0.044540577 0.010205037 -0.0571135 -0.069885395 -0.0004596953 0.03400694 -0.07039695
0.041813064 -0.059748825 4.7071234e-13 -0.011356174 -0.06870391 0.0054695825 0.012752599 -0.04038096
-0.03126236 -0.022528278 -0.04312123 0.015616447 -0.030244196 -0.01569506 -0.010054456 -7.121646e-13
-3.767297e-13 -0.01907185 6.9308665e-13 0.04634343 0.056570336 0.055113327 0.029235533 -0.083302155
0.017636398 0.0380912 0.056486968 0.023228312 -0.025843758 0.03615752 -1.6717334e-13 -0.054758992
0.05180686 -0.06281149 0.013839424 -0.038743004 -0.062816516 -0.05542406 0.019794796 0.03788351
-0.07484162 -0.0813289 -0.015167668 3.0607475e-13 2.4867893e-13 0.03397968 7.2823925e-13 -0.05706058
0.036474794 0.0013570396 -0.031812657 0.02511999 0.07297118 0.036604386 -0.046957303 -0.004459363
-0.025004515 0.049658712 -9.899797e-13 -0.016962131 0.035489894 0.06451686 -0.027688561 -0.06593599
-0.06492233 0.035594504 0.035957 0.07580578 -0.0460849 0.010247367 -0.055070832 -5.9170236e-13

actor.mlp_layers.1.bias f4 [128]
00000000: 7a5f 1433 e91b a930 06ce 2cb3 f3e2 06b3
00000010: 3d53 da33 7a3d 0c33 5f46 adb2 eb6f 4032
00000020: 43f2 2032 fdd1 90b3 0146 20b2 835d b232
00000030: 57c0 d4b3 75a6 3d34 67bb deb2 7499 28b3
00000040: aa23 b5b3 9b94 92b1 83e7 4a33 ab9b e3b3
00000050: 82cf 1833 1f13 3bb2 e0c5 67b2 da70 2d33
00000060: e2c5 83b3 9143 0534 44b3 8f33 0272 38b3
00000070: 22ac 34b3 dc3b 4a33 82de b933 e8a8 bdb0
00000080: eaf4 2f33 8895 b533 ec03 8133 1bfe 5534
00000090: 2bbc a133 558e 1d33 ea08 fa33 1997 20b1
000000a0: 9ace fa33 ecd5 55af b8f3 c6b1 dfc5 51b2
000000b0: 4c66 97b3 f000 9733 00a7 1733 5fcd 4f33
000000c0: d2c8 eab2 8d1a 3232 b71c e633 777c 09b2
000000d0: d530 45b3 a87a 1ab1 104f 8cb3 358a 03b4
000000e0: 6197 1d33 3dad ceb3 a635 8833 fd01 8932
000000f0: 1cb9 1434 022d 4833 c08b 56b3 adf3 b5b3
00000100: 8ff0 b5b3 0b41 bc33 8416 1833 c4ae 0431
00000110: c9de a7b3 906f 8e32 1e96 3fb1 3741 48b2
00000120: e757 f8b2 9c35 7633 c28b 0633 2344 30b3
00000130: b674 0334 ee84 9eb4 89fb 0cb2 a5ef 8532
00000140: 7cea 7133 560b fb32 a601 4133 eb59 1233
00000150: 3072 08b3 92b9 84b3 c45e 12b3 9a19 5bb3
00000160: ca6c a433 fa89 2233 5dd6 63b3 ccf0 5eb2
00000170: bedf 5533 01d1 c2b2 6805 2ab3 0a17 21b3
00000180: 3e98 c133 dae5 f9b2 e7b5 5630 eab8 2133
00000190: 6234 9bb2 7aa7 abb2 bc60 8a33 a905 4033
000001a0: c7fe 4ab3 875b a130 ed45 9cb0 6b0c ec33
000001b0: 9571 0eb3 cc73 c733 b757 c733 e965 c6b3
000001c0: de1a b6b3 3a73 9e33 2f10 e0b3 bd09 9c32
000001d0: aca3 ac33 e49a b233 2a6b 4033 0957 acb2
000001e0: 2d48 c6b3 29df b033 6eef 6f33 965f 4934
000001f0: a734 84b2 3a61 9632 b8e1 9732 c0a2 9e33
3.454577e-08 1.2304301e-09 -4.0234248e-08 -3.1405715e-08 1.0166557e-07 3.2652203e-08 -2.0171852e-08 1.1201318e-08
9.36831e-09 -6.743719e-08 -9.329143e-09 2.0764451e-08 -9.907006e-08 1.7662553e-07 -2.5929422e-08 -3.9255113e-08
-8.4349566e-08 -4.2660537e-09 4.724235e-08 -1.0598827e-07 3.5578985e-08 -1.088918e-08 -1.3490961e-08 4.038234e-08
-6.1361575e-08 1.2411171e-07 6.6915646e-08 -4.2944528e-08 -4.206607e-08 4.7086232e-08 8.655208e-08 -1.3799566e-09
4.096811e-08 8.455669e-08 6.007744e-08 1.9929614e-07 7.531374e-08 3.668386e-08 1.16431536e-07 -2.3368953e-09
1.1679113e-07 -1.9448237e-10 -5.790266e-09 -1.2210392e-08 -7.050093e-08 7.031656e-08 3.5309313e-08 4.8382727e-08
-2.7332508e-08 1.0367001e-08 1.0715433e-07 -8.00275e-09 -4.591205e-08 -2.2479671e-09 -6.5336394e-08 -1.2250605e-07
3.669209e-08 -9.6241344e-08 6.342752e-08 1.5949803e-08 1.3850917e-07 4.6607063e-08 -4.995286e-08 -8.472794e-08
-8.472227e-08 8.7662634e-08 3.5410736e-08 1.930787e-09 -7.817068e-08 1.6581708e-08 -2.787949e-09 -1.165636e-08
-2.8910973e-08 5.7325096e-08 3.1326415e-08 -4.1040163e-08 1.2242785e-07 -2.9526512e-07 -8.206265e-09 1.5592216e-08
5.6325447e-08 2.92254e-08 4.4937813e-08 3.4075054e-08 -3.176882e-08 -6.180484e-08 -3.4079463e-08 -5.1013195e-08
7.656634e-08 3.7844053e-08 -5.304752e-08 -1.2976852e-08 4.979642e-08 -2.2679616e-08 -3.9586126e-08 -3.7506688e-08
9.0149555e-08 -2.909194e-08 7.8111245e-10 3.7653912e-08 -1.8068196e-08 -1.998318e-08 6.443722e-08 4.470863e-08
-4.726351e-08 1.1740305e-09 -1.1370368e-09 1.0991865e-07 -3.3165254e-08 9.287723e-08 9.282615e-08 -9.238631e-08
-8.4799225e-08 7.378408e-08 -1.04337566e-07 1.8165219e-08 8.039146e-08 8.316945e-08 4.480095e-08 -2.0063014e-08
-9.233222e-08 8.236231e-08 5.5864284e-08 1.8754358e-07 -1.5390766e-08 1.7506512e-08 1.7681359e-08 7.3870524e-08

actor.mlp_layers.2.weight f4 [128]
00000000: 5585 243f b361 253f 730f 0f3f 2f6c 333f
00000010: ce54 323f af28 213f 23ae 2a3f aa0a 2e3f
00000020: b058 1b3f 45b8 2a3f e9fb 273f 58f0 233f
00000030: 40b4 3b3f ce82 333f a5f9 2a3f 773c 313f
00000040: 8af4 283f 7c8d 4a3f 7061 323f 0079 3f3f
00000050: 482b 373f ed70 373f 1bae 353f d0fe 283f
00000060: 1d3d 2d3f d2e6 2e3f 9d0f 253f eeff 223f
00000070: 82ac 393f 47e1 2d3f 4ec5 303f 8f96 113f
00000080: 617f 2d3f cfc4 1f3f ff69 2a3f 396d 233f
00000090: 4ecb 233f c45a 253f 8d94 1d3f b970 313f
000000a0: 71bc 253f ac7e 343f 1945 113f a9c0 353f
000000b0: 69d6 233f f6c9 203f e9c5 343f 57fb 343f
000000c0: 6868 2f3f 92f4 1c3f 12d9 373f 795b 253f
000000d0: 27ae 3b3f 3587 513f 8eb8 353f 638a 273f
000000e0: f6d3 373f 7e6e 3e3f 8889 4c3f 719f 293f
000000f0: 925b 4a3f 8272 323f cc09 3e3f 365e 1f3f
00000100: 69c9 2b3f cb4e 283f 338b 2c3f 8026 273f
00000110: b0da 363f 8075 233f aeea 373f 692a 1a3f
00000120: 23c4 273f 7cc4 413f 5208 413f 0636 303f
00000130: b41d 343f 0cd9 413f 2400 3c3f 1a19 3b3f
00000140: e16d 213f 5556 243f 012f 2a3f 8644 0e3f
00000150: 0b23 193f a572 123f e91a 273f 1cbf 313f
00000160: c7fd 2b3f 5703 2f3f aad6 233f 0aa6 243f
00000170: 09de 263f bdd9 293f 8ead 293f d833 423f
00000180: e57c 233f 8e06 313f 84e3 363f ab61 1d3f
00000190: c972 1a3f 72fd 3d3f c60b 233f 0974 213f
000001a0: 4639 2e3f 0e33 213f 4c97 213f 1cb3 373f
000001b0: 584b 303f 3ed6 303f b6d2 323f 17e1 243f
000001c0: c08e 2e3f 32ef 313f 332b 343f 8e7a 1f3f
000001d0: b582 433f 5480 333f d396 313f 963e 343f
000001e0: 39cd 2b3f f977 2f3f 7d6a 353f efd0 1c3f
000001f0: 3d34 373f 7fc5 2a3f 29dd 2e3f 4f4a 4b3f
0.6426595 0.646022 0.5588295 0.7008695 0.6966065 0.62952703 0.6667196 0.6798502
0.606822 0.66687423 0.6561876 0.6403861 0.73321915 0.7012147 0.6678718 0.6923289
0.65998137 0.7912214 0.6967993 0.74794006 0.71550417 0.71656686 0.7096879 0.66013813
0.67671376 0.68320954 0.6447695 0.6367177 0.7252885 0.6792187 0.69051063 0.5687036
0.6777249 0.6240968 0.6656799 0.63838536 0.63982093 0.6459162 0.61554796 0.69312626
0.64740664 0.70505786 0.5674606 0.709971 0.6399904 0.6280817 0.70614487 0.70696014
0.68518686 0.61310685 0.718156 0.645927 0.7331261 0.81846935 0.70984733 0.65445536
0.718078 0.7438735 0.79897356 0.66258913 0.79045975 0.69705975 0.742337 0.6225313
0.671042 0.6574523 0.673999 0.6529312 0.7142744 0.63851166 0.7184247 0.6022096
0.65533656 0.75690436 0.7540332 0.68832433 0.70357823 0.7572181 0.73437715 0.73085177
0.63058287 0.6419423 0.6647797 0.5557331 0.59819096 0.57206184 0.65275437 0.69432235
0.6718411 0.6836447 0.63999426 0.64315856 0.6518255 0.6634787 0.6628045 0.7586036
0.6386245 0.69150627 0.7144091 0.61477154 0.603314 0.7421485 0.6368984 0.6306768
0.6805614 0.6296853 0.63121486 0.71757674 0.68864965 0.6907691 0.6985277 0.6440596
0.6818657 0.6950561 0.70378417 0.6229638 0.7637132 0.7011769 0.69370764 0.70408
0.6711002 0.6854244 0.70865613 0.6125631 0.71564084 0.66707605 0.68306214 0.7941026

actor.mlp_layers.2.bias f4 [128]
00000000: 2d66 27b1 5d96 2e33 7065 77b2 1a7f dd31
00000010: b368 2b33 9242 9232 b435 0732 ba59 77b2
00000020: 230e 04b3 f9c8 a1b2 d8d9 6033 67be 7732
00000030: 8221 22b3 7216 08b2 93b2 85b2 bb93 4431
00000040: 93c1 19b3 6e4d 0533 6f2b a4b2 e847 9c32
00000050: ed23 feb2 06cc dab1 29e8 6f32 6dd2 bb32
00000060: 86bc d0af f63d 8533 bdab 1232 a6f5 79b3
00000070: 0c73 48b3 95bc 0333 2bad 0c33 5457 2632
00000080: 20ab 8f32 3e4c 7833 4387 d931 b6cf 3133
00000090: 8750 3e32 be28 2033 9072 4632 0ef5 1ab3
000000a0: 5800 cf30 bc67 3332 7f32 02b2 c9c4 c8b1
000000b0: 1842 1c33 be58 4db2 ecf8 93b1 e61c b331
000000c0: 12cd 94b2 7bb0 9bb2 c39c ab31 c0a8 8932
000000d0: 6bf4 16b3 f8ed 86b1 152a d132 407e 04b3
000000e0: a0a6 d132 7374 2ab3 5105 2930 0b4a 8132
000000f0: feed 7e33 24bf 8e32 e001 0e33 6b45 2cb3
00000100: 6658 8232 827c 0ab3 5a12 fbaf 76e1 4eb2
00000110: 3647 4eb3 fd32 acb1 9991 8bb3 eb8c 6c31
00000120: 02da d2b2 2545 bc32 17f3 38b2 e9f7 4031
00000130: 327f 3b33 5044 56b3 b493 55b3 f0d3 3833
00000140: d57b 9032 3927 aeb1 e726 e731 f963 86b2
00000150: b3cd e3b1 64e7 49b2 418b 1e32 a998 deb2
00000160: 315a 5133 d120 ebb2 d213 9fb2 ca0d c832
00000170: a687 e632 5919 1ab3 1a3d 1832 b2c4 75b3
00000180: 16b7 f9b2 21b3 31b2 d208 26b3 e797 98b2
00000190: 22df 8eb1 4f3f 9e32 fcdb fd32 f24d a132
000001a0: 82fe cbb1 e1b5 1432 fb7b f032 d558 8b33
000001b0: 4437 00b2 92be 7d33 49a1 41b1 db04 c3b2
000001c0: 6103 a6b2 626c 10b3 b590 6eb3 2b63 a632
000001d0: 0165 7033 b4a2 d432 1707 cab2 9e6c b432
000001e0: 3d72 49b3 6d2f 1d32 c6e9 d332 4561 8633
000001f0: e2c9 de31 f1a3 e132 6747 1133 0ff3 a433
-2.4359779e-09 4.0649287e-08 -1.44003565e-08 6.4463963e-09 3.9909263e-08 1.702691e-08 7.870245e-09 -1.4397694e-08
-3.0746502e-08 -1.8834259e-08 5.2352192e-08 1.4420585e-08 -3.774904e-08 -7.921345e-09 -1.5564444e-08 2.860573e-09
-3.5799143e-08 3.1036897e-08 -1.9111864e-08 1.819349e-08 -2.9585829e-08 -6.36783e-09 1.3964418e-08 2.1865356e-08
-3.7968934e-10 6.204566e-08 8.537367e-09 -5.8198246e-08 -4.6670763e-08 3.067233e-08 3.2753785e-08 9.682328e-09
1.672521e-08 5.781134e-08 6.3309087e-09 4.1399936e-08 1.1077765e-08 3.7289958e-08 1.1551165e-08 -3.6078795e-08
1.506133e-09 1.0442758e-08 -7.578477e-09 -5.843138e-09 3.6381692e-08 -1.1952748e-08 -4.306562e-09 5.212871e-09
-1.7322723e-08 -1.8124629e-08 4.9945768e-09 1.6025638e-08 -3.5146893e-08 -3.926967e-09 2.4349939e-08 -3.084847e-08
2.4406575e-08 -3.968712e-08 6.1489397e-10 1.5051247e-08 5.9355436e-08 1.6617896e-08 3.3063657e-08 -4.0110006e-08
1.517419e-08 -3.2243868e-08 -4.5669674e-10 -1.2042042e-08 -4.802788e-08 -5.0116555e-09 -6.499176e-08 3.4422623e-09
-2.4546356e-08 2.1917524e-08 -1.0765482e-08 2.8080598e-09 4.3655014e-08 -4.9887888e-08 -4.9727262e-08 4.3033594e-08
1.6820119e-08 -5.0685256e-09 6.7274075e-09 -1.5645115e-08 -6.629955e-09 -1.1752352e-08 9.228473e-09 -2.5913623e-08
4.8743633e-08 -2.7372524e-08 -1.851905e-08 2.3289335e-08 2.683721e-08 -3.5878973e-08 8.861457e-09 -5.72224e-08
-2.9070673e-08 -1.0343485e-08 -3.865791e-08 -1.7764206e-08 -4.158111e-09 1.842241e-08 2.9553114e-08 1.8778312e-08
-5.9370118e-09 8.656088e-09 2.7996057e-08 6.48885e-08 -7.4631465e-09 5.9079476e-08 -2.8176876e-09 -2.2703196e-08
-1.932648e-08 -3.3626186e-08 -5.5545303e-08 1.937004e-08 5.5971217e-08 2.4754037e-08 -2.3519119e-08 2.1004151e-08
-4.690286e-08 9.149386e-09 2.466994e-08 6.2575545e-08 6.484002e-09 2.6268e-08 3.3825383e-08 7.681057e-08

actor.mlp_layers.2.running_mean f4 [128]
00000000: 38a2 39b3 fe9c 55b4 2537 93b4 5b73 5bb3
00000010: d80d 9434 ea23 c933 21da 6633 e9f2 86b3
00000020: 2dbc 43b4 9093 7732 d5b3 0833 4730 49b3
00000030: f56d 33b4 3328 fd34 acad 68b4 131b 52b4
00000040: ee69 f033 4727 1234 8b90 3634 acef fdb4
00000050: b036 66b4 b4a1 2434 4ac0 2234 6c3f 8b34
00000060: 709e 30b4 1ac0 5cb3 75be 8234 550c ba33
00000070: 3e5e cdb4 b678 2334 ce1a 0534 2be1 49b3
00000080: 84b6 b4b3 f1e9 5634 301c 4934 1c44 9834
00000090: 5e1d 0cb5 f549 afb3 a1ce e534 ba3d 9234
000000a0: c284 11b3 6077 0933 bd90 1db4 ce20 e433
000000b0: 13fb 6433 95a2 31b4 81a2 8034 52f6 46b4
000000c0: 8021 75b4 0275 9834 6a32 8134 d6ce 42b4
000000d0: 62cc 1733 3c05 aa31 6304 85b3 8db3 49b4
000000e0: 2920 cfb3 acb1 0d34 7149 8e34 bbc9 34b4
000000f0: 09f8 1833 7802 2534 e5aa df32 7477 55b2
00000100: 21f1 9bb3 373e c834 b862 9a34 7dfb 64b3
00000110: 5214 7a34 0a76 45b4 4211 90b4 2ae2 1334
00000120: cf90 f3b3 9203 67b4 5392 32b4 f8eb 23b4
00000130: bc9c af31 b80a e2b4 8e54 ff32 1adb d9b3
00000140: aec0 22b3 d7de 9b34 ca3b 6e34 afcd 5d34
00000150: 91b5 ca33 958c 0433 732e 06b4 161a 44b4
00000160: 7c70 5834 a2b2 c0b3 aed3 5f34 fc1a edb4
00000170: bb2a 8734 2140 f2b3 aba7 c7b3 4732 41b4
00000180: 6f2f 86b1 b11c 09b3 f3cb 31b4 2e29 9d33
00000190: d7a8 2c33 5af5 3ab4 26fa 8f33 1cbf 5e34
000001a0: 0dd0 a5b3 06cb 4cb4 1362 f633 9ac5 b633
000001b0: 882a 48b4 6578 c933 1a9a 3434 6066 fe33
000001c0: 7daf 67b4 c253 b733 9baf cbb3 e11f 7434
000001d0: 3575 9534 78f5 6db2 3889 0734 777c 4d33
000001e0: 0281 1434 9377 5834 edb6 2834 f88a b833
000001f0: 10f9 7c34 9518 1cb4 2b13 9832 268e d8b4
-4.3221206e-08 -1.9894284e-07 -2.7421007e-07 -5.1094826e-08 2.757722e-07 9.3663246e-08 5.3749435e-08 -6.284046e-08
-1.8229248e-07 1.4410844e-08 3.1828524e-08 -4.6842867e-08 -1.6710676e-07 4.715417e-07 -2.1669865e-07 -1.9567624e-07
1.11951394e-07 1.3611599e-07 1.7002655e-07 -4.7299307e-07 -2.1440314e-07 1.5332517e-07 1.515738e-07 2.5936913e-07
-1.6448917e-07 -5.1397457e-08 2.4352963e-07 8.663543e-08 -3.8252796e-07 1.5224472e-07 1.2396342e-07 -4.700375e-08
-8.4151026e-08 2.001541e-07 1.8729838e-07 2.8361762e-07 -5.21968e-07 -8.162525e-08 4.2804916e-07 2.723953e-07
-3.3881186e-08 3.200637e-08 -1.467442e-07 1.06230445e-07 5.3313737e-08 -1.6543557e-07 2.3960095e-07 -1.8529798e-07
-2.282959e-07 2.839734e-07 2.4064803e-07 -1.8142904e-07 3.5343312e-08 4.9482463e-09 -6.194093e-08 -1.8784904e-07
-9.6450385e-08 1.3196285e-07 2.6502997e-07 -1.6837195e-07 3.5615844e-08 1.536772e-07 2.603833e-08 -1.2425392e-08
-7.261611e-08 3.729817e-07 2.8756563e-07 -5.3314114e-08 2.3290457e-07 -1.8389997e-07 -2.6834647e-07 1.377272e-07
-1.134191e-07 -2.151485e-07 -1.6630774e-07 -1.5266403e-07 5.110989e-09 -4.210358e-07 2.9724358e-08 -1.0144704e-07
-3.7893805e-08 2.9033137e-07 2.2187228e-07 2.0657056e-07 9.439385e-08 3.0861504e-08 -1.249662e-07 -1.8263412e-07
2.0157489e-07 -8.97319e-08 2.0845502e-07 -4.4164324e-07 2.51768e-07 -1.1280668e-07 -9.297158e-08 -1.7992816e-07
-3.905306e-09 -3.1923893e-08 -1.6558606e-07 7.318373e-08 4.020043e-08 -1.7411858e-07 6.704458e-08 2.0744886e-07
-7.7212555e-08 -1.907284e-07 1.1473107e-07 8.510979e-08 -1.8641924e-07 9.3816915e-08 1.6819868e-07 1.18464186e-07
-2.1577394e-07 8.536837e-08 -9.4848666e-08 2.2735868e-07 2.7838692e-07 -1.3851029e-08 1.2622775e-07 4.7843482e-08
1.3830507e-07 2.0160068e-07 1.5712767e-07 8.593446e-08 2.3559937e-07 -1.4537575e-07 1.7703846e-08 -4.0336562e-07

actor.mlp_layers.2.running_var f4 [128]
00000000: 0b15 833e 73a7 b63d 5e96 8b3d c580 b13d
00000010: 7343 353e 5d12 dc3d de10 793d eeb9 d93d
00000020: 87a2 c13d 4897 0e3e 9e55 943d 2081 c83d
00000030: 752d 9f3d 92d0 853d c489 c73d 7688 e63d
00000040: 0082 ab3d 2cbf 2b3e aeba 1c3e 7049 a73d
00000050: a74d d73d 5bb5 1f3e f772 c13d 3a56 153e
00000060: 275b 293e 75e0 b83d 98b3 a93d 2225 bb3d
00000070: ff2c f93d 0a0f db3d f68e c63d 4578 a33d
00000080: 0d30 c03d e388 0f3e 90ad eb3d 1309 b43d
00000090: 2125 ac3d ffec 333e a5c9 b43d 6946 cd3d
000000a0: c76e 863d e367 e93d c733 d03d 224d 013e
000000b0: 104d a13d 2eef eb3d 7e6b 153e 60ab 4a3e
000000c0: 51ad 963d c4a7 d63d fdc5 343e 68cd c43d
000000d0: e65c 2e3e 45a9 2a3e c99b 963d 0714 4e3d
000000e0: ead8 9e3d 8338 453e 34cd e93d e769 4f3e
000000f0: 6a06 483e 0fba 073e e824 2f3e cbb5 c33d
00000100: 22b1 253e b68d 063e eebb 293e 0c9c 0a3e
00000110: 5188 1f3e 2e4c 0f3e cb32 323e 7cfe 153e
00000120: 77be f93d 36a4 bb3d 2dfb ff3d 8384 443e
00000130: 0199 a63d 01d5 a53d 0fc2 df3d bd46 493e
00000140: 6c40 bb3d daf8 de3d 6f88 643e 2faa 963d
00000150: 2e2a a03d ae05 073e f545 bc3d b1b2 d23d
00000160: a11c fd3d bb09 df3d 4dbd 2f3e dc41 8d3d
00000170: d345 123e e547 d83d 907e b73d 18b7 813e
00000180: 89e8 b43d e326 a73d f9b3 293e 0f86 9f3d
00000190: 4eb9 b93d 6f59 183e 477d 963d 93fe af3d
000001a0: 3dc8 953d 69d9 703d 40ee a83d ba83 ab3d
000001b0: c4ff 163e 144d d83d a01c 433e b367 d53d
000001c0: 4bb4 103e b6b3 e83d c35a 053e 0c0e 5c3e
000001d0: 128b c23d 752d 693e 9e04 cb3d a181 d43d
000001e0: 168e 0b3e ce7d 0a3e b5d9 f73d 2bbf b03d
000001f0: f029 d53d 04c5 383e cc71 a13d 5284 073e
0.25601992 0.08918657 0.0681579 0.08667139 0.17701511 0.1074569 0.0608071 0.106311664
0.09454828 0.13924897 0.07242893 0.09790254 0.07772342 0.06533922 0.097430736 0.112564966
0.08374405 0.16772145 0.15305588 0.08168304 0.10512858 0.15596525 0.09445756 0.14583674
0.16538678 0.09027187 0.08286208 0.09137942 0.121667854 0.10696228 0.096952364 0.07981924
0.09384165 0.14017062 0.11507714 0.08790793 0.08405519 0.17570876 0.08827523 0.10023195
0.06564098 0.11396768 0.10166126 0.1262708 0.07876027 0.11520229 0.14591786 0.19791937
0.07357276 0.104812175 0.17653652 0.09609491 0.17027625 0.16666134 0.073539324 0.05031207
0.07756217 0.19259839 0.114160925 0.20255242 0.19533697 0.1325457 0.17103922 0.09556159
0.16180852 0.13139996 0.16575596 0.1353609 0.15579344 0.13993904 0.17402188 0.1464786
0.121945314 0.0916218 0.1249908 0.19191174 0.08134652 0.08097268 0.109256856 0.19655891
0.09143147 0.108873084 0.2231767 0.07356679 0.07820545 0.1318576 0.09193031 0.10287989
0.12358976 0.10890528 0.17162056 0.06897327 0.14284448 0.10560588 0.08959687 0.25335002
0.08833415 0.08161714 0.1657256 0.077892415 0.09068547 0.14877866 0.073481135 0.08593478
0.07313583 0.05880109 0.082485676 0.08374734 0.14746004 0.105615765 0.19053888 0.1042017
0.14131276 0.11362402 0.13022904 0.21489733 0.09499182 0.22771247 0.0991299 0.10376287
0.1362842 0.13524553 0.12102071 0.086302124 0.104083896 0.18043905 0.07883033 0.1323407

actor.mlp_layers.4.weight f4 [128, 128]
00000000: fd0b 373c cf04 26bd bb48 043d 228f 9dbb
00000010: 639a 1bbb 2f43 953d 3020 e23b b3d4 f63c
00000020: 8750 143d d637 903d 712d 843c 95fb 3fbd
00000030: 3599 4e3c 75b2 7abd 06b9 f53b ad5f 2cbd
00000040: 0ee5 93bd 75b0 1ebd 1ae3 2b3d 4062 5b3b
00000050: 859c 1a3d b495 72bc 5a61 41bd 707d 923d
00000060: 332d c03c f30a 7d3b 1d60 59bd f38d eb3c
00000070: 296e 2c3c d499 b43c 8f7b 58bd 12ca 16bd
00000080: c29f 25bc 0f15 9e3c 88f1 c03a 70de 84bd
00000090: 8e0f 863d 15c3 143d f970 143d 338d 60bd
000000a0: e645 d4bc c742 9dbb 3371 3cbd 06b7 863d
000000b0: 0f43 323c da92 f73c bc3f 853d b321 78bc
000000c0: c10e e43c 5e39 843d fdcb 41bc b59d 8dbd
000000d0: 008f 3dbd e16a 44bd 8816 31bd 8a0c 783d
000000e0: 30c0 8bbd 399a 5abd 368a 403d 0f2d 10bd
000000f0: 734c a1bd 1a8d 91bd fd70 8fbd f21f d4bb
00000100: 5866 883d 19d2 6bbd 12ff 943d 2738 81bc
00000110: 3f37 2cbd 38ed 4d3d 6dc2 ce3c 0110 86bd
00000120: cdf5 0dbc ea5e 73bd d17e 47bd b448 243d
00000130: b2ae dc3c e654 b0bc 8a94 9f3c 1464 8f3d
00000140: 19f7 26bd 733b 193d c8a8 39bd 66fe 0d3b
00000150: 3071 383d e668 0a3d 661b 08bd 9d6d 4f3d
00000160: 5118 5ebd 141d 4d3d 3694 b63d 7943 123d
00000170: 6f8c a33b d570 da3c 0590 693d baf6 9e3d
00000180: 1c65 b03c 0906 573d 621d fd3c b257 843d
00000190: dfbe ea3c b98f 73bd 823a 91bc 2311 9a3d
000001a0: 7462 25bc 2510 ffbc 1664 093c 6c37 b9bb
000001b0: 251e 753c 605b 97bc 060a 903c 951d cfbb
000001c0: edc9 f03c d8b7 683c 7620 85bd cc3b 1ebd
000001d0: 6271 6c3d 091a de3c 6f64 85bc 42eb b03c
000001e0: 2654 363d 84d4 5b3b 898b a8bb f74e 713d
000001f0: 39c5 febc c093 74bd 2585 95bb 119c b53c
00000200: 570d 25bd 21f0 52bd d18d fc3c a464 083d
00000210: cd33 bbbc 06e4 4dbd 2aa6 e23c f2c9 573d
00000220: fc66 f93c c826 c73b 6c52 503d e84c 00bd
00000230: a558 6f3d 1f35 993d a8a6 273d e771 a8bd
00000240: cc8d c4bc 20f7 153d 4d98 46bd 9de5 953d
00000250: 2c0d b8bc 35bf 823d d5de b4bc 8603 93bc
00000260: 3869 a43c 5d17 70bc 7e3b 6f3d 18b1 4b3d
00000270: 71fe b7bc 88c1 6ebd 8440 ad3c 5385 88bd
00000280: 8621 9e3c 74f4 c03b 1942 6abc b0f1 44bd
00000290: 4278 79bc 6167 143d 616f 3ebd 9d1b 5fbd
000002a0: b26b 443c 0948 e7bc 0a98 143d 40ee a5bc
000002b0: 5143 f53b 3703 5ebb 441b 603d 0278 6f3c
000002c0: 7b91 e3b9 a998 483d b463 3a3d 1a98 e4bc
000002d0: f70b a4bc 665c 173c 3cb4 56bd 9e35 2c3d
000002e0: cd16 b33d d586 fa3c 1386 5cbd 0e01 c93b
000002f0: 6208 96bd ecd3 963d 0726 9dbc 0a10 03bd
00000300: b881 35bc ca2e 063d fd06 92bc b641 12bd
00000310: db56 6dbd cf35 30bc 6e94 253d f8bc 333d
00000320: e462 303d a861 003c 32b7 05bd 9978 573c
00000330: 8706 7e3d 9bcd ee3c 413d 6d3d 18b6 babb
00000340: 9556 113d 72dd f0bc 1243 86bd 49af 903d
00000350: 2914 0a3d b25b 40bd b833 4f3d 2787 eebb
00000360: d97d 9fbc 8ffd 9ebb bc2c 31bc 6d47 67bd
00000370: 4638 2fbd ecd3 733d 6b92 1bbc 8dbb 343d
00000380: e090 a73c 6c6d 82bd 5170 c03a 0a34 353d
00000390: 1ec9 f43b e95d a1bd e3ef 793c 6b41 853d
000003a0: b086 7bbc 0423 4cbd 60be 96bc 130e 61bd
000003b0: 184c 883d 5620 303d 0e0f 383d 8a9e d8bc
000003c0: 7dfb 60bd 5f30 423d 24e5 eebc 0078 8ebb
000003d0: 5eae 83bd 7e25 173d b289 853d c25c 8abd
000003e0: e4a2 3bbd 1e5b 88bd a4f6 af3c 5fc0 e43c
000003f0: 46f5 87bd bd8e 21bd 47f5 b03c ad51 33bd
0.011172292 -0.04053193 0.032295924 -0.0048083225 -0.0023743145 0.07288205 0.0069008097 0.03013072
0.03620961 0.070419 0.01613495 -0.046870787 0.01260977 -0.061205346 0.007498863 -0.04208343
-0.07221423 -0.0387425 0.041964628 0.003347531 0.037746925 -0.0148062 -0.047211982 0.071528316
0.023459053 0.0038611263 -0.053070176 0.02875421 0.010524311 0.022046007 -0.05285221 -0.036813803
-0.01010889 0.01929715 0.001472042 -0.06487739 0.065459356 0.036318857 0.03624055 -0.054822158
-0.025912236 -0.0047992202 -0.046006393 0.06577878 0.010880246 0.030221391 0.06506297 -0.015144753
0.027839066 0.064562544 -0.01182842 -0.06914846 -0.046278954 -0.04795349 -0.043234378 0.060558833
-0.06823766 -0.053369734 0.04700681 -0.03519922 -0.0787591 -0.07106991 -0.07003973 -0.0064735347
0.066601455 -0.05757341 0.07275213 -0.015773846 -0.042044874 0.050275058 0.025239194 -0.06546021
-0.0086645605 -0.05941669 -0.048704926 0.040108398 0.02693877 -0.021524858 0.019480009 0.0700151
-0.040762994 0.03741021 -0.045326978 0.0021666526 0.04502982 0.033791445 -0.033229254 0.050641645
-0.05422241 0.05007656 0.08914988 0.03570888 0.004991106 0.02666513 0.057022113 0.07761903
0.021532588 0.05249599 0.0308978 0.06462039 0.028655468 -0.059463236 -0.017728094 0.075228
-0.010094274 -0.031135628 0.008385679 -0.0056523588 0.0149608 -0.018476188 0.017582905 -0.006320665
0.02939316 0.014203988 -0.06500332 -0.038631245 0.057725318 0.027112024 -0.016283242 0.021596555
0.044513844 0.0033543417 -0.005143587 0.058913197 -0.031099902 -0.059711218 -0.004562991 0.022169145
-0.040295925 -0.051498536 0.030829342 0.033299103 -0.022851849 -0.05026629 0.027667124 0.052682824
0.030444615 0.006077621 0.050859854 -0.031323344 0.058434147 0.07480835 0.04093042 -0.0822485
-0.023993395 0.03661263 -0.04848509 0.07319186 -0.022467218 0.06384126 -0.02207891 -0.017946016
0.020069703 -0.014654008 0.058406346 0.049729437 -0.022460194 -0.058290035 0.021148928 -0.066660546
0.019303095 0.005888516 -0.0142979855 -0.048082054 -0.015226426 0.036231402 -0.046492938 -0.054469693
0.011988567 -0.028232591 0.03627781 -0.020255208 0.0074848314 -0.0033876428 0.054713503 0.014616014
-0.00043405205 0.048973713 0.04550524 -0.027904559 -0.020025237 0.009238338 -0.05241798 0.04204332
0.08744583 0.030581871 -0.0538388 0.006134159 -0.07325818 0.0736464 -0.019183172 -0.031997718
-0.011078291 0.032759465 -0.017825598 -0.035707198 -0.05794416 -0.0107550165 0.040424757 0.043881387
0.04306306 0.007835783 -0.03264541 0.013151311 0.062017944 0.029150775 0.057919744 -0.005697977
0.03548296 -0.029402468 -0.065557614 0.07064683 0.033710632 -0.046962447 0.050586432 -0.007279295
-0.019469189 -0.004852004 -0.010813888 -0.0564646 -0.042778276 0.059528276 -0.009495358 0.044124175
0.020454824 -0.06368527 0.001468191 0.04423908 0.007470264 -0.0787924 0.015254947 0.06506618
-0.015351936 -0.04983808 -0.018401325 -0.054945063 0.06655139 0.042999588 0.044936232 -0.026442785
-0.054927338 0.04740941 -0.029161997 -0.004347801 -0.06429742 0.03690099 0.06520404 -0.067559734
-0.04580964 -0.06658004 0.021479912 0.027923761 -0.06638579 -0.039442766 0.021601332 -0.043779064

actor.mlp_layers.4.bias f4 [128]
00000000: c53d 8db2 3a4c f6b2 5201 32b3 e6fc 62b3
00000010: 02d6 61b3 698c c733 7703 e1b1 271b b7b2
00000020: 44be a1b3 39f0 7fb3 3e27 7132 3c5f 81b3
00000030: 0213 0733 4503 8cb3 2249 65b3 99cc fb31
00000040: 09ab b6b3 ac47 b0b2 e76a 9032 19cd 7b32
00000050: ed80 47b2 c5bf 3d33 0b7a 25b3 db2c 8d33
00000060: f745 1933 0f7b 63b3 9957 31b3 7b02 4130
00000070: f5dd 0fb3 9be2 6532 13a5 aa33 2744 e9b2
00000080: c0ab be32 12ab 9fb3 e924 2531 8d4c fd32
00000090: 0a16 d130 7aac dbb2 625f 3b33 20f3 5e32
000000a0: 7b87 0e33 8d46 3132 742e 8c32 71d9 a032
000000b0: 6785 8c33 e7f3 eeb2 7b0a 9f33 c029 8632
000000c0: 26fd f5b2 9777 a032 f2e3 d031 f419 3033
000000d0: 4fcd 41b3 93d6 8b30 3a68 ab32 20dd d532
000000e0: d184 8f33 db42 0433 2995 7632 a7f4 ceb3
000000f0: 576f 4b33 3e49 5633 3470 67b3 f1d1 b8b1
00000100: 1962 6733 5b67 61b2 e9ba 5db2 cac1 3e33
00000110: 1e73 9233 e345 a7b3 75fb ebb2 64cb e531
00000120: cd78 96b3 c359 6eb3 c82f 1e33 cf41 98b3
00000130: 419b c1b2 53cd 2132 d519 4ab3 fa36 0133
00000140: 6fbb a632 9438 bd31 4fda 6331 d11e 2f33
00000150: a0bf 2fb3 31ce 9fb3 8a94 c6b2 bc1b 2c32
00000160: 5d61 6133 6c66 d4b2 901d 2433 a748 3db3
00000170: 09a5 ab31 1699 ec32 a3e4 f6b3 2837 3cb1
00000180: 0a03 8632 b265 bc33 fb83 d3b2 a42f 7e33
00000190: abf7 dbb2 cd03 2c33 25fb 3d33 c7b2 96b1
000001a0: 9efa 24b4 002a 2eb3 ee1e fe32 2af7 2cb2
000001b0: 6c46 43b3 ba36 dab0 495f 5433 342a a1b3
000001c0: 695c 4fb2 0a2d 2fb3 3147 efb2 dacd c3b2
000001d0: c9cb 1b32 dce3 c032 7549 38b3 15f5 bb33
000001e0: 08eb 9f32 5793 f3b3 57e7 bcb3 2ac5 2bb2
000001f0: e524 9931 c62e d732 06e6 19b3 bd03 1c33
-1.644265e-08 -2.8672833e-08 -4.1445055e-08 -5.2849735e-08 -5.2581534e-08 9.2922e-08 -6.5487558e-09 -2.1316351e-08
-7.531756e-08 -5.9590295e-08 1.4036969e-08 -6.0243536e-08 3.1449424e-08 -6.519853e-08 -5.338473e-08 7.3283215e-09
-8.5061465e-08 -2.052169e-08 1.681242e-08 1.4656757e-08 -1.1612639e-08 4.4179405e-08 -3.8528054e-08 6.573983e-08
3.568672e-08 -5.2964477e-08 -4.1290694e-08 7.0216516e-10 -3.349665e-08 1.33810785e-08 7.946269e-08 -2.7155762e-08
2.2197014e-08 -7.435132e-08 2.4031641e-09 2.9487888e-08 1.5213015e-09 -2.5573389e-08 4.362608e-08 1.2977381e-08
3.318517e-08 1.0318797e-08 1.631927e-08 1.8725332e-08 6.543524e-08 -2.781776e-08 7.405921e-08 1.5618639e-08
-2.8636872e-08 1.8680835e-08 6.079511e-09 4.1001798e-08 -4.512304e-08 1.0174567e-09 1.9954417e-08 2.489702e-08
6.6831156e-08 3.079445e-08 1.4353e-08 -9.6371245e-08 4.7365884e-08 4.989237e-08 -5.3885927e-08 -5.3789724e-09
5.3873098e-08 -1.3120224e-08 -1.29063915e-08 4.4414072e-08 6.8195945e-08 -7.789256e-08 -2.747195e-08 6.6879e-09
-7.006893e-08 -5.549533e-08 3.68307e-08 -7.090022e-08 -2.2538758e-08 9.418119e-09 -4.7055284e-08 3.0085154e-08
1.9410178e-08 5.507056e-09 3.3156942e-09 4.077339e-08 -4.0919645e-08 -7.4415205e-08 -2.3117781e-08 1.0018024e-08
5.2475446e-08 -2.4726624e-08 3.8211112e-08 -4.407107e-08 4.9955173e-09 2.7543631e-08 -1.14968564e-07 -2.7388953e-09
1.5601035e-08 8.7729305e-08 -2.462365e-08 5.9182312e-08 -2.5607582e-08 4.0050327e-08 4.4233406e-08 -4.385899e-09
-1.5364864e-07 -4.055073e-08 2.9583557e-08 -1.0067916e-08 -4.5466024e-08 -1.5877142e-09 4.9446758e-08 -7.5048234e-08
-1.20699974e-08 -4.0786325e-08 -2.7855636e-08 -2.2794598e-08 9.068523e-09 2.245536e-08 -4.2907647e-08 8.752446e-08
1.8616916e-08 -1.134237e-07 -8.796513e-08 -9.99834e-09 4.4570805e-09 2.5050564e-08 -3.5832294e-08 3.632498e-08

actor.mlp_layers.5.weight f4 [128]
00000000: 8762 2b3f 3b8e 283f 066c 383f 5676 223f
00000010: 8b2f 173f eafa 243f 4e1c 293f f845 1f3f
00000020: 5d5f 013f afba 363f 372e 273f e2c9 333f
00000030: dd05 253f 3bb6 243f 41b7 1b3f cb86 1c3f
00000040: 2239 323f aac2 0e3f 0f35 253f aa50 293f
00000050: 862d 1c3f 90cd 213f 539a 233f 6fdd 1d3f
00000060: 214d 193f 9549 1b3f 330a 2f3f cdbb f73e
00000070: fd35 123f 67e4 263f ef58 253f 9b8d 2b3f
00000080: 2841 1d3f 08a5 223f 2c3a 0d3f 0944 0e3f
00000090: 2937 263f 2e98 1a3f 8d3b 243f 19a2 0d3f
000000a0: befb 183f 9a84 213f 63d3 063f bc29 093f
000000b0: b296 203f 90ef 0e3f 5e61 1f3f 4796 f63e
000000c0: 1eef 273f 6b80 333f fc06 1b3f a16a 1b3f
000000d0: 0b50 1f3f 3961 0f3f b1b0 1a3f a7a1 103f
000000e0: d9e8 2a3f eb07 1d3f 31bd 113f 43d6 2d3f
000000f0: 16ba 193f 98b8 343f 47ce 223f e932 303f
00000100: 9a99 2a3f c054 2b3f 51dc 103f 7c3e 323f
00000110: 9032 133f df74 203f 47f4 1c3f 3852 1a3f
00000120: 0bda f13e c13f 1d3f 4db8 173f 72d6 1a3f
00000130: 28d9 163f 42b6 1c3f ae85 193f 57ee 223f
00000140: 314d 183f a89b 1e3f d9cc 1f3f 3e78 1f3f
00000150: 6f32 2e3f 7a27 113f c54f 203f 0b91 283f
00000160: d6df 2b3f 45c2 243f 957b 2a3f f138 073f
00000170: 47cc 1e3f b986 123f 7481 193f 51a7 103f
00000180: 6db1 173f 2f33 1a3f 1f1e 1f3f 1e09 193f
00000190: 301a 0f3f 583e 223f 60c1 163f 22fb 153f
000001a0: f31f 2a3f 8a60 0f3f ffbe 323f f237 173f
000001b0: 0e97 173f a38f fe3e 0f95 2c3f f93f 2e3f
000001c0: f17c 0f3f 424d 163f 1372 073f 6a74 193f
000001d0: 49ec 313f 36bb 273f 422d 243f d3e3 293f
000001e0: 220e 353f 9159 313f 9f9c 323f 4532 233f
000001f0: bb51 403f 6f66 0d3f 2ca3 123f de87 183f
0.66947216 0.65842026 0.7203983 0.63461816 0.5905692 0.64445364 0.66058815 0.6221614
0.5053614 0.71378607 0.65304893 0.70229924 0.6446207 0.6434056 0.608265 0.6114318
0.6961843 0.55765784 0.64534086 0.6613871 0.61006963 0.6320429 0.63907355 0.61666006
0.59883314 0.6065915 0.6837494 0.48385468 0.5711363 0.65192264 0.64588827 0.6701295
0.61427546 0.6353307 0.5516689 0.55572563 0.6492792 0.6038846 0.6415337 0.55325466
0.5975913 0.6309296 0.526663 0.53579307 0.6272994 0.55834293 0.62257946 0.48161528
0.6559924 0.70117825 0.6055753 0.6070958 0.6223151 0.56007725 0.6042586 0.5649666
0.6676155 0.61340207 0.5692931 0.6790506 0.6004957 0.7059417 0.63596004 0.6882768
0.6664063 0.66926193 0.56586176 0.69626594 0.5749903 0.6267833 0.6131024 0.60281706
0.47236666 0.61425406 0.59265596 0.6048347 0.58925104 0.61215603 0.59969604 0.6364493
0.59492785 0.6195626 0.6242195 0.6229285 0.68045706 0.5670086 0.6262172 0.6584632
0.6713842 0.6435893 0.6659482 0.5282126 0.6203045 0.5723682 0.59963155 0.56505305
0.59255105 0.6023435 0.62155336 0.59779537 0.55899334 0.6337638 0.58888817 0.58586323
0.66455 0.5600668 0.69822687 0.5906974 0.59214866 0.4971896 0.67414945 0.68066365
0.5605002 0.58711636 0.5290844 0.5994326 0.6950117 0.65520036 0.6413156 0.6636326
0.7072469 0.6927729 0.69770235 0.6374858 0.7512471 0.55234426 0.5728023 0.59582317
