tasks/tennis/solutions/maddpg/solution_checkpoint/homogeneous_maddpg_baseline_actor_checkpoint.pth (torch_old, 538033 bytes, 18 tensors)

bn.weight f4 [24]
0.53496474 0.711706 0.3243583 0.29111508 1.6450416 1.228967 0.33393136 0.25347185
0.29413837 0.082665965 0.32505342 0.17477797 0.36119014 0.34340873 0.27759066 0.32693163
1.1288979 0.6475488 0.3916906 0.65692264 1.8153399 1.8955669 0.28527033 0.5890502
00000000: 73f3 083f 5d32 363f 4b12 a63e 090d 953e
00000010: b990 d23f ca4e 9d3f 0df9 aa3e 10c7 813e
00000020: 4e99 963e c64c a93d 676d a63e fff8 323e
00000030: eaed b83e 45d3 af3e 5d20 8e3e 9563 a73e
00000040: ba7f 903f c2c5 253f ac8b c83e 152c 283f
00000050: 0f5d e83f f0a1 f23f f40e 923e fecb 163f

bn.bias f4 [24]
6.085447e-06 -2.167865e-05 -3.3042485e-05 -7.539889e-06 -1.7520224e-05 8.563954e-06 1.6063312e-05 -7.574031e-06
-4.1959276e-05 -2.0488942e-05 -6.867075e-06 2.3762956e-05 4.1377756e-05 2.7475244e-06 1.5316278e-05 2.5879273e-05
2.48202e-05 3.975907e-05 1.6095331e-05 2.5862839e-05 7.674649e-05 -0.00012474314 -1.2875385e-05 -1.4665648e-05
00000000: 9731 cc36 8cda b5b7 1997 0ab8 27ff fcb6
00000010: 65f8 92b7 e7ad 0f37 b3bf 8637 6e24 feb6
00000020: 6efd 2fb8 abdf abb7 ba6b e6b6 8f56 c737
00000030: 078d 2d38 1c62 3836 757b 8037 5117 d937
00000040: f934 d037 fac2 2638 7604 8737 06f4 d837
00000050: f5f2 a038 7bcd 02b9 5c03 58b7 7b0c 76b7

bn.running_mean f4 [24]
-5.472172 -0.48259416 7.692673 -0.107910395 -0.0066890754 4.1465483 7.692673 -0.107910395
-5.5072613 -0.48236227 7.9530377 -0.14064363 0.0039816285 4.151146 7.9530377 -0.14064363
-5.537607 -0.4854992 8.02175 -0.15932792 0.0074520456 4.158165 8.02175 -0.15932792
00000000: 081c afc0 9516 f7be 612a f640 2000 ddbd
00000010: 0830 dbbb 86b0 8440 612a f640 2000 ddbd
00000020: 7c3b b0c0 30f8 f6be 497f fe40 e204 10be
00000030: 5278 823b 30d6 8440 497f fe40 e204 10be
00000040: 1434 b1c0 5a93 f8be 1759 0041 dc26 23be
00000050: 4a30 f43b b00f 8540 1759 0041 dc26 23be

bn.running_var f4 [24]
18.060463 1.0445439 542.5611 17.071331 27.511263 2.3357913 542.5611 17.071331
17.7379 1.0510191 544.5504 17.115635 27.885279 2.3803346 544.5504 17.115635
17.705555 1.0584059 545.6573 16.920082 28.448294 2.462639 545.6573 16.920082
00000000: d47b 9041 9db3 853f e9a3 0744 1692 8841
00000010: 1117 dc41 9b7d 1540 e9a3 0744 1692 8841
00000020: 38e7 8d41 cb87 863f 3a23 0844 d2ec 8841
00000030: 0d15 df41 6757 1840 3a23 0844 d2ec 8841
00000040: faa4 8d41 d879 873f 116a 0844 545c 8741
00000050: 1b96 e341 e19b 1d40 116a 0844 545c 8741

bn2.weight f4 [400]
1.0049425 1.4438845 0.68280804 0.8233053 0.6273641 1.032049 0.6263457 0.81689197
0.8082648 1.1371772 0.61574876 1.7081012 0.76466924 1.4370313 1.3527242 0.13834167
0.87578267 0.7148762 0.7370784 1.3708006 0.7895804 0.37892538 0.9606176 0.8286687
0.6081339 0.93899286 1.0526955 0.9306218 0.8098655 1.2099319 0.6337655 0.83329475
0.8524089 1.0710242 0.5575571 1.0911211 1.0537047 1.3991662 0.80342233 0.7456159
0.8766043 0.88772994 1.3538808 0.77584016 1.0150301 0.65967625 1.1674039 0.8887721
0.77984333 1.3082026 0.73156095 0.63445514 0.80646205 0.6176014 0.74547523 1.0416212
0.70203936 0.94773036 0.9467609 0.60143715 1.0050548 0.69638985 1.0717947 0.6404986
0.68480825 0.5045996 1.11425 0.6766246 0.87890875 1.1972054 1.153578 0.5476831
0.73279554 0.9890294 1.1728561 0.8989243 0.7373597 0.5492744 1.0212754 0.9625407
0.5800881 0.8118541 0.8275427 0.80931205 0.6548294 0.5660121 0.83618516 1.1850985
0.9512976 0.9095682 0.8697964 1.4365447 0.6443794 0.91783 0.7828503 0.9671078
0.7151605 1.1068878 0.88778776 1.1146725 0.5767875 1.2157321 0.9897142 0.86206615
0.7378276 0.6074206 0.80347043 1.3906095 0.6124406 0.8072918 0.95112145 0.7381205
0.8779477 0.6148925 0.8579005 0.92394555 1.2250896 1.2283509 0.765074 1.0732421
0.8675215 0.8590028 0.9112268 0.98208946 0.5696607 1.2262172 0.7745736 0.8232377
0.8310707 1.3222482 0.79463416 1.078768 0.5811175 1.352643 0.4547357 0.7757244
0.8163641 0.7392693 0.8650718 0.8617152 0.83386666 0.9264783 0.8173427 0.5817418
1.0379723 0.78146356 0.94289035 0.7900549 0.89971274 0.9829245 0.8282437 0.6623225
0.83769953 1.5248841 0.58604527 0.76877236 0.9964593 0.9517044 0.46946353 0.7853641
1.2645763 0.8679279 0.9182126 0.9709414 0.871088 0.8141154 0.77478606 0.6206291
0.76950514 0.65842783 1.0757705 0.71413577 0.6929983 0.8741514 0.6729341 0.77178955
0.83501565 0.7300213 0.7513553 0.67268467 0.6968611 0.51919353 1.7208451 0.74337775
0.9874404 0.9404046 0.42038846 1.0862769 1.1807414 0.7799909 0.82024324 1.9723545
0.6457082 0.48617673 0.985166 0.8035544 0.7777252 0.73958796 0.72936726 0.67038566
0.6535332 0.83800405 0.9779089 0.5763089 0.7980275 0.9355303 0.8633265 1.0228254
0.9179378 0.9655213 0.85744816 1.2918452 1.2703941 1.0486141 0.7928918 1.5407952
0.98540604 0.7752147 0.5660675 0.83725786 0.87536275 0.9356123 1.4099711 0.8173097
0.7325441 1.24561 0.620967 0.970999 0.87460065 0.7174215 0.7747096 0.8493041
0.3575055 0.96516025 0.7837423 1.1152285 0.8729731 0.95251936 0.8737387 0.9728769
1.1497054 0.9866558 0.75501657 1.0131937 0.74185175 0.550632 1.1513116 1.0588994
0.33045945 0.8061722 0.9823945 1.0534153 0.84730595 0.6733321 0.91167504 0.85052836
00000000: f5a1 803f 35d1 b83f 82cc 2e3f 23c4 523f
00000010: ef9a 203f 2e1a 843f 3158 203f d51f 513f
00000020: 71ea 4e3f 068f 913f b6a1 1d3f 0fa3 da3f
00000030: 5dc1 433f a4f0 b73f 1126 ad3f 70a9 0d3e
00000040: 4b33 603f 2002 373f 2cb1 3c3f 6576 af3f
00000050: f121 4a3f 8202 c23e 09eb 753f a223 543f
00000060: aaae 1b3f d661 703f babe 863f 3b3d 6e3f
00000070: 5853 4f3f 0cdf 9a3f 753e 223f ce52 553f
00000080: 7837 5a3f 5217 893f 10bc 0e3f dba9 8b3f
00000090: ccdf 863f e117 b33f 16ad 4d3f afe0 3e3f
000000a0: 2469 603f 4542 633f f74b ad3f 769d 463f
000000b0: 82ec 813f 8be0 283f 7e6d 953f 9186 633f
000000c0: d0a3 473f 2f73 a73f 9447 3b3f a76b 223f
000000d0: 4c74 4e3f 201b 1e3f 77d7 3e3f d853 853f
000000e0: dab8 333f 759e 723f ec5e 723f c9f7 193f
000000f0: a3a5 803f 9b46 323f 9230 893f b7f7 233f
00000100: 984f 2f3f 702d 013f be9f 8e3f 4537 2d3f
00000110: 2a00 613f 073e 993f 72a8 933f f634 0c3f
00000120: 7d98 3b3f 0831 7d3f 2620 963f e71f 663f
00000130: 9bc3 3c3f 3f9d 0c3f 27b9 823f 1169 763f
00000140: a780 143f acd5 4f3f d7d9 533f 132f 4f3f
00000150: e6a2 273f 2be6 103f 3b10 563f 4fb1 973f
00000160: 3d88 733f 76d9 683f faaa 5e3f b2e0 b73f
00000170: 0cf6 243f e8f6 6a3f e168 483f 6094 773f
00000180: c214 373f 80ae 8d3f 0f46 633f 97ad 8e3f
00000190: 58a8 133f 1c9d 9b3f e95d 7d3f 5eb0 5c3f
000001a0: 45e2 3c3f eb7f 1b3f 3db0 4d3f 7eff b13f
000001b0: e8c8 1c3f adaa 4e3f b27c 733f 77f5 3c3f
000001c0: 2ec1 603f 9869 1d3f 5e9f 5b3f b287 6c3f
000001d0: bccf 9c3f 9a3a 9d3f e4db 433f ff5f 893f
000001e0: e415 5e3f 9ce7 5b3f 2946 693f 376a 7b3f
000001f0: 49d5 113f aff4 9c3f 754a 463f b5bf 523f
00000200: 0dc1 543f 6e3f a93f 256d 4b3f 1215 8a3f
00000210: 1ec4 143f 6823 ad3f 1ed3 e83e e095 463f
00000220: 3dfd 503f c140 3d3f 5875 5d3f 5e99 5c3f
00000230: 4978 553f af2d 6d3f 5f3d 513f 08ed 143f
00000240: 47dc 843f ff0d 483f 4361 713f 0a41 4a3f
00000250: 9353 663f f1a0 7b3f c707 543f f88d 293f
00000260: 7a73 563f 672f c33f 1007 163f 44ce 443f
00000270: f517 7f3f e6a2 733f 865d f03e 9f0d 493f
00000280: a3dd a13f 8630 5e3f fb0f 6b3f 9e8f 783f
00000290: a0ff 5e3f de69 503f 6158 463f 8ce1 1e3f
000002a0: 4afe 443f ba8e 283f d9b2 893f 9ad1 363f
000002b0: 5668 313f 63c8 5f3f 6945 2c3f 0094 453f
000002c0: 96c3 553f ade2 3a3f d258 403f 1035 2c3f
000002d0: 7d65 323f dee9 043f a744 dc3f 014e 3e3f
000002e0: e5c8 7c3f 5bbe 703f 283d d73e 1f0b 8b3f
000002f0: 8922 973f 7cad 473f 76fb 513f 1d76 fc3f
00000300: 224d 253f 28ec f83e d733 7c3f beb5 4d3f
00000310: 0019 473f a355 3d3f d0b7 3a3f 659e 2b3f
00000320: f44d 273f 6f87 563f 3d58 7a3f fb88 133f
00000330: 884b 4c3f ea7e 6f3f f702 5d3f f1eb 823f
00000340: f9fd 6a3f 672c 773f b981 5b3f 2f5b a53f
00000350: 469c a23f fd38 863f f5fa 4a3f c738 c53f
00000360: 9243 7c3f 7874 463f cde9 103f 8856 563f
00000370: c617 603f 4a84 6f3f ef79 b43f 353b 513f
00000380: 0388 3b3f 2670 9f3f b1f7 1e3f 6493 783f
00000390: d4e5 5f3f efa8 373f 5e53 463f fe6b 593f
000003a0: f60a b73e be14 773f 56a3 483f cfbf 8e3f
000003b0: 2a7b 5f3f 4fd8 733f 57ad 5f3f 760e 793f
000003c0: 8c29 933f 7995 7c3f c448 413f 55b0 813f
000003d0: ffe9 3d3f 38f6 0c3f 2e5e 933f 048a 873f
000003e0: fb31 a93e 4d61 4e3f 357e 7b3f 50d6 863f
000003f0: 0be9 583f 7e5f 2c3f 8963 693f 3abc 593f

bn2.bias f4 [400]
-0.3203708 -0.17594844 -0.35096577 -0.81988215 -0.6553112 -0.6646959 -0.85379034 -0.88984096
-0.83811104 -0.77262676 -0.71724796 0.11517863 -0.8662772 -0.84955597 -1.0461988 -0.45096904
-0.68030834 -0.66097724 -0.4694403 -0.3314526 -0.62210953 -0.38482657 -0.18085735 -0.72617406
-0.8671331 -1.1957462 -0.5550951 -1.0547011 -0.7357888 -1.4060028 -0.9910859 -0.9278569
-0.76512754 -1.0164742 -0.5881633 0.07894026 -1.081775 -0.85739106 -0.50196 -0.69484854
-0.78366333 -0.03305703 -0.9180197 -0.85953575 -0.23073135 -1.0272326 -0.92643577 -0.3352457
-0.763805 -0.40315124 -0.90445167 -0.6357571 -0.72628605 -0.7200682 -0.45551127 -1.093604
-0.43472743 -1.2905979 0.29004207 -0.8629572 -1.0709596 -0.7137182 -0.37744528 -0.32709327
-0.8909509 -0.82333684 -1.1309723 -0.31995168 -0.8816608 -0.80818564 -1.4162207 -0.26722783
-0.5109703 -0.65185165 -0.5040715 -1.0593748 -0.5776474 -0.77604014 -1.0226233 -0.15632832
0.27145252 -0.83704937 -0.6158991 -0.8876576 -0.79464054 -0.6402278 -0.855278 -1.3005944
-0.99435055 -0.93146193 -0.8614655 -0.7707751 -1.2771355 -0.47544754 -1.3844203 -1.0279291
-0.5571234 -0.9073088 -0.7700189 -0.5176384 -0.85155016 -0.21034636 -0.5738676 -0.847017
-0.7070105 -0.5070207 -1.055374 -0.24848026 -1.3471249 -1.0596292 -1.2095178 -1.093502
-1.0298655 -0.41924784 -0.8933494 -0.16430591 -0.7644656 -0.39645964 -0.9493588 -0.9653689
-0.91533387 -0.7751498 -0.9930973 -0.88149846 -0.6076738 -1.2632589 -0.78849185 -0.1460448
-0.9580822 -1.2370796 -1.4491292 -0.6379101 0.19085036 -0.41542637 -0.34274885 -1.1109567
-0.779173 -0.8473287 -1.5114933 -0.80529916 -0.91216534 -0.10599851 -1.0783278 -0.69285506
-1.1784462 -0.74226075 -0.93483067 -0.62379503 -0.7373853 -0.8461202 -0.19976082 -0.26168844
-0.84710383 -0.0066991285 -0.56940407 -1.3767929 -0.7708806 -0.978001 -0.3849623 -0.7285434
-0.597876 -0.8860467 -0.48259446 -1.1182661 -0.87213016 -0.53556126 -1.3357688 -1.0840293
-0.90172654 -1.0677642 0.081009164 -0.30991828 -0.6129321 -0.3067226 -0.9356714 -0.44048402
-0.09915531 -0.90217906 -0.5186894 -0.8932363 -0.9104349 -0.5237732 -0.2635092 -0.7529324
-0.8645852 -0.6008847 0.0060860217 -0.8844693 -0.52722913 -1.0644034 -0.77518857 0.6894451
-0.05422268 -0.48858967 -0.781236 -0.89239365 -0.96068394 -0.72290707 -1.0993278 -0.7995877
-0.8385515 -0.7290881 -0.8518405 -0.6327811 -1.099749 -0.74916667 -0.8649569 -0.6790271
-0.8812952 -0.45105416 -0.95185465 -0.8273693 0.14341299 -1.0747263 -0.655118 0.19096453
0.52024084 -0.84327626 -0.60596293 -0.92727447 -0.9244729 -0.966966 -0.5805453 -0.53612
-0.6573616 -0.7400131 -0.85998565 -0.28496426 -0.9377218 -0.9946934 -0.9788839 -1.0329101
-0.4425087 -1.0923362 -0.53775465 -0.19467537 -1.089179 -1.2504205 -0.29863364 -0.9438715
-0.8975764 -1.0623759 -0.41109702 -1.2721896 -0.13815565 -0.80363166 -0.8961858 -0.9514744
-0.21854152 -0.70526326 -0.1723234 -0.6746138 -0.6213955 -0.91160536 -0.36725336 -0.95940363
00000000: a407 a4be d42b 34be c9b1 b3be cce3 51bf
00000010: 7ac2 27bf 8329 2abf 0192 5abf 9ecc 63bf
00000020: 728e 56bf deca 45bf 909d 37bf c6e2 eb3d
00000030: 58c4 5dbf 807c 59bf d8e9 85bf 6ae5 e6be
00000040: b028 2ebf ce35 29bf 7b5a f0be 28b4 a9be
00000050: 9242 1fbf fd07 c5be ab32 39be 8be6 39bf
00000060: 6ffc 5dbf 360e 99bf b61a 0ebf 7200 87bf
00000070: a85c 3cbf e6f7 b3bf ceb7 7dbf 0888 6dbf
00000080: 66df 43bf d41b 82bf df91 16bf 6eab a13d
00000090: 9a77 8abf fb7d 5bbf 7380 00bf 98e1 31bf
000000a0: 299e 48bf cf66 07bd 5703 6bbf 890a 5cbf
000000b0: d744 6cbe 5c7c 83bf e52a 6dbf 53a5 abbe
000000c0: b988 43bf d769 cebe 258a 67bf fac0 22bf
000000d0: e2ed 39bf 6456 38bf c638 e9be 37fb 8bbf
000000e0: 9894 debe 5032 a5bf 6580 943e c3ea 5cbf
000000f0: 3415 89bf 3cb6 36bf 8240 c1be c578 a7be
00000100: 5c15 64bf 34c6 52bf b3c3 90bf b5d0 a3be
00000110: 86b4 61bf 41e5 4ebf b846 b5bf 16d2 88be
00000120: f3ce 02bf c0df 26bf d40a 01bf 9899 87bf
00000130: b3e0 13bf 91aa 46bf 52e5 82bf 8814 20be
00000140: d3fb 8a3e de48 56bf 90ab 1dbf 873d 63bf
00000150: 906d 4bbf f8e5 23bf 80f3 5abf e179 a6bf
00000160: c28d 7ebf 4a74 6ebf 0189 5cbf 8451 45bf
00000170: 2d79 a3bf dc6d f3be af34 b1bf 2e93 83bf
00000180: a49f 0ebf 6445 68bf f51f 45bf f383 04bf
00000190: 31ff 59bf 0965 57be fde8 12bf 1bd6 58bf
000001a0: a4fe 34bf 1ccc 01bf 7f16 87bf 9c71 7ebe
000001b0: 976e acbf eea1 87bf 7bd1 9abf e0f7 8bbf
000001c0: a2d2 83bf a7a7 d6be 8cb2 64bf cf3f 28be
000001d0: 04b4 43bf c2fc cabe 2e09 73bf 6b22 77bf
000001e0: 5253 6abf 3870 46bf a03b 7ebf e2a9 61bf
000001f0: 8390 1bbf 78b2 a1bf 9ada 49bf c58c 15be
00000200: e044 75bf a058 9ebf 117d b9bf 144e 23bf
00000210: 476e 433e c4b2 d4be c77c afbe d433 8ebf
00000220: e277 47bf 89ea 58bf 9d78 c1bf 1628 4ebf
00000230: ab83 69bf bf15 d9bd a506 8abf f35e 31bf
00000240: 53d7 96bf cd04 3ebf 1051 6fbf 08b1 1fbf
00000250: 48c5 3cbf 559b 58bf 1a8e 4cbe 07fc 85be
00000260: ccdb 58bf 5d84 dbbb 77c4 11bf c03a b0bf
00000270: 6e58 45bf 465e 7abf c719 c5be d281 3abf
00000280: 670e 19bf f5d3 62bf 9f16 f7be 5823 8fbf
00000290: ec43 5fbf 8b1a 09bf 79fa aabf 79c1 8abf
000002a0: 8dd7 66bf 7fac 88bf 22e8 a53d 9cad 9ebe
000002b0: 1ee9 1cbf bf0a 9dbe 2988 6fbf 1f87 e1be
000002c0: f011 cbbd 35f5 66bf d4c8 04bf 22ab 64bf
000002d0: 4312 69bf 0016 06bf aeea 86be 2ec0 40bf
000002e0: 7555 5dbf 94d3 19bf 406d c73b 946c 62bf
000002f0: 7df8 06bf 5f3e 88bf c272 46bf 797f 303f
00000300: 9a18 5ebd 6d28 fabe 15ff 47bf e973 64bf
00000310: 62ef 75bf 7010 39bf c6b6 8cbf c8b1 4cbf
00000320: 50ab 56bf 85a5 3abf 3812 5abf f1fd 21bf
00000330: 93c4 8cbf 63c9 3fbf d16d 5dbf b8d4 2dbf
00000340: 909c 61bf 92f0 e6be bfac 73bf 79ce 53bf
00000350: dbda 123e a290 89bf d0b5 27bf 358c 433e
00000360: 812e 053f f4e0 57bf 6320 1bbf dc61 6dbf
00000370: 42aa 6cbf 158b 77bf 9e9e 14bf 293f 09bf
00000380: da48 28bf 8071 3dbf 0528 5cbf d6e6 91be
00000390: 890e 70bf 3aa4 7ebf 2398 7abf 6636 84bf
000003a0: 8090 e2be acd1 8bbf 4aaa 09bf fb58 47be
000003b0: 386a 8bbf c70d a0bf 82e6 98be 90a1 71bf
000003c0: 91c7 65bf effb 87bf 4f7b d2be 1cd7 a2bf
000003d0: ad78 0dbe ceba 4dbf 6f6c 65bf d493 73bf
000003e0: 59c9 5fbe 228c 34bf 8c75 30be 7db3 2cbf
000003f0: c713 1fbf f85e 69bf a208 bcbe 7a9b 75bf

bn2.running_mean f4 [400]
0.17914091 0.038312066 -0.039646015 0.15626681 0.009221353 -0.0037428928 0.007398134 -0.1265637
-0.05992127 -0.18394706 -0.019071745 -0.19685256 0.031101963 -0.00022973897 0.0720272 -0.12727603
-0.0012768127 -0.056974914 -0.12201817 0.15891543 -0.20143944 0.14448938 -0.0506757 -0.11433364
-0.19821092 -0.19361852 -0.07053305 0.13172308 0.040499445 -0.14915244 0.17212579 0.16720925
0.084671035 0.19976665 0.13598399 0.02889457 0.140941 -0.116224244 -0.026589755 -0.106436566
-0.03583327 -0.16176191 0.13880602 -0.080772206 0.062779225 0.18717225 0.06916273 0.010912187
0.20283845 -0.20173487 0.18908668 -0.17704254 0.20225577 0.016198313 -0.12543277 -0.06972978
-0.10488051 0.122410275 0.1751007 0.12338731 0.14936867 0.19675677 -0.1796448 0.085823335
0.016642159 0.123045415 0.057763908 0.00563978 0.13586761 -0.08233175 -0.15531321 -0.14640078
0.1462692 0.004273928 -0.1661438 0.07068626 -0.006603393 -0.12109468 0.17902792 0.11832625
0.17278388 -0.033272345 -0.12629357 -0.17273054 0.023870686 -0.14312854 0.121767096 -0.18491113
-0.14541109 0.029706964 0.050060835 -0.02701631 -0.042488657 -0.103762746 -0.059013255 0.026325885
-0.1832878 -0.035138253 -0.032259103 0.0045465524 0.15175107 -0.17136303 0.070517376 0.07564601
0.0567041 -0.058485128 0.11865089 -0.14453624 -0.082341544 -0.0055930912 -0.030142568 -0.20175725
0.10960571 0.12071648 -0.18126146 0.00033966466 -0.17170888 -0.037051972 0.024286903 0.17738074
0.14355761 0.1052002 0.02688475 -0.18852268 -0.06585314 0.18203208 0.016670253 -0.045978907
-0.070351176 0.098349825 0.12849134 -0.01785137 0.059717823 0.15012462 0.13662542 0.10586572
0.1393934 0.07428036 0.05608732 -0.20088302 -0.040285677 -0.06096131 0.04578752 -0.058590546
-0.1859267 0.17084205 -0.08858605 -0.19402732 -0.08501926 0.042715527 -0.06937346 -0.20371372
0.06782332 0.07900483 0.18986288 -0.2017048 -0.03852874 -0.077749275 -0.070786014 0.004434761
0.19053857 -0.02133683 0.17470695 0.028329642 -0.106250696 -0.019708857 0.10515718 0.12070523
-0.06772913 -0.024940604 -0.17076963 -0.1300866 -0.053767186 0.121651635 0.012621375 0.10773879
-0.17040497 0.04178072 -0.16486421 -0.059656426 0.166563 0.008639674 -0.15258087 -0.20086755
-0.061741654 -0.079961896 -0.18965131 0.11175735 0.0039427094 -0.03127835 0.15787247 -0.1932245
0.065115035 0.15123008 0.044096377 0.10952658 -0.07253395 -0.19215089 0.19063327 -0.20262544
-0.08332737 0.1850566 -0.09771887 -0.040424768 -0.104609914 0.04149586 -0.07352051 0.076353386
0.19929232 -0.15321742 0.13359559 -0.051124882 -0.20353849 0.088855684 -0.1365508 0.11996077
-0.03574515 -0.12314533 -0.17771633 0.04376542 -0.19674082 0.11217147 0.07784444 -0.17311542
0.106654055 -0.16077676 0.02087503 -0.058896426 0.1365173 -0.17240754 -0.06434612 -0.072418734
-0.01758378 0.020520808 -0.12783316 0.02762923 0.009225046 -0.103336915 0.048261367 0.15009475
0.10523366 0.06576234 -0.08989792 -0.14770152 0.12207615 0.031537253 0.01576094 0.104127
-0.09401745 -0.20256928 -0.14030346 -0.19111784 0.12687615 0.124239966 -0.09350331 -0.045654103
00000000: b770 373e 1ded 1c3d dc63 22bd 6804 203e
00000010: 2815 173c 524b 75bb 0c6c f23b ea99 01be
00000020: 0170 75bd 9e5c 3cbe 593c 9cbc b893 49be
00000030: 8bc9 fe3c 16e6 70b9 ff82 933d a654 02be
00000040: ba5a a7ba 875e 69bd aae4 f9bd baba 223e
00000050: 2446 4ebe 06f5 133e 5391 4fbd c127 eabd
00000060: cef7 4abe ef43 46be a273 90bd 6ae2 063e
00000070: bfe2 253d 6bbb 18be be41 303e e738 2b3e
00000080: 0268 ad3d a18f 4c3e 633f 0b3e 4eb4 ec3c
00000090: d652 103e fa06 eebd c2d2 d9bc 6afb d9bd
000000a0: e8c5 12bd eaa4 25be 2a23 0e3e e66b a5bd
000000b0: 6592 803d 15aa 3f3e 30a5 8d3d 08c9 323c
000000c0: e2b4 4f3e 9693 4ebe f09f 413e a44a 35be
000000d0: 231c 4f3e 53b2 843c 7371 00be 7dce 8ebd
000000e0: 98cb d6bd 3db2 fa3d 994d 333e 7cb2 fc3d
000000f0: 1af4 183e 9b7a 493e cef4 37be 25c4 af3d
00000100: 2355 883c 3cff fb3d d999 6c3d e7cd b83b
00000110: e120 0b3e 8c9d a8bd 6d0a 1fbe 16ea 15be
00000120: 98c7 153e 4e0c 8c3b 9a21 2abe f5c3 903d
00000130: 4661 d8bb 7d00 f8bd 1853 373e 0855 f23d
00000140: 42ee 303e 9548 08bd 1a53 01be 46e0 30be
00000150: 758c c33c 4a90 12be 0761 f93d 5859 3dbe
00000160: a5e6 14be 055c f33c 970c 4d3d 4f51 ddbc
00000170: 9608 2ebd 9081 d4bd e2b7 71bd 62a9 d73c
00000180: ccaf 3bbe 21ed 0fbd 1f22 04bd 3ffb 943b
00000190: a264 1b3e ca79 2fbe 6a6b 903d 4cec 9a3d
000001a0: 8f42 683d 1a8e 6fbd 3dff f23d 4f01 14be
000001b0: afa2 a8bd 4046 b7bb 8ced f6bc 7499 4ebe
000001c0: f578 e03d 343a f73d 9b9c 39be 0515 b239
000001d0: 74d4 2fbe cfc3 17bd 54f5 c63c 4ca3 353e
000001e0: c400 133e 3473 d73d 683d dc3c 170c 41be
000001f0: 03de 86bd 9e66 3a3e 0e90 883c 6154 3cbd
00000200: 4714 90bd a26b c93d 3c93 033e 093d 92bc
00000210: ad9a 743d 45ba 193e 89e7 0b3e 20d0 d83d
00000220: 25bd 0e3e 4d20 983d d1bb 653d 47b4 4dbe
00000230: 9802 25bd 91b2 79bd b28b 3b3d a4fc 6fbd
00000240: 9263 3ebe 38f1 2e3e 9a6c b5bd 19af 46be
00000250: 941e aebd 7af6 2e3d ac13 8ebd 549a 50be
00000260: f4e6 8a3d 49cd a13d 6a6b 423e b48b 4ebe
00000270: 50d0 1dbd 033b 9fbd 42f8 90bd 7951 913b
00000280: 8b1c 433e 93ca aebc 61e6 323e 9113 e83c
00000290: f799 d9bd 7874 a1bc a65c d73d 4e34 f73d
000002a0: 92b5 8abd 3d50 ccbc 3cde 2ebe 6c35 05be
000002b0: fb3a 5cbd 7e24 f93d e2c9 4e3c 28a6 dc3d
000002c0: a47e 2ebe 4322 2b3d 2ad2 28be 4c5a 74bd
000002d0: 7e8f 2a3e 6b8d 0d3c 293e 1cbe 39b0 4dbe
000002e0: d1e4 7cbd 10c3 a3bd f433 42be 0ae1 e43d
000002f0: d831 813b ba1d 00bd 52a9 213e a5dc 45be
00000300: 085b 853d 0fdc 1a3e 679e 343d 794f e03d
00000310: ae8c 94bd 34c3 44be 5e35 433e 0b7d 4fbe
00000320: 8aa7 aabd 7a7f 3d3e d520 c8bd 7194 25bd
00000330: b93d d6bd 90f7 293d ec91 96bd 2a5f 9c3d
00000340: 4913 4c3e 07e5 1cbe 48cd 083e 5368 51bd
00000350: 656c 50be f8f9 b53d f9d3 0bbe fead f53d
00000360: 8269 12bd 9e33 fcbd 45fb 35be 5e43 333d
00000370: 6d76 49be 28ba e53d e86c 9f3d 2b45 31be
00000380: 716d da3d aaa2 24be 1c02 ab3c 613d 71bd
00000390: 31cb 0b3e 9a8b 30be e6c7 83bd 4650 94bd
000003a0: dc0b 90bc 411b a83c b2e6 02be b256 e23c
000003b0: a624 173c 4ea2 d3bd b6ad 453d 70b2 193e
000003c0: bf84 d73d 68ae 863d 671c b8bd 113f 17be
000003d0: 0f03 fa3d 352d 013d 161d 813c 8940 d53d
000003e0: 398c c0bd 526e 4fbe b6ab 0fbe 65b4 43be
000003f0: d2eb 013e 8671 fe3d aa7e bfbd ccff 3abd

bn2.running_var f4 [400]
4.8641844 27.71586 9.919599 0.82558566 7.966502 7.865345 4.2156134 0.62510043
11.951783 1.9329891 8.9199 56.337227 1.3069811 11.87013 10.877994 5.636717
3.9757903 1.1862503 10.224868 20.260288 9.356921 2.2567477 15.967167 6.859125
1.5325342 1.0258641 8.3708725 2.3666599 2.1905372 8.216458 3.2090054 1.4332681
4.4060664 18.228298 5.768402 17.718685 15.521909 20.217037 6.195508 4.0298185
0.9301898 9.407913 19.80489 3.338987 5.923528 4.7528057 30.427578 1.7717645
7.7178206 10.291163 2.3897955 4.033642 3.6493232 0.8911181 13.337586 3.9414778
9.846371 1.2946477 12.089347 2.7121162 3.96977 1.0424575 29.175695 5.3077073
1.9300638 4.1748 8.839455 5.015122 1.9969904 11.553163 8.489724 4.053966
15.1085615 4.607005 7.2641683 0.79848385 1.661858 5.73038 11.085535 15.859423
1.7643806 1.8363483 2.1926532 7.338411 1.6653802 3.9992251 3.7682226 9.538348
8.7159605 2.1513307 3.4798431 2.2610726 3.1564276 30.889732 3.0015273 2.2037709
3.217844 14.689113 2.6988854 17.921642 3.1385252 9.962411 1.3306813 3.598453
0.8690921 3.25002 4.231054 4.230848 1.0645814 7.2300916 2.5910635 12.085193
1.5540509 14.145996 4.001913 1.9838172 4.0399194 9.805517 2.5764413 10.344933
0.9980427 4.130634 1.15353 13.34723 2.1936524 0.8577049 6.5930004 7.33913
1.9327065 20.774248 8.025423 5.628765 2.2812724 11.511696 3.3197455 0.8504261
1.2765837 2.871697 5.8772497 3.714422 8.569691 5.872536 1.0555024 4.3576746
14.910649 5.068517 7.9298515 8.346606 11.381346 5.950214 2.7544074 4.421337
1.9610922 58.857502 7.572405 1.4044645 3.541555 4.080358 1.4391186 1.450669
12.372069 3.2746525 8.4883795 1.5114753 4.728871 3.9352167 3.7711868 1.1005719
1.0661744 7.220622 11.655122 4.850848 13.227406 6.255872 3.440017 5.8446484
7.7902784 6.6498737 10.303361 4.017761 2.9021084 8.609541 27.676432 16.946743
5.3519926 10.435356 4.054899 1.8245091 2.0899193 7.0007644 17.487001 6.409974
4.987634 2.979431 1.5535642 1.2578464 5.8947463 8.249199 3.2113059 2.965198
2.1392179 7.758227 5.468675 3.3053033 3.1501825 5.29365 6.4423447 21.470247
26.37146 13.529893 1.7200232 23.380991 2.8099058 3.593862 4.969153 37.544212
18.447815 5.0884137 1.140653 8.720129 3.8468876 3.6994214 5.748456 6.0775056
8.841176 3.1647782 9.143926 2.8198805 1.7087785 7.780591 6.0110717 2.8005474
6.038035 9.04827 9.446197 26.408743 0.5145205 16.660402 20.783789 19.54416
16.324896 2.9544394 4.9449525 1.2956976 1.7900381 2.037506 1.5944492 1.977414
9.561755 2.8757503 21.017942 0.8540312 11.409338 3.4141486 8.051149 3.5146859
00000000: 66a7 9b40 15ba dd41 adb6 1e41 9559 533f
00000010: 96ed fe40 e8b0 fb40 4ee6 8640 9506 203f
00000020: 813a 3f41 306c f73f e9b7 0e41 5259 6142
00000030: 284b a73f 0dec 3d41 430c 2e41 fc5f b440
00000040: 5973 7e40 0dd7 973f 0f99 2341 1215 a241
00000050: f3b5 1541 8e6e 1040 8479 7f41 f47d db40
00000060: 152a c43f 844f 833f 18ef 0541 5b77 1740
00000070: c331 0c40 9d76 0341 5860 4d40 5475 b73f
00000080: 7ffe 8c40 8ed3 9141 c096 b840 debf 8d41
00000090: bd59 7841 7ebc a141 9a41 c640 46f4 8040
000000a0: eb20 6e3f d086 1641 6a70 9e41 f7b1 5540
000000b0: 8b8d bd40 fc16 9840 ae6b f341 2ec9 e23f
000000c0: 63f8 f640 9ba8 2441 69f2 1840 9813 8140
000000d0: 838e 6940 5120 643f c166 5541 2c41 7c40
000000e0: bc8a 1d41 04b7 a53f f76d 4141 5093 2d40
000000f0: b610 7e40 3f6f 853f d367 e941 bdd8 a940
00000100: 550c f73f f697 8540 686e 0d41 e17b a040
00000110: 629d ff3f c1d9 3841 e9d5 0741 17ba 8140
00000120: abbc 7141 966c 9340 1174 e840 7069 4c3f
00000130: c3b7 d43f 465f b740 5a5e 3141 32c0 7d41
00000140: 39d7 e13f 760d eb3f 6e54 0c40 43d4 ea40
00000150: 2e2b d53f 4ef3 7f40 8f2a 7140 139d 1841
00000160: 9374 0b41 67af 0940 c0b5 5e40 6ab5 1040
00000170: e902 4a40 2c1e f741 0619 4040 950a 0d40
00000180: 28f1 4d40 9b06 6b41 8aba 2c40 865f 8f41
00000190: 99dd 4840 0966 1f41 c453 aa3f 0e4d 6640
000001a0: d27c 5e3f 5400 5040 cb64 8740 1b63 8740
000001b0: 3444 883f e95c e740 fcd3 2540 f35c 4141
000001c0: 24eb c63f 0056 6241 ac0f 8040 b9ed fd3f
000001d0: 0547 8140 66e3 1c41 6ae4 2440 d884 2541
000001e0: ba7f 7f3f 272e 8440 dfa6 933f 418e 5541
000001f0: cd64 0c40 8c92 5b3f dcf9 d240 27da ea40
00000200: ed62 f73f a931 a641 2268 0041 d81e b440
00000210: 5e00 1240 e82f 3841 b676 5440 86b5 593f
00000220: 1867 a33f e2c9 3740 6e12 bc40 17b9 6d40
00000230: 741d 0941 d1eb bb40 b41a 873f 1272 8b40
00000240: 0592 6e41 4b31 a240 58c1 fd40 b38b 0541
00000250: fe19 3641 2768 be40 3648 3040 987b 8d40
00000260: 1205 fb3f 156e 6b42 2451 f240 7ec5 b33f
00000270: d6a8 6240 4b92 8240 0a35 b83f 86af b93f
00000280: fff3 4541 e893 5140 67d0 0741 0678 c13f
00000290: e952 9740 97da 7b40 205b 7140 8adf 8c3f
000002a0: 6778 883f 560f e740 617b 3a41 263a 9b40
000002b0: 74a3 5341 1a30 c840 3d29 5c40 5c07 bb40
000002c0: f649 f940 c4cb d440 91da 2441 8091 8040
000002d0: 25bc 3940 aec0 0941 5569 dd41 ee92 8741
000002e0: 8643 ab40 38f7 2641 bcc1 8140 8489 e93f
000002f0: 3dc1 0540 4306 e040 61e5 8b41 821e cd40
00000300: b39a 9f40 ffae 3e40 31db c63f 1c01 a13f
00000310: c3a1 bc40 b8fc 0341 0986 4d40 cec5 3d40
00000320: f2e8 0840 6543 f840 63ff ae40 178a 5340
00000330: 979c 4940 9565 a940 b027 ce40 11c3 ab41
00000340: c0f8 d241 717a 5841 b829 dc3f 450c bb41
00000350: 7fd5 3340 d601 6640 4d03 9f40 462d 1642
00000360: 2095 9341 49d4 a240 eb00 923f a685 0b41
00000370: 6833 7640 52c3 6c40 5af3 b740 ed7a c240
00000380: 7575 0d41 ba8b 4a40 854d 1241 ec78 3440
00000390: 41b9 da3f 9afa f840 b35a c040 2b3c 3340
000003a0: 9537 c140 b7c5 1041 9f23 1741 1b45 d341
000003b0: 9eb7 033f 8148 8541 3345 a641 715a 9c41
000003c0: 6399 8241 8915 3d40 0d3d 9e40 6bd9 a53f
000003d0: f81f e53f 8066 0240 e916 cc3f e71b fd3f
000003e0: f3fc 1841 4b0c 3840 bf24 a841 caa1 5a3f
000003f0: a68c 3641 6981 5a40 82d1 0041 9df0 6040

bn3.weight f4 [300]
0.65242505 1.0292697 0.9126121 1.2997317 0.6159098 0.6228098 1.0514523 0.95000225
1.1040512 0.7698916 0.67467237 0.470224 0.97189885 0.8357616 0.5548358 1.0440549
0.5912155 0.57484394 0.67701054 0.8172523 0.82511246 0.7399077 1.2118814 0.7428097
0.6413983 0.64149487 0.5769388 0.62944984 0.68604475 0.5986704 0.57095486 0.49397138
0.6003882 1.0388572 0.8924538 0.66937727 0.68411154 1.3312867 0.55051845 0.8982667
0.6720677 0.6643034 0.6451733 0.90678924 0.6783636 0.6001808 0.40473104 0.7670138
0.68410873 1.0613688 1.2935681 0.6720354 0.34420907 0.7898881 1.3428658 0.689195
1.1094234 0.74808073 0.5653305 1.4358296 1.1689404 0.62169194 0.64118034 0.8956196
0.70561343 0.3725536 0.7785942 0.626459 0.6813451 1.2521611 1.2372319 0.4590044
0.59479123 0.6573538 0.7199379 0.5300636 0.7139654 0.75683725 1.2605821 0.63235795
0.711734 0.41752923 1.2611555 1.1254939 0.60923547 0.7118266 1.1202369 0.5376794
0.5490328 1.1879764 0.7560098 0.5019728 0.68940866 0.5996379 0.689473 0.58121854
0.6263502 0.49834624 0.7771922 0.6025926 0.7368698 0.73280877 0.6907836 0.6465172
0.6328549 0.6573416 0.62678415 1.100814 0.94419336 0.5328875 0.6720205 0.6874211
0.40538713 0.9181454 0.5752898 0.63300174 0.6727557 0.6775783 0.63194984 0.53124714
0.42538983 0.84832466 0.8587334 0.42673597 0.67123234 0.4837296 0.71204144 0.80841964
0.61658996 0.68945116 1.2870907 0.6431366 0.83760005 0.5502279 0.8452214 0.72314847
0.57110965 0.61808985 0.631134 0.934231 0.62643325 0.7874327 0.8751686 0.66494924
1.0544177 0.7887988 0.631531 0.4912818 0.36988723 0.61251366 0.63576055 0.42948267
0.60690624 0.7246283 0.80544853 0.6660577 0.59731597 0.7907966 0.7763083 0.71470666
0.9887145 0.65668213 0.6434283 0.7440703 0.42038736 0.9165641 0.6127692 0.6657601
0.9267467 0.78073 0.75288266 0.6313432 0.50785774 0.7577586 0.68899393 0.82686967
0.5489192 0.5600236 0.7027649 1.0201153 0.69456154 0.77859694 1.0629454 0.4831091
0.5350263 0.7287046 0.7834866 1.3489395 0.7871973 0.9014126 0.72948945 1.2552525
1.3061178 0.74578464 0.5454286 0.97559 0.60193455 0.96478546 0.67871886 0.68902016
0.9527673 0.5506814 0.6217033 0.7470376 0.70778257 0.7210845 0.91771704 0.6492794
0.6010108 0.5712799 0.7188848 1.196684 0.9181795 0.9248733 0.48793378 0.6317403
1.0342494 0.71030205 0.6121358 0.7478471 0.7702032 0.82558066 0.68078154 0.78214
0.44325215 0.42396438 0.7096866 0.66035926 1.0550723 0.3645682 0.94418067 0.6329348
0.6607705 0.8324819 0.680662 0.94387484 0.65619123 0.88624257 1.0013121 1.0585427
0.6157433 0.8016159 0.6274577 1.2113652 0.6345694 0.6712597 0.9438117 0.67662334
0.7962687 0.5940549 1.4715872 0.60040706 0.5041495 0.5229608 1.4227815 0.600731
00000000: 5405 273f 1cbf 833f f2a0 693f 9c5d a63f
00000010: 44ac 1d3f 7770 1f3f fd95 863f 5933 733f
00000020: 8d51 8d3f 9e17 453f 54b7 2c3f 33c1 f03e
00000030: 5dce 783f 79f4 553f b809 0e3f 97a3 853f
00000040: e659 173f f928 133f 9050 2d3f 7237 513f
00000050: 923a 533f 976a 3d3f ee1e 9b3f c728 3e3f
00000060: ae32 243f 0239 243f 43b2 133f a023 213f
00000070: a1a0 2f3f 7742 193f 192a 123f d1e9 fc3e
00000080: 0bb3 193f 46f9 843f da77 643f 4f5c 2b3f
00000090: ef21 2f3f 9a67 aa3f c7ee 0c3f cef4 653f
000000a0: a10c 2c3f ca0f 2a3f 142a 253f 5723 683f
000000b0: 3da9 2d3f 73a5 193f e838 cf3e 045b 443f
000000c0: c021 2f3f efda 873f a493 a53f 830a 2c3f
000000d0: 2c3c b03e 1b36 4a3f 07e3 ab3f 156f 303f
000000e0: 9601 8e3f 3882 3f3f 80b9 103f 44c9 b73f
000000f0: d79f 953f 3427 1f3f 6524 243f 5347 653f
00000100: 15a3 343f 58bf be3e f351 473f 9e5f 203f
00000110: a26c 2e3f d146 a03f 9d5d 9e3f a002 eb3e
00000120: 3d44 183f 5748 283f da4d 383f 40b2 073f
00000130: 70c6 363f 16c0 413f c15a a13f 36e2 213f
00000140: 3334 363f 64c6 d53e 8b6d a13f 2f10 903f
00000150: dbf6 1b3f 453a 363f ec63 8f3f 5ba5 093f
00000160: 6a8d 0c3f 9c0f 983f dc89 413f 4a81 003f
00000170: 167d 303f df81 193f 4d81 303f bdca 143f
00000180: 7d58 203f 3d27 ff3e 11f6 463f 8243 1a3f
00000190: 80a3 3c3f 5b99 3b3f 32d7 303f 2782 253f
000001a0: c702 223f 8a47 283f ed74 203f 79e7 8c3f
000001b0: a8b6 713f 516b 083f 8909 2c3f d4fa 2f3f
000001c0: e78e cf3e 940b 6b3f 3146 133f 670c 223f
000001d0: b839 2c3f c575 2d3f 77c7 213f d0ff 073f
000001e0: b2cc d93e ce2b 593f f4d5 5b3f 237d da3e
000001f0: e2d5 2b3f 68ab f73e 5948 363f 97f4 4e3f
00000200: d7d8 1d3f df7f 303f 63bf a43f 9aa4 243f
00000210: f56c 563f bcdb 0c3f 6e60 583f 4220 393f
00000220: 3e34 123f 233b 1e3f ff91 213f c329 6f3f
00000230: ee5d 203f 3095 493f 0d0b 603f 1d3a 2a3f
00000240: 29f7 863f b8ee 493f 04ac 213f 4a89 fb3e
00000250: dc61 bd3e b2cd 1c3f 34c1 223f 27e5 db3e
00000260: 355e 1b3f 3e81 393f e031 4e3f c282 2a3f
00000270: b3e9 183f a571 4a3f 24bc 463f 04f7 363f
00000280: 651c 7d3f 521c 283f b8b7 243f 647b 3e3f
00000290: 033d d73e f2a3 6a3f 71de 1c3f 416f 2a3f
000002a0: 463f 6d3f ecdd 473f ebbc 403f b59f 213f
000002b0: f702 023f 78fc 413f e861 303f bbad 533f
000002c0: f885 0c3f b55d 0f3f 67e8 333f 2393 823f
000002d0: c9ce 313f 2152 473f 980e 883f 135a f73e
000002e0: 7cf7 083f 628c 3a3f 9492 483f 0daa ac3f
000002f0: c385 493f fac2 663f d2bf 3a3f 1dac a03f
00000300: de2e a73f beeb 3e3f 35a1 0b3f 44c0 793f
00000310: 6218 1a3f 2efc 763f 85c0 2d3f a063 303f
00000320: 8fe8 733f 75f9 0c3f f327 1f3f db3d 3f3f
00000330: 3d31 353f fe98 383f 81ef 6a3f 2d37 263f
00000340: d8db 193f 663f 123f d608 383f f12c 993f
00000350: d00d 6b3f 7fc4 6c3f 75d2 f93e bbb9 213f
00000360: 4962 843f 5bd6 353f efb4 1c3f e872 3f3f
00000370: 092c 453f 4159 533f b347 2e3f 543a 483f
00000380: f2f1 e23e dc11 d93e 05ae 353f 4e0d 293f
00000390: 9c0c 873f afa8 ba3e d3b5 713f 0408 223f
000003a0: 4128 293f 891d 553f dd3f 2e3f c8a1 713f
000003b0: 26fc 273f cbe0 623f ff2a 803f 547e 873f
000003c0: 5aa1 1d3f b336 4d3f 11a1 203f 040e 9b3f
000003d0: 2473 223f add7 2b3f a59d 713f 3037 2d3f
000003e0: 44d8 4b3f fb13 183f f85c bc3f 47b4 193f
000003f0: f10f 013f c2e0 053f b41d b63f 82c9 193f

bn3.bias f4 [300]
-0.91601175 -0.45795906 -0.6810293 -0.33349493 -0.65864927 -1.0230579 -0.8062521 -1.6924423
-0.50918615 -1.0644034 -1.1822414 -0.7803846 -1.088483 -1.5550919 -0.900885 -0.6957936
-1.4716815 -1.1849849 -1.2748812 -1.0973513 -1.0143888 -1.5640529 -0.4338178 -0.9666036
-1.0035075 -0.68498325 -0.84679484 -1.1552777 -0.5955609 -1.219606 -1.5026621 -0.95446426
-1.5235074 -0.7083835 -0.9506712 -1.1089011 -0.8402093 -0.5235117 -0.64225584 -1.1170759
-0.9971237 -0.7439028 -0.90202606 -1.6540182 -1.4119031 -1.06705 -0.6660424 -1.5798633
-1.1369296 -1.359679 -0.43103042 -1.5510405 -0.83792216 -1.1787043 -0.4939847 -1.4860656
-0.5771783 -1.4265431 -1.3009093 -0.3812637 -0.73059475 -1.2590861 -1.4200357 -1.1540112
-1.0548216 -0.6847918 -1.1623504 -1.014291 -1.7001061 -0.43173555 -0.5505772 -0.78841376
-1.0549114 -1.554462 -0.8256645 -0.78253305 -1.0836734 -1.4623519 -0.5290751 -0.9191458
-1.5019042 -0.73545164 -0.6580476 -0.82047266 -1.4669454 -1.0150094 -0.99157584 -1.3645744
-0.86558235 -0.84030366 -1.0417033 -0.87565565 -1.5260134 -0.6395608 -0.8668246 -0.7039371
-1.50852 -1.0326589 -1.1002445 -1.2651126 -1.2103878 -1.1218051 -1.0363408 -0.9340765
-0.78324485 -1.299044 -0.83893234 -1.8130858 -0.88730496 -1.2727826 -1.2020602 -1.0629405
-0.8661003 -0.82050383 -1.4949234 -0.716775 -1.4099854 -1.1749121 -0.9665945 -0.59705406
-0.85033375 -1.5674932 -0.4838088 -0.655856 -1.4453944 -0.7119783 -0.9277473 -1.5798148
-0.61730003 -0.7760629 -1.1688088 -1.0296206 -1.1108295 -1.2023933 -1.0319625 -0.8848935
-0.65049183 -1.0105697 -1.3898628 -0.36242697 -1.5541891 -1.1073039 -0.9080097 -0.75100946
-0.60975426 -1.2637477 -0.94204104 -0.66705686 -0.657425 -0.79541546 -1.1710513 -0.6235931
-0.72226894 -1.4044567 -1.0258222 -0.85484064 -1.1219696 -1.2309588 -0.94572383 -0.98576397
-0.6612641 -0.98132527 -0.9076558 -1.5352117 -0.7380105 -1.6684247 -0.7754802 -1.1672618
-0.83165413 -1.4854094 -1.1656147 -1.12555 -1.0589181 -1.1849551 -1.1842971 -0.96618664
-1.0625519 -1.0925461 -1.4821695 -0.7483352 -1.0418466 -1.2601575 -1.5347198 -0.77322733
-0.71208936 -1.3582727 -0.7981066 -0.83250517 -1.3865101 -0.57003593 -1.3780993 -0.35452256
-0.2549594 -1.0220363 -0.95760286 -0.5293874 -1.2354543 -1.6766977 -0.64293194 -1.3307061
-0.9697522 -1.1009207 -1.0812641 -1.2608516 -1.129155 -0.9113428 -0.8068867 -1.1080575
-0.8594047 -0.7821074 -1.3966215 -0.7744818 -1.3979021 -0.76471 -0.97524214 -1.3812295
-0.84477514 -1.4253386 -1.2681614 -1.3839493 -1.0114713 -0.8284914 -0.9233386 -1.054661
-0.80041075 -0.8320741 -0.69014 -1.1599485 -1.1443573 -1.2236547 -1.3608282 -1.6445054
-1.5299306 -0.85343325 -1.1195264 -1.2568024 -0.9376136 -0.96054906 -0.98474646 -0.7934528
-1.1098564 -1.3103132 -1.5933079 -0.39763916 -1.1306401 -1.4313245 -1.1177603 -1.319343
-1.0415139 -1.5237134 -0.71193886 -1.5642418 -0.7633153 -0.96089417 -0.47006667 -1.2187302
00000000: bf7f 6abf 9c79 eabe f057 2ebf d9bf aabe
00000010: 3d9d 28bf 90f3 82bf 8a66 4ebf f3a1 d8bf
00000020: 065a 02bf 5f3e 88bf b053 97bf 49c7 47bf
00000030: 6953 8bbf 400d c7bf 66a0 66bf 881f 32bf
00000040: 0f60 bcbf 96ad 97bf 4f2f a3bf 0276 8cbf
00000050: 7ed7 81bf e332 c8bf 5e1d debe 5573 77bf
00000060: ef72 80bf 105b 2fbf 8cc7 58bf 24e0 93bf
00000070: ae76 18bf 0d1c 9cbf 3b57 c0bf c557 74bf
00000080: 4a02 c3bf 9f58 35bf 305f 73bf 79f0 8dbf
00000090: f517 57bf dd04 06bf e16a 24bf 58fc 8ebf
000000a0: 8043 7fbf 6a70 3ebf 2eeb 66bf deb6 d3bf
000000b0: 3eb9 b4bf 1895 88bf c181 2abf f638 cabf
000000c0: e986 91bf f609 aebf 05b0 dcbe 7f88 c6bf
000000d0: 1182 56bf c8df 96bf 90eb fcbe 6637 bebf
000000e0: f5c1 13bf f798 b6bf 3284 a6bf ff34 c3be
000000f0: 4208 3bbf bc29 a1bf bbc3 b5bf a4b6 93bf
00000100: 6504 87bf 844e 2fbf e6c7 94bf 4ad4 81bf
00000110: 149d d9bf 710c ddbe a1f2 0cbf 7cd5 49bf
00000120: 5607 87bf 9cf8 c6bf c05e 53bf 1654 48bf
00000130: cfb5 8abf 592e bbbf 7771 07bf 244d 6bbf
00000140: 663e c0bf 8f46 3cbf cf75 28bf 7f0a 52bf
00000150: dec4 bbbf d4eb 81bf ead7 7dbf 60aa aebf
00000160: ce96 5dbf 241e 57bf 8956 85bf f82a 60bf
00000170: 6854 c3bf 42ba 23bf 38e8 5dbf 3935 34bf
00000180: 2f17 c1bf 2b2e 84bf d0d4 8cbf 36ef a1bf
00000190: fded 9abf 4f97 8fbf d1a6 84bf a31f 6fbf
000001a0: bc82 48bf 1347 a6bf 45c4 56bf 3213 e8bf
000001b0: 6b26 63bf 8aea a2bf 1cdd 99bf 6f0e 88bf
000001c0: c0b8 5dbf 8a0c 52bf a659 bfbf 917e 37bf
000001d0: 677a b4bf 8563 96bf bd72 77bf 89d8 18bf
000001e0: 79af 59bf 9ea3 c8bf c9b5 f7be 2ee6 27bf
000001f0: af02 b9bf 3644 36bf d980 6dbf 5f37 cabf
00000200: 6007 1ebf 0fac 46bf 879b 95bf 9cca 83bf
00000210: a92f 8ebf 06e8 99bf 5917 84bf 6188 62bf
00000220: a286 26bf 595a 81bf 06e7 b1bf 0790 b9be
00000230: abef c6bf 22bc 8dbf 5373 68bf 2842 40bf
00000240: db18 1cbf 7cc2 a1bf 9a29 71bf 3dc4 2abf
00000250: 014d 28bf 59a0 4bbf 02e5 95bf cca3 1fbf
00000260: 9ee6 38bf 3dc5 b3bf 244e 83bf d6d6 5abf
00000270: b39c 8fbf 0f90 9dbf f51a 72bf 075b 7cbf
00000280: 9b48 29bf 2238 7bbf 215c 68bf d181 c4bf
00000290: 42ee 3cbf f18e d5bf df85 46bf d668 95bf
000002a0: 49e7 54bf e521 bebf dd32 95bf 0612 90bf
000002b0: a18a 87bf 9cac 97bf 0c97 97bf 0258 77bf
000002c0: b301 88bf 8dd8 8bbf bbb7 bdbf e592 3fbf
000002d0: 3b5b 85bf d74c a1bf b371 c4bf 3af2 45bf
000002e0: 7d4b 36bf e1db adbf b750 4cbf 0f1f 55bf
000002f0: 2a79 b1bf e0ed 11bf 8f65 b0bf fb83 b5be
00000300: 0a8a 82be 16d2 82bf 7625 75bf ef85 07bf
00000310: 5e23 9ebf 089e d6bf 3097 24bf 9454 aabf
00000320: ae41 78bf f8ea 8cbf dd66 8abf 9663 a1bf
00000330: 2788 90bf c34d 69bf 2090 4ebf d4d4 8dbf
00000340: f201 5cbf 3138 48bf 7ec4 b2bf 7044 46bf
00000350: 75ee b2bf 09c4 43bf 78a9 79bf 21cc b0bf
00000360: 2f43 58bf 7f71 b6bf 1d53 a2bf 4025 b1bf
00000370: e477 81bf 0318 54bf eb5f 6cbf 22ff 86bf
00000380: b8e7 4cbf cf02 55bf 04ad 30bf 3179 94bf
00000390: 4d7a 92bf b8a0 9cbf 9e2f aebf 277f d2bf
000003a0: c4d4 c3bf 9a7a 5abf a44c 8fbf e7de a0bf
000003b0: 7207 70bf 8be6 75bf 5818 7cbf b91f 4bbf
000003c0: c60f 8ebf 58b8 a7bf 83f1 cbbf 5c97 cbbe
000003d0: d1b8 90bf a435 b7bf c512 8fbf 3be0 a8bf
000003e0: 5450 85bf 0a09 c3bf a041 36bf 1339 c8bf
000003f0: a268 43bf 29fd 75bf 94ac f0be 5aff 9bbf

bn3.running_mean f4 [300]
-5.2656302 -3.4155383 -4.2518654 -0.30865043 -2.1239986 -0.64566314 -6.928096 -11.298475
-6.859582 -9.22394 -7.1172185 -3.2708728 -3.583783 -10.901766 -1.9130903 -2.7370665
-7.6818624 -0.053617597 -9.254544 -5.8070707 -10.020457 -11.69589 -3.5060208 -4.9714313
-0.393858 -3.810131 -5.131877 -5.238698 -3.2178671 -2.2545211 -7.9841604 -2.1319468
-6.986549 -6.3225627 -9.540242 -6.1984367 -3.9116464 -4.7399387 -2.728906 -6.4775295
-6.1839747 -7.751934 -2.632624 -10.445963 -11.0955105 -3.3482018 -1.9552048 -6.6366663
-6.3709903 -5.8740044 -6.250345 -6.0261583 -2.7566097 -6.080671 -2.8958163 -3.5682964
-7.5871468 0.15872225 7.756025 -6.576892 -7.2742314 -5.4655914 -13.04928 -5.2692876
-6.0802326 -2.978966 -7.9482417 -4.7931185 -8.393558 -3.9647238 -5.983077 -4.3110085
-5.2831197 -5.906477 -5.9043775 -1.510742 -6.245116 -13.15937 -2.968161 -7.6960816
-11.531438 -1.9183058 -9.565375 -4.9067883 -5.5995617 -7.445328 -7.9595795 -6.9055166
-1.8586787 -5.1219635 -7.7111425 -4.2832727 -4.8576717 -2.0277324 -6.4865 -3.1000638
-5.684264 -0.8718001 -9.016527 -3.18807 -4.145633 -3.1417391 -7.6431513 -6.9931264
-4.3053203 -14.5342455 -5.85234 -8.911473 -3.0805233 -11.882649 -4.648283 -8.809133
-4.031464 -5.3322363 -7.194079 -5.57931 -13.509914 -0.089968964 -5.114184 -1.8185108
-7.2372065 -11.622487 -8.629873 -2.367918 -10.988411 -2.5047011 -4.7118063 -11.4626
-1.8915124 -4.196796 -5.6254897 -7.6104507 -1.0899891 -6.305499 -3.4986656 -5.1338058
-3.4762514 -5.778951 -10.325484 -8.922044 -7.388939 -6.593716 -2.7313948 -3.784503
-5.8992705 -4.3214335 -3.0412145 -1.6125212 -0.91245705 -2.633551 -5.2885227 -1.4095246
-1.0022581 -9.96723 -6.812448 -0.53891766 -4.608735 2.9656918 -9.227366 -7.8276277
-2.5903394 -5.084268 -5.4477863 -11.532771 -3.3063915 -9.03158 -4.101342 -2.639647
-7.1051507 -12.250967 -6.444302 -5.3934536 -3.617895 -6.7885103 -3.658569 -7.0280952
-5.1244726 -5.1138763 -10.22838 -6.8302264 0.14319243 -7.119307 -9.433074 -3.5725503
-1.7241354 -6.231238 -6.712224 -1.4362599 -5.557148 -9.459448 -14.734598 -3.9152162
-3.7101088 -8.599464 -3.103458 -7.864868 -6.4610786 -6.4310207 -3.4178956 -4.510896
-4.990714 -3.7639077 -2.2656076 -9.422576 -0.91732556 -2.47058 -7.9380674 -7.3574495
-5.7886057 -6.047649 -13.106863 -3.9148152 -12.173855 -6.052798 -9.775429 -4.611993
-5.787128 -13.475532 -4.0358853 -1.556577 -8.365645 -5.9316483 -8.0024605 -6.671282
-1.5181766 -1.8922704 -2.5973065 -2.7039893 -5.334383 2.82167 -6.448676 -6.3789983
-4.6304297 -13.4327965 -7.716052 -4.3161254 -5.284433 -6.601476 -4.9510655 -5.081208
-6.548306 -7.977419 -1.9774143 -2.4171336 -6.809849 -5.7995768 -8.432713 -12.554254
-2.7351665 -9.039523 -3.6837249 -3.3422294 -2.9987438 -6.8508673 -4.524118 -4.59567
00000000: 0b80 a8c0 2e98 5ac0 480f 88c0 6e07 9ebe
00000010: 98ef 07c0 2e4a 25bf f6b2 ddc0 8ec6 34c1
00000020: b281 dbc0 4295 13c1 41c0 e3c0 fb55 51c0
00000030: b35c 65c0 a26d 2ec1 25e0 f4bf 192c 2fc0
00000040: d1d1 f5c0 209e 5bbd 9d12 14c1 86d3 b9c0
00000050: cb53 20c1 5e22 3bc1 a562 60c0 f715 9fc0
00000060: c1a7 c9be 30d9 73c0 5638 a4c0 6aa3 a7c0
00000070: 89f1 4dc0 134a 10c0 3e7e ffc0 d171 08c0
00000080: cf91 dfc0 6f52 cac0 d5a4 18c1 9859 c6c0
00000090: 6a58 7ac0 94ad 97c0 65a6 2ec0 ec47 cfc0
000000a0: 1fe3 c5c0 d80f f8c0 e97c 28c0 aa22 27c1
000000b0: 3687 31c1 f048 56c0 2744 fabf 925f d4c0
000000c0: 27df cbc0 d8f7 bbc0 d402 c8c0 4ad6 c0c0
000000d0: 4b6c 30c0 db94 c2c0 0e55 39c0 f85e 64c0
000000e0: e8c9 f2c0 1688 223e 5b31 f840 e675 d2c0
000000f0: 81c6 e8c0 20e6 aec0 dac9 50c1 019e a8c0
00000100: 4491 c2c0 61a7 3ec0 ff57 fec0 3a61 99c0
00000110: 034c 06c1 09be 7dc0 5e75 bfc0 c8f3 89c0
00000120: 510f a9c0 dc01 bdc0 a9f0 bcc0 fe5f c1bf
00000130: fed7 c7c0 c88c 52c1 5af6 3dc0 4d46 f6c0
00000140: c580 38c1 0b8b f5bf c70b 19c1 6904 9dc0
00000150: 9c2f b3c0 2140 eec0 e0b4 fec0 fef9 dcc0
00000160: 2fe9 edbf 20e7 a3c0 aec1 f6c0 9210 89c0
00000170: 0c72 9bc0 5ec6 01c0 6891 cfc0 7267 46c0
00000180: 7ee5 b5c0 4b2e 5fbf b243 10c1 5709 4cc0
00000190: 07a9 84c0 4112 49c0 b294 f4c0 b1c7 dfc0
000001a0: 2fc5 89c0 458c 68c1 5f46 bbc0 6595 0ec1
000001b0: 4b27 45c0 551f 3ec1 bcbe 94c0 35f2 0cc1
000001c0: c101 81c0 aea1 aac0 e535 e6c0 b589 b2c0
000001d0: 9c28 58c1 a641 b8bd 65a7 a3c0 f6c4 e8bf
000001e0: 3297 e7c0 b5f5 39c1 f613 0ac1 f88b 17c0
000001f0: 88d0 2fc1 064d 20c0 1ec7 96c0 cf66 37c1
00000200: 141d f2bf 274c 86c0 0304 b4c0 d088 f3c0
00000210: c384 8bbf a6c6 c9c0 23ea 5fc0 2348 a4c0
00000220: e77a 5ec0 2bed b8c0 2f35 25c1 b1c0 0ec1
00000230: 3072 ecc0 b9ff d2c0 2ccf 2ec0 4c35 72c0
00000240: d3c6 bcc0 2f49 8ac0 42a3 42c0 1867 cebf
00000250: c996 69bf 198c 28c0 943b a9c0 4d6b b4bf
00000260: fe49 80bf c679 1fc1 93ff d9c0 82f6 09bf
00000270: c27a 93c0 e5cd 3d40 4ba3 13c1 ed7b fac0
00000280: 1fc8 25c0 53b2 a2c0 4454 aec0 3b86 38c1
00000290: eb9b 53c0 5a81 10c1 323e 83c0 faef 28c0
000002a0: 655d e3c0 f603 44c1 b937 cec0 2c97 acc0
000002b0: 978b 67c0 7a3b d9c0 ff25 6ac0 28e6 e0c0
000002c0: aefb a3c0 e0a4 a3c0 72a7 23c1 3791 dac0
000002d0: 09a1 123e 5dd1 e3c0 dfed 16c1 aaa4 64c0
000002e0: 78b0 dcbf 4d66 c7c0 8aca d6c0 5dd7 b7bf
000002f0: 28d4 b1c0 e659 17c1 eac0 6bc1 e792 7ac0
00000300: 6c72 6dc0 6897 09c1 0e9f 46c0 00ad fbc0
00000310: 28c1 cec0 ecca cdc0 cdbe 5ac0 4359 90c0
00000320: eeb3 9fc0 dde3 70c0 b7ff 10c0 dfc2 16c1
00000330: d9d5 6abf fc1d 1ec0 a604 fec0 3a70 ebc0
00000340: 423c b9c0 5786 c1c0 b6b5 51c1 558c 7ac0
00000350: 1cc8 42c1 85b0 c1c0 2868 1cc1 7295 93c0
00000360: 2730 b9c0 c79b 57c1 f925 81c0 ea3d c7bf
00000370: afd9 05c1 10d0 bdc0 140a 00c1 247b d5c0
00000380: 9c53 c2bf eb35 f2bf 453a 26c0 290e 2dc0
00000390: 44b3 aac0 3e96 3440 8e5b cec0 c120 ccc0
000003a0: 7b2c 94c0 bcec 56c1 e6e9 f6c0 b31d 8ac0
000003b0: 131a a9c0 4b3f d3c0 216f 9ec0 4299 a2c0
000003c0: b98b d1c0 0447 ffc0 e91b fdbf 51b2 1ac0
000003d0: 48ea d9c0 2296 b9c0 64ec 06c1 39de 48c1
000003e0: f80c 2fc0 e3a1 10c1 26c2 6bc0 16e7 55c0
000003f0: 6beb 3fc0 4e3a dbc0 93c5 90c0 bb0f 93c0

bn3.running_var f4 [300]
8.33356 29.614365 20.24859 17.097954 6.822553 7.7976723 20.820902 29.17813
65.76765 34.44384 8.727145 11.626224 7.5558667 24.599657 12.060005 27.754004
8.075014 7.8901577 14.116522 16.010798 34.108273 17.551622 39.54365 10.461597
9.36564 10.955742 10.888972 4.110554 12.846905 7.488928 6.4550657 13.78541
4.9418006 26.996838 23.706333 6.9602046 21.33817 46.9505 29.057636 19.710499
9.176304 18.16483 11.613772 18.399347 17.032011 4.2052274 1.8475888 5.404511
5.852789 17.097563 52.389225 3.5244784 9.563871 12.597982 60.177338 2.82917
17.137068 6.237472 16.98247 64.85026 30.287764 3.2828488 21.086994 7.124202
8.238704 11.29336 11.125597 11.440138 8.720598 43.13486 50.485954 28.25984
12.214328 4.2577744 12.658449 2.0901995 11.147805 30.503601 52.513966 17.277851
17.323057 14.491405 50.889423 19.307997 3.5009902 28.7991 25.591429 5.1256385
3.2359529 39.700783 9.526107 12.510239 4.274951 3.3409798 16.556671 9.613493
3.5617416 47.039337 18.529104 4.7989626 6.501159 23.996185 10.573887 15.072277
10.2771225 33.693054 24.59577 23.318209 9.910438 20.103003 6.1883693 14.522692
6.5017705 16.960012 6.266437 32.14876 22.997322 9.720717 10.023961 3.563113
43.480164 29.359425 41.23885 5.017342 16.434715 4.315225 9.746281 17.68107
10.001636 12.449307 23.600323 6.9356136 13.848208 6.495912 7.2292204 7.0294695
8.968247 12.941648 12.550723 44.348434 5.4064903 8.102212 11.065521 12.315107
53.62192 5.748007 4.3272023 2.378785 0.5069188 13.138277 8.868334 1.331964
20.07449 17.504688 13.904493 22.699747 10.309007 9.7806425 16.353512 22.747425
8.641486 7.715169 10.964635 15.302067 7.815857 21.685026 11.62725 18.586489
21.148762 28.546036 9.0090685 6.7762265 3.8664763 6.192811 4.8168173 12.573206
4.07705 4.038759 12.785227 23.322739 12.242692 8.434012 22.705648 10.487361
9.333078 6.784461 65.72086 16.362837 9.302799 55.70828 32.139336 25.495115
67.27633 32.737823 5.502416 61.105637 5.594347 16.203777 19.665533 3.9103503
22.514162 3.971746 5.3736267 13.214141 8.366208 13.177884 16.627094 15.270053
12.647652 39.066998 24.060904 27.190182 20.77746 20.256107 20.268295 2.9074295
19.060741 30.167515 1.8587493 6.163069 15.202619 15.930524 23.216024 13.812352
4.459487 9.600682 9.453681 3.5746968 14.073757 6.285159 13.815026 3.9713953
4.319151 46.83091 17.585312 21.99622 5.045142 8.934735 15.62096 19.129948
9.611561 17.41876 6.720826 29.654184 7.8246894 4.524236 18.492125 32.183926
9.677392 7.770046 14.473635 8.860972 21.485754 15.410359 16.779812 3.6517317
00000000: 4356 0541 38ea ec41 1dfd a141 9cc8 8841
00000010: 5b52 da40 8886 f940 3591 a641 cf6c e941
00000020: 0989 8342 7ec6 0942 63a2 0b41 0305 3a41
00000030: a9c9 f140 19cc c441 c8f5 4041 3308 de41
00000040: 4233 0141 2c7c fc40 46dd 6141 1d16 8041
00000050: df6e 0842 b969 8c41 b32c 1e42 b462 2741
00000060: a9d9 1541 b84a 2f41 3b39 2e41 a989 8340
00000070: ec8c 4d41 4ca5 ef40 e68f ce40 0a91 5c41
00000080: 3b23 9e40 86f9 d741 92a6 bd41 ffb9 de40
00000090: 92b4 aa41 50cd 3b42 0a76 e841 1aaf 9d41
000000a0: 24d2 1241 9251 9141 03d2 3941 dd31 9341
000000b0: 8f41 8841 3991 8640 ca7d ec3f c1f1 ac40
000000c0: 0c4a bb40 cfc7 8841 918e 5142 0e91 6140
000000d0: 9e05 1941 5691 4941 98b5 7042 1f11 3540
000000e0: b718 8941 5f99 c740 19dc 8741 55b3 8142
000000f0: 574d f241 321a 5240 2ab2 a841 76f9 e340
00000100: bbd1 0341 9ab1 3441 7202 3241 ce0a 3741
00000110: 9287 0b41 198a 2c42 9ef1 4942 2714 e241
00000120: e36d 4341 b03f 8840 0289 4a41 d4c5 0540
00000130: 695d 3241 6007 f441 4d0e 5242 0a39 8a41
00000140: 9f95 8a41 cbdc 6741 c58e 4b42 c776 9a41
00000150: 3910 6040 8f64 e641 3fbb cc41 3b05 a440
00000160: da19 4f40 9acd 1e42 ef6a 1841 f029 4841
00000170: 66cc 8840 9dd2 5540 1074 8441 ded0 1941
00000180: 93f3 6340 4828 3c42 9b3b 9441 1a91 9940
00000190: 7f09 d040 30f8 bf41 a42e 2941 0c28 7141
000001a0: 186f 2441 b0c5 0642 23c4 c441 b18b ba41
000001b0: 2791 1e41 f3d2 a041 1f07 c640 f25c 6841
000001c0: 810e d040 1bae 8741 a786 c840 5598 0042
000001d0: 84fa b741 0f88 1b41 2562 2041 0b0a 6440
000001e0: b0eb 2d42 1ae0 ea41 95f4 2442 118e a040
000001f0: 4c7a 8341 5316 8a40 c4f0 1b41 d572 8d41
00000200: b306 2041 5d30 4741 76cd bc41 8cf0 dd40
00000210: 4392 5d41 83de cf40 c655 e740 6af1 e040
00000220: f17d 0f41 fd10 4f41 c3cf 4841 cc64 3142
00000230: f801 ad40 a9a2 0141 600c 3141 ae0a 4541
00000240: d97c 5642 acef b740 7178 8a40 033e 1840
00000250: 6ec5 013f 6236 5241 b2e4 0d41 cc7d aa3f
00000260: 8e98 a041 9a09 8c41 ce78 5e41 1599 b541
00000270: b1f1 2441 837d 1c41 fed3 8241 bafa b541
00000280: 8743 0a41 aae2 f640 256f 2f41 44d5 7441
00000290: 801b fa40 ef7a ad41 3709 3a41 21b1 9441
000002a0: aa30 a941 485e e441 2525 1041 d9d6 d840
000002b0: 5974 7740 822b c640 5e23 9a40 da2b 4941
000002c0: 3277 8240 843d 8140 4a90 4c41 f894 ba41
000002d0: 11e2 4341 b7f1 0641 2ba5 b541 3bcc 2741
000002e0: 4a54 1541 4e1a d940 1571 8342 17e7 8241
000002f0: 44d8 1441 47d5 5e42 ae8e 0042 fff5 cb41
00000300: 7b8d 8642 88f3 0242 cb13 b040 2c6c 7442
00000310: e404 b340 56a1 8141 0353 9d41 2e43 7a40
00000320: 011d b441 1631 7e40 c0f4 ab40 1f6d 5341
00000330: fddb 0541 9dd8 5241 4a04 8541 2352 7441
00000340: c85c 4a41 9b44 1c42 bb7c c041 7e85 d941
00000350: 3d38 a641 820c a241 7825 a241 5313 3a40
00000360: 667c 9841 1257 f141 7feb ed3f dc37 c540
00000370: ed3d 7341 6de3 7e41 6bba b941 65ff 5c41
00000380: 1eb4 8e40 659c 1941 4742 1741 d5c7 6440
00000390: 1c2e 6141 0620 c940 590a 5d41 572b 7e40
000003a0: 7c36 8a40 da52 3b42 b8ae 8c41 42f8 af41
000003b0: ce71 a140 adf4 0e41 74ef 7941 220a 9941
000003c0: f4c8 1941 9f59 8b41 0211 d740 c53b ed41
000003d0: db63 fa40 8bc6 9040 dfef 9341 57bc 0042
000003e0: 99d6 1a41 38a4 f840 0294 6741 8bc6 0d41
000003f0: d3e2 ab41 d590 7641 0e3d 8641 f9b5 6940
