tasks/tennis/solutions/maddpg/solution_checkpoint/homogeneous_maddpg_baseline_critic_checkpoint.pth (torch_old, 575834 bytes, 13 tensors)

fc1.weight f4 [400, 50]
000000 86 92 ae 82 a2 b0 b9 02 4d ac b8 02 40 b4 a1 82
       -2.5651102e-37 2.728469e-37 2.7135266e-37 -2.3760282e-37
000010 f9 b8 b2 82 53 57 aa 02 0c 42 b8 02 fe 10 b1 82
       -2.6260918e-37 2.5029377e-37 2.707428e-37 -2.6017566e-37
000020 80 0f ad 82 02 fc a5 02 76 a6 c1 82 86 74 a4 82
       -2.5428962e-37 2.4389216e-37 -2.8454345e-37 -2.4164515e-37
000030 ee 6d b1 82 97 f7 b4 02 c2 44 c2 82 76 66 aa 82
       -2.607091e-37 2.6590732e-37 -2.8545203e-37 -2.5038065e-37
000040 00 89 c2 02 ac 7f b7 02 60 a1 a1 02 7f 62 bf 02
       2.8584372e-37 2.6962713e-37 2.3749449e-37 2.8121462e-37
000050 14 f2 af 02 ef 1d a4 02 9a c5 b4 02 c4 3c a7 02
       2.5852885e-37 2.4114815e-37 2.656204e-37 2.4573322e-37
000060 2e f7 9a 82 01 8a ad 02 93 eb 07 82 3a 6b 99 02
       -2.277014e-37 2.5499276e-37 -9.98584e-38 2.2542874e-37
000070 1e 16 df 82 28 f6 b2 02 64 a8 06 82 9c cb a5 02
       -3.27796e-37 2.6296036e-37 -9.893091e-38 2.4361437e-37
000080 8a cb 7b 82 02 0b 94 02 0a 30 5c 82 16 54 b8 02
       -1.849898e-37 2.1752964e-37 -1.6176834e-37 2.7084633e-37
000090 16 4a c1 02 be 13 aa 02 fb ef 7a 82 90 8b a3 02
       2.8401324e-37 2.4990586e-37 -1.843597e-37 2.4030802e-37
0000a0 9f 31 a0 82 7b 37 9e 02 d8 16 9b 02 ed 57 c9 82
       -2.3538368e-37 2.3247858e-37 2.2788315e-37 -2.9584762e-37
0000b0 04 9c b6 82 5b ec a9 02 e2 bb a5 02 72 72 b5 02
       -2.6832045e-37 2.496798e-37 2.435241e-37 2.6661248e-37
0000c0 ce db 94 02 19 16 c3 02 43 89 cd 02 aa 07 b6 82
       2.1872807e-37 2.8665358e-37 3.0200827e-37 -2.6746895e-37
0000d0 df 15 95 82 7b 5e 8c 02 3c 19 83 02 5c 19 c2 82
       -2.1906136e-37 2.062538e-37 1.9263204e-37 -2.8520294e-37
0000e0 81 58 81 82 86 8b 99 02 dd 5e cc 02 c5 50 ba 82
       -1.9005645e-37 2.2561412e-37 3.0029555e-37 -2.7376603e-37
0000f0 f1 06 9b 02 57 37 d5 82 7a b0 8c 02 9c 1c cb 82
       2.2779187e-37 -3.13293e-37 2.0672444e-37 -2.984459e-37
000100 1c 32 2d 02 3c b8 7f 02 71 e4 c0 02 f3 5b c5 82
       1.2724413e-37 1.8787314e-37 2.8342983e-37 -2.8999325e-37
000110 02 72 bf 82 c2 eb 27 02 11 46 a9 02 3c 54 c9 82
       -2.8130365e-37 1.2336881e-37 2.4872534e-37 -2.9582644e-37
000120 c8 78 f3 81 55 f1 8b 02 e9 67 b3 82 f2 ac 9a 82
       -8.9437415e-38 2.0562732e-37 -2.6361328e-37 -2.2727532e-37
000130 80 79 12 82 b0 81 d0 00 2d 01 7d 82 d2 88 c6 82
       -1.0761255e-37 1.9148306e-38 -1.8587842e-37 -2.9172016e-37
000140 d4 f6 54 02 35 e9 cf 82 7e 47 85 82 3d 84 5a 03
       1.5646136e-37 -3.054977e-37 -1.9583628e-37 6.4216244e-37
000150 b3 f7 8d 82 81 e3 f7 82 58 3d 27 83 03 ce b0 82
       -2.086026e-37 -3.642397e-37 -4.914731e-37 -2.597912e-37
000160 c3 09 7b 82 6d 95 87 82 f6 42 b8 82 d8 df ae 82
       -1.8443369e-37 -1.9922233e-37 -2.7074804e-37 -2.5695482e-37
000170 05 c8 8b 82 46 49 8b 02 3f 54 a0 82 a6 8a d3 82
       -2.053902e-37 2.0466271e-37 -2.3558242e-37 -3.1083244e-37
000180 2e 9c 7a 82 95 50 47 02 7b 09 b0 82 a8 82 a8 02
       -1.8411921e-37 1.4643337e-37 -2.5866317e-37 2.4760374e-37
000190 01 e6 53 02 eb 00 7c 02 c3 76 49 81 f9 6a 02 83
       1.556784e-37 1.85143e-37 -3.7003077e-38 -3.8326365e-37
0001a0 5a f5 bd 82 b3 78 83 82 d1 d3 34 83 72 af 2e 02
       -2.791188e-37 -1.9317998e-37 -5.31404e-37 1.2833851e-37
0001b0 02 5f 87 82 ca 82 84 82 e6 7b df 82 be 57 4a 82
       -1.9891e-37 -1.9470726e-37 -3.283802e-37 -1.4865797e-37
0001c0 d7 62 ba 82 b8 f3 96 82 cc 97 3a 83 9e 8f 79 82
       -2.7386975e-37 -2.2180407e-37 -5.483474e-37 -1.8334847e-37
0001d0 38 ac bb 02 14 d0 1a 02 b8 0f 5e 82 f3 96 92 82
       2.757603e-37 1.1373849e-37 -1.6314495e-37 -2.1539413e-37
0001e0 88 e2 b2 02 ca 35 b0 82 5b 87 f3 01 ed db 9d 82
       2.6284772e-37 -2.589175e-37 8.945833e-38 -2.3195308e-37
0001f0 14 b0 67 83 4b bf b3 82 26 8a bf 02 1f 4b e2 82
       -6.8086927e-37 -2.6411483e-37 2.814422e-37 -3.3250833e-37
000200 5a db b6 02 e8 4c 6b 82 f3 16 a2 82 be 81 91 01
       2.6868398e-37 -1.7287144e-37 -2.3816933e-37 5.345076e-38
000210 c5 3b 84 01 34 1c 0f 02 39 21 e6 82 d0 f9 08 83
       4.8574907e-38 1.0514075e-37 -3.3814531e-37 -4.025358e-37
000220 45 8c c0 02 4a 7e 88 82 b1 4a 03 02 9e f1 14 83
       2.8292375e-37 -2.005589e-37 9.645795e-38 -4.3770654e-37
000230 7d 65 34 82 1a 9b dd 02 4a 70 87 02 18 5b 51 82
       -1.3253437e-37 3.2562055e-37 1.9900918e-37 -1.5381038e-37
000240 0c 4e c5 82 f0 06 ac 82 68 fa 06 83 e8 29 47 82
       -2.8991345e-37 -2.527711e-37 -3.9666513e-37 -1.4632237e-37
000250 6a 37 06 02 2a 53 93 82 ef 21 8c 3c 7a ec c4 bc
       9.860668e-38 -2.1647443e-37 0.017106025 -0.024038542
000260 34 77 11 3c a6 3e cb b7 10 a1 65 bc 2a 11 5e 3c
       0.008878518 -2.4228659e-05 -0.014015451 0.013553897
000270 d2 47 0f 3a 84 5b 92 39 4d 59 95 3c f7 49 52 b8
       0.0005465719 0.00027915474 0.018231058 -5.0136787e-05
000280 a1 7b bf b8 af d6 78 b7 5b 66 0d bc bf ec e8 3b
       -9.1306174e-05 -1.4831937e-05 -0.0086303605 0.0071083005
000290 14 67 aa 3a 69 15 27 bc 3f 05 03 3b 20 5a 19 bc
       0.001300069 -0.010197976 0.001999214 -0.009359866
0002a0 95 b6 2f 39 b6 07 2c 38 de 1a 19 3c f3 e4 a2 bb
       0.00016757318 4.1015177e-05 0.009344785 -0.0049711405
0002b0 e5 ac 33 bc 5c c1 92 3c bf ee be bc 09 a2 d6 bb
       -0.010966514 0.017914467 -0.023307202 -0.006550078
0002c0 31 79 2c 3b 4e be be b6 76 8b 95 3c 24 a3 4e 3c
       0.0026317353 -5.6845956e-06 0.018254977 0.012612138
0002d0 8b 00 8d 38 d6 17 8a bb da 0b 5c b9 9c 8f 24 35
       6.723505e-05 -0.0042142672 -0.0002098525 6.130374e-07
0002e0 72 47 59 3c 5d 39 35 bb 53 e0 51 3c 2e 90 c7 3b
       0.013261663 -0.00276526 0.012809831 0.0060901856
0002f0 a0 30 29 38 9e 49 9c b9 5c bf 96 3b 9b 94 72 bc
       4.0338025e-05 -0.00029809488 0.0046004485 -0.014805938
000300 13 0d 16 3c d8 7e a7 bc 33 32 c8 bb 94 2c b9 bb
       0.009158391 -0.020446226 -0.0061095 -0.005651066
000310 c0 c6 31 39 5c d9 69 39 7b 9f 43 3c d0 75 68 bc
       0.00016954076 0.00022301584 0.011939879 -0.014188245
000320 f0 a9 a0 02 cd 8e ad 82 0c 4f 3a 82 58 58 ae 00
       2.3607426e-37 -2.550203e-37 -1.3687807e-37 1.6011068e-38
000330 70 82 c4 02 38 84 a0 82 43 30 b6 82 07 c2 5e 81
       2.887448e-37 -2.3585777e-37 -2.6770197e-37 -4.0914168e-38
000340 9f 11 ad 02 10 00 89 82 68 43 82 82 f2 1e 7d 82
       2.543018e-37 -2.0130377e-37 -1.9140472e-37 -1.8596385e-37
000350 69 e1 bd 02 6b 0f a2 82 d4 a8 54 82 eb 1f 8f 82
       2.7900433e-37 -2.381261e-37 -1.5623751e-37 -2.1030282e-37
000360 3e cd a0 02 19 c1 91 82 38 a4 5e 82 91 48 9c 02
       2.362769e-37 -2.1416668e-37 -1.6357113e-37 2.296379e-37
000370 4c 60 b9 02 60 34 b0 02 5d d1 73 82 14 b9 b2 02
       2.7238579e-37 2.5890937e-37 -1.7912905e-37 2.626098e-37
000380 b2 b2 06 82 36 0b 9c 02 a5 5b 84 02 9d 2f c6 82
       -9.896048e-38 2.2928575e-37 1.9448258e-37 -2.9120814e-37
000390 8e ba c2 82 30 27 a7 82 ce 79 ce 00 fb c6 2a 83
       -2.8612815e-37 -2.4560937e-37 1.8961807e-38 -5.018693e-37
0003a0 d4 b8 e2 02 94 f7 94 82 fa c3 f9 02 c4 f1 92 82
       3.3313802e-37 -2.1888748e-37 3.6699747e-37 -2.1591539e-37
0003b0 0c 4c c0 82 d6 04 88 82 1f c7 9f 02 92 ef 26 83
       -2.8255513e-37 -1.998618e-37 2.347724e-37 -4.905803e-37
0003c0 2b 2d 8d 82 8c 33 3a 02 08 15 07 82 46 6c 8c 02
       -2.0744013e-37 1.3679915e-37 -9.924269e-38 2.0633297e-37
0003d0 67 87 b7 82 70 68 b1 02 b7 16 35 02 dd 25 c6 01
       -2.696715e-37 2.6067757e-37 1.3304299e-37 7.2788044e-38
0003e0 2a db 90 82 26 d0 40 02 59 29 85 02 c9 c5 59 02
       -2.1284692e-37 1.4165668e-37 1.9566326e-37 1.5999404e-37
0003f0 c8 88 33 82 ca 0f fd 81 2c db ac 02 b6 3f 95 82
       -1.3190097e-37 -9.296018e-38 2.5398927e-37 -2.193015e-37

fc1.bias f4 [400]
000000 64 9a 22 83 4f 7b 37 82 1a 2b ef 82 d4 9c 4e 34
       -4.7784753e-37 -1.3480104e-37 -3.5142633e-37 1.9242299e-07
000010 fb 9a 45 03 4c 86 66 03 06 e6 5c 83 36 00 bd 81
       5.8071006e-37 6.774509e-37 -6.4916243e-37 -6.942794e-38
000020 f9 17 c7 b5 0b 74 c6 02 46 7e 54 03 c9 65 08 03
       -1.4833632e-06 2.916009e-37 6.2446155e-37 4.008365e-37
000030 0c d6 64 01 04 fa 36 35 9e 7f 41 83 bd 11 2f 82
       4.2030557e-38 6.8164104e-07 -5.68641e-37 -1.286206e-37
000040 80 90 5b 00 11 2f 7c 82 01 0f 0d 03 5d 4d 51 34
       8.408867e-39 -1.8527543e-37 4.14534e-37 1.9492786e-07
000050 46 3a ac b5 4a a8 54 83 90 ab e0 33 6e 58 df 02
       -1.2831958e-06 -6.2494387e-37 1.046202e-07 3.2817661e-37
000060 11 99 9b 35 c2 a2 60 02 ec 64 25 02 0e e1 ec 01
       1.1592948e-06 1.650363e-37 1.2151249e-37 8.7015646e-38
000070 ea ed 93 33 b0 14 88 00 f2 9c 1f 03 f6 89 13 b5
       6.888497e-08 1.2497049e-38 4.6906065e-37 -5.4962527e-07
000080 ef 44 46 02 63 39 c7 82 34 e7 9d 82 7a 92 0e b5
       1.4566526e-37 -2.927336e-37 -2.320178e-37 -5.3112274e-07
000090 39 4d 5a 02 6c cf 15 b5 d6 d7 1c 83 d4 ca 54 82
       1.6038272e-37 -5.5808664e-07 -4.6092047e-37 -1.5633509e-37
0000a0 39 f4 6a af 80 5d 7a 80 30 7b f6 00 73 b0 05 03
       -2.1368941e-10 -1.1237472e-38 2.2635723e-38 3.928774e-37
0000b0 0a 54 a6 b5 25 d3 63 03 ae 1a 83 01 df a7 e9 82
       -1.2392422e-06 6.6951686e-37 4.8160083e-38 -3.4332626e-37
0000c0 a8 79 88 00 cf ed b3 b3 d2 d5 a3 b5 ef ff bd b4
       1.253327e-38 -8.378594e-08 -1.2206676e-06 -3.539021e-07
0000d0 52 13 43 03 e0 a6 01 b5 de 84 6d 83 9f 2e 29 34
       5.732753e-37 -4.829908e-07 -6.9800564e-37 1.5756312e-07
0000e0 1c b2 68 82 49 f8 19 02 b4 e6 4a 83 9e f7 9c a9
       -1.7095783e-37 1.1311919e-37 -5.96273e-37 -6.9707464e-14
0000f0 5f 23 34 34 42 d7 21 b5 d8 0d 0b 34 8b 8c 64 03
       1.6776674e-07 -6.0290415e-07 1.295042e-07 6.7164513e-37
000100 78 e3 d5 02 ca e1 07 03 a2 78 9b 01 cc a4 b8 02
       3.1428098e-37 3.9932127e-37 5.711111e-38 2.7130959e-37
000110 88 0c 92 82 f4 bd ef 02 e8 a7 a1 82 69 ea 89 02
       -2.1459964e-37 3.5226921e-37 -2.3753197e-37 2.0264886e-37
000120 f2 29 17 03 df 29 2f b3 cb 71 e0 b5 df 39 f7 82
       4.4423063e-37 -4.0783444e-08 -1.6722419e-06 -3.6326604e-37
000130 21 60 33 83 3f 57 4a 82 b0 16 f2 02 26 9b fe b2
       -5.2713723e-37 -1.4865655e-37 3.5571726e-37 -2.9640045e-08
000140 c4 c3 07 03 0d 70 9a 34 08 67 d0 81 40 d0 e9 01
       3.9897662e-37 2.8766263e-07 -7.6554975e-38 8.5889507e-38
000150 dc ef 4c 03 81 00 42 02 1c 8b 91 82 c8 1b 55 03
       6.0225557e-37 1.4253014e-37 -2.138568e-37 6.2626965e-37
000160 0e 99 f7 82 30 d0 bb 82 dc ca db 82 9c d4 a7 02
       -3.6381237e-37 -2.7596674e-37 -3.2295593e-37 2.4660476e-37
000170 58 4a 28 83 3c d0 40 03 6a 1f 01 03 a9 4b cc 02
       -4.9456105e-37 5.666277e-37 3.7945754e-37 3.0018533e-37
000180 78 dd 88 b4 b9 6b a0 b4 90 18 cd 82 d3 06 be ac
       -2.5493114e-07 -2.98807e-07 -3.013614e-37 -5.4008824e-12
000190 86 77 0d 83 9c 2c 43 83 78 88 9b 02 04 0d a7 82
       -4.157338e-37 -5.735656e-37 2.2853532e-37 -2.4545915e-37
0001a0 5c 8a 10 83 fb 95 20 82 ac ad 43 83 cb 3f 03 03
       -4.2476625e-37 -1.1797986e-37 -5.7504715e-37 3.857067e-37
0001b0 28 78 10 83 22 a9 57 03 b0 76 28 00 54 b7 47 03
       -4.245573e-37 6.3376976e-37 3.715997e-39 5.8691294e-37
0001c0 20 15 05 03 19 7d 4c 03 2b c0 cf 02 20 c0 d8 b4
       3.9109437e-37 6.0093817e-37 3.0526215e-37 -4.0372925e-07
0001d0 94 87 78 82 1a 0a 4a 02 70 ce 40 82 33 46 cc 82
       -1.8259071e-37 1.4843515e-37 -1.4165177e-37 -3.0015398e-37
0001e0 82 3e a6 02 b6 91 32 b6 7e 30 e0 32 42 06 bc 82
       2.4427386e-37 -2.6608882e-06 2.6099084e-08 -2.762771e-37
0001f0 9a d9 02 02 3f c1 c0 b3 ca 25 4c 83 50 f9 04 00
       9.61334e-38 -8.975848e-08 -5.999359e-37 4.56778e-40
000200 a0 5f 27 03 b1 f6 9d 82 ce c0 25 83 1e 18 0f 83
       4.918666e-37 -2.321067e-37 -4.871047e-37 -4.205161e-37
000210 b6 9d 8b 02 33 36 fd 82 0a 58 5b 02 ae 66 f0 b4
       2.0514736e-37 -3.7206118e-37 1.6114845e-37 -4.4778193e-07
000220 66 40 d8 02 c4 38 4a 02 08 6d a9 34 80 d4 8a b4
       3.177531e-37 1.4856907e-37 3.1558034e-07 -2.5859117e-07
000230 10 00 b6 02 ac 80 67 03 6d ff df 02 70 a7 b9 82
       2.6742532e-37 6.8032507e-37 3.2913512e-37 -2.7279411e-37
000240 50 9f 27 01 5c 76 1f 81 0e cc 43 83 47 a0 3e 03
       3.0787357e-38 -2.9288606e-38 -5.7539593e-37 5.601997e-37
000250 b2 0b dc 82 94 e8 da 81 fc 3c 44 83 9b 26 09 03
       -3.2332807e-37 -8.0414286e-38 -5.766923e-37 4.0305e-37
000260 81 65 2a 83 49 68 f5 02 97 bf 20 83 c6 27 27 83
       -5.007503e-37 3.6059371e-37 -4.723971e-37 -4.9122547e-37
000270 b4 8a 1f 82 03 e8 0d b6 6e f4 fe 02 ff e2 1e 03
       -1.1721281e-37 -2.1145686e-06 3.7462241e-37 4.6692606e-37
000280 b4 fc 49 83 4a de b5 b3 47 56 40 02 c3 20 4f 82
       -5.935868e-37 -8.4689034e-08 1.4130693e-37 -1.521736e-37
000290 52 76 24 02 b6 9b 8f 82 69 44 03 83 7e c7 18 b6
       1.2082773e-37 -2.1101335e-37 -3.857597e-37 -2.2765885e-06
0002a0 01 ab 67 03 69 74 a2 02 36 44 81 82 59 5d 8a 35
       6.80811e-37 2.3870577e-37 -1.8993998e-37 1.0308969e-06
0002b0 5e 84 42 83 96 c4 83 02 8e f1 f9 b5 f3 69 6b b5
       -5.7163426e-37 1.9361555e-37 -1.8622247e-06 -8.76985e-07
0002c0 44 01 ea 02 ce 13 8c b5 0b 2a 24 83 34 9f 2c 83
       3.4383936e-37 -1.0436577e-06 -4.824353e-37 -5.0729013e-37
0002d0 44 a8 a3 82 c4 ff 3c 81 b5 9d 51 83 6a 3b 9d 01
       -2.4047277e-37 -3.471365e-38 -6.160062e-37 5.7757947e-38
0002e0 bb d4 50 83 fa a0 ad b3 58 72 43 01 d4 ec 84 82
       -6.136991e-37 -8.085222e-08 3.589788e-38 -1.953159e-37
0002f0 b8 75 25 83 60 3a 14 83 22 b0 e2 81 81 55 bb 34
       -4.8624276e-37 -4.35603e-37 -8.3272027e-38 3.4893677e-07
000300 85 8f 2d 03 c0 3b 01 00 f5 1f 9b 02 fd b5 1e 83
       5.1004883e-37 1.1327e-40 2.2793545e-37 -4.664094e-37
000310 27 c6 10 03 a0 ff f9 b3 e4 1a 63 33 07 10 bb b4
       4.2545264e-37 -1.1641464e-07 5.2877013e-08 -3.4843126e-07
000320 d2 76 c6 34 e7 47 87 b4 01 72 44 30 60 bb 96 80
       3.6966827e-07 -2.5198025e-07 7.1466394e-10 -1.3842542e-38
000330 b0 ff 29 80 92 3d ba 81 64 96 5e 83 1e b3 09 83
       -3.856979e-39 -6.841396e-38 -6.5412576e-37 -4.04663e-37
000340 ec 96 0b 83 f9 6a 58 03 27 8e 64 03 4c 4b e3 82
       -4.102168e-37 6.3599494e-37 6.716636e-37 -3.339787e-37
000350 3a 4f 88 82 c0 29 30 03 b7 44 4e 02 09 5b d6 34
       -2.0028878e-37 5.176968e-37 1.515421e-37 3.9926843e-07
000360 82 25 b2 01 d6 c7 94 82 a5 db 6d 02 72 01 50 83
       6.5440694e-38 -2.1861346e-37 1.7475045e-37 -6.1127365e-37
000370 7a 68 b2 02 4e d1 f5 82 d6 45 0a 83 b1 37 4d b6
       2.6214716e-37 -3.611965e-37 -4.0634723e-37 -3.0579797e-06
000380 e8 b0 ca 82 fd 20 dd 34 88 54 c0 02 87 ff 64 83
       -2.9782772e-37 4.118846e-07 2.8260383e-37 -6.729651e-37
000390 c2 ed 30 02 60 47 79 82 7c 61 f9 01 d0 78 b0 80
       1.2998671e-37 -1.8314114e-37 9.160804e-38 -1.6206387e-38
0003a0 a6 c4 c0 b4 33 30 51 03 fe 8b 0e 03 b1 a7 f6 35
       -3.5905867e-07 6.147491e-37 4.1890753e-37 1.8377233e-06
0003b0 34 d9 53 01 ff 86 54 02 d1 3d 7d 82 70 8d da 01
       3.8910415e-38 1.5614042e-37 -1.8605245e-37 8.0283506e-38
0003c0 35 ca 4a 02 04 47 64 02 52 e8 e8 82 f4 4d 9e 02
       1.4898647e-37 1.6771175e-37 -3.4222681e-37 2.3260756e-37
0003d0 f4 44 3e 83 7c 29 f2 82 9c fc 51 03 ce 7f 34 83
       -5.5915136e-37 -3.5582515e-37 6.170956e-37 -5.304396e-37
0003e0 4d 9e 49 83 39 f8 26 35 4e 97 33 83 65 5f 35 03
       -5.925031e-37 6.220103e-07 -5.277706e-37 5.3300627e-37
0003f0 2a 4c 57 83 bb 96 35 2e 42 a1 6a 02 9f f6 32 02
       -6.3270253e-37 4.128851e-11 1.7237884e-37 1.3148151e-37

fc2.weight f4 [300, 402]
000000 75 ec c0 02 da 53 88 01 27 fc 9a 82 5a b6 32 b7
       2.8347584e-37 5.007883e-38 -2.2772995e-37 -1.0652084e-05
000010 90 e4 56 82 7f c5 38 83 76 28 84 82 c9 17 d5 02
       -1.5787831e-37 -5.4299455e-37 -1.941888e-37 3.131119e-37
000020 33 71 28 b7 f8 7f 4a 00 fa 9a 89 02 3c 4e a0 02
       -1.0039937e-05 6.841733e-39 2.0219293e-37 2.3554791e-37
000030 d6 d1 9d 82 8f 11 3f 37 6d aa ff 02 c8 ad f4 01
       -2.3189517e-37 1.1388575e-05 3.7566702e-37 8.988081e-38
000040 f4 db e4 82 90 dd c6 82 6a 1a 89 02 14 3e 6b b7
       -3.3627836e-37 -2.9220656e-37 2.0145502e-37 -1.4021545e-05
000050 b8 53 f0 b6 66 73 9f 82 b5 84 a2 36 f8 92 82 01
       -7.1623035e-06 -2.3429186e-37 4.8434254e-06 4.796535e-38
000060 2e a5 d2 b5 30 09 64 02 41 0c e1 02 af a0 93 82
       -1.5694293e-06 1.6753431e-37 3.3067812e-37 -2.1691937e-37
000070 35 d6 c7 36 6c 5a 09 82 83 5a 8e 82 6a 65 b1 35
       5.955599e-06 -1.009112e-37 -2.0916976e-37 1.3217043e-06
000080 18 90 bd 82 b6 f2 22 83 ba 4c f8 80 78 d4 10 b6
       -2.785376e-37 -4.788614e-37 -2.2802727e-38 -2.1581345e-06
000090 c4 c1 86 82 3d 98 59 b7 bc 63 62 03 e2 3d 67 00
       -1.9800746e-37 -1.2969654e-05 6.652992e-37 9.481255e-39
0000a0 33 e5 2d b6 3f 85 81 02 cd 54 34 82 74 d9 c5 02
       -2.591242e-06 1.9031326e-37 -1.3248648e-37 2.907136e-37
0000b0 e4 f2 94 b7 c7 3e 51 03 c2 e0 6d 03 82 77 4b 83
       -1.775608e-05 6.1491645e-37 6.990605e-37 -5.9793527e-37
0000c0 27 97 16 02 a7 73 6d b5 f2 d5 72 b4 38 96 2f b7
       1.1063638e-37 -8.8457676e-07 -2.2615839e-07 -1.0465788e-05
0000d0 c8 29 11 02 dc 76 31 b7 84 e7 5f 82 b0 c1 64 b7
       1.0664908e-37 -1.0577696e-05 -1.6449894e-37 -1.3634955e-05
0000e0 0e c5 6c 02 39 b7 0b 83 0a 9c da 02 30 ad 64 ad
       1.7395094e-37 -4.105876e-37 3.2121783e-37 -1.2998755e-11
0000f0 26 5b 1d 36 03 52 b2 36 8b a4 58 b7 4f 15 c2 02
       2.3447878e-06 5.314361e-06 -1.2912914e-05 2.8517969e-37
000100 d3 95 60 83 00 e7 0f 00 26 a1 c9 00 db 94 c7 82
       -6.5999673e-37 1.4604e-39 1.8516744e-38 -2.932586e-37
000110 e7 c3 4d 03 a9 00 52 82 ca 5b 49 83 49 e0 1f 03
       6.046897e-37 -1.5428553e-37 -5.917396e-37 4.6983367e-37
000120 97 c1 d8 81 21 3c f2 b6 36 fd 25 b7 c7 4c 40 83
       -7.9623656e-38 -7.219162e-06 -9.893722e-06 -5.6511865e-37
000130 dd ad 27 82 da e6 d3 02 a0 3d 50 03 d2 d6 e3 b6
       -1.2319119e-37 3.1136166e-37 6.119645e-37 -6.7901356e-06
000140 16 47 03 01 6a ca 20 b6 04 db a8 82 df 34 76 82
       2.4111902e-38 -2.3959678e-06 -2.481109e-37 -1.8088399e-37
000150 e7 eb 2d 03 92 90 9c 82 30 91 f6 02 3b ad 22 82
       5.1110933e-37 -2.300512e-37 3.6229785e-37 -1.1951595e-37
000160 40 6e b1 80 d9 d1 09 81 ed 03 3c 03 56 bc 90 82
       -1.6294433e-38 -2.5313484e-38 5.525274e-37 -2.1266998e-37
000170 8f 1f 55 02 09 2a a6 82 15 d2 a3 82 70 5f c6 02
       1.5657825e-37 -2.4415635e-37 -2.4071279e-37 2.9148264e-37
000180 fb a5 1a b6 5a 35 c5 b6 b0 72 a8 82 ba 67 b8 30
       -2.3044402e-06 -5.8772684e-06 -2.4751209e-37 1.3417243e-09
000190 03 b0 b1 82 6c f2 94 02 48 c0 03 03 1b f3 0b 03
       -2.6108838e-37 2.1885789e-37 3.871817e-37 4.11275e-37
0001a0 c8 d9 43 83 ea d7 2d 03 6e 68 1f 03 0c b9 9d 82
       -5.755535e-37 5.108799e-37 4.684578e-37 -2.3175288e-37
0001b0 e3 d1 ab 82 84 09 b6 80 5b db 3a 03 bf cf cb 02
       -2.524666e-37 -1.6717474e-38 5.4912295e-37 2.994741e-37
0001c0 5e d2 db 02 0d 81 f3 81 6a 29 48 82 d0 c8 0a b7
       3.2299903e-37 -8.944928e-38 -1.4705565e-37 -8.272196e-06
0001d0 fc 88 92 82 44 68 1a 83 1b 5c 16 82 d6 39 c5 01
       -2.1531397e-37 -4.5376224e-37 -1.1046693e-37 7.244936e-38
0001e0 ae 1f 2f 82 69 39 2b b7 de 39 97 35 be e4 97 82
       -1.2866061e-37 -1.0205761e-05 1.1267218e-06 -2.2318747e-37
0001f0 bd 34 41 81 c3 a2 e0 b5 3f f1 87 82 1a b9 72 82
       -3.548634e-38 -1.673667e-06 -1.9974936e-37 -1.7832474e-37
000200 67 4b 15 02 e7 62 c0 02 e4 37 a0 02 14 07 33 02
       1.096843e-37 2.8268632e-37 2.3541967e-37 1.3152874e-37
000210 2e 3e 11 03 db e4 3a 83 6e b7 85 02 de 0c 91 b5
       4.268305e-37 -5.49232e-37 1.9647877e-37 -1.0807087e-06
000220 36 c5 ae 82 38 11 5a 02 70 8c 77 b7 e4 b3 98 b7
       -2.5680196e-37 1.6021052e-37 -1.4755045e-05 -1.820358e-05
000230 b0 03 0a 03 3e c4 66 02 40 80 28 80 6f 48 bb 02
       4.055879e-37 1.695405e-37 -3.719427e-39 2.7518755e-37
000240 57 7d 95 02 2e 7a 91 82 16 e1 f7 02 f0 41 3e 03
       2.1965524e-37 -2.1375963e-37 3.642258e-37 5.5911674e-37
000250 ae 27 ce 02 d8 c8 9f 01 64 cb fb 82 b0 f5 01 03
       3.0291755e-37 5.869557e-38 -3.6997876e-37 3.819173e-37
000260 85 e5 86 02 55 f6 4f 82 ca 94 1d 83 60 a8 b2 80
       1.9821268e-37 -1.5278652e-37 -4.6308955e-37 -1.640712e-38
000270 c9 12 28 83 4b 64 8e 35 d5 93 5f 82 1c e2 22 02
       -4.9392327e-37 1.0609014e-06 -1.6425878e-37 1.196677e-37
000280 8d 63 66 02 ab 72 d8 36 b6 bc db 81 cc 2b e0 82
       1.6926301e-37 6.4506507e-06 -8.071868e-38 -3.293898e-37
000290 08 6e 54 82 f2 f7 88 02 9e 0a 20 82 6c f6 0f 36
       -1.5606878e-37 2.0125718e-37 -1.175799e-37 2.1452097e-06
0002a0 cc a8 b6 02 ec 95 a6 02 43 d5 9d 82 41 7d 09 b7
       2.6839381e-37 2.4477559e-37 -2.3191483e-37 -8.194999e-06
0002b0 b7 dc a6 82 50 5b 40 00 9d 78 5b b7 30 f0 5d 36
       -2.4518192e-37 5.910229e-39 -1.30815e-05 3.3071374e-06
0002c0 54 35 08 01 60 f7 76 b3 b2 3d 7a 82 8c 06 e6 00
       2.5017516e-38 -5.7501325e-08 -1.8384805e-37 2.1124513e-38
0002d0 56 aa d8 02 54 1a 9a 82 37 14 bd 01 03 bd 62 03
       3.1836116e-37 -2.2643378e-37 6.945664e-38 6.6632406e-37
0002e0 be 78 0a 83 46 67 95 b6 79 b5 e1 02 b3 f7 e7 82
       -4.069316e-37 -4.4525686e-06 3.3164939e-37 -3.4084572e-37
0002f0 b1 f1 36 03 df 05 29 82 3c 22 81 02 7f 4e 5a b7
       5.376244e-37 -1.2417844e-37 1.8974496e-37 -1.3012089e-05
000300 ed 5b 21 83 da f8 d6 02 9f 7b 4e 82 66 e6 ef 02
       -4.7419173e-37 3.1587308e-37 -1.5169967e-37 3.5250136e-37
000310 e6 86 0a 82 6a df 6c b6 c1 d1 64 35 55 0a d8 36
       -1.0177353e-37 -3.5296785e-06 8.524185e-07 6.4385044e-06
000320 90 58 f8 b7 b5 92 80 b5 38 ba 6a b3 d8 c4 2c 02
       -2.9605144e-05 -9.57944e-07 -5.4651736e-08 1.2693056e-37
000330 a6 0e c0 02 53 67 52 83 2a ac bc 02 49 d8 fd 02
       2.8220272e-37 -6.1832064e-37 2.7722935e-37 3.729915e-37
000340 46 a2 a4 82 96 2d 21 03 e2 ae c9 02 f0 59 03 02
       -2.4190775e-37 4.7365978e-37 2.9634673e-37 9.650171e-38
000350 f5 a0 9b 82 7c 9b 19 03 4c 35 22 82 9e ea 9e 36
       -2.2867588e-37 4.5141146e-37 -1.1917176e-37 4.73608e-06
000360 7d 76 6e 81 a5 ff a9 02 54 8f 0d 81 36 7d 85 02
       -4.3798707e-38 2.497905e-37 -2.6000443e-38 1.9614461e-37
000370 85 0e 5e 03 e4 98 a7 02 46 4d ee 01 46 d8 7f b7
       6.5256604e-37 2.46262e-37 8.7538274e-38 -1.52495395e-05
000380 16 d7 6c 83 f1 b8 cf b6 78 59 86 02 44 58 44 83
       -6.9601073e-37 -6.1906107e-06 1.9740883e-37 -5.7700547e-37
000390 50 1d 3a 03 3a 1c da 81 70 89 7c 00 50 38 b5 82
       5.4694136e-37 -8.0121056e-38 1.1436905e-38 -2.6627881e-37
0003a0 6e db aa 36 3a a5 3f 03 04 0b dd 02 3d df 5d b7
       5.09194e-06 5.6319526e-37 3.2479354e-37 -1.3224603e-05
0003b0 39 48 75 82 ef 01 1c 01 41 7d 69 82 9f 68 d3 02
       -1.8020484e-37 2.8654062e-38 -1.7154083e-37 3.1063713e-37
0003c0 cc 5a b9 02 7a 03 ae 81 68 c1 4c 82 47 56 19 82
       2.7235422e-37 -6.3922494e-38 -1.5043058e-37 -1.1265425e-37
0003d0 da 15 cc 81 44 78 cc 82 31 ff 09 82 b1 ac 4e 83
       -7.496912e-38 -3.0044135e-37 -1.0138407e-37 -6.07362e-37
0003e0 ef df 58 82 b4 af 21 b5 d6 38 aa 02 9d db 5d 83
       -1.593344e-37 -6.0232856e-07 2.5011877e-37 -6.5198167e-37
0003f0 80 05 14 03 d6 bc 66 b2 4b 06 17 03 05 98 01 03
       4.3499605e-37 -1.3430698e-08 4.4382136e-37 3.8084203e-37

fc2.bias f4 [300]
000000 a2 31 42 ba d7 86 9c ba 51 7d dc ba f7 ec 68 b7
       -0.00074079086 -0.0011942041 -0.0016822015 -1.388345e-05
000010 62 55 19 83 32 82 43 a7 79 84 c3 a2 ba 76 c2 82
       -4.5060674e-37 -2.7132265e-15 -5.2995117e-18 -2.8573884e-37
000020 e7 d4 e5 90 af d2 01 a9 84 b2 91 b4 0b e6 09 3d
       -9.06526e-29 -2.8826493e-14 -2.7138242e-07 0.03366665
000030 15 89 df b9 dd bd 87 3a 08 58 31 35 36 4e 63 b9
       -0.0004263601 0.0010356266 6.606574e-07 -0.00021677543
000040 58 4c 9b 82 22 91 64 82 e2 aa 97 ad 10 0e c1 3c
       -2.2819022e-37 -1.6792446e-37 -1.72426e-11 0.023566276
000050 9b f1 3b b9 2c 29 3a 3a c1 e0 9a a6 1a 69 4d ba
       -0.00017923715 0.0007101472 -1.0746816e-15 -0.0007835791
000060 b5 f3 b7 82 86 78 bf aa 39 1a 93 3c f9 28 53 9d
       -2.7029314e-37 -3.4012046e-13 0.01795684 -2.79468e-21
000070 e8 ac 87 af 1f 4a d4 3c 10 5a af b1 62 8c 99 3a
       -2.4679214e-10 0.02591425 -5.1034093e-09 0.0011714811
000080 1c 55 d9 a8 29 e0 87 ba 02 47 56 83 7f b2 26 b0
       -2.412875e-14 -0.0010366488 -6.297046e-37 -6.0644106e-10
000090 f4 f4 00 2b 13 21 e9 92 a0 6b 4c 3c 49 8e 0c bb
       4.5814676e-13 -1.4712521e-27 0.012476832 -0.0021447113
0000a0 11 aa 70 3c 18 cf a4 b8 33 7c 29 ab 73 b0 af 94
       0.0146889845 -7.8587036e-05 -6.021322e-13 -1.7740081e-26
0000b0 21 ac b9 82 1f 56 32 83 c2 93 12 84 68 ad 2c ac
       -2.7282104e-37 -5.240836e-37 -1.7230065e-36 -2.453893e-12
0000c0 5f eb 62 b8 40 0c 95 ba 58 50 45 ba 05 0e 08 b8
       -5.4101805e-05 -0.0011371449 -0.0007526926 -3.2437983e-05
0000d0 c4 4b 74 9a 9f e0 03 96 ca 14 59 ae 2c bf 17 bb
       -5.051922e-23 -1.0652974e-25 -4.9358552e-11 -0.0023154719
0000e0 e5 d4 17 83 a7 88 df 3c 6a 03 69 83 ea f2 a7 27
       -4.4619303e-37 0.02728684 -6.8476465e-37 4.661518e-15
0000f0 df a3 fb 82 ec 45 66 bc a1 24 39 3c 53 59 fc a8
       -3.6975193e-37 -0.014054757 0.011300237 -2.8016358e-14
000100 72 e8 57 a2 6c 86 06 83 6c 51 fa af af a4 80 ad
       -2.9260989e-18 -3.953337e-37 -4.553259e-10 -1.462505e-11
000110 f5 dc 45 bc 54 27 c5 b9 1f 00 62 9e 16 8f c8 3c
       -0.012076606 -0.0003760407 -1.19643654e-20 0.024482291
000120 cf 4a 0a 83 09 e8 f0 ae 7b cc b4 96 a1 18 c0 a5
       -4.064043e-37 -1.0955154e-10 -2.9209614e-25 -3.332338e-16
000130 93 a0 b1 99 25 34 80 b7 22 e2 18 bc 81 d2 dd b3
       -1.8366226e-23 -1.528307e-05 -0.009331258 -1.0329405e-07
000140 a6 f2 8a 1a 18 ff 07 bb 71 9a af a4 7a 13 9a ac
       5.746748e-23 -0.0020751413 -7.6155786e-17 -4.3791056e-12
000150 6d 92 3b af 8e 84 22 b8 0e a3 86 b8 7d 0a 15 ba
       -1.7059572e-10 -3.874726e-05 -6.419989e-05 -0.0005685462
000160 93 a5 15 b7 0c 17 fe 3b ca 92 9a 9d 28 5d f1 ba
       -8.919643e-06 0.0077542122 -4.0915237e-21 -0.0018414604
000170 28 21 65 a5 d8 83 e0 bc 5c 8a 08 83 42 08 fb 98
       -1.9873818e-16 -0.027406618 -4.0125637e-37 -6.4890318e-24
000180 e6 13 ad b5 d9 6c 21 83 56 c1 b2 3c 7e 93 23 83
       -1.2895296e-06 -4.74386e-37 0.021820705 -4.8070708e-37
000190 8f f8 55 ba 27 c3 a1 a7 1c 99 22 a7 4b bd 26 b6
       -0.00081623433 -4.489806e-15 -2.2565017e-15 -2.484611e-06
0001a0 d3 89 dc 8e b0 67 4d b5 90 02 16 bb 6a c2 10 82
       -5.4366907e-30 -7.6519336e-07 -0.002288971 -1.0635243e-37
0001b0 ee 8c 59 83 5f 8e d1 3c 86 3b f9 af 78 86 07 b3
       -6.393235e-37 0.025580583 -4.533513e-10 -3.1554436e-08
0001c0 8e 92 99 b1 06 64 61 83 99 82 9d aa 3a 10 26 ad
       -4.4695474e-09 -6.623638e-37 -2.7979423e-13 -9.4396106e-12
0001d0 c0 c3 08 a8 56 a0 97 b8 c6 48 c0 b8 4e 76 5f ac
       -7.591963e-15 -7.230106e-05 -9.1688285e-05 -3.1755878e-12
0001e0 d6 22 05 b3 35 16 62 ad 06 9f 90 3c 1b 72 0e 90
       -3.099816e-08 -1.2851544e-11 0.017653953 -2.8092466e-29
0001f0 9c 0f 87 1c 06 20 33 bb e3 e7 9d bc b9 ac 02 ba
       8.937586e-22 -0.002733232 -0.019275611 -0.0004984844
000200 37 36 08 b6 4b 58 a5 82 3f 8b a4 ba c8 50 29 ba
       -2.0297136e-06 -2.4295249e-37 -0.0012553706 -0.0006458876
000210 d9 ee 2a b9 6a 25 9e 37 6e db 80 b9 dd 31 86 82
       -0.00016301441 1.885249e-05 -0.0002457755 -1.971815e-37
000220 f6 c9 0f ba 99 04 c8 a2 e5 db 75 ad b4 c6 fb b6
       -0.00054851116 -5.4214977e-18 -1.3975464e-11 -7.503515e-06
000230 81 a4 23 a9 4a 86 b8 3c b1 3b 8c ba 30 83 4f 83
       -3.6335955e-14 0.022524972 -0.0010698942 -6.098243e-37
000240 61 c9 54 ac b0 c0 e6 af 05 c0 07 8d 84 e9 02 3c
       -3.02388e-12 -4.197367e-10 -4.183122e-31 0.007990245
000250 88 d1 c1 b8 d9 42 b3 ad f6 cf 3f 83 58 ba 97 b9
       -9.2419854e-05 -2.037963e-11 -5.6368583e-37 -0.000289398
000260 61 2d 48 af f7 ba 78 b7 5c 22 d0 3c 6b 02 52 ba
       -1.8206016e-10 -1.4825483e-05 0.025407009 -0.00080112246
000270 97 65 d8 b9 1a 45 41 bb 9d 9a 87 82 b4 f2 12 ae
       -0.0004127442 -0.002949065 -1.992521e-37 -3.341212e-11
000280 4d b1 33 ba 7f 48 13 bb 24 b6 cc 85 e1 b7 62 83
       -0.0006854728 -0.002247363 -1.9250976e-35 -6.6626513e-37
000290 e9 41 84 a7 c5 bb 2c ba d0 41 f2 a9 24 4b 4f bc
       -3.670882e-15 -0.0006589259 -1.07583755e-13 -0.012652192
0002a0 e5 80 fd 9b 08 87 b0 a7 84 36 ea 8c 4c 78 84 ba
       -4.1938635e-22 -4.8996214e-15 -3.608622e-31 -0.0010106652
0002b0 31 19 6f a8 c6 33 1a b2 fc 9c 1e bb 76 14 d5 b0
       -1.3272628e-14 -8.975752e-09 -0.0024202457 -1.5503605e-09
0002c0 5e 10 2e 84 fa e9 a7 ba 89 15 35 aa ff 11 36 b9
       -2.0461117e-36 -0.0012810819 -1.6083501e-13 -0.00017363577
0002d0 f6 e8 62 af 34 98 8e 87 44 d4 18 ba 7d e0 1d 3d
       -2.0637345e-10 -2.1455242e-34 -0.000582997 0.038544167
0002e0 f7 f6 b5 29 7e e5 ef a7 d6 69 2c ae ee 7b 04 3d
       8.080856e-14 -6.658464e-15 -3.9202273e-11 0.03234475
0002f0 dc 22 c9 b4 06 e3 c9 a7 b6 24 15 a3 d8 9d 39 ac
       -3.746453e-07 -5.6034846e-15 -8.08508e-18 -2.6377702e-12
000300 b4 ce 34 83 21 f4 c8 b3 93 b6 ba b4 b8 40 ff a7
       -5.313453e-37 -9.3576325e-08 -3.477804e-07 -7.0846886e-15
000310 28 24 b8 39 df 9f 11 83 5f de 88 b6 1a fe 3e 83
       0.00035122153 -4.2795193e-37 -4.0790032e-06 -5.6127676e-37
000320 79 16 dd 8a 6e fe 85 bb 13 01 1c af 8f 87 47 b5
       -2.1289979e-32 -0.0040891683 -1.4188499e-10 -7.433054e-07
000330 11 51 4b b1 d2 c3 ea 82 c7 6c 8f 3c 2f 03 3c aa
       -2.9586469e-09 -3.4495605e-37 0.017507924 -1.6698859e-13
000340 d5 de 2d 83 d1 bb e3 b2 0b 51 23 83 fe 89 88 bc
       -5.109593e-37 -2.6511687e-08 -4.7994428e-37 -0.016667362
000350 59 6f 44 b3 12 a6 a8 bc ac 33 bf 9e f6 22 9d 82
       -4.5736076e-08 -0.020587001 -2.0244283e-20 -2.3089143e-37
000360 1e b8 a0 ba 0f f9 d1 8c 1b 0a 2f a6 90 fa 1a 3a
       -0.0012261902 -3.2351445e-31 -6.0729017e-16 0.00059119705
000370 c2 6d dd aa 23 17 d2 b4 18 e9 08 b9 81 e1 98 3c
       -3.9333646e-13 -3.9132382e-07 -0.00013056805 0.018662216
000380 61 a8 94 b7 4d 3b 64 b4 92 26 2d a7 9d e5 f7 ab
       -1.7721382e-05 -2.1255728e-07 -2.4029482e-15 -1.7614136e-12
000390 87 9e e5 af f6 4a 8e bc 8d e3 de ab b9 07 ba 82
       -4.1767498e-10 -0.017369729 -1.5837207e-12 -2.7334676e-37
0003a0 36 3d 21 86 59 0e 32 83 3b 41 4a ba ec 8f 48 a2
       -3.0325705e-35 -5.232597e-37 -0.00077154086 -2.7181246e-18
0003b0 82 79 07 83 74 49 33 ba 41 ae ac 9f ef cb 2a ba
       -3.981242e-37 -0.00068392535 -7.313311e-20 -0.0006515374
0003c0 3e 0d 23 aa 26 09 1e 83 89 51 08 b9 8e e8 ff b2
       -1.4481903e-13 -4.644253e-37 -0.00013000345 -2.979166e-08
0003d0 77 3b 5a ba 7f 6e 2c b2 f6 f3 7a b7 57 16 e3 a2
       -0.0008324901 -1.0036842e-08 -1.4957963e-05 -6.1552127e-18
0003e0 53 f5 ab b6 27 6e 63 83 6c a2 95 b6 b7 f1 5d 2a
       -5.1247566e-06 -6.6835753e-37 -4.4594544e-06 1.9712605e-13
0003f0 1f 77 f4 9b b0 fb f7 b9 fa 8c fb bb cb 6b 00 97
       -4.0443394e-22 -0.00047299033 -0.007676718 -4.1495084e-25

bn.weight f4 [50]
000000 53 6d 36 3d 29 63 c9 3d d9 e9 0b 3d f2 e5 8e 37
       0.044537853 0.098333664 0.03415856 1.7034796e-05
000010 c3 3e 71 3e 04 4d 9e 3d 75 c4 ac 3a 48 51 29 3d
       0.23559098 0.07729533 0.0013181107 0.04133728
000020 c0 cb ab 3d 9b 4b 2b b8 b5 08 0f 3a 51 31 65 b7
       0.083884716 -4.083999e-05 0.00054563145 -1.3660946e-05
000030 be a0 ad 3d 05 e4 de 3d 13 d1 2c 3d 9b 63 44 3d
       0.08477925 0.10883335 0.042191576 0.047946554
000040 fd 65 0e 3e d0 d2 e7 3d 41 ea af b8 36 5a 61 39
       0.13906093 0.11319506 -8.3882835e-05 0.00021491278
000050 71 6b b1 3e 45 64 2c 3e 46 e4 54 3d f0 b9 bc 3d
       0.34652284 0.16835125 0.05197551 0.09215152
000060 93 cc 68 3d 76 4b 4e 3d 70 45 6a 3c e6 e0 88 38
       0.056835722 0.050364934 0.014298782 6.526876e-05
000070 77 5f 76 3e d6 e0 93 3d 40 64 75 b7 df 7f 0e 3d
       0.24059854 0.072206184 -1.4626479e-05 0.034789916
000080 ce 29 9b 38 f2 70 46 35 48 79 f6 3c c3 03 01 3d
       7.398763e-05 7.3925105e-07 0.030087128 0.031497728
000090 0f 41 08 3e 53 41 5a 3d ac 9e 06 b9 97 40 5e b9
       0.13306068 0.053284954 -0.00012838346 -0.00021195631
0000a0 fc 28 b2 3d 98 2d 7f 3d 2a c0 23 3d 29 61 5d 3d
       0.086992234 0.06229934 0.039978184 0.054047737
0000b0 c7 a9 a8 3e ca ec 2e 3e 50 bf 9a ba 11 36 28 39
       0.3294203 0.17082515 -0.0011806283 0.0001604187
0000c0 88 44 4c 3d bb fd 39 3d
       0.049870044 0.04540799

bn.bias f4 [50]
000000 4b 9d 43 32 58 1d e0 32 26 7a 00 33 e1 94 65 2f
       1.1386258e-08 2.6090376e-08 2.9913416e-08 2.0880321e-10
000010 55 ed ca b3 28 d8 76 32 9c d5 2a b1 c6 12 11 32
       -9.4495284e-08 1.4368233e-08 -2.4859679e-09 8.444379e-09
000020 09 c6 0d b4 71 8c fd af 4e 9e 4f b1 78 66 15 2f
       -1.3203693e-07 -4.6120222e-10 -3.021245e-09 1.3587875e-10
000030 7e 0c d0 33 24 3b 8b 33 c9 09 9b 33 c8 27 90 32
       9.688027e-08 6.4834495e-08 7.21953e-08 1.6781897e-08
000040 e8 03 88 31 82 1b f0 b2 d3 ca 9d b0 0b 1d 22 30
       3.958565e-09 -2.7952186e-08 -1.14809e-09 5.897653e-10
000050 04 4f 46 34 f8 7f b4 b3 8a e1 e2 b2 50 6d 61 33
       1.8468933e-07 -8.4051806e-08 -2.6412426e-08 5.2486314e-08
000060 55 0f 94 33 fa 3e c5 b2 cc 9f d4 31 34 17 85 30
       6.894576e-08 -2.2962457e-08 6.188179e-09 9.683618e-10
000070 b2 48 81 34 7f 6b 0c 33 70 90 7c ae 17 58 fa b1
       2.4081015e-07 3.2694057e-08 -5.7426452e-11 -7.2859723e-09
000080 b3 6f 7d 2f 45 ab 21 ad 3d 97 c5 b0 fc 9e 97 b2
       2.30499e-10 -9.18982e-12 -1.4376621e-09 -1.7651011e-08
000090 78 76 2a 33 8b 39 8e 33 fa 07 99 af 35 8a b3 b1
       3.9688956e-08 6.622857e-08 -2.7836206e-10 -5.225298e-09
0000a0 62 a1 c6 32 c0 50 72 33 0d 12 09 33 5e 43 59 33
       2.3123622e-08 5.6418457e-08 3.1914215e-08 5.058552e-08
0000b0 8b 1e a8 b3 9a a1 9f 33 b9 fe 0d 31 8e 00 0b 31
       -7.8286654e-08 7.4334096e-08 2.0662994e-09 2.0227477e-09
0000c0 d4 3f 6a 32 5a 14 21 b3
       1.36351055e-08 -3.7504243e-08

bn.running_mean f4 [50]
000000 6f fd b0 c0 33 cf fb be b4 c4 f8 40 16 53 ad bd
       -5.5309367 -0.49181518 7.7740116 -0.08463113
000010 6e 88 57 bc ed 8e 84 40 b4 c4 f8 40 16 53 ad bd
       -0.013155086 4.142447 7.7740116 -0.08463113
000020 b0 cd b1 c0 9b e4 fc be 8b ee ff 40 b1 f9 02 be
       -5.5563583 -0.49393162 7.997869 -0.12790562
000030 55 e4 56 3c 9d c5 84 40 8b ee ff 40 b1 f9 02 be
       0.013115962 4.1491227 7.997869 -0.12790562
000040 33 69 b1 c0 5e 60 fc be 17 f1 01 41 b9 25 0e be
       -5.5440917 -0.49292272 8.12136 -0.13881578
000050 09 82 8e 3c a5 9c 84 40 17 f1 01 41 b9 25 0e be
       0.01739599 4.1441216 8.12136 -0.13881578
000060 73 a3 ad c0 13 e9 f2 be b8 a0 ff 40 7a 23 1c be
       -5.4262023 -0.47443447 7.988369 -0.15247908
000070 6e 88 57 3c ed 8e 84 40 b8 a0 ff 40 7a 23 1c be
       0.013155086 4.142447 7.988369 -0.15247908
000080 26 ae af c0 6f c6 f4 be 72 32 f5 40 5d 48 0f be
       -5.4900084 -0.47807643 7.662408 -0.13992448
000090 55 e4 56 bc 9d c5 84 40 72 32 f5 40 5d 48 0f be
       -0.013115962 4.1491227 7.662408 -0.13992448
0000a0 be 35 b1 c0 96 21 f4 be b0 c8 fc 40 96 93 28 be
       -5.5378103 -0.47681874 7.899498 -0.1646255
0000b0 09 82 8e bc a5 9c 84 40 b0 c8 fc 40 96 93 28 be
       -0.01739599 4.1441216 7.899498 -0.1646255
0000c0 e8 bd 55 3c 2c b6 15 bd
       0.013045765 -0.036550686

bn.running_var f4 [50]
000000 ee 82 90 41 ae 76 85 3f b2 96 06 44 27 50 87 41
       18.06393 1.0426843 538.3546 16.914137
000010 e9 d4 dd 41 01 e5 14 40 b2 96 06 44 27 50 87 41
       27.72896 2.3264773 538.3546 16.914137
000020 5c 1e 8d 41 91 83 87 3f 85 18 06 44 3a be 86 41
       17.639824 1.0587026 536.3831 16.842884
000030 d8 0c e1 41 2a 32 18 40 85 18 06 44 3a be 86 41
       28.131271 2.3780618 536.3831 16.842884
000040 d9 6a 8c 41 8b 05 89 3f 76 97 07 44 ec 1f 86 41
       17.552172 1.0704817 542.3666 16.765587
000050 24 b5 e4 41 56 e3 1f 40 76 97 07 44 ec 1f 86 41
       28.588448 2.4982505 542.3666 16.765587
000060 2b bc 8f 41 ec cf 85 3f 70 60 07 44 d7 c3 87 41
       17.966879 1.0454078 541.50684 16.970625
000070 e9 d4 dd 41 01 e5 14 40 70 60 07 44 d7 c3 87 41
       27.72896 2.3264773 541.50684 16.970625
000080 f4 45 8f 41 dd a5 86 3f 8f a9 09 44 6f f2 8a 41
       17.909157 1.0519367 550.64935 17.368376
000090 d8 0c e1 41 2a 32 18 40 8f a9 09 44 6f f2 8a 41
       28.131271 2.3780618 550.64935 17.368376
0000a0 f8 a5 8d 41 55 74 86 3f 62 37 0b 44 95 2c 8c 41
       17.70604 1.0504252 556.86536 17.521769
0000b0 24 b5 e4 41 56 e3 1f 40 62 37 0b 44 95 2c 8c 41
       28.588448 2.4982505 556.86536 17.521769
0000c0 db 55 00 3f 37 67 cc 3e
       0.50131005 0.39922497

bn2.weight f4 [400]
000000 8c 17 8d 02 58 5f 8b 02 30 19 b1 02 ba f7 bc 3d
       2.0731603e-37 2.047894e-37 2.602227e-37 0.092269376
000010 37 f1 a8 02 59 eb a7 02 7c b3 aa 02 9a 6e 8d 02
       2.4823832e-37 2.4673528e-37 2.5082274e-37 2.078157e-37
000020 e2 88 2a 3e af 16 a1 02 29 b9 b6 02 06 07 91 02
       0.16653779 2.3669844e-37 2.6848773e-37 2.1309866e-37
000030 d6 a6 9a 02 20 29 03 3e 9f 9d b0 02 65 ce af 02
       2.2724025e-37 0.12808657 2.5951346e-37 2.5832404e-37
000040 bb 9c 9c 02 36 9d a2 02 03 4f a4 02 4d bf 5b 3e
       2.3012099e-37 2.3893995e-37 2.4142985e-37 0.21459694
000050 b2 a7 eb 3d 54 b2 99 02 29 0e 3a 3d ed c6 a4 02
       0.11506595 2.2583685e-37 0.04542366 2.4211812e-37
000060 75 9f 0f 3e 62 04 88 02 09 db 90 02 4e 8d 9a 02
       0.14025672 1.998592e-37 2.1284618e-37 2.2709371e-37
000070 f2 26 af 3d 16 5f a9 02 53 51 9d 02 ed a4 e7 3d
       0.0855235 2.4886895e-37 2.3115754e-37 0.11310754
000080 46 09 9a 02 3e 8c af 02 e5 86 a8 02 68 44 e7 3d
       2.263359e-37 2.5794434e-37 2.4762807e-37 0.11292344
000090 4d 1c 7d 02 5a 8c 52 3e c6 9e 96 02 cd 84 a2 02
       1.8595626e-37 0.20561352 2.213165e-37 2.3879985e-37
0000a0 35 37 36 3c c0 e4 63 02 3e 81 9d 02 38 26 98 02
       0.011121561 1.6742974e-37 2.3143258e-37 2.235633e-37
0000b0 44 4c 1f 3e d3 7c 96 19 78 8a b3 02 36 1b b7 02
       0.15556437 1.5560053e-23 2.6381163e-37 2.6905052e-37
0000c0 10 65 85 02 c4 ea 00 3d a4 6b 06 3e f3 55 30 3e
       1.96006e-37 0.03147389 0.13126999 0.17220287
0000d0 10 44 b5 02 1c c4 2f 3e c4 a8 9c 02 86 19 a5 3d
       2.6634626e-37 0.17164654 2.3019007e-37 0.08061509
0000e0 d6 39 73 16 79 7e ac 02 2e bb a1 02 21 32 41 39
       1.9647633e-25 2.534572e-37 2.376426e-37 0.00018424589
0000f0 70 ef f0 3d eb 55 05 3e 13 56 f3 3d 1c e9 94 02
       0.11764419 0.13021056 0.11881652 2.1880444e-37
000100 e4 6d 7d 02 d9 14 90 02 50 69 ac 02 56 0e 8b 02
       1.8619041e-37 2.1170864e-37 2.5333575e-37 2.0432443e-37
000110 c0 c0 83 02 d8 0d a7 02 27 8a a5 02 21 6d a3 02
       1.9359353e-37 2.454639e-37 2.4323867e-37 2.4013334e-37
000120 84 b1 3f 02 97 b4 37 3d 54 ca 27 3e 14 a7 82 02
       1.4083408e-37 0.04484996 0.16385776 1.9197681e-37
000130 ec 38 97 02 e6 26 a3 02 6e 92 9d 02 d1 a7 06 3d
       2.2220127e-37 2.3973024e-37 2.3153123e-37 0.032874886
000140 25 49 80 02 30 71 fe 3d 60 56 8d 02 50 c3 a6 02
       1.8849893e-37 0.124239326 2.0767665e-37 2.4503612e-37
000150 7a 40 94 02 b6 e9 79 02 4d 1f ab 02 02 48 aa 02
       2.1783653e-37 1.8360703e-37 2.5144158e-37 2.5020585e-37
000160 56 2b 9b 02 ed 72 9d 02 7d 53 70 02 9a 21 94 02
       2.2800077e-37 2.313504e-37 1.7656375e-37 2.1765932e-37
000170 ec d6 95 02 6f 4a 93 02 38 28 96 02 5a 51 ad 02
       2.2016941e-37 2.1642431e-37 2.2063604e-37 2.5466759e-37
000180 09 10 77 3d a2 8a e1 3d f0 b9 8b 02 5a a1 06 39
       0.060318027 0.1101277 2.0530937e-37 0.00012839344
000190 d9 26 95 02 92 5f 97 02 8d 67 a8 02 16 05 a5 02
       2.191588e-37 2.224231e-37 2.4744817e-37 2.424749e-37
0001a0 df fe 9c 02 70 26 b1 02 e1 dc 99 02 3e 62 9c 02
       2.3068429e-37 2.6029875e-37 2.2608108e-37 2.2978528e-37
0001b0 61 1b 9f 02 15 18 79 02 a8 a4 9c 02 db f3 86 02
       2.3378665e-37 1.8300542e-37 2.3016648e-37 1.9829497e-37
0001c0 6a a4 41 02 84 5c a7 02 58 8c a9 02 56 97 84 3d
       1.4226585e-37 2.4591546e-37 2.4912872e-37 0.064741775
0001d0 01 64 9c 02 75 59 73 26 5b 8c 9c 02 e6 96 a5 02
       2.297954e-37 8.44288e-16 2.30027e-37 2.4331182e-37
0001e0 d6 f3 85 02 8a f5 2d 3e 22 d5 51 3d 09 3e 82 02
       1.9682549e-37 0.16988197 0.05122865 1.913739e-37
0001f0 87 c1 ae 02 c7 de b9 3d 82 65 aa 02 0d 68 aa 02
       2.5678081e-37 0.090756945 2.5037518e-37 2.5038977e-37
000200 f5 24 aa 02 da 11 78 02 0d 25 9f 02 c4 b3 9b 02
       2.5000467e-37 1.8225286e-37 2.3384216e-37 2.2878383e-37
000210 66 ea aa 02 dd 18 96 02 c6 4c 9b 02 d1 1d b0 3d
       2.5113793e-37 2.205479e-37 2.2819269e-37 0.08599437
000220 51 12 66 02 48 8e 92 02 5e 6f cd 3d c8 98 ef 3d
       1.6902988e-37 2.1534437e-37 0.10031007 0.116990626
000230 17 65 7b 02 37 02 72 02 a1 40 a7 02 c6 d9 a1 02
       1.8469579e-37 1.7779988e-37 2.457554e-37 2.378182e-37
000240 69 22 99 02 43 59 a0 02 03 7f 99 33 48 61 a8 02
       2.250108e-37 2.356112e-37 7.147721e-08 2.4741218e-37
000250 dc 7e ab 02 08 ca ac 02 dc 06 a6 02 5e 73 b4 02
       2.5199005e-37 2.5389089e-37 2.4395445e-37 2.651484e-37
000260 35 db a0 02 78 7f a5 02 12 f0 9f 02 96 a6 ab 02
       2.3635706e-37 2.4317734e-37 2.3500744e-37 2.5221807e-37
000270 e2 84 a9 02 f5 d1 03 3e 34 e9 a8 02 aa e6 ad 02
       2.490859e-37 0.12873061 2.4819233e-37 2.555246e-37
000280 78 3e a8 02 2f 56 c5 3d 83 67 8c 02 72 5e 97 02
       2.4721237e-37 0.09635579 2.0630564e-37 2.2241665e-37
000290 07 79 a7 02 da b5 a4 02 7d 65 90 02 d3 dd 61 3e
       2.460791e-37 2.4202012e-37 2.121715e-37 0.22057275
0002a0 cd dc 84 02 28 bc a4 02 11 77 a0 02 9c 5d 11 3e
       1.952239e-37 2.420563e-37 2.3578228e-37 0.14195865
0002b0 7c 9b 74 02 7a 78 a6 02 0d 10 52 3e 51 fd 7c 3d
       1.7970911e-37 2.4460658e-37 0.20513935 0.06176502
0002c0 d9 74 9c 02 9d 37 91 3d 2d b2 9d 02 b0 56 9a 02
       2.2989207e-37 0.070906855 2.3171345e-37 2.2678022e-37
0002d0 6e e7 a2 02 2c 98 97 02 b7 d5 87 02 bf eb 9e 02
       2.3936595e-37 2.2274798e-37 1.9959133e-37 2.3351325e-37
0002e0 68 ac 9c 02 7a 39 8b 3d e0 0e a0 02 32 91 84 02
       2.3021096e-37 0.06798072 2.3518425e-37 1.9478995e-37
0002f0 a6 0c b2 02 61 b7 88 02 1a 0a ae 02 9d 37 bf 3d
       2.616201e-37 2.0088658e-37 2.55728e-37 0.09336779
000300 10 3c bc 03 e4 1c a3 02 3f 42 a1 02 25 c6 85 02
       1.1063437e-36 2.396728e-37 2.3694847e-37 1.9656323e-37
000310 6a 30 a6 02 37 82 6c 3d 63 80 41 3d 95 47 f8 3d
       2.4419296e-37 0.05774137 0.04724158 0.12123028
000320 f0 a5 0b 3e 2c 50 00 3e ac 00 42 3b ce 1e ab 02
       0.13637519 0.12530583 0.0029602451 2.5143873e-37
000330 b3 ad 53 02 26 d8 b7 02 42 23 92 02 62 9e 9b 02
       1.5551681e-37 2.7013496e-37 2.147301e-37 2.286611e-37
000340 2b 85 81 02 d2 29 9d 02 19 df a0 02 54 8b 93 33
       1.903128e-37 2.309308e-37 2.3637939e-37 6.8705646e-08
000350 e9 41 8e 02 14 ab 8b 02 93 0d 9a 02 2e 4e af 3d
       2.0902855e-37 2.0522408e-37 2.2636057e-37 0.085598335
000360 0e 6d a2 02 4e 61 aa 02 a1 95 ac 02 cb 13 a3 02
       2.3866355e-37 2.5035105e-37 2.5359011e-37 2.3962058e-37
000370 72 96 a8 02 fa 11 ae 02 3b 96 81 02 62 2b fa 3d
       2.4771733e-37 2.557732e-37 1.9041074e-37 0.12215306
000380 45 aa b5 02 9e cb 02 3e 8c ff 97 02 36 4a a8 02
       2.669329e-37 0.12772986 2.2334133e-37 2.4727976e-37
000390 72 8c 91 02 14 d5 a9 02 8a 44 af 02 eb cf a2 02
       2.1386447e-37 2.495462e-37 2.5753278e-37 2.39231e-37
0003a0 41 f5 8c 3d 86 12 a7 02 58 b5 98 02 34 a3 53 3e
       0.06882716 2.4549077e-37 2.2438479e-37 0.20667726
0003b0 c0 4f 93 02 0d b8 7d 02 84 dc b1 02 4a 1e 9f 02
       2.1645483e-37 1.8640324e-37 2.6134382e-37 2.3380335e-37
0003c0 9b a8 ae 02 12 79 97 02 64 bd 98 02 cc 9b 9e 02
       2.5663777e-37 2.2256947e-37 2.2443098e-37 2.3305436e-37
0003d0 ff c0 a1 02 9c 64 a1 02 f4 6d a9 02 46 cd 94 02
       2.3767598e-37 2.371457e-37 2.4895428e-37 2.1864467e-37
0003e0 94 bc 94 02 c3 70 e7 3d 69 fd a7 02 9c 4d 89 02
       2.1854884e-37 0.113008045 2.4683895e-37 2.0174886e-37
0003f0 6e 8b ac 02 80 c3 1e 3a 8b d7 ae 02 ea a9 89 02
       2.5353157e-37 0.00060563534 2.5690718e-37 2.0227867e-37
