tasks/tennis/solutions/maddpg/solution_checkpoint/TennisBrain_agent_0_independent_madtd3_actor_checkpoint.pth (torch_old, 538648 bytes, 18 tensors)

mlp_layers.0.weight f4 [24]
00000000: 9bd4 ed3e 0b4a af3e 82e4 403e 263e 173e
00000010: d250 c43f a35c 963f 6e2e 293e cfb5 763e
00000020: f6d8 133e 476e 9c3e 8545 793e c136 163e
00000030: c707 4a3b 0f8f d13e 5768 603e fb82 8b3e
00000040: d21b 6d3f 3658 df3e dca3 a03e 1b6f b43e
00000050: edfd f03f e3fe ca3f 9176 9b3e 8989 923e
0.46451268 0.34236178 0.18837169 0.14769801 1.5337164 1.174702 0.16521618 0.24092792
0.14438233 0.30552885 0.24342926 0.14669324 0.003082739 0.40929458 0.21914802 0.27248368
0.92620575 0.43621987 0.31375015 0.35241017 1.8827492 1.5859035 0.30363896 0.28620556

mlp_layers.0.bias f4 [24]
00000000: 8425 1bba 4663 a939 0c44 143a 5eac efb9
00000010: 786a 133a edec 85ba fe51 0cb9 2e78 14ba
00000020: 5b15 043a 7873 aa39 9b22 9d38 3736 2eb9
00000030: d1cc 1fba f022 a4b9 3783 a6b8 475d e7b9
00000040: 76f6 c7b9 f9bd 003a 2237 4e39 421e aa39
00000050: 0a26 043b bb7f 2d3b 5802 d5b9 fec2 643a
-0.0005918371 0.00032308156 0.0005655892 -0.00045714056 0.000562347 -0.0010217704 -0.00013381985 -0.000566366
0.00050385826 0.00032510958 7.492789e-05 -0.0001661413 -0.00060958887 -0.00031306548 -7.9399375e-05 -0.0004412925
-0.00038139866 0.00049111206 0.0001966623 0.0003244747 0.0020164275 0.0026473838 -0.00040628272 0.0008726566

mlp_layers.0.running_mean f4 [24]
00000000: 98b6 cac0 ff4a a4be 595e d940 da30 6f3d
00000010: 2bd5 cbbc e5a8 6240 595e d940 da30 6f3d
00000020: 272a ccc0 d7d9 a4be ed57 e740 8d1e fa3c
00000030: 3604 e0bc 7157 5c40 ed57 e740 8d1e fa3c
00000040: a5aa ccc0 d5ff a5be accf f540 a4be d73c
00000050: a890 34bd f491 5440 accf f540 a4be d73c
-6.3347893 -0.32088467 6.792767 0.058396198 -0.02488192 3.5415585 6.792767 0.058396198
-6.3801455 -0.3219745 7.229483 0.030532146 -0.027345758 3.442837 7.229483 0.030532146
-6.3958306 -0.32421747 7.6816006 0.026336022 -0.044083267 3.3214083 7.6816006 0.026336022

mlp_layers.0.running_var f4 [24]
00000000: c355 9a41 f07c 6e3f bfd6 e843 4025 7041
00000010: b61f 0442 2aac 2f40 bfd6 e843 4025 7041
00000020: 1b71 9941 c413 6f3f 9d6f e943 a190 7641
00000030: f9ff 0e42 edd2 4240 9d6f e943 a190 7641
00000040: 73d4 9641 01d4 6f3f e51c ed43 015c 7b41
00000050: c239 1b42 23b8 6240 e51c ed43 015c 7b41
19.291876 0.9315939 465.6777 15.009094 33.030968 2.744883 465.6777 15.009094
19.180227 0.93389535 466.87198 15.41031 35.749973 3.044124 466.87198 15.41031
18.853735 0.9368287 474.22574 15.709962 38.806404 3.5424888 474.22574 15.709962

mlp_layers.1.weight f4 [400, 24]
00000000: d8fe 47bf 08d2 483e 095c 1c3f 0c6a 9dbe
00000010: f82e 4bbf d5a0 8e3e c56a 163f 78bc a9be
00000020: 5f5b d9be 2bc7 4c3d 04f5 2e3e e118 33bd
00000030: a8c9 aebe 9406 acbd 7167 393e c8c2 1abd
00000040: 89f1 53be 46a3 1cbd 23de b83e 1f54 463d
00000050: 2118 973e cd2e a23c 8b1d 8e3e 5b99 713d
00000060: 8ddc 813e a2a5 d4b9 d976 a53e 5c65 e6be
00000070: e42c a73e c2bd 34bd 65b2 aa3e 6b0e d8be
00000080: 45c8 ad3d b040 8cbe 7076 043c 80cf f8be
00000090: 5b7e 58bb 914c d53e 8242 b43c 3953 00bf
000000a0: f334 16be f1f8 a13c aa9b 4abf 5195 42be
000000b0: b88f 84bd 1592 ad3e 7e6e 3abf a36a d8bd
000000c0: b961 7cbe 02ae db3d e56c 413c 316b 373d
000000d0: faae 1ebd fe95 cc3d 03e1 b83c dcef c83c
000000e0: 449f cabe 1061 00be 988b 4fbe 902b 30be
000000f0: 0b5d 903e e45f 853e 0177 0fbe 7a13 32be
00000100: 9f1f 02bf 457a 56be 42ac 33be 9221 fbbd
00000110: e727 983f 3082 213e 80c9 3bbe 03f3 b4bd
00000120: e61e 4ebe 36b5 70be 8ff0 af3c 5f2b 5c3e
00000130: cbd5 99be b637 67bd 4493 023d 371f 493e
00000140: d5ec 343e 05a2 69be 5338 25be 557c e9be
00000150: 9f2e 61be 4efe a9be b9ab 64be 352d dfbe
00000160: 3e2b 41bd 257c d3be 8b6f 24bf 769c 76be
00000170: b134 04bf 064d b63e beef 2abf 3662 92be
00000180: d2c1 f33c 7012 1d39 a5a9 c63c 5589 58be
00000190: 08b2 543e c0f9 52be ed45 6a3d 1720 71be
000001a0: bb19 77be 874b 323d 4ca3 41bf 243e 843e
000001b0: aac4 673e 5731 cf3e e3f1 3ebf c802 663e
000001c0: 28bf 043e 0f66 b23d aea0 0c3f eef8 9bbe
000001d0: 0cc0 a43c 36ed d63e b590 153f f740 9dbe
000001e0: 64a8 eb3d 40da b63e e095 e03d b31d 79be
000001f0: 2b12 c43e a306 e03d 80af c13d 8618 7dbe
00000200: 158b c33e 903e ab3e 101d b23e b16d 823d
00000210: 97d7 6bbe 36a8 92be 3daa bb3e b515 163e
00000220: 8ba2 143e 7382 583e 5aff c23d 87a9 73bd
00000230: d041 b7bf 9e44 babd c00f cb3d add3 f5bd
00000240: 1bc0 953c 2ef0 0b3f 4cc4 4cbe d424 633e
00000250: b3eb 12be f227 17be 9646 7bbe 499a 873e
00000260: 9e88 83bd aa26 013f 3621 1c3e 6c20 623e
00000270: 8d98 463d 5081 23bf b097 003e 1faa 6f3e
00000280: 6145 3dbe 27c4 113f 0718 ae3e 5042 8bbe
00000290: 324a 43bd fda3 7cbf 1734 973e f547 aabe
000002a0: 2d83 873e 4e43 b73e b23e 4cbd 5545 4d3e
000002b0: 0189 743c fcaa 03be b2d4 87bd 36e1 553e
000002c0: 77f2 493e c203 0d3f e5e0 e3bd 1114 373e
000002d0: 17cf 9c3d a6e7 33bf ef13 a1bd 1f44 6a3e
000002e0: 837e 97be 3ebe 273f a9a0 cbbe 8700 c2bd
000002f0: cc10 183e 7586 80bf ab77 c0be 5039 22be
00000300: eefe 83bd afb4 c23d eb4e 25be 2c42 dabc
00000310: efed 073f 8f27 a83d c927 05be 8e58 f2bc
00000320: 3b9a 3b3e 1528 073e 8b52 88bd b1bd 5b3c
00000330: 51b6 d53b 4f7a a9bc 977b 853c 42f5 443d
00000340: 6974 023f e735 483e 1f84 523d f33c 6fbd
00000350: 84f9 7fbf 2155 90bd ab8b 283d 3d2b bcbd
00000360: dbc5 2abe 4a3f 343e aec7 e7be 4829 1b3f
00000370: 938d 17bf e4c0 1ebe e7b6 d1be 802f 2d3f
00000380: 0071 dfbd 065e ca3e ffcf 79be 8cfe 163e
00000390: b218 e1bd 7c71 95bd 2c88 83be 0b2c ea3d
000003a0: de53 c53e 625c 9b3d 23c9 953e 3b9d 05bf
000003b0: fc50 2b3f 4316 993d c2a8 983e 3756 f2be
000003c0: fbb4 fbbe d0d0 5cbe 5f18 a93d b8a1 27bf
000003d0: 131c 4fbd 4c29 963d 5bc5 163e 6c1e 36bf
000003e0: c2ac aabe b63b 99be 73b7 213e 6273 7fbe
000003f0: 5cc8 483d 9594 5fbc ac66 333e cadb 6cbe
-0.78123236 0.1961137 0.61077935 -0.3074497 -0.79368544 0.2785708 0.5875667 -0.33151603
-0.42452523 0.04999463 0.17085654 -0.0437249 -0.34138227 -0.08399692 0.18105866 -0.037783414
-0.20697607 -0.038241647 0.36106977 0.048420068 0.29510596 0.019797707 0.27756914 0.05898414
0.2536358 -0.00040559197 0.32317236 -0.44999206 0.32651436 -0.04412628 0.3333923 -0.421985
0.08485464 -0.27393103 0.008084878 -0.4859581 -0.0033034298 0.41659978 0.02200437 -0.5012699
-0.14668636 0.019772025 -0.79143775 -0.19002272 -0.06472725 0.33900514 -0.7282485 -0.10567214
-0.24646653 0.10726549 0.011805748 0.04477996 -0.03874109 0.09989546 0.022568231 0.024528436
-0.39574635 -0.12537026 -0.20268095 -0.17204118 0.28195986 0.2604972 -0.1401024 -0.17390242
-0.508295 -0.2094508 -0.1754618 -0.122622624 1.1887177 0.15772319 -0.18338585 -0.08835413
-0.20128974 -0.23506626 0.021477012 0.2150092 -0.30045924 -0.056449614 0.031878725 0.19640814
0.17668469 -0.22815712 -0.16134767 -0.4560267 -0.21990441 -0.33201832 -0.22331132 -0.43589178
-0.04716038 -0.41305652 -0.642327 -0.24083123 -0.516429 0.3560564 -0.6677207 -0.28590554
0.029755507 0.00014979555 0.024250815 -0.21146138 0.20771039 -0.20603085 0.057195593 -0.23547398
-0.24130909 0.04352906 -0.75639796 0.2582866 0.22633615 0.4046733 -0.7458784 0.22461998
0.12963545 0.087108724 0.5493268 -0.30463356 0.020111106 0.41977853 0.5842393 -0.30713627
0.11506727 0.35713387 0.109660864 -0.24327736 0.3829511 0.10938766 0.09457302 -0.24716386
0.3819205 0.3344617 0.34787798 0.06368578 -0.2303146 -0.2864396 0.3665332 0.14656718
0.1451513 0.21143512 0.09521361 -0.059487846 -1.4316959 -0.09095119 0.099151134 -0.120032646
0.01828008 0.5466336 -0.19996756 0.22182018 -0.14347725 -0.14761332 -0.24538645 0.26484898
-0.06422542 0.5044962 0.15247044 0.2208268 0.048485328 -0.6386919 0.12557864 0.2340474
-0.18483497 0.5693993 0.34002706 -0.2719903 -0.04767818 -0.98687726 0.2953193 -0.33258024
0.26467267 0.35793537 -0.04986448 0.2004598 0.014925242 -0.12858194 -0.06632365 0.20886692
0.19721399 0.5508386 -0.111268796 0.17878748 0.07656687 -0.7027534 -0.0786513 0.22877549
-0.29588708 0.6552466 -0.3977101 -0.09472757 0.14850157 -1.0041033 -0.375913 -0.15842175
-0.06445108 0.09507119 -0.16143386 -0.026642881 0.5309743 0.0821067 -0.13003458 -0.029583242
0.18320553 0.13198884 -0.06656369 0.013411925 0.006521978 -0.020688204 0.016294284 0.04808546
0.5095888 0.19551812 0.05139553 -0.058407735 -0.99990106 -0.07047487 0.041148823 -0.091879345
-0.16677038 0.17602268 -0.4526953 0.60609865 -0.592004 -0.1550327 -0.40959856 0.67650604
-0.10910225 0.3952486 -0.2439575 0.1474554 -0.109910384 -0.07297036 -0.25689828 0.11434182
0.38540548 0.0758598 0.29255018 -0.5219304 0.6692045 0.07474949 0.29816252 -0.47331402
-0.49161515 -0.2156403 0.082566015 -0.6548114 -0.050563883 0.073320955 0.14723723 -0.7114017
-0.3333493 -0.29928368 0.15792637 -0.24946359 0.049019203 -0.013646265 0.17519635 -0.23130718

mlp_layers.1.bias f4 [400]
00000000: 2723 eebd b0f9 31be 9a00 083c 49df f2bc
00000010: c70a c1bc e863 b2bd 05f6 1dbe db3c f43d
00000020: d704 673c 6f04 07bd 8165 2b3e 4185 c13b
00000030: 1267 913d cae9 373e 1b30 b43d a7aa 81bb
00000040: 695e c73d 086f c03d 0d90 313d 1745 4cbe
00000050: 7ad1 ce3d d21a e8bd cb5d b43d a82a 02bd
00000060: 4a74 9e3d 38f0 2d3d 81a3 acbd 562e fc3d
00000070: 2b25 17be 4b67 28be e849 423d 57d9 383e
00000080: 184d 9dbc c7e9 273e c2d3 8fbd 3ff3 9b3d
00000090: bcb2 d0bd 32fb d03b be76 babd 6a2d f8bd
000000a0: 6a95 fbbd 1c6a c33d 45ff 09be ce74 aebc
000000b0: 26f3 e13d 1d02 333e 4662 023c 3d30 3bbe
000000c0: 2d3d 113e 49e4 293e f9b9 e93d 6347 cabd
000000d0: 96d6 9fbd bebf e13d 761b 14bd 5fbb 36be
000000e0: 2b83 25bb 297c 5fbc 747f 223b e3e9 87ba
000000f0: 3586 4ebe 878b 4ebe 4597 d0bd ee5b 0ebe
00000100: c15b b0bd 4430 3bbe 5727 d93c f2fb eebd
00000110: 19af 0cbe 5356 9abd c5bd be3d 2f58 163e
00000120: 2ecd 873c efc6 4a3e d144 c7bd 39c6 883d
00000130: c8ae df3d b5e3 3a3d be6e c53d 0b3d ddbb
00000140: 8078 ebbc 682e 773d 8f97 3c3e 3f9b 313d
00000150: ddd4 18bd 3b7a 9fbc df76 12be ac0a 8abd
00000160: 7c41 49be 2503 68bd 39d7 d33d d7a8 403e
00000170: bc25 303c b4ba 0c3d 2e5a 1fbc 07fb 38be
00000180: dcc5 283e 7f65 623b bc11 0cbe 5665 9ebd
00000190: 0f9c 46bd 5c5f 2d3b d614 e63c 2f21 2fbb
000001a0: e5df 343e f25d 20be c2f0 36be 9dd4 42be
000001b0: 5c4e 2c3d a43b 253e 4b62 303e b90d 253c
000001c0: 6784 4d3a 91d9 f63d 9cd2 d33d be22 1abe
000001d0: 8f13 71bd 4fb8 41be 6bf6 453e 2095 083e
000001e0: 2c26 90bd 2d2b 0ebd bf02 b43b 89a7 283e
000001f0: ac38 f63d 5d0f 28be 5b36 2fbd 609a 853d
00000200: 4479 333e 7673 8dbd aee1 cf3d ffef 993c
00000210: 15eb abbd 7ecb 893d 880e f43c 281b e2bd
00000220: 383b 833c f961 2c3c 4bc1 f8bc 9e02 4b3d
00000230: 02ac c6bd 8e89 b4bd e40b 5fbd 2268 8c3d
00000240: 5a6d 6fbc 9a20 45be cc6a 34bd ad67 ec3b
00000250: db44 f3bd 0e0f 42bd 6de5 453d f3b9 213e
00000260: 031a ee3d 1b59 babd 0cb0 13be 9fbd bf3d
00000270: b0da 933c 7ca9 c8bd 9814 c63d 0e27 38be
00000280: 6d04 b03d ef97 583d 4375 393e 582e 40bd
00000290: ab7e 08be 8b1b 4f3e 321a 30bd 482d 4dbe
000002a0: 0481 99bd 3704 273e 03d7 0bbe b5cd 363d
000002b0: 4bec 4dbe eed4 7bbd eb37 a2bd c20d 77bd
000002c0: 3073 d5bd 62cc 17be ffce 823d db47 be3d
000002d0: 5abd 103d 0fda 6f3d f1a9 04be ea8e aa3d
000002e0: c92b 5d3d 9803 223e 1f9f d43d d5d0 503e
000002f0: b141 bb3d 62d9 34be f804 f73d 5989 eebc
00000300: 06e4 373c 8314 b33d c03c 163c d967 85bd
00000310: 6525 723d 2a98 a33d 9c07 a13d dfcf acbd
00000320: 5692 07be 88c2 2dbe c295 24be 77da 65bd
00000330: 09d2 d4bd 9356 253e 4e7a a8bd 428e b3bd
00000340: 6103 08be b9a9 eabd db66 f03d 70cd 2f3e
00000350: 575c 1f3e 1602 12be 7467 8dbd cdb5 34be
00000360: c621 d93d b1fb 343e ee4e 2ebe 5bf5 173e
00000370: d424 ccbd cf7e 4cbe 0bcf 823d ddda 3fbe
00000380: a0ef dfbd 75ad 4b3e bbd7 33be e6d5 05be
00000390: 3ba0 6dbd c76b 243e 5fb9 0b3e 0839 103e
000003a0: 7be1 d3bd 649b d1bd c4d5 f13d 4104 3b3e
000003b0: b596 183e 0e82 9d3d a027 62bd 8cc0 343d
000003c0: 57b5 20be e0ef ecbc 1ac7 4f3e 377c 753c
000003d0: 98a8 213e f55b 0b3e 0592 4f3e 241c e13d
000003e0: 2bbe 42be 5929 b4bd e65c b4ba 3e32 363e
000003f0: 6648 ec3c c9fc 543d 8ade ce3c 8c0a cfbd
-0.116277985 -0.17380404 0.008300925 -0.029647486 -0.02356471 -0.08710462 -0.1542588 0.1192567
0.014100275 -0.032963213 0.1673794 0.0059057777 0.07099737 0.17960277 0.08798238 -0.003957111
0.09734804 0.093961775 0.04335027 -0.1994823 0.10098548 -0.113332406 0.08806952 -0.03177896
0.07737024 0.04246542 -0.084296234 0.123135254 -0.14760272 -0.16445653 0.047433764 0.18051659
-0.0192018 0.16397773 -0.070228115 0.07614755 -0.10190341 0.006377601 -0.091046795 -0.12118037
-0.12284358 0.09541723 -0.13476284 -0.021295931 0.11032705 0.17481275 0.0079580005 -0.1828012
0.14183493 0.1659099 0.114124246 -0.09876897 -0.07804601 0.110229 -0.036159 -0.17844914
-0.0025255184 -0.013640442 0.0024795206 -0.0010369386 -0.20168383 -0.20170413 -0.101851024 -0.13902256
-0.08611251 -0.1828013 0.026508017 -0.116691485 -0.1373867 -0.07535996 0.093135394 0.14682077
0.01657733 0.1980245 -0.097299226 0.06678433 0.10922009 0.045627315 0.09640263 -0.0067516617
-0.028743982 0.06034699 0.1841719 0.043360945 -0.037312377 -0.019467464 -0.14303158 -0.06740317
-0.19653887 -0.056643624 0.10343785 0.18814407 0.010751184 0.03435774 -0.00972609 -0.1806451
0.16481727 0.003454536 -0.1367864 -0.07734172 -0.048488673 0.0026454544 0.028086107 -0.002672266
0.17663534 -0.15660837 -0.1786528 -0.19026418 0.042066917 0.16136032 0.17224996 0.0100740725
0.0007839859 0.12053216 0.10342905 -0.15052316 -0.058856543 -0.18917964 0.19332282 0.13338137
-0.07038531 -0.034709144 0.0054934914 0.1647016 0.12022528 -0.1641211 -0.042776447 0.06523585
0.17526728 -0.06906788 0.10150467 0.018791197 -0.08394448 0.06728266 0.029792085 -0.11040336
0.016019449 0.010521405 -0.030365607 0.049563043 -0.09700777 -0.08815299 -0.0544547 0.06855799
-0.014613474 -0.19250718 -0.044047162 0.0072145076 -0.118783675 -0.04737764 0.0483145 0.1579359
0.11626055 -0.09099027 -0.14422625 0.09362339 0.018048614 -0.097979516 0.09671897 -0.17983648
0.08594594 0.05287927 0.18111138 -0.046919197 -0.1332957 0.2022535 -0.04299373 -0.20036805
-0.07495311 0.16310202 -0.13656239 0.04462977 -0.2010967 -0.061482362 -0.07920822 -0.060315855
-0.10422361 -0.1482406 0.063871376 0.09291049 0.03533683 0.058557566 -0.12955453 0.0832804
0.053996835 0.15821683 0.103819124 0.20392163 0.09143389 -0.1766105 0.120614946 -0.029118227
0.011223799 0.08744147 0.009169757 -0.06513948 0.059117693 0.07988007 0.078627795 -0.08438086
-0.13239416 -0.16968739 -0.16072753 -0.056116547 -0.103916235 0.16146307 -0.08226453 -0.08767368
-0.13282539 -0.11458153 0.11738368 0.17168212 0.15562569 -0.14258608 -0.06904498 -0.17647476
0.10602145 0.17674138 -0.17022297 0.1483969 -0.09967962 -0.19970249 0.063871466 -0.18735833
-0.10934377 0.19890387 -0.17562763 -0.13069877 -0.058014136 0.16056739 0.13644932 0.14084256
-0.10345741 -0.102347165 0.11808351 0.18263341 0.1490124 0.076908216 -0.05521357 0.04412894
-0.15694176 -0.028922975 0.20290795 0.014983228 0.1578697 0.13609298 0.20270546 0.109916955
-0.19017856 -0.08796949 -0.0013760596 0.17792603 0.028843116 0.051998887 0.0252526 -0.101094335

mlp_layers.2.weight f4 [400]
00000000: 50f4 193f 8117 303f 68bd 4b3f 2eaf 403f
00000010: 1df6 113f 91db 403f e0bc 003f 613d e13e
00000020: 0b32 2c3f 7569 243f 6400 263f 9b70 453f
00000030: 66b1 213f 3639 223f 4b78 113f b037 2a3f
00000040: 0dc9 353f 6edd 373f a667 f83e e712 2b3f
00000050: 10b5 4b3f 4118 523f e89f 403f 7589 243f
00000060: 43a1 083f 333b 0f3f 4d82 263f 2b0a 223f
00000070: e201 453f 9fb3 433f a828 173f f0e5 1f3f
00000080: 9dd0 5c3f f645 3c3f c44a 303f a06a 133f
00000090: 963b 373f f049 f53e afd1 403f c9ab 523f
000000a0: 367f 8c3e 0dd9 0f3f 0200 2c3f 75eb 543f
000000b0: f31a 0e3f 2cd6 293f bd65 453f b2ab 1b3f
000000c0: fc4a 2c3f 9ae6 313f 2c3c 253f aceb 233f
000000d0: 2307 1b3f 4a79 0e3f 9bfa 393f fb04 373f
000000e0: 3697 213f 7fc0 243f ab99 4d3f 84aa 343f
000000f0: 29d1 2c3f 6182 3d3f 4ceb 2c3f b469 1d3f
00000100: 98e2 083f 9218 393f 7789 5f3f 2e9a 763f
00000110: c8c2 0e3f 22c7 e93e f099 333f 2abf 2c3f
00000120: fae3 223f 1673 313f 7798 1f3f 76c3 203f
00000130: dd2f c13e a7a2 463f 48f8 403f 79b0 3b3f
00000140: 5cad 303f a9af 093f cfc7 2f3f ab69 673f
00000150: 435d 293f 96e1 2d3f aa03 1c3f f2e5 593f
00000160: 8fb7 1f3f 080c 2f3f 0e09 343f 2ae1 093f
00000170: 6af2 273f faac 153f 9d57 103f 8d85 c83e
00000180: 3e43 293f d5b2 473f 9fd5 273f d80e 403f
00000190: c08d 263f 9f83 3a3f efcc 1f3f 2734 263f
000001a0: ef43 0d3f c647 223f 75c6 253f e64b 0b3f
000001b0: a2b5 ec3e 812c 413f cc52 4a3f ac9f 583f
000001c0: 1487 323f aa6d 253f 7e10 1e3f 2d9f 413f
000001d0: 2480 273f be21 0a3f fb29 283f 4f15 3f3f
000001e0: 58d1 263f 9dcd 1b3f 002b 1c3f 9a59 343f
000001f0: f70b 5e3f 8db8 2c3f 86cc 0f3f 65e5 1a3f
00000200: 3c48 093f 2951 263f 29a5 363f b400 283f
00000210: 61b7 133f bd55 2f3f bdcf 2e3f fc05 2a3f
00000220: c039 3c3f 68ab 2d3f 25b2 253f 3821 ed3e
00000230: 1f49 313f 0177 1c3f 1211 2e3f bc88 2e3f
00000240: b5dc 1a3f 57cc 2a3f 5529 263f e4bd 103f
00000250: ede7 2d3f 5cfd 383f 946d 2d3f 6901 383f
00000260: cedb 073f 5cb2 373f c79e 423f d280 503f
00000270: 26de 203f 9598 6f3f a145 433f 362d 3b3f
00000280: d7c1 d03e 1e9d 173f 4b99 3b3f d584 473f
00000290: c948 3f3f e9fa 2c3f 52a1 213f 32ef 2f3f
000002a0: 551c 233f 92cd 4f3f c866 463f eba9 493f
000002b0: ec74 173f ea27 013f 0c2f 353f 751c 2c3f
000002c0: 7fc5 2d3f dd0e 143f d532 223f 3cbd 253f
000002d0: d01f 3a3f e68e 1d3f fb40 4f3f 046e 343f
000002e0: da68 3b3f 4578 0d3f eed2 283f f163 0f3f
000002f0: 1636 163f 46b7 173f 3ee4 313f 6aa9 303f
00000300: ad9f 2a3f 9a26 323f fef9 693f 9e45 0a3f
00000310: b99e 173f b457 503f 4585 483f 1057 2d3f
00000320: a637 303f 5c21 273f 5a98 343f 84cb 393f
00000330: 65bf 2a3f b96a 1f3f 033b 033f 42f6 3b3f
00000340: c962 3d3f b277 783f f81d 263f 2f12 203f
00000350: e0e6 213f 3a82 533f a324 433f 6483 433f
00000360: 0594 073f 1cfa 3a3f 9803 543f 840d 373f
00000370: dd5d 1f3f 00c9 0a3f c60d 463f 1625 1a3f
00000380: 3539 0c3f 1e7d 423f 006d 443f 3f7a 1d3f
00000390: 9f10 323f 3f23 1a3f eb03 263f b323 283f
000003a0: b46a 073f 3e59 453f c51a 313f 18ac 193f
000003b0: 3126 4d3f d4df 073f c29c 343f 82b0 083f
000003c0: e398 223f 4487 2d3f e9c3 5a3f 2866 2e3f
000003d0: 3963 1f3f 23b5 003f c540 3b3f 94bd 4a3f
000003e0: 3e28 5c3f a52c 353f c220 4a3f dbd0 553f
000003f0: f647 353f b7bf 173f 0982 1a3f 9553 fc3e
0.60138416 0.68785864 0.79585886 0.75267303 0.57016164 0.7533503 0.502882 0.4399214
0.6726386 0.64223415 0.64844346 0.7712495 0.63161314 0.63368547 0.5682418 0.6649122
0.71009904 0.7182225 0.48516577 0.6682572 0.79573154 0.8206826 0.75244 0.6427224
0.53371066 0.55949706 0.65042573 0.63296765 0.76956 0.76445955 0.5904641 0.6246023
0.8625582 0.7354425 0.68864083 0.5758457 0.71575296 0.47907972 0.7531995 0.82293373
0.27440804 0.5619057 0.6718751 0.8317178 0.5550987 0.66342425 0.77108365 0.6080886
0.6730192 0.69492495 0.6454494 0.6403148 0.60557765 0.5565382 0.7264802 0.71491975
0.63121355 0.64356226 0.80312604 0.70572686 0.67506653 0.7402707 0.67546535 0.61489415
0.53470755 0.72303116 0.8731913 0.9632901 0.5576596 0.4565974 0.70156765 0.67479193
0.63629115 0.6931623 0.6234202 0.6279825 0.3773183 0.7759194 0.7537885 0.7331615
0.69014525 0.5378366 0.6866426 0.9039561 0.6615793 0.6792234 0.6094309 0.85116494
0.62389463 0.68377733 0.70326316 0.538592 0.6560427 0.58467066 0.5638369 0.3916439
0.6611823 0.7800725 0.65560335 0.7502265 0.65060043 0.7285709 0.6242208 0.6492333
0.55181783 0.6339077 0.64755946 0.54412687 0.46232325 0.7545853 0.7903259 0.8461864
0.6973736 0.6462046 0.61743915 0.7563351 0.654299 0.53957736 0.6568906 0.7464189
0.65163183 0.60860616 0.6100311 0.7044922 0.86737007 0.674691 0.56171453 0.6050628
0.53625846 0.6496759 0.71345764 0.6562607 0.5770169 0.684902 0.68285733 0.6641538
0.7352562 0.6783967 0.6472495 0.46314406 0.692522 0.61119086 0.679948 0.6817739
0.6049302 0.6671805 0.6490682 0.5653975 0.67932016 0.72261596 0.6774533 0.7187715
0.5306977 0.7175653 0.76023525 0.81446564 0.6283897 0.93592197 0.7627812 0.7311586
0.40772888 0.59224117 0.7328078 0.7793706 0.74720436 0.6757036 0.6313678 0.6872436
0.63715106 0.8117305 0.7750058 0.787749 0.59162784 0.5045153 0.7077491 0.6723092
0.6787948 0.5783518 0.63358814 0.64741874 0.7270479 0.6154617 0.8095853 0.7048037
0.73206866 0.5526164 0.65946853 0.56011873 0.5867628 0.5926403 0.69488895 0.69008505
0.66649896 0.6959015 0.9139708 0.5401248 0.59226567 0.81383824 0.78328353 0.6771097
0.6883491 0.6528528 0.7054497 0.72576165 0.66698295 0.6227222 0.5126192 0.73422635
0.7397886 0.9705764 0.6488948 0.62527746 0.6324291 0.82620585 0.7622778 0.7637236
0.52960235 0.73037887 0.82817984 0.71505 0.622526 0.5421295 0.77364767 0.6021284
0.5477479 0.75972164 0.7672882 0.6151466 0.6955661 0.6021003 0.6484973 0.6567947
0.5289719 0.770893 0.6918147 0.6002822 0.801364 0.5307591 0.70551693 0.5339433
0.63514537 0.67784524 0.85455185 0.6812463 0.62260777 0.5027639 0.73145705 0.79195523
0.85998905 0.7077125 0.78956234 0.83521813 0.7081293 0.5927691 0.6035467 0.49282518

mlp_layers.2.bias f4 [400]
00000000: 16c2 06bf 1e05 2cbf 22d2 3bbf eba5 4fbf
00000010: 878c 44bf e9ea a6bf 6077 23bf 5396 d6be
00000020: a1e2 46bf e436 28bf e530 63bf 507e ccbe
00000030: 93d8 72bf a5ca 71bf fcef 32bf e7ef 17bf
00000040: 7b8f 78bf d04d 8ebf 9411 d7be bda4 1dbf
00000050: 7d14 70bf a862 7dbf 1265 83bf 3acf 55bf
00000060: be1f 18bf b7b3 56bf 6f61 36bf 4686 48bf
00000070: 50c4 4bbf 2c03 17bf a380 5ebf 3438 59bf
00000080: d9fc 32bf afda 78bf dc1e 17bf 3085 a2bf
00000090: 2021 9bbf 73bf 4cbf 7e80 48bf e1f2 6bbf
000000a0: 9869 b7bd 9e87 59bf e2b3 53bf 2b54 34bf
000000b0: bf27 0cbf b1c2 82bf 6c77 89bf 3855 51bf
000000c0: 5a33 d9be b47c 42bf 985e 87bf dfdb 9cbe
000000d0: de8c 33bf 41f6 57bf 4223 4fbf 5b63 4ebf
000000e0: 9a2f 18bf e7da 37bf 8ed1 43bf e72b 26bf
000000f0: e508 5ebf ac44 1dbf c571 7dbf ff51 2dbf
00000100: 2297 1dbf 64f6 9cbf 375e 4ebf 691b 6cbf
00000110: ee92 4cbf 39c1 30bf 2ce1 4abf 58ea 15bf
00000120: 87fd 5fbf d595 59bf 2f23 30bf e6cb 28bf
00000130: bca8 5fbe 28c2 1ebf 0675 62bf 1245 82bf
00000140: 63e0 0abf a954 20bf b0b9 5ebf 20f6 6bbf
00000150: c8a6 2bbf f799 1fbf 4ca1 10bf d58b 97bf
00000160: fdec 9fbf 6019 4ebf a9b3 87bf b7f8 3ebf
00000170: 0105 48bf ced1 47bf 7121 8cbf 6985 7abe
00000180: 40c6 41bf 3962 d7be f82e 80bf f7b3 97bf
00000190: 7e03 2fbf afe7 4dbf c680 4ebf 034f 40bf
000001a0: e935 39bf ceac 1ebf 2d7d 3cbf 8b54 1abf
000001b0: 4ddc 06bf 8fa8 86bf 6665 44bf 2870 40bf
000001c0: e5af 36bf 689f 25bf 03a5 2fbf 259b 80bf
000001d0: 5fb7 17bf 1d32 46bf 3cec 28bf 14c7 60bf
000001e0: 52bc 02bf 430b 1bbf 232e 4dbf c560 8dbf
000001f0: 50c4 38bf c5f5 3fbf 3859 56bf efc4 85bf
00000200: 035c d0be 605b 95bf 9ed1 42bf 9a0f 78bf
00000210: cf06 80bf 2b32 a4bf ed1c 67bf f84a 40bf
00000220: 82a7 24bf c77a 84bf 9187 66bf 6336 91bf
00000230: 4e30 61bf cbf8 22bf 1c98 72bf c382 48bf
00000240: ae9b 30bf a2c8 63bf 3d0f 1bbf c7e3 29bf
00000250: 77f9 24bf be00 f8be 69f9 67bf 5eea fcbe
00000260: 07dc efbe 73ac 5cbf cea2 40bf 31c6 82bf
00000270: 676a 54bf 0e05 83bf d111 5bbf 4fb0 98bf
00000280: 5bae aabd 0bea 4dbf c374 ccbf 824c 7dbf
00000290: d31e 55bf fafe f1be 2c8e 3fbf d4b4 37bf
000002a0: b9eb 48bf 851c bfbf 7225 c3bf db29 29bf
000002b0: b652 7ebf a354 89bf 4a44 54bf c632 4abf
000002c0: 1f8c 96bf ce32 31bf ae23 3cbf a0f4 2ebf
000002d0: 8448 67bf b5b7 47bf 5951 09bf 6db6 81bf
000002e0: aeec 5ebf d79c 41bf 2708 27bf cc3a 54bf
000002f0: 2627 44bf 54a6 82bf a957 c7bf 54a6 f6be
00000300: cb12 a0bf 3154 4bbf e202 33bf 3728 fbbe
00000310: 3e01 26bf 7136 8cbf e061 4bbf cb96 46bf
00000320: 7a1a 3cbf 62dc eebe 0d6b 0dbf 6df5 45bf
00000330: 5596 80bf b7b3 59bf eab7 13bf cfc7 56bf
00000340: 52bb 6bbf b85c 95bf caf2 91bf 8da8 9ebf
00000350: 8e22 90bf fd2f 3cbf 719d bfbf 659f 38bf
00000360: b296 0dbf d6f1 3ebf f51f 8fbf 4551 fcbe
00000370: 2684 48bf ee21 09bf 88a2 b2bf 0b32 12bf
00000380: 6f3c 28bf b894 1cbf 7151 8fbf 0e2b 65bf
00000390: 5e5e 99bf c1c2 75bf e2fa 84bf a7aa 14bf
000003a0: 9a7d 18bf aabe 28bf 3536 91bf 9b0e 3cbf
000003b0: 4946 aebf a6de 5dbf 1a3e 89bf 1023 0abf
000003c0: 2a9d 48bf 8e78 8bbf 0ec6 6dbf 03d0 34bf
000003d0: 9ec5 5abf 1fb9 68bf d01b 6bbf 1bdb 28bf
000003e0: d88c 3fbf 4105 69bf 4f3f 36bf fc8c 34bf
000003f0: 8222 57bf 2489 4fbf 6428 c6be 2a26 01bf
-0.526399 -0.6719531 -0.7336751 -0.81112546 -0.7677693 -1.3040439 -0.63854027 -0.41911563
-0.7768956 -0.65708756 -0.8874648 -0.3994012 -0.94861716 -0.94449836 -0.6989744 -0.59350437
-0.97093934 -1.1117496 -0.420056 -0.61579496 -0.9378126 -0.9897866 -1.0265219 -0.8351933
-0.59423435 -0.83867973 -0.7124242 -0.78329885 -0.79596424 -0.58989215 -0.86915034 -0.84851384
-0.69917065 -0.97208685 -0.5903146 -1.2696896 -1.2119484 -0.7997963 -0.78321064 -0.9216748
-0.08955687 -0.8497256 -0.82696354 -0.7044093 -0.5474815 -1.0215665 -1.073957 -0.8177066
-0.4242199 -0.7597153 -1.0575743 -0.30636498 -0.7013682 -0.8436013 -0.80913174 -0.80620354
-0.59447634 -0.71818393 -0.7649163 -0.6491074 -0.8673232 -0.6143291 -0.99001724 -0.6770324
-0.61558735 -1.2262692 -0.8061251 -0.92229325 -0.79911697 -0.69044834 -0.79249835 -0.58560705
-0.8749623 -0.8499425 -0.68803686 -0.65936124 -0.21841711 -0.6201501 -0.88459814 -1.0177329
-0.54248637 -0.6262918 -0.87002087 -0.9217243 -0.67051363 -0.62344307 -0.5649612 -1.1839548
-1.2494198 -0.8050747 -1.0601703 -0.7459826 -0.78132635 -0.7805451 -1.0947706 -0.24464954
-0.7569313 -0.42067125 -1.0014334 -1.1851796 -0.68364704 -0.80431646 -0.8066524 -0.7512056
-0.72347885 -0.6198243 -0.73628503 -0.6028525 -0.526799 -1.052019 -0.7671722 -0.75171137
-0.71362144 -0.6469636 -0.6861116 -1.0047346 -0.5926418 -0.77420217 -0.65985465 -0.8780377
-0.51068604 -0.6056406 -0.80148524 -1.1045157 -0.7217455 -0.7498439 -0.83729887 -1.0450724
-0.406952 -1.166851 -0.761011 -0.96898806 -1.0002078 -1.282781 -0.9027851 -0.75114393
-0.64318097 -1.0349969 -0.9005061 -1.1344723 -0.8796433 -0.6366088 -0.9476335 -0.78324527
-0.6898755 -0.88978016 -0.60570127 -0.66363186 -0.64443153 -0.48438066 -0.90614945 -0.49397558
-0.46847555 -0.86200637 -0.7524842 -1.0216733 -0.8297486 -1.0235918 -0.8557406 -1.1928805
-0.08334037 -0.80435246 -1.5973133 -0.98944867 -0.8325016 -0.47264844 -0.7482631 -0.71760297
-0.78484684 -1.4930578 -1.5245802 -0.6607949 -0.99344957 -1.0728954 -0.829167 -0.78983724
-1.1761512 -0.69218147 -0.7349194 -0.6834202 -0.90345025 -0.7801469 -0.5363975 -1.0133797
-0.87079895 -0.75629944 -0.65246814 -0.82902217 -0.76622236 -1.0207009 -1.5573627 -0.48173773
-1.2505735 -0.7942534 -0.69926274 -0.4905412 -0.64845645 -1.0954114 -0.7944622 -0.7757384
-0.734779 -0.46652514 -0.5524147 -0.77327615 -1.0045878 -0.8503985 -0.57702506 -0.83898634
-0.92082703 -1.166892 -1.1402218 -1.2395188 -1.1260545 -0.73510724 -1.4969922 -0.72118217
-0.5530807 -0.7458776 -1.1181628 -0.49280754 -0.7832664 -0.535674 -1.3955851 -0.5710761
-0.65717214 -0.61164427 -1.1196729 -0.8951882 -1.1981924 -0.96000296 -1.0389063 -0.58072895
-0.5956665 -0.6591593 -1.1344668 -0.73459786 -1.3615199 -0.8666786 -1.0722077 -0.5395975
-0.78364813 -1.0896165 -0.9288033 -0.706299 -0.8545779 -0.9090747 -0.91839314 -0.6595933
-0.74824286 -0.9102364 -0.7119035 -0.70527625 -0.8403703 -0.81068635 -0.3870269 -0.5044886

mlp_layers.2.running_mean f4 [400]
00000000: 92b8 ebbd 1457 30be 6d45 303c ae8a f4bc
00000010: b866 bbbc 5926 b7bd ddbf 20be ec7c f03d
00000020: 2753 453c 08fc 06bd 98e3 2a3e 1bde 063c
00000030: 0dc5 8d3d be29 373e 3f2a b63d e08e 2dbb
00000040: 200f c73d 9dc4 be3d 9f37 353d 5b97 4abe
00000050: dace cd3d e13e e5bd ad9b b13d 6aaf f8bc
00000060: 5817 983d 17ee 313d 3264 b3bd aaab fc3d
00000070: b6e2 18be 8c22 2abe 1440 3e3d 9db3 353e
00000080: 01fb aabc 7372 283e 8826 8cbd 83e7 993d
00000090: 2d3a d5bd a541 db3b 019f b7bd 28f5 f3bd
000000a0: 8594 fdbd d884 c03d d12a 09be 223f b6bc
000000b0: d666 dc3d bc8f 313e b8c1 e83b a472 3bbe
000000c0: 9245 103e d865 2a3e c3c6 e83d 6b12 cfbd
000000d0: b8f3 9ebd 79c9 e43d 9db3 15bd 141b 37be
000000e0: 4b9a 4dbb 3a6a 4cbc a918 b83b 63f3 9639
000000f0: b16f 4fbe 185e 4cbe d31a d5bd 5de0 0dbe
00000100: d5f9 a8bd 18dd 39be 5625 e63c 8b9b eebd
00000110: 9e75 0dbe 4cd6 99bd 90bf c23d 06f8 163e
00000120: 26ad 8b3c ecaa 4b3e 1897 c8bd b6fb 8e3d
00000130: 87a2 df3d c6dc 313d 00cf c83d d7db ebbb
00000140: c12d ccbc 96c8 7d3d 0b54 3d3e 610a 303d
00000150: 0f02 0fbd 57b5 8bbc 8fc7 13be 74b8 8dbd
00000160: 5e59 4bbe 5c42 65bd 1e3f d53d 0e5d 413e
00000170: 9712 2c3c e0d0 083d 1c5b 2cbc 51ee 36be
00000180: 6001 2a3e 6f76 e13b ffc8 0abe aae6 a1bd
00000190: ee8d 4dbd b14b 793b 086b ee3c 8a84 c3b9
000001a0: a1ef 353e 5ecf 1ebe ae22 36be 6729 44be
000001b0: be7f 2a3d e8a3 233e 9309 303e d138 453c
000001c0: fb72 153a 0437 fb3d 94e6 d03d 5616 17be
000001d0: 89a6 63bd 873a 41be 3ae6 433e 20ef 083e
000001e0: 3091 8dbd 1049 12bd 55b2 b33b 7113 273e
000001f0: d181 f13d 7f7a 2abe 178a 27bd c658 833d
00000200: c755 343e 144f 8cbd e261 d53d 460e 873c
00000210: 08c3 afbd 2006 863d 552f ec3c 36c7 e3bd
00000220: ea14 8b3c f092 453c a1ce f5bc 9549 533d
00000230: 6586 c6bd d7ab b4bd 4477 5ebd 9b72 8f3d
00000240: 6a25 5bbc b46a 45be 5288 28bd 4aa1 e63b
00000250: bcb7 edbd eff8 3cbd b610 453d 36e7 253e
00000260: 4e74 f03d 6893 b8bd 959f 15be 67d8 b83d
00000270: 7799 a83c b178 cbbd 050c c93d 797b 39be
00000280: bc12 b03d 3687 563d 07b1 363e 061b 42bd
00000290: bb7b 07be e79e 4f3e 1c1b 37bd 9287 50be
000002a0: f363 98bd d80e 253e 1fbb 0ebe 6971 3b3d
000002b0: 8513 4fbe 7e90 80bd b148 a5bd 5835 6ebd
000002c0: 3b0a d5bd e9e6 18be 56bc 873d 2474 b93d
000002d0: b0d5 0d3d 4d19 753d 8315 07be 2a36 a93d
000002e0: 92de 5a3d af4f 203e 51fa d53d bfc4 4f3e
000002f0: 0137 b73d df77 35be 83b6 f33d dcb0 d8bc
00000300: c82e 123c 55f6 b53d 2248 183c 71ce 83bd
00000310: b1c4 733d 32ab a03d 79e9 9f3d 2b01 acbd
00000320: b204 06be 698a 2dbe 5a6a 27be 2f51 5ebd
00000330: 5590 d6bd b251 253e 3362 a9bd 62b0 b4bd
00000340: 8da2 0abe 8fba eabd 4dff ea3d 2a4d 2d3e
00000350: 7785 1d3e fa00 13be 644d 8fbd 7dc3 30be
00000360: 1af9 da3d 6df7 333e 2aa4 2dbe 7e42 1b3e
00000370: 56b7 cebd 51b2 4abe 70eb 7a3d d824 3dbe
00000380: 9ed0 e2bd 8abd 4c3e dd96 34be bf32 07be
00000390: 3142 68bd 0321 263e b249 0b3e 9e85 123e
000003a0: e024 d4bd b635 d2bd 4fb7 f33d d2c8 373e
000003b0: 99d0 143e 00f3 a03d c959 64bd ad64 393d
000003c0: 4891 22be 8455 e2bc d691 513e 647a 923c
000003d0: b70b 203e e178 0a3e 07e7 4e3e 4e1f e33d
000003e0: 853d 45be 9eb2 b6bd 529f ab3a 3499 373e
000003f0: ef4e f53c d2f3 4d3d a6bc bb3c eeb9 cabd
-0.11509813 -0.17220718 0.01075874 -0.029851284 -0.022876129 -0.08942861 -0.1569819 0.11742577
0.012043751 -0.0329552 0.16688383 0.008231665 0.0692235 0.17887017 0.088947766 -0.0026482865
0.09719682 0.09314845 0.044242498 -0.197843 0.100492194 -0.11193634 0.08672271 -0.030357081
0.074263275 0.04343995 -0.08759345 0.1233743 -0.14930233 -0.16614741 0.04644783 0.17744298
-0.020871641 0.16449909 -0.06843287 0.075148605 -0.10411487 0.006691175 -0.089658745 -0.11911994
-0.123818435 0.09400338 -0.1339524 -0.022246901 0.10761802 0.17339987 0.007103171 -0.1830545
0.14089039 0.16640413 0.11366036 -0.10110935 -0.077613294 0.1117124 -0.036548246 -0.17881423
-0.0031372483 -0.012476498 0.005618174 0.00028791567 -0.2025745 -0.19957769 -0.10405507 -0.13855119
-0.08250777 -0.18150747 0.028093975 -0.11650761 -0.13814399 -0.07511577 0.09509194 0.14743051
0.017050337 0.1988942 -0.09794444 0.06981604 0.109196715 0.043423437 0.09805107 -0.007197838
-0.02492416 0.06195887 0.18489091 0.042978648 -0.034914073 -0.017054243 -0.14431594 -0.06919947
-0.1985831 -0.05597149 0.10412429 0.18883154 0.010502479 0.033402324 -0.010519769 -0.17864348
0.16602087 0.0068805735 -0.13553236 -0.07905324 -0.050184183 0.00380395 0.02910377 -0.00037292048
0.17767192 -0.15508792 -0.17786667 -0.19156419 0.04162573 0.15980494 0.17191152 0.012037472
0.00057010324 0.12266353 0.10200229 -0.14754614 -0.055578742 -0.18869983 0.19130793 0.13372469
-0.06912458 -0.03571421 0.0054839053 0.1631601 0.11792339 -0.16648291 -0.040903177 0.064134166
0.17610846 -0.068510205 0.1041906 0.016486298 -0.08582121 0.06544137 0.028831163 -0.11121981
0.016977746 0.012058958 -0.030005755 0.051583845 -0.096936025 -0.08821838 -0.05431296 0.07004281
-0.013375619 -0.19278985 -0.04114563 0.00703827 -0.1160731 -0.04613584 0.04811164 0.16201481
0.11740933 -0.090124905 -0.14611657 0.090256505 0.02058099 -0.099351294 0.09816746 -0.18113507
0.08597323 0.05237504 0.17840968 -0.047389053 -0.13230793 0.2027546 -0.044703588 -0.20364216
-0.07440939 0.16118944 -0.13938569 0.045762453 -0.2022229 -0.0627756 -0.080705054 -0.05815634
-0.10402342 -0.14931835 0.06627719 0.09055355 0.034627616 0.05983858 -0.131918 0.08262284
0.053434916 0.15655397 0.10448135 0.20289896 0.08946038 -0.17721508 0.11900046 -0.02645152
0.008922286 0.08884875 0.009294542 -0.0643586 0.05951375 0.07845153 0.07808203 -0.0839866
-0.13087729 -0.1694733 -0.16349164 -0.05427664 -0.10476748 0.16144446 -0.08270683 -0.08822705
-0.1353857 -0.114613645 0.11474476 0.16923967 0.15382944 -0.14355841 -0.06997183 -0.17262073
0.106920436 0.17574854 -0.16957155 0.15162084 -0.10093562 -0.19794585 0.061259687 -0.18471086
-0.11074947 0.19994178 -0.17635675 -0.13202952 -0.05670375 0.1622353 0.13602331 0.14308783
-0.10358596 -0.10264151 0.11900198 0.179477 0.14532699 0.078588486 -0.05574969 0.045262028
-0.15875733 -0.027628668 0.20465788 0.017880626 0.15629469 0.13522674 0.20205317 0.11089955
-0.19261749 -0.08920787 0.0013093746 0.17929536 0.029944865 0.050281353 0.022917103 -0.098987445

mlp_layers.2.running_var f4 [400]
00000000: 0028 8e3f 2504 703f 52ef 7b40 99b9 4b40
00000010: 0a26 4c3f 7f6f 8240 733b 9240 b9ec 8b40
00000020: 0a9b 883f f27b 2a3f 9f64 793f 0d15 be40
00000030: 3295 e33f 4543 033f 0f2b 983f 89a6 3e40
00000040: 4089 f33f 98b6 723f 5a93 9a3f cf93 ae3e
00000050: f5a1 a840 0e27 5040 5058 fd3e b755 4e40
00000060: bca4 593f b18b 453f f9c3 ad3f f03e b63f
00000070: a385 2440 fa17 863f 31d0 c33f fe3b 5f40
00000080: 07bd d23e 0222 fd3f 329f 3d40 c228 c43f
00000090: b4d1 7940 b672 2c3f b971 4c40 44a0 2e41
000000a0: 09b2 403f 2b7c 1340 1158 863f e8e1 1a3f
000000b0: 85a4 9f3f 16f7 a13f d244 c63f d044 633f
000000c0: 4a67 0f40 3e81 ad3f 9ff8 733f d07d 743f
000000d0: c691 043f 00d6 293f 2b38 b13f bb1f c73f
000000e0: 5a4f 633f 07b7 e43f 373f 0840 4503 1a40
000000f0: b317 0640 162a 1b40 3ead 243f a0ce 5e3f
00000100: 7b5f fc3f e9ec 433f 3bda 4040 551f 103f
00000110: f893 543f 4f98 f33f c2f3 bb3f 94b4 ac3f
00000120: 4d70 e03f ef75 6840 b6a4 c13f 3b8e a840
00000130: 1977 1840 6d72 6d3f 5f27 4f3f 2e41 493f
00000140: 5828 1140 2418 793f 95cb 173f b101 c93e
00000150: eceb 0640 22b3 7640 745a 0c40 ef5e 773f
00000160: 2513 1340 929a 973f 4b39 803f 1b0f ca3e
00000170: ef46 e63f 6a13 143e e6e6 523f 157d f73e
00000180: 927f 3d40 3ce0 e43f dfcc b63f 7070 c740
00000190: e270 123f 5903 5b40 aeb0 0040 ead1 2840
000001a0: 81a7 033f a0dc 0e40 01c3 0140 326f 3040
000001b0: 7ca5 753f 2eb3 0440 554a fb3e 2d8f 9f3f
000001c0: 91c5 443f 018b fb3f 3c69 383f 6e59 3c40
000001d0: a791 1540 df66 3f3f 029e cb3f 766d c940
000001e0: dd52 3140 ae4b 303f e035 4c3f 1b84 b33f
000001f0: 013d 7b40 3eec 3040 13df ca3e acf1 cb3e
00000200: f2a3 aa3f f754 953f 1601 df3f 944a 5d3f
00000210: fc1d 0c40 fc52 1140 851e a53f 5a93 e13f
00000220: b7bd 3b3f 90a0 2c3f 925d b43f 2c7c 053f
00000230: 564a 203f 9758 9c3e a326 fe3f 8784 2440
00000240: 4a5a 493f b216 0e40 3416 973f 86c8 1040
00000250: b514 c53f 1ca1 1a3f b893 bb3e d547 3c40
00000260: 6184 533f 7ddb cf3f f34d 533f e484 c63f
00000270: 751f cd3f 3124 9b40 45b0 963f a71b 9c3f
00000280: 27a3 c43f 5b36 473f 52a5 1840 157a ba3e
00000290: 3a5e 0b3f 1cb1 8240 de1f 2340 b368 2f40
000002a0: 8357 743f 5ca4 a23f faa0 e73f 33ac 0d40
000002b0: 64a3 b73e f958 c03f 4573 383f f928 1a40
000002c0: 26ef c83f 94df c43f 83d4 7040 ee45 463f
000002d0: 4c6d 2c3f f800 283f e66b 8d3f b2fb d33e
000002e0: 2124 2e3f 3f2e 8240 d7fc ad3f be3f 9c3f
000002f0: 8c55 ef3f 37c3 ce3f 7c72 d13f e219 0241
00000300: 6e83 863f 3e46 373f b562 753e b152 1c3f
00000310: 3193 dc3e f4e7 fb40 bf8c 2e40 add5 0440
00000320: 54f6 bf3f 2dc9 e43f ae03 403f e6de 5b3f
00000330: 1a25 183f 41ee d43f 149a 1340 e08f 1f40
00000340: d97f a63f 0906 c040 c0a9 f53e d98c 573f
00000350: 8f41 9e40 4bf4 0540 0489 c93f 59b8 d03f
00000360: bccd 093f 0184 cc3e 29b5 6a40 846d 8840
00000370: 3d75 3c3f 054e 6840 a5ad c13f b5c5 2e40
00000380: c0f3 223f f807 de3f bb75 203e 1dc8 1f3f
00000390: a10b 0e3f c627 3640 cfac 8c3f 98f2 8840
000003a0: 44ef aa3f f1cc 1440 4370 ae3f 2e93 3a40
000003b0: 6d01 5640 2a0e f63e b794 5f3f 2ff6 583f
000003c0: afcc 593f 5029 e23f b3b4 3d40 d04e 983f
000003d0: 97a9 373e 4a35 6f3f 5d3f 333f ba0b a040
000003e0: b33d db3f 9e7b 013f a120 be40 2a5a 3440
000003f0: 7a4d 293f 431b ac3f c31c 933f 4b25 a33f
1.1105957 0.93756324 3.936482 3.183203 0.79745543 4.0761104 4.569757 4.372647
1.0672314 0.66595376 0.9741916 5.9400697 1.7779906 0.5127452 1.188814 2.9789145
1.902626 0.94809866 1.2076218 0.34097144 5.26977 3.2523837 0.4948144 3.2239816
0.8501699 0.7716628 1.3575431 1.4237957 2.5706565 1.0476067 1.529791 3.4880366
0.4115984 1.9776003 2.9628415 1.5324938 3.9034243 0.67362535 3.194441 10.914127
0.7527166 2.3044536 1.0495626 0.60500956 1.2472082 1.265353 1.5489752 0.88776875
2.2406793 1.3555067 0.9530124 0.95504475 0.5178493 0.66342163 1.3845266 1.5556558
0.88792956 1.7868356 2.1288583 2.4064496 2.0951965 2.4244437 0.64326847 0.87034035
1.9716638 0.7653337 3.0133197 0.5629781 0.8303828 1.9030856 1.4683764 1.3492608
1.7534271 3.632198 1.5128391 5.267362 2.3822691 0.92752725 0.8091945 0.7861508
2.2680874 0.9730246 0.59295017 0.39259103 2.1081495 3.8546834 2.1930208 0.9662923
2.2980435 1.1844046 1.0017484 0.3946465 1.7990397 0.14460531 0.82383573 0.48337618
2.9609113 1.7880931 1.4281272 6.2324753 0.57203496 3.4220793 2.0107837 2.6378121
0.51427466 2.232216 2.027527 2.7567868 0.95955634 2.0734363 0.49080148 1.2465569
0.7686396 1.9651796 0.72035575 2.9429584 2.337015 0.74766344 1.5907595 6.294612
2.7706826 0.6886548 0.79769707 1.402469 3.9255984 2.764419 0.39623317 0.39832819
1.3331282 1.1666554 1.7422206 0.8644192 2.18933 2.27069 1.2899939 1.7623093
0.73336357 0.674325 1.4091055 0.52142596 0.6261343 0.3053634 1.9855541 2.5705888
0.78653395 2.2201352 1.1803651 2.262239 1.5396944 0.60402083 0.36636138 2.9418843
0.8262387 1.6238858 0.82540816 1.5509305 1.6025225 4.848168 1.1772543 1.2195939
1.536229 0.77817315 2.3850904 0.36421266 0.54440653 4.08412 2.54882 2.7407653
0.9544603 1.2706409 1.8096001 2.2136352 0.35866845 1.5027152 0.7205089 2.4087508
1.5697982 1.5380731 3.7629707 0.77450454 0.67354274 0.6562648 1.1048553 0.41402966
0.6802388 4.0681453 1.3592786 1.2206953 1.8697982 1.6153325 1.6363063 8.131319
1.0508859 0.71591556 0.23963435 0.6106368 0.43081048 7.8720646 2.7273405 2.0755417
1.4997048 1.7873894 0.75005615 0.8588699 0.5943161 1.6635209 2.3062792 2.4931564
1.3007766 6.0007367 0.4798107 0.8419929 4.9455028 2.0930355 1.5744939 1.6306258
0.5382955 0.3994446 3.6673071 4.2633686 0.7361639 3.629762 1.5131117 2.730817
0.63653183 1.7346182 0.1566991 0.62414724 0.55486494 2.8461776 1.0990237 4.2796135
1.3354268 2.3250086 1.362801 2.9152331 3.343837 0.4805768 0.87336296 0.84750646
0.8507795 1.7668858 2.964154 1.1899052 0.17935787 0.9344069 0.7001856 5.0014315
1.7128204 0.5057925 5.941483 2.8180032 0.66133845 1.344582 1.1493152 1.2745756

mlp_layers.5.weight f4 [300, 400]
00000000: 2ec7 8a3e 1afa b9bd 4456 2dbf 1028 a7be
00000010: d800 c8be a0d8 bfbe c843 ebbe 1774 8ebe
00000020: 1f48 af3d 24a6 87bd 13c0 a6be 8be9 a6bf
00000030: dcd5 d4bc b7a8 d4be 1ba1 e43d 6bb9 a2be
00000040: e103 8b3d 5ef6 173d 41d1 a73e e361 f03d
00000050: 5861 c73d f3e9 773d bbe0 8f3e 937b ddbe
00000060: ad15 193e b67a 963e 5fa4 733c 9075 8dbe
00000070: 8f33 263e af09 2c3d c119 e13e 7e4a a3be
00000080: 0b12 9f3e 195e 663e 8909 333e d1c1 073e
00000090: 9ca6 8d3e 9afd db3d d935 f83e 05dd 96be
000000a0: 0354 f43d da99 78bd 5c2c 11bf ce8f a63d
000000b0: b0dd 533e 39c8 89be 74f8 07be 98bf 30bf
000000c0: 38cb b8bd 3102 373e c6ca f23c 8322 8f3e
000000d0: 77ff 6a3e 9298 7dbf 65f0 6b3e 2855 95bc
000000e0: ed4e cebe 2f44 853d 2d0c 253c 28d1 e2bd
000000f0: d093 1c3d 68b7 4fbe 93be 97be 594f b2be
00000100: 3145 5f3d 2feb f9bb 0ec3 a8bd 6ccd fdbd
00000110: d925 bb3d 59b0 98be 0e44 07bf ac48 9ebe
00000120: b3b5 463d aa26 dfbe 6650 a9bf 4a9b 9cbe
00000130: 8c84 6d3d e24d 17bf 8ebe 71be 4b9d 13be
00000140: 7a79 7cbc db42 31bc e869 06bf 51e5 afbe
00000150: fd0b 4ebe c89f 1abf 2a4e ae3e c58f 3bbf
00000160: 4515 573e 3fc4 02bf 993b 6fbe d8f6 f7be
00000170: 9ab8 ddbe b799 bcbd 456a d03d 2aac 663c
00000180: 43e3 02be 5f68 e83d 03ce 51be 5c24 07be
00000190: bb28 45be c506 ecbe 593e 13bf 1327 ca3d
000001a0: 5eb6 243e f741 6cbe 3e73 a63e 085e 333e
000001b0: d990 9cbe b7d2 0a3e 7011 383e 15b9 153e
000001c0: d489 8b3d edfe 8dbe a9ff cdbd 1023 453f
000001d0: 64c9 48be 2e2d 5dbe 1a91 363e 7f9d a5be
000001e0: bafb 96be 1ef3 b03d 5655 3dbf 2708 5dbf
000001f0: 8733 0f3f 30ae b93d 72c0 41be aac3 96bc
00000200: b3e5 e03e 9ab1 323e f69a fdbd f591 52be
00000210: 7376 cebe bccf fcbc 7a7f 18bf 6b23 483e
00000220: 4369 8cbf ba38 b93d 5637 75be c919 323d
00000230: 9724 25bd a72f adbe d11e c4be 1ff0 11bf
00000240: fa64 85be 5760 22bf 21f1 cabd 00ee 23be
00000250: e958 21be fb64 af3e 9d7e 91be a898 083e
00000260: 5a31 72bf 74f3 37bf fa40 1abc bbf7 4bbe
00000270: 1772 8fbd 49cc 1d3e cb9b 843d 4f17 7ebe
00000280: e17f dfbd a853 6ebe 2a77 76bd f740 813c
00000290: aff1 d2be c61c 4dbf 065b 01bf 94da 0ebe
000002a0: 3cfd 25bf d9a3 133e 9dd9 b93d 390f 04be
000002b0: 0af1 09bf cc6d 9b3d 8a1d 5c3e d7db 0dbe
000002c0: 1468 df3e a1d8 4c3c 1bc9 b93e 120f 0abe
000002d0: da1b 673e 4c56 5a3c 7923 e6be 1112 e0be
000002e0: 9d54 c5ba 4405 bb3d 1cd0 fbbe a463 8cbe
000002f0: 1179 303e 04db 82be e707 6cbd 5c9b 3fbf
00000300: 80f6 c9be f72d 633e 8b61 85be 90e0 443b
00000310: cbda b4be 7495 cd3d 9899 59bf 82a6 87bd
00000320: 52f4 9abe 0d4d c73e dff3 56bf e71f 513e
00000330: ea25 e9be fc49 0cbf c51a 72bf d70a afbe
00000340: 9744 243e 4a7f 17bf 161a 233e e6eb 08bf
00000350: 846b 65bf e950 69be 665b 093e 1fc3 c03d
00000360: 04a3 32bf 8070 6bbe d42f 0dbf 0057 f53d
00000370: 7a7e a53d 9ff8 60bf 7f1f 163e 6653 92be
00000380: d465 fe3e 1ff3 7e3e f567 b43d 6d01 84bd
00000390: f9d0 59be bc25 013f d6a1 6bbe 9d32 38be
000003a0: 3a1b 99bf 8b5a 83be 00ab 753c 82d1 c4bd
000003b0: 6b48 16bf 71b2 08bf 8cb0 8dbe fb89 14bc
000003c0: 0441 a7be aad5 863d 8061 93be 63cc 903e
000003d0: af2e 783e 92e4 08bf 9c29 643e 2035 49bf
000003e0: b205 3dbf 5721 673e b308 babb d95e 51be
000003f0: 66a2 353e 3851 89be 339e 543d 7f5d 98bd
0.27105087 -0.09080906 -0.67709756 -0.32647753 -0.39063144 -0.3746996 -0.4595015 -0.27822945
0.08558678 -0.06623486 -0.32568416 -1.3040022 -0.025980882 -0.4153497 0.11163541 -0.31782088
0.06787849 0.03710019 0.32776836 0.117374204 0.09735364 0.060525846 0.28101143 -0.43258342
0.14949675 0.29390496 0.014870732 -0.27628756 0.16230606 0.042001422 0.4396496 -0.3189277
0.31068453 0.22496833 0.17484106 0.13257529 0.27666175 0.1074173 0.48478583 -0.294655
0.119300865 -0.0606936 -0.5670831 0.08132897 0.20690036 -0.2691057 -0.13278371 -0.6904235
-0.09023136 0.1787193 0.029637706 0.27956018 0.22949015 -0.9906093 0.23040922 -0.018229082
-0.4029459 0.065071456 0.010073704 -0.1107505 0.038226902 -0.20284808 -0.29637584 -0.34826162
0.054509345 -0.007626913 -0.08240329 -0.12392697 0.09138078 -0.29822043 -0.5283822 -0.3091482
0.048513126 -0.43584186 -1.3227661 -0.30587226 0.057987735 -0.59103215 -0.23607847 -0.14415471
-0.015409822 -0.010819162 -0.5250535 -0.34354642 -0.2012176 -0.60400057 0.3404401 -0.7326625
0.21004207 -0.510807 -0.23362578 -0.48430514 -0.43304902 -0.09209006 0.10176519 0.014079133
-0.12782006 0.11348032 -0.20488743 -0.13197464 -0.19253819 -0.46098915 -0.5751701 0.09870734
0.16085193 -0.23072039 0.32509798 0.17516339 -0.3057926 0.13556944 0.17975402 0.14621384
0.06813398 -0.27733555 -0.10058529 0.77006626 -0.19608074 -0.21599266 0.1782879 -0.32346722
-0.29488927 0.08640121 -0.7395834 -0.86340564 0.55938 0.09066427 -0.18921068 -0.018403847
0.43925247 0.17450562 -0.12383072 -0.2056349 -0.40324745 -0.030860774 -0.59569514 0.19544761
-1.0969623 0.09044023 -0.2394689 0.043481622 -0.040318098 -0.33825418 -0.3830476 -0.5700702
-0.26053602 -0.6342825 -0.09909273 -0.16008759 -0.15756573 0.3425673 -0.2841691 0.13339484
-0.94606555 -0.71855855 -0.009414906 -0.1991872 -0.07004183 0.1540996 0.06475028 -0.24813579
-0.10913063 -0.232741 -0.060172237 0.015778048 -0.41200015 -0.8012203 -0.50529516 -0.13950568
-0.6483953 0.14417972 0.090747096 -0.12896432 -0.5388342 0.075893015 0.21495643 -0.13853393
0.43634093 0.01250282 0.36286244 -0.13482311 0.22569218 0.013326239 -0.44948938 -0.43763784
-0.0015055124 0.09131864 -0.49182212 -0.2741977 0.17233683 -0.2555772 -0.057624724 -0.74846435
-0.39445877 0.22185503 -0.26050982 0.0030041076 -0.35323176 0.100382715 -0.8499999 -0.06623556
-0.30264527 0.38925973 -0.8396587 0.20422326 -0.4553674 -0.5480039 -0.945721 -0.34187958
0.1604179 -0.591786 0.1592792 -0.5348495 -0.8961718 -0.22784771 0.13413772 0.094122164
-0.6977999 -0.22992134 -0.55151105 0.119794846 0.08080764 -0.87879366 0.14660452 -0.28579253
0.49687064 0.24897431 0.08808891 -0.064455844 -0.21271123 0.50448203 -0.23010954 -0.17988057
-1.1961434 -0.25655016 0.014994383 -0.09610273 -0.5870425 -0.5339728 -0.27673757 -0.0090661
-0.3266679 0.06583722 -0.28785324 0.28280935 0.24236558 -0.5347377 0.22281498 -0.7859669
-0.73836815 0.22571312 -0.0056773066 -0.20446338 0.17737731 -0.26819777 0.051908683 -0.07439708
