tasks/tennis/solutions/maddpg/solution_checkpoint/TennisBrain_agent_1_independent_madtd3_actor_checkpoint.pth (torch_old, 538648 bytes, 18 tensors)

mlp_layers.0.weight f4 [24]
000000 63 62 c8 3e 18 f8 db 3e 87 84 46 3e 9e c0 68 3e
       0.39137563 0.42962718 0.19386493 0.22729728
000010 e7 34 bb 3f 28 d6 93 3f 57 03 54 3e 9b 16 23 3e
       1.462552 1.154973 0.20704399 0.15926592
000020 49 93 60 3e fe 46 2f 3e d6 e9 49 3e 51 61 d2 3d
       0.21931185 0.17116925 0.19718108 0.10272468
000030 ec f6 9e bb 98 be c9 3e 84 86 88 3e 22 24 9d 3e
       -0.0048512127 0.39403224 0.26665127 0.3069163
000040 fd e9 66 3f 69 4d f7 3e 40 4f 8f 3e fa a0 b7 3e
       0.9020079 0.48301247 0.2799015 0.35865003
000050 28 1b f6 3f d2 95 d1 3f 2f ad b9 3e 81 d5 84 3e
       1.9227037 1.6373847 0.3626494 0.2594414

mlp_layers.0.bias f4 [24]
000000 aa e6 59 3a a5 a8 c6 b9 81 02 8d b9 6e c8 de 38
       0.00083122647 -0.00037891153 -0.0002689548 0.00010623118
000010 e7 67 b2 3a 72 05 06 3a b6 66 18 ba 55 51 3d b9
       0.0013611288 0.0005112506 -0.0005813645 -0.00018054743
000020 ce 8e ad 39 5e 71 64 3a 25 c2 16 b9 a7 6d 1c 3a
       0.0003310353 0.0008714403 -0.00014377439 0.0005967267
000030 82 54 13 b9 8f 8d 0e 39 a2 ab 33 39 1a 09 7e b9
       -0.00014050494 0.0001359491 0.00017134708 -0.00024226718
000040 74 a4 b5 39 ae 39 04 3a ba 00 56 b9 c3 a9 55 b9
       0.00034645537 0.00050439953 -0.00020408901 -0.00020376504
000050 ae 5b 4a 3a d6 a6 05 39 c1 8c 89 39 87 69 46 3a
       0.000771935 0.0001274602 0.00026235546 0.00075688254

mlp_layers.0.running_mean f4 [24]
000000 b8 7b c0 c0 c0 69 c1 be 8d 50 f7 40 53 0d 76 3d
       -6.0151024 -0.37775993 7.728583 0.0600713
000010 2b d5 cb 3c e5 a8 62 40 8d 50 f7 40 53 0d 76 3d
       0.02488192 3.5415585 7.728583 0.0600713
000020 a7 a7 c2 c0 98 5c be be 14 08 00 41 64 4f f4 3d
       -6.0829654 -0.37180018 8.001972 0.11929205
000030 36 04 e0 3c 71 57 5c 40 14 08 00 41 64 4f f4 3d
       0.027345758 3.442837 8.001972 0.11929205
000040 f8 61 c3 c0 68 1c ba be 5b 1b 08 41 80 3d 08 3e
       -6.105709 -0.36349797 8.506679 0.1330471
000050 a8 90 34 3d f4 91 54 40 5b 1b 08 41 80 3d 08 3e
       0.044083267 3.3214083 8.506679 0.1330471

mlp_layers.0.running_var f4 [24]
000000 0f a4 9e 41 df 5a 75 3f 86 4b eb 43 93 23 75 41
       19.830107 0.95841783 470.59003 15.321185
000010 b6 1f 04 42 2a ac 2f 40 86 4b eb 43 93 23 75 41
       33.030968 2.744883 470.59003 15.321185
000020 4e 2f 9d 41 72 6c 74 3f bd c9 ec 43 da 84 77 41
       19.648098 0.95477974 473.57608 15.469934
000030 f9 ff 0e 42 ed d2 42 40 bd c9 ec 43 da 84 77 41
       35.749973 3.044124 473.57608 15.469934
000040 81 88 9a 41 a1 20 75 3f e9 96 ef 43 a1 f3 79 41
       19.316652 0.9575291 479.179 15.62198
000050 c2 39 1b 42 23 b8 62 40 e9 96 ef 43 a1 f3 79 41
       38.806404 3.5424888 479.179 15.62198

mlp_layers.1.weight f4 [400, 24]
000000 5c ab ce be 56 11 29 bb 96 f0 3f bd 21 81 af 3e
       -0.40365112 -0.0025797687 -0.0468603 0.34278205
000010 b3 a2 84 3c 31 20 84 bd bf e3 8c bd d0 56 b0 3e
       0.016190862 -0.064514525 -0.068793766 0.34441233
000020 e4 f1 a4 be b2 1c 88 3d e6 94 94 be bb 76 2b be
       -0.32215798 0.06646098 -0.2901985 -0.16744511
000030 90 88 03 bd b5 63 c8 3d 93 24 8e be d2 b8 3c be
       -0.032112658 0.097846426 -0.2776228 -0.18429878
000040 69 ea 42 be 55 c6 17 3e d4 7b 6c be e7 db 37 3d
       -0.19034733 0.14821751 -0.23094112 0.04488745
000050 40 26 39 bf 58 04 cc 3e 13 25 9d be 40 aa 6b 3d
       -0.7232399 0.39847064 -0.30692348 0.05753541
000060 98 a3 60 be 1d 07 97 3c 8e c6 47 be 5d fb 43 3d
       -0.21937406 0.018436009 -0.19509336 0.04784714
000070 49 8d 9d be af dc 40 3d dd 1a 43 be 9f f7 e8 3d
       -0.30771855 0.04708546 -0.19053216 0.11375355
000080 9f ed a2 be e5 74 57 3c 30 5b 40 bd 29 7c 23 3e
       -0.31821916 0.013150428 -0.046961963 0.15965332
000090 e5 42 c8 3d 7b 0e 9f 3e 50 60 fa bc df db 26 3e
       0.09778384 0.31065735 -0.030563504 0.16294812
0000a0 3a 96 2f be 0d 69 92 3e ff 37 d4 bd 20 be 4b 3e
       -0.1714715 0.28595772 -0.10362243 0.19896746
0000b0 72 ae 79 3f 92 29 cf 3d 00 50 22 bd 6a 46 8d 3e
       0.9753181 0.10115351 -0.039627075 0.27592784
0000c0 20 3c 9b bd 15 ee 51 3e 69 2d 36 bc b6 37 36 3e
       -0.07579827 0.20500977 -0.011119225 0.1779469
0000d0 99 a6 fe bd 2e e9 93 3e 4f a3 8e 3b 76 1f 03 3e
       -0.1243412 0.2888884 0.004352964 0.1280497
0000e0 74 59 b9 bd 7c 3d 66 3e 9f f0 e0 3c e6 8f e6 3d
       -0.09050265 0.22484392 0.027458487 0.11257915
0000f0 5c ef c2 bd 66 56 18 be 3c 03 ba 3d 3f e7 10 3e
       -0.095183104 -0.14876708 0.09082648 0.14150713
000100 04 6f 34 bf 03 0d 69 3e e1 26 d4 3d cc 1a fd bc
       -0.70481896 0.2275887 0.10358978 -0.030896567
000110 58 b7 ac 3d 59 bd 42 bf 06 2b bf 3d 75 3a 00 3c
       0.084334075 -0.7607017 0.09334378 0.007826437
000120 94 c8 88 be 93 87 d0 be 0b 49 04 bf 90 e3 c7 3e
       -0.2671553 -0.40728435 -0.51673955 0.39040804
000130 a8 d3 89 3e 5c 77 23 bc 7a d4 03 bf a7 52 b1 3e
       0.26919293 -0.009977188 -0.5149609 0.3463337
000140 7e 99 89 3d 59 1d dd be bb 6f 19 3f 45 c3 48 bd
       0.067187294 -0.43186453 0.5993611 -0.04901435
000150 b0 bd 0f 3e 4d 35 95 bd 9d 1c 0b 3f 1d 1f 48 bc
       0.14037204 -0.07285557 0.54340535 -0.012214449
000160 2d ab 29 bd 44 43 ed be 65 e3 88 bd ce 3f 98 3e
       -0.04142301 -0.46340382 -0.06683997 0.2973618
000170 9f 58 98 be 87 4f 83 be c0 88 c3 bd d9 65 7e 3e
       -0.29755113 -0.25646612 -0.09547567 0.2484354
000180 8d ac aa 3e 97 de 98 3e db 22 1a be 49 3e d2 3e
       0.3333477 0.29857323 -0.15052359 0.41063145
000190 89 e6 38 bf 01 ea 6f bd e6 60 ff bd b5 25 c5 3e
       -0.7222677 -0.058572773 -0.12469654 0.3850533
0001a0 5e 15 85 bc 97 4c a4 3e 65 a3 7e be 33 7e 9f 3c
       -0.01624554 0.32089683 -0.24867018 0.019469356
0001b0 fe 62 ee be b3 7f 5b 3d 5f 6e 80 be 82 c2 23 bd
       -0.465599 0.05358858 -0.25084206 -0.03998042
0001c0 49 c4 0e be ed 69 79 3e e2 d2 b1 3d 71 a3 5f 3f
       -0.13942064 0.24356814 0.08682801 0.87358767
0001d0 e3 17 25 3e 04 2f d1 3c 58 1c f4 3d 7a 83 5d 3f
       0.16122393 0.025535114 0.11919469 0.8652874
0001e0 f9 46 8b bd 2b c4 52 3d dc bf 6f 3b f7 31 18 3d
       -0.06800646 0.05145661 0.0036582863 0.037157025
0001f0 f8 15 14 3d 09 73 3a 3f 0c fa 5b bc b4 27 f2 3b
       0.036153764 0.7283178 -0.013426315 0.007389987
000200 3f 7a 78 be a5 9c 5f bd aa d0 d7 be 85 e4 2d be
       -0.24265383 -0.054592747 -0.42151386 -0.16981705
000210 90 d2 e0 3c 2c 53 ca 3e 6f 4f c9 be c6 27 e9 bd
       0.027444154 0.3951658 -0.39318416 -0.11384539
000220 dc 31 1f bf e8 9b 12 3d a1 02 82 be ae ff 0a 3f
       -0.62185454 0.035793215 -0.2539263 0.54296386
000230 cc e3 e5 3d 58 a8 0b bf dc cc 87 be f9 c0 f3 3e
       0.112250894 -0.5455375 -0.26523483 0.47608164
000240 7f af 8b 3e 9f 92 b3 3d f5 bf a0 be 9d 77 69 3d
       0.2728233 0.087682 -0.31396452 0.056998838
000250 bb 46 f9 bd 78 f7 1d 3e 40 8f b4 be d3 8a a8 3d
       -0.12171694 0.15426433 -0.3526554 0.082296036
000260 7b 2f 13 3f cb 97 b7 3d f2 81 8f 3e 29 a8 c8 3d
       0.57494324 0.08964499 0.28028828 0.09797699
000270 ce ef d2 be 74 f4 87 be e1 02 82 3e b4 d0 af 3d
       -0.4119858 -0.2655369 0.2539282 0.08584729
000280 95 dc 7f 3e a9 da 62 bd a8 6c 54 3e a5 1a 08 be
       0.24986489 -0.05538431 0.20744574 -0.13291414
000290 6c ec 86 bf 1f e4 3a be 03 79 1b 3e f8 6d 42 be
       -1.05409 -0.18251084 0.15182881 -0.18987262
0002a0 70 86 ee 3e 63 1a 16 bd 0b b8 a1 3e ec 72 36 3f
       0.46586943 -0.036646258 0.31585726 0.71269107
0002b0 71 32 32 bf 91 89 ef 3c fd da 98 3e db b5 31 3f
       -0.6960822 0.029240401 0.29854575 0.69418114
0002c0 5c 7e 64 be df 46 39 3e 8d 04 7e be 5c 18 dd 3d
       -0.22313827 0.18093441 -0.24806423 0.10795662
0002d0 51 8d 28 be 76 3b a7 bd 96 bd 6b be 23 62 2f 3e
       -0.16460158 -0.08165638 -0.2302154 0.1712728
0002e0 d6 cc f2 be f1 e2 b6 3e 78 35 f6 bd 22 fe e3 3d
       -0.47421902 0.35720018 -0.12021917 0.11132456
0002f0 a0 4d 6a 3e d3 fc a4 be b9 ca f2 bd f2 8a 39 3d
       0.22881174 -0.3222414 -0.118550725 0.045298524
000300 e8 f5 5a bf bb 03 18 be 27 60 7b 3d 12 2d 3a 3e
       -0.85531473 -0.14845173 0.061370995 0.18181255
000310 b1 e1 09 bf d6 83 74 3e 48 13 a8 3d 83 15 45 3e
       -0.5386 0.23878416 0.082068026 0.19246487
000320 de 9c 84 bf b1 d4 8b 3c c9 72 89 be f3 d9 89 3e
       -1.0360372 0.017069193 -0.26845387 0.26924095
000330 28 9b 5f be 49 6a 9a 3d 11 29 42 be 3b c6 9f 3e
       -0.21836531 0.075398035 -0.18960978 0.31205925
000340 4f 1f 5d bf af fa 58 3c 5e 10 e2 3e 76 c8 46 3d
       -0.863759 0.013243361 0.44153112 0.04853102
000350 80 99 09 be c9 e4 1d 3e b5 96 e6 3e 10 4f 3f 3b
       -0.13437462 0.15419306 0.45036855 0.0029191412
000360 84 f7 e1 3e 2f 34 de bd ce 1a 7e be d5 20 66 bd
       0.44134152 -0.10849797 -0.24814913 -0.056183655
000370 01 20 da bd cf 65 71 be b2 9f 61 be 44 84 3c bb
       -0.106506355 -0.23573993 -0.22033575 -0.002876536
000380 87 15 91 3e 7b c2 92 be 8e 31 42 bd 6a 8d f1 bd
       0.28336737 -0.28664002 -0.04741054 -0.11794551
000390 ff e3 05 3e 7f 54 c2 3e 19 03 71 bd 8d 66 2c be
       0.13075255 0.3795509 -0.058840845 -0.16835995
0003a0 4b 9a b7 3e de e8 26 be f1 ce 77 be da 18 da bd
       0.35859904 -0.1629977 -0.24200036 -0.10649271
0003b0 1e fe 5e 3e 2e 3a 59 3f 2c cd 7d be 56 49 67 bd
       0.21776626 0.848544 -0.24785298 -0.056466423
0003c0 76 73 93 3e 9e d7 81 3e 3f 6b b0 bd 8b d2 78 bd
       0.28799027 0.25359815 -0.086142056 -0.060747664
0003d0 3b be 44 be d3 90 a3 3e da 69 07 bd d8 dd 91 bd
       -0.19213192 0.3194643 -0.033059932 -0.071223915
0003e0 45 fd 8f 3e a6 9e 3a 3e 33 00 53 bc 4c 82 4e 3e
       0.28122917 0.18224582 -0.0128784655 0.20166892
0003f0 9f f1 c7 3d 1a 8d a7 be 2c 21 03 b8 d8 eb 8a 3e
       0.097628824 -0.3272484 -3.1263728e-05 0.2713306

mlp_layers.1.bias f4 [400]
000000 e2 2c ee bd 2d d4 31 be 4a 2f 09 3c 19 8a f2 bc
       -0.116296545 -0.17366095 0.008373091 -0.029606866
000010 5b 58 c2 bc cb 86 b1 bd 85 fc 1d be 41 18 f4 3d
       -0.023723772 -0.08668288 -0.1542836 0.119186886
000020 3d f5 65 3c 54 9f 06 bd cf 29 2b 3e 72 59 c2 3b
       0.01403552 -0.03286679 0.16715167 0.005931073
000030 28 98 91 3d 13 f4 37 3e c3 4c b4 3d af b6 82 bb
       0.071090996 0.179642 0.08803704 -0.0039890627
000040 28 48 c7 3d 28 4b c0 3d d8 40 31 3d 7d 42 4c be
       0.097305596 0.09389335 0.04327473 -0.19947238
000050 5a 9f ce 3d 93 51 e8 bd 81 a4 b4 3d 25 ee 01 bd
       0.10088988 -0.11343684 0.08820439 -0.031721253
000060 3b 95 9e 3d 7a c2 2d 3d b2 54 ad bd d2 7c fc 3d
       0.07743307 0.042421795 -0.0846342 0.12328495
000070 f9 54 17 be 56 6f 28 be 93 5f 42 3d e0 fe 38 3e
       -0.14778508 -0.16448721 0.047454428 0.18065977
000080 f3 df 9c bc 63 e2 27 3e 12 9d 8f bd 16 2e 9c 3d
       -0.019149756 0.16394953 -0.07012381 0.07625978
000090 41 ca d0 bd 00 f5 d6 3b 2a 56 ba bd 92 4b f8 bd
       -0.10194827 0.006559968 -0.09098466 -0.12123789
0000a0 14 96 fb bd ff 23 c3 3d 3b fd 09 be f4 b4 af bc
       -0.122844845 0.0952835 -0.13475506 -0.02144859
0000b0 7e d0 e1 3d 1c ea 32 3e 52 29 02 3c 37 11 3b be
       0.11026095 0.17472118 0.007944422 -0.18268286
0000c0 84 3c 11 3e e7 bd 29 3e b6 b7 e9 3d 43 7d ca bd
       0.14183241 0.16576348 0.11411993 -0.09887173
0000d0 7c e3 9f bd 8b be e1 3d 37 ee 13 bd 17 b0 36 be
       -0.07807061 0.11022671 -0.03611585 -0.1784061
0000e0 1b f3 1f bb 01 31 61 bc f1 24 1a 3b bc 35 8b ba
       -0.0024406377 -0.013744594 0.0023520554 -0.0010620872
0000f0 00 78 4e be f0 a6 4e be 47 e2 d0 bd 71 57 0e be
       -0.20162964 -0.20180869 -0.10199409 -0.13900544
000100 73 4f b0 bd a9 10 3b be 81 b3 d9 3c 01 52 ef bd
       -0.08608904 -0.18268074 0.026574852 -0.11685563
000110 61 c6 0c be 56 59 9a bd 59 97 be 3d 15 43 16 3e
       -0.1374755 -0.07536571 0.09306211 0.14674027
000120 fa f3 87 3c e5 ab 4a 3e 11 b5 c6 bd 04 c2 88 3d
       0.01659583 0.19792135 -0.097025044 0.066776305
000130 56 b1 df 3d 2e 52 3a 3d 3a c5 c5 3d ff ab d9 bb
       0.10922496 0.04548853 0.096567586 -0.006642818
000140 8f 63 ea bc ad 46 77 3d 92 9c 3c 3e 96 95 32 3d
       -0.028611926 0.060370136 0.18419102 0.043599688
000150 b8 57 18 bd 1e 12 9f bc bc 87 12 be 00 18 8a bd
       -0.03719303 -0.019417819 -0.14309591 -0.06742859
000160 4b 0b 49 be de ad 67 bd 22 bc d3 3d 88 6f 40 3e
       -0.19633214 -0.056562297 0.10338618 0.18792546
000170 d9 15 31 3c ba 84 0c 3d b3 b9 1f bc 98 09 39 be
       0.010808432 0.034306265 -0.009748864 -0.18070066
000180 5b c9 28 3e 20 a2 67 3b a7 1f 0c be 13 7c 9e bd
       0.16483061 0.0035344437 -0.1368395 -0.07738509
000190 3a 65 46 bd c7 cf 2f 3b e7 1f e7 3c 72 c4 2c bb
       -0.04843638 0.0026826726 0.028213454 -0.0026362208
0001a0 c9 cf 34 3e 56 41 20 be 47 f5 36 be 1a b0 42 be
       0.17657389 -0.15649924 -0.17867003 -0.1901249
0001b0 3e 26 2c 3d f1 c9 24 3e 6b 83 30 3e 91 52 23 3c
       0.042028658 0.1609266 0.17237632 0.009968416
0001c0 03 55 fd 39 47 d4 f6 3d 50 23 d4 3d 18 0e 1a be
       0.0004831926 0.120522074 0.10358298 -0.15044439
0001d0 63 48 71 bd b7 c4 41 be 7c 09 46 3e b8 9a 08 3e
       -0.058906924 -0.18922697 0.19339556 0.1334027
0001e0 47 3c 90 bd f7 65 0e bd 9d 9d b7 3b 93 85 28 3e
       -0.07042747 -0.03476521 0.0056035058 0.16457205
0001f0 7e 10 f6 3d 36 0e 28 be 3f 65 2f bd d3 5a 85 3d
       0.120148644 -0.16411671 -0.042821165 0.06511464
000200 22 7d 33 3e e3 77 8d bd 33 d7 cf 3d c9 2d 9a 3c
       0.17528203 -0.06907632 0.10148468 0.01882066
000210 1a 16 ac bd fc e7 89 3d fc 9e f3 3c 7a e9 e1 bd
       -0.08402653 0.06733701 0.029738896 -0.1103086
000220 e7 c9 82 3c d6 d1 2c 3c 92 3e f8 bc 54 78 4b 3d
       0.015965415 0.010548076 -0.030303273 0.0496753
000230 1d e1 c6 bd c2 53 b4 bd 8b 9f 5e bd 5a 8b 8c 3d
       -0.09710906 -0.08805038 -0.05435137 0.06862517
000240 27 81 6c bc 5e 38 45 be 45 55 34 bd e8 3c ee 3b
       -0.014435089 -0.19259784 -0.04402663 0.007270444
000250 4e 31 f3 bd ff 10 42 bd 3e ea 45 3d ed 9d 21 3e
       -0.118746385 -0.04737949 0.048319094 0.157829
000260 0b f6 ed 3d 72 76 ba bd 10 9c 13 be 7d b5 bf 3d
       0.116191946 -0.09104623 -0.14415002 0.09360788
000270 dc b5 93 3c f6 a1 c8 bd 65 f6 c5 3d 3c 3b 38 be
       0.018031053 -0.097965166 0.09666137 -0.17991346
000280 cf e4 af 3d 32 d5 58 3d 14 5a 39 3e 2c 85 3f bd
       0.08588564 0.052937694 0.18100768 -0.046757862
000290 ff 74 08 be 3a 51 4f 3e 45 6a 30 bd 20 17 4d be
       -0.1332588 0.20245829 -0.043070097 -0.20028353
0002a0 ad 0f 99 bd ed e0 26 3e d1 56 0b be 62 d2 36 3d
       -0.07473693 0.1629674 -0.13607337 0.04463423
0002b0 83 d2 4d be 45 21 7c bd cf 74 a2 bd f5 55 77 bd
       -0.20099835 -0.061555166 -0.07932436 -0.06038471
0002c0 7c 8c d5 bd 7e ab 17 be 30 ac 82 3d bd 4e be 3d
       -0.10427186 -0.14811513 0.063804984 0.09292362
0002d0 4e af 10 3d 34 d7 6f 3d b4 cd 04 be ed 60 aa 3d
       0.035323434 0.058554843 -0.12969095 0.083192684
0002e0 90 53 5d 3d 8d 0c 22 3e 87 a1 d4 3d 92 e0 50 3e
       0.05403477 0.158251 0.103823714 0.20398167
0002f0 2a 49 bb 3d de fc 34 be 6b ad f7 3d 58 81 ed bc
       0.09144814 -0.17674586 0.12093624 -0.02899234
000300 3a 10 38 3c e4 20 b3 3d 31 22 1c 3c d3 29 86 bd
       0.011234337 0.08746508 0.009529636 -0.06550946
000310 f7 e8 72 3d 39 60 a3 3d d6 fc a0 3d 26 d7 ac bd
       0.059304204 0.079773374 0.07860725 -0.08439474
000320 f9 bf 07 be 15 c2 2d be 8e 80 24 be 35 7e 66 bd
       -0.13256826 -0.16968568 -0.16064665 -0.056272704
000330 e4 11 d5 bd 29 38 25 3e 65 b2 a8 bd a7 ad b3 bd
       -0.10403803 0.16134705 -0.08237151 -0.08773356
000340 aa 16 08 be 27 b5 ea bd f7 81 f0 3d af fd 2f 3e
       -0.13289896 -0.11460333 0.11743539 0.17186616
000350 83 4d 1f 3e fc df 11 be 94 a2 8d bd a6 8b 34 be
       0.15556912 -0.142456 -0.06915775 -0.17631397
000360 89 2d d9 3d 31 29 35 3e 10 70 2e be c1 f5 17 3e
       0.10604388 0.17691495 -0.17034936 0.14839841
000370 25 ed cb bd 74 62 4c be 8e d1 82 3d 91 ba 3f be
       -0.09957341 -0.19959432 0.06387626 -0.18723513
000380 a6 da df bd 52 b5 4b 3e b9 50 33 be e9 ef 05 be
       -0.10930376 0.19893387 -0.17511262 -0.130798
000390 5b 46 6d bd 7e 55 24 3e 0e dd 0b 3e ae 30 10 3e
       -0.057928424 0.16048238 0.13658544 0.1408107
0003a0 cb a1 d3 bd 30 1a d2 bd c4 72 f1 3d af 23 3b 3e
       -0.10333594 -0.10258901 0.11789468 0.18275331
0003b0 e2 d7 18 3e a1 08 9d 3d 15 7c 62 bd 0c be 34 3d
       0.14926103 0.076676615 -0.055294115 0.044126555
0003c0 77 93 20 be 5b 40 ec bc 0c ce 4f 3e c4 c6 73 3c
       -0.15681253 -0.02883928 0.20293444 0.014878932
0003d0 81 12 22 3e 7a 89 0b 3e c4 92 4f 3e 94 2b e1 3d
       0.15827371 0.13626662 0.2027083 0.1099464
0003e0 9b af 42 be a7 1f b4 bd ed f7 b3 ba 95 58 36 3e
       -0.190123 -0.087951 -0.0013730504 0.17807229
0003f0 6f b0 eb 3c 06 c7 54 3d ec 3c ce 3c 85 77 cf bd
       0.028770654 0.051947616 0.025175534 -0.101302184

mlp_layers.2.weight f4 [400]
000000 39 73 3c 3f 7b fd 36 3f 5e c7 11 3f 8f dc 09 3f
       0.73613316 0.7148053 0.56944835 0.5385217
000010 fb b5 38 3f 1c 79 0f 3f 14 95 3f 3f ff 93 2b 3f
       0.7215268 0.56044173 0.7483685 0.670227
000020 c6 25 36 3f e3 5f 32 3f 80 ea 3e 3f 35 3b 0b 3f
       0.7115139 0.6967756 0.7457657 0.5438722
000030 1c 0a 28 3f 12 d1 38 3f 7a 41 41 3f 02 f0 33 3f
       0.65640426 0.72194016 0.75490534 0.702881
000040 28 63 1e 3f d8 37 4b 3f ab ac 29 3f 79 7e 50 3f
       0.6187005 0.79382086 0.66279095 0.8144298
000050 30 51 2f 3f b9 75 51 3f 93 1f 27 3f 5e df 30 3f
       0.6848326 0.81820256 0.65282553 0.6909083
000060 ab 85 17 3f af 67 27 3f 33 09 50 3f 6d 65 1d 3f
       0.59188336 0.65392584 0.81264037 0.6148289
000070 6b 23 e6 3e a4 6e 49 3f 26 5c f0 3e 23 77 1d 3f
       0.44948897 0.7868445 0.46945304 0.61509913
000080 f5 b2 1d 3f 78 de 09 3f 9e 06 24 3f ec 98 56 3f
       0.6160119 0.53855085 0.640726 0.8382709
000090 5c 79 34 3f e5 a6 23 3f 3a ab 24 3f 5c e8 19 3f
       0.7049768 0.63926536 0.6432377 0.6012018
0000a0 a1 75 28 3f d4 e0 27 3f 74 ab 63 3f bd 09 47 3f
       0.6580449 0.65577435 0.8893349 0.77749234
0000b0 9a 6e 13 3f a5 0e 28 3f ee e9 23 3f 0d a4 34 3f
       0.5759064 0.65647346 0.64028823 0.7056282
0000c0 f5 06 2e 3f f5 cc 11 3f a1 b0 55 3f 58 11 35 3f
       0.67979366 0.56953365 0.8347264 0.7072959
0000d0 a4 2f 1b 3f d2 6c 3a 3f 78 6f 44 3f 21 61 0d 3f
       0.6061957 0.72822297 0.7673259 0.5522633
0000e0 3b a1 4f 3f 52 ee 33 3f cb 13 36 3f fe 83 24 3f
       0.81105393 0.7028552 0.7112395 0.64263904
0000f0 e2 9e 27 3f 84 6e 1c 3f 4d 83 16 3f f5 50 06 3f
       0.6547681 0.61106133 0.587941 0.5246728
000100 16 7d 30 3f 2f d8 3a 3f 25 43 32 3f ca b6 14 3f
       0.68940866 0.7298612 0.69633704 0.58091414
000110 88 44 3a 3f 0b 81 41 3f bd 19 24 3f d1 89 72 3f
       0.7276082 0.7558753 0.64101774 0.9474154
000120 53 2b 24 3f 87 d8 1d 3f 53 c6 25 3f df f1 58 3f
       0.6412861 0.6165852 0.64755744 0.84744066
000130 81 1f 2e 3f 65 bf 26 3f 54 ec 42 3f 39 de 4b 3f
       0.6801682 0.65135795 0.7614186 0.7963596
000140 1b 2d 2b 3f 41 26 4a 3f 6c 35 29 3f 8d c0 38 3f
       0.668657 0.7896462 0.6609714 0.7216881
000150 7c 34 1c 3f 46 1b 11 3f d7 39 1b 3f 41 f1 39 3f
       0.61017585 0.5668224 0.6063513 0.7263375
000160 c2 7e 2a 3f d8 e8 30 3f 19 d6 0e 3f 4c 27 29 3f
       0.6659967 0.6910529 0.5579544 0.6607559
000170 5c 25 53 3f bc 8e 40 3f 30 cb 38 3f e4 ba 8a 3e
       0.8247888 0.75217795 0.7218504 0.2709571
000180 03 88 14 3f b5 a7 62 3f 67 c1 2e 3f 4d e1 39 3f
       0.5802004 0.8853715 0.6826386 0.72609407
000190 8e 14 14 3f 50 ee 0f 3f 91 ff 32 3f 89 47 42 3f
       0.57843864 0.5622301 0.69921213 0.75890404
0001a0 a6 bf 0c 3f 11 30 13 3f 59 b7 0f 3f f8 b3 04 3f
       0.5497993 0.5749522 0.5613914 0.5183711
0001b0 d8 fc 2f 3f c9 af 65 3f 88 96 21 3f ce 27 34 3f
       0.68745184 0.8972135 0.6312032 0.7037324
0001c0 7e e1 72 3f 50 cf 6b 3f 18 85 3a 3f 12 bb 49 3f
       0.94875324 0.9211321 0.72859335 0.7880107
0001d0 a2 db 52 3f eb e8 2b 3f b9 64 34 3f 2c 60 ee 3e
       0.82366383 0.6715228 0.7046619 0.46557748
0001e0 56 bb 20 3f df f6 29 3f 6b d2 2d 3f 70 00 44 3f
       0.6278585 0.6639232 0.678992 0.7656317
0001f0 a6 fa 24 3f 03 5a 27 3f f2 0c 2f 3f 29 ff 56 3f
       0.6444496 0.6537172 0.6837913 0.83983094
000200 28 3c 20 3f f2 ca 33 3f fa 38 12 3f b3 d8 01 3f
       0.6259179 0.70231545 0.5711819 0.5072128
000210 2f d3 6c 3f 39 ae 57 3f 7e f6 26 3f 79 db 36 3f
       0.9250974 0.8425022 0.6521987 0.7142864
000220 f7 67 2b 3f 75 0b 55 3f 66 15 33 3f 59 79 1c 3f
       0.6695551 0.8322061 0.69954526 0.6112266
000230 8a 57 19 3f e1 a6 45 3f d2 c1 0d 3f 27 9f 07 3f
       0.598992 0.7720776 0.5537387 0.5297722
000240 a3 af 52 3f 64 07 2f 3f f3 dd 37 3f 1e f9 34 3f
       0.8229925 0.6837065 0.7182304 0.7069262
000250 2c dc 41 3f 1f 93 0f 3f 50 0a 5f 3f 93 e6 12 3f
       0.7572658 0.56083864 0.8712511 0.5738308
000260 34 82 2b 3f 55 d6 11 3f 5c c1 0d 3f 6b 8d 1c 3f
       0.6699555 0.5696767 0.5537317 0.61153287
000270 f0 4d 70 3f d6 e4 48 3f 61 bb 52 3f 07 64 3a 3f
       0.93868923 0.78474176 0.8231717 0.7280888
000280 6a 69 e3 3e f7 59 1e 3f 91 14 40 3f 80 cf 18 3f
       0.44416362 0.61856025 0.7503138 0.5969162
000290 0c 84 36 3f 31 2e 4f 3f b0 56 0b 3f 55 04 4b 3f
       0.7129524 0.8092986 0.5442915 0.79303485
0002a0 7d c9 29 3f d3 76 21 3f 25 78 36 3f 66 aa f7 3e
       0.6632307 0.63071936 0.71277076 0.4837219
0002b0 96 a9 27 3f 39 99 15 3f 20 eb 14 3f 96 15 2a 3f
       0.6549314 0.58436924 0.5817127 0.6643919
0002c0 a5 b7 11 3f c6 96 33 3f 61 f0 27 3f 31 91 39 3f
       0.56920844 0.70151937 0.65601164 0.7248717
0002d0 48 a6 21 3f 90 b1 28 3f f4 03 15 3f 21 af 3c 3f
       0.6314435 0.6589594 0.58209157 0.73704726
0002e0 b5 7b 3b 3f a9 c9 60 3f e0 34 3d 3f 16 bf 4f 3f
       0.73235637 0.8780771 0.73908806 0.8115095
0002f0 b0 5c 15 3f 31 94 1b 3f 9a 5d 2c 3f 1d c1 2f 3f
       0.58344555 0.60773 0.67330325 0.6865404
000300 b9 0b 31 3f 13 49 30 3f 78 f4 4e 3f 5c d0 88 3f
       0.6915851 0.688615 0.8084178 1.0688586
000310 eb 3d 2b 3f 3c 62 33 3f 9c 3f ab 3e a5 1c 07 3f
       0.66891354 0.7007177 0.33446968 0.52778083
000320 ec 8b 68 3f 86 31 37 3f 9b 54 be 3e a1 5e 33 3f
       0.90838504 0.7155994 0.37173924 0.7006627
000330 15 69 1b 3f 1a e6 3e 3f c2 ce 23 3f fe d4 20 3f
       0.6070722 0.7456986 0.6398736 0.62825
000340 54 66 30 3f 9f e8 23 3f bd 43 27 3f 50 43 1a 3f
       0.6890614 0.64026827 0.65337735 0.6025896
000350 38 a2 25 3f 63 0b 32 3f 7c 81 4b 3f 61 67 c3 3e
       0.6470065 0.69548625 0.7949445 0.3816481
000360 c2 35 b5 3e 36 26 32 3f 9c 5e 27 3f 85 b5 5f 3f
       0.35392576 0.69589555 0.6537874 0.8738635
000370 24 00 1f 3f 82 3d 38 3f 97 97 ad 3e 41 43 3e 3f
       0.6210959 0.71968853 0.33904716 0.7432137
000380 7e bb 22 3f a5 a1 a8 3e 80 3e 31 3f 64 41 21 3f
       0.6356734 0.32935825 0.6923599 0.62990403
000390 ae d4 34 3f c4 66 3f 3f 13 bd 36 3f 18 c5 43 3f
       0.70637023 0.7476618 0.71382254 0.76472616
0003a0 27 0a 4d 3f 3d df 5c 3f 4f 93 1e 3f 05 07 27 3f
       0.80093616 0.86278135 0.61943525 0.65245086
0003b0 a4 05 27 3f 5c e9 0e 3f 82 11 36 3f 8b bd 35 3f
       0.6524298 0.5582483 0.71120465 0.70992345
0003c0 38 26 2a 3f b8 f4 11 3f 78 40 3e 3f 3f bd fc 3e
       0.6646457 0.57014036 0.7431712 0.49363133
0003d0 46 96 51 3f 19 da 20 3f 3d b0 1e 3f 44 eb 3d 3f
       0.81869924 0.6283279 0.6198767 0.7418711
0003e0 67 78 19 3f 76 bc 0a 3f c3 f5 15 3f b9 1b 3d 3f
       0.59949344 0.5419382 0.5857813 0.73870426
0003f0 98 37 33 3f 12 39 65 3f dd cd 37 3f 0a 0c f6 3e
       0.70006704 0.8954021 0.717985 0.4805606

mlp_layers.2.bias f4 [400]
000000 70 cc 2e bf 82 25 43 bf 51 88 a8 bf 4a 4f 65 bf
       -0.68280697 -0.7622911 -1.31666 -0.8957411
000010 d4 d1 8d bf d7 82 ed be f3 49 a7 bf 10 81 88 bf
       -1.107966 -0.46388885 -1.3069443 -1.0664387
000020 af bd 1a bf 5a 29 c9 be 88 8a b0 bf e1 e6 3d bf
       -0.60445684 -0.3928936 -1.3792276 -0.7418042
000030 9b 68 8d bf 99 6a 7f bf 7a ca 48 bf e6 cc 2c bf
       -1.1047548 -0.9977203 -0.78433955 -0.6750015
000040 e9 37 6e bf 3c fd 5a bf 1d 46 79 bf 1c 74 87 bf
       -0.9305406 -0.85542655 -0.9737261 -1.0582309
000050 b5 f5 3b bf af c0 6f bf bc 6c 36 bf 44 fe 7f bf
       -0.73421794 -0.93653387 -0.71259665 -0.99997354
000060 09 56 21 bf 60 c9 97 be e9 b6 7a bf 8a 56 1e bf
       -0.63021904 -0.29645824 -0.9793535 -0.618508
000070 80 22 b7 be 05 8a 8e bf d9 76 c5 be 02 a0 35 bf
       -0.3576851 -1.113587 -0.38567236 -0.7094728
000080 be b7 15 bf 8d 4f 52 bf f6 d2 76 bf 6b 13 73 bf
       -0.58483493 -0.82152635 -0.9641565 -0.94951504
000090 3f 6d 5d bf c8 5e 27 bf 23 7d 66 bf f8 cc 01 bf
       -0.8649482 -0.65379 -0.90034693 -0.5070338
0000a0 a3 1a 62 bf ca d4 83 bf 70 77 99 bf 81 63 4d bf
       -0.88321894 -1.0299313 -1.1989574 -0.80229956
0000b0 7a 1f 54 bf 91 b0 6d bf c2 87 f5 be f6 fc d0 bf
       -0.8286053 -0.92847544 -0.47955137 -1.6327198
0000c0 55 18 f2 be 7b 65 57 bf 8e 50 75 bf c3 5e 7b bf
       -0.4728419 -0.8413922 -0.9582604 -0.9819147
0000d0 f6 e0 8b bf 9d 04 36 bf 07 1f 19 bf fe bb 52 bf
       -1.0928028 -0.7110079 -0.5981297 -0.82318103
0000e0 68 08 3f bf 62 c2 0c bf f5 f8 10 bf f9 89 44 bf
       -0.746222 -0.54984105 -0.5662988 -0.7677303
0000f0 c4 65 4b bf 68 9b 6b bf 78 2b 8f bf 39 47 20 bf
       -0.7945216 -0.92034006 -1.1185141 -0.6260868
000100 e1 fb 05 bf 14 d4 83 bf be 71 34 bf 66 71 0f bf
       -0.5233746 -1.0299096 -0.70486057 -0.5603241
000110 ce 03 55 bf 6d 7a 27 bf e9 79 76 bf bb ff 79 bf
       -0.8320893 -0.6542118 -0.9627977 -0.9765584
000120 34 19 63 bf 43 d8 4f bf e2 21 9f bf c2 4a 5b bf
       -0.8871033 -0.81189364 -1.2432215 -0.85660946
000130 22 ea 44 bf 84 c1 a4 bf c9 34 47 bf e9 a1 77 bf
       -0.7691976 -1.2871556 -0.7781492 -0.9673143
000140 59 eb 35 bf ae b7 44 bf 9a c7 87 bf de 68 86 bf
       -0.7106224 -0.7684277 -1.0607789 -1.0500753
000150 63 e6 ef be 39 cc 2b bf 9f 25 26 bf f5 0a 90 be
       -0.4685546 -0.67108494 -0.64901155 -0.2813336
000160 77 cc 36 bf 93 17 4a bf 03 b4 06 bf cf d1 85 bf
       -0.7140574 -0.7894222 -0.52618426 -1.0454654
000170 7b 5c 45 bf e2 89 a5 bf 40 15 6a bf 59 63 67 be
       -0.7709424 -1.2932703 -0.91438675 -0.22596492
000180 e9 76 c0 be d7 da 7a bf ee c4 6b bf 60 56 57 bf
       -0.3759072 -0.97990173 -0.92097366 -0.8411617
000190 e6 95 73 bf ca b8 03 bf e5 5b 4a bf a1 05 87 bf
       -0.951506 -0.5145384 -0.7904647 -1.0548593
0001a0 9c 84 6c bf e5 d6 1b bf d1 94 80 bf 73 eb 47 bf
       -0.92389846 -0.6087478 -1.0045415 -0.7809364
0001b0 2e 3e 74 bf cd 75 3f bf 77 9a 58 bf 9b 65 6c bf
       -0.9540738 -0.74789125 -0.84610695 -0.9234254
0001c0 f2 96 7c bf ab 37 49 bf 92 e1 a3 bf 44 e5 44 bf
       -0.98667824 -0.7860057 -1.2803214 -0.7691233
0001d0 b0 77 20 bf c4 33 2f bf 92 0c 53 bf 21 93 14 bf
       -0.6268263 -0.68438363 -0.82441056 -0.58037
0001e0 75 21 10 bf 78 64 87 bf b2 04 24 bf 93 3a 76 bf
       -0.5630105 -1.0577536 -0.64069664 -0.9618313
0001f0 1d a7 31 bf a9 15 82 bf 1a 3a 69 bf 50 e0 87 bf
       -0.6939562 -1.016286 -0.9110428 -1.061533
000200 b4 d8 51 bf be d7 2a bf c6 fd 8e bf 52 47 f7 be
       -0.8197129 -0.66735446 -1.1171196 -0.482966
000210 3a 42 53 bf a2 31 84 bf e8 5c 1f bf bc 8a 73 bf
       -0.8252293 -1.0327647 -0.6225114 -0.95133567
000220 40 9c 3c bf 6e 88 58 bf 5f 7f 38 bf 3d 6d 4c bf
       -0.7367592 -0.84583175 -0.7206935 -0.79854184
000230 2c 5e 02 bf 49 bb 24 bf 95 c8 08 bf dc 91 cc be
       -0.50924945 -0.64348274 -0.53431064 -0.39955032
000240 25 c6 48 bf f7 34 a1 bf 0c 26 44 bf 83 a3 65 bf
       -0.78427345 -1.2594289 -0.76620555 -0.89702624
000250 aa b3 68 bf f6 70 fb be e5 02 51 bf 80 17 19 bf
       -0.90899146 -0.4910962 -0.8164504 -0.59801483
000260 f8 10 76 bf 2c cb 3a bf 1c da a4 be d7 f9 46 bf
       -0.9611964 -0.72966266 -0.32197654 -0.77724975
000270 82 11 97 bf 7d 2f 12 bf 6c 9a 68 bf 3b 58 67 bf
       -1.1802218 -0.5710371 -0.9086063 -0.90369004
000280 e5 f0 99 be a0 c1 3c bf a4 c2 0f bf a5 bd 46 bf
       -0.300666 -0.7373295 -0.56156373 -0.77633125
000290 93 26 6c bf 67 d2 83 bf 30 eb 17 bf 5f 3a 65 bf
       -0.9224636 -1.0298585 -0.5934324 -0.8954219
0002a0 79 34 85 bf d2 21 57 bf 6d df 5c bf 1c 10 5d be
       -1.0406638 -0.8403598 -0.8627842 -0.21588176
0002b0 5f 4a 49 bf e1 dc 4b bf 76 86 9d bf 48 65 65 bf
       -0.78629106 -0.7963391 -1.2306659 -0.8960767
0002c0 b0 f0 04 bf 4a 69 ce bf 01 5b 86 bf 1d 88 55 bf
       -0.5192976 -1.6125882 -1.0496522 -0.8341082
0002d0 71 ec 2f bf 27 45 0c bf 16 2b 0e bf fb ba 75 bf
       -0.68720156 -0.5479302 -0.55534494 -0.95988435
0002e0 4a bd 51 bf 05 d1 0a bf 86 a9 84 bf 4e 08 7f bf
       -0.8192946 -0.5422519 -1.0364234 -0.99622047
0002f0 86 70 1c bf 4a 48 34 bf 85 d9 60 bf 1f 0d 81 bf
       -0.611092 -0.70422804 -0.8783191 -1.0082129
000300 f0 ec 13 bf fd 1e 41 bf d3 f0 91 bf c3 44 5f bf
       -0.5778341 -0.7543791 -1.1401619 -0.872143
000310 91 b5 95 bf b2 11 85 bf a5 e3 e9 bd d6 b2 b3 be
       -1.1696035 -1.0396025 -0.11420373 -0.35097378
000320 8b b2 58 bf 1d e8 59 bf 78 d6 b0 bd 80 6d 6a bf
       -0.84647435 -0.851198 -0.08634657 -0.91573334
000330 fb ab 9e bf 98 93 61 bf e7 5e 54 bf c5 ea 21 bf
       -1.2396234 -0.88115835 -0.8295731 -0.63248855
000340 63 97 f6 be 35 c6 09 bf 8c 54 13 bf df 83 4e bf
       -0.48162374 -0.53818065 -0.57550883 -0.8066997
000350 a3 9d 81 bf 5a 30 84 bf 42 b5 ba bf 1c e1 af be
       -1.0126232 -1.0327256 -1.4586565 -0.34351432
000360 18 c9 3a be 6c 70 33 bf dd cc 3d bf af b3 65 bf
       -0.18240774 -0.7009342 -0.7414072 -0.897273
000370 34 c2 29 bf 02 aa 6d bf ea 8b df bd f5 21 76 bf
       -0.66311955 -0.92837536 -0.10915358 -0.96145564
000380 97 cc c8 be c1 40 62 bd a8 15 87 bf 00 66 36 bf
       -0.3921859 -0.055237535 -1.0553484 -0.7124939
000390 13 04 0e bf 9c 4b 79 bf 2a dd 2c bf 9c 90 35 bf
       -0.55474967 -0.97380996 -0.6752497 -0.7092378
0003a0 fa ab 6d bf 12 7f 83 bf f3 9d 52 bf 4d 19 78 bf
       -0.9284054 -1.0273154 -0.8227226 -0.96913606
0003b0 26 e5 1a bf 21 37 40 bf fa 12 47 bf 04 82 80 bf
       -0.605059 -0.7508412 -0.7776333 -1.0039678
0003c0 31 75 8b bf 3c df 60 bf af 0d 6f bf d4 d9 1c bf
       -1.0895139 -0.8784063 -0.93380255 -0.6126988
0003d0 96 20 c2 bf 7c 50 5c bf 2d 9d 66 bf 13 28 fa be
       -1.5166194 -0.8606031 -0.9008358 -0.488587
0003e0 1c a6 6f bf 6d 34 27 bf 9b 30 11 bf 65 97 1a bf
       -0.9361284 -0.6531437 -0.5671479 -0.6038726
0003f0 52 63 97 bf d9 ff 1b bf 56 2d 41 bf ec 4c 02 bf
       -1.1827185 -0.6093727 -0.754598 -0.50898623

mlp_layers.2.running_mean f4 [400]
000000 11 0d f0 bd 54 34 31 be 7e 3c 07 3c 18 3e f3 bc
       -0.11721242 -0.17305118 0.008254169 -0.029692695
000010 e7 e2 bf bc 3b fe b0 bd 9a 30 1e be 1d f2 f2 3d
       -0.023423625 -0.086422406 -0.15448228 0.11862586
000020 4e aa 46 3c 83 9b 04 bd 70 bc 2b 3e fe c4 e1 3b
       0.012125565 -0.03237487 0.16771102 0.0068899384
000030 f7 fb 93 3d 8f 30 38 3e 00 e9 b4 3d ab e5 a3 bb
       0.07225793 0.17987274 0.08833504 -0.005001744
000040 d2 c0 c6 3d c0 84 c2 3d 5d 2b 33 3d 81 99 4d be
       0.09704746 0.09497976 0.043742526 -0.20078088
000050 06 cc d2 3d c0 c8 e6 bd 6d 49 b6 3d be d1 ff bc
       0.10292821 -0.11268759 0.089007236 -0.031227943
000060 49 78 9c 3d 01 a8 35 3d 9c a2 ac bd 45 59 fe 3d
       0.0764013 0.044349674 -0.08429453 0.124193706
000070 13 9e 16 be 27 2f 28 be 4c b5 42 3d 47 f4 38 3e
       -0.14708738 -0.16424237 0.04753618 0.18061934
000080 ca 03 a3 bc fb 4d 28 3e 1e b3 91 bd 9f a3 9e 3d
       -0.019899268 0.16435997 -0.07114242 0.07746052
000090 e4 1f d2 bd 21 fa ac 3b 18 70 bb bd db 3e f6 bd
       -0.10259989 0.005278841 -0.091522396 -0.120237075
0000a0 fd cd fb bd b8 3b c2 3d 19 a2 09 be 22 6b b5 bc
       -0.122951485 0.09484047 -0.13440742 -0.022145811
0000b0 e7 a5 e4 3d 80 80 33 3e 75 76 06 3c 95 17 3b be
       0.11164456 0.17529488 0.008206953 -0.18270715
0000c0 e9 20 10 3e ea c8 29 3e 4e 43 e8 3d a3 3b cc bd
       0.14075054 0.16580549 0.11340962 -0.09972312
0000d0 1c 33 9f bd 3c 99 e0 3d 74 55 11 bd 24 a1 35 be
       -0.0777342 0.10966727 -0.035481885 -0.17737252
0000e0 1b 88 a1 ba f0 fa 64 bc c2 84 af 3a 3e 64 cf ba
       -0.0012323888 -0.013975844 0.0013391005 -0.0015822721
0000f0 0d c8 4d be 44 25 4e be 11 f1 cc bd 7b ca 0d be
       -0.20095845 -0.20131403 -0.10006917 -0.13846771
000100 df c2 af bd 50 52 3a be ec 61 e1 3c f2 79 f0 bd
       -0.085820906 -0.18195462 0.027512513 -0.11742009
000110 80 ff 0c be 73 70 9b bd 22 b3 bd 3d 54 bd 14 3e
       -0.1376934 -0.07589807 0.092626825 0.14525348
000120 97 43 8a 3c 53 1a 4b 3e d4 8a ca bd db dd 8b 3d
       0.016877932 0.1983426 -0.098897606 0.06829425
000130 b9 15 db 3d 58 eb 3c 3d 61 43 c5 3d 16 b9 af bb
       0.10697503 0.04612288 0.09631992 -0.00536264
000140 14 97 f3 bc 20 23 78 3d 8f 9c 3a 3e 23 8c 32 3d
       -0.029735126 0.060580373 0.18223785 0.043590676
000150 6b e9 1a bd b1 be 97 bc 61 49 12 be 40 e9 88 bd
       -0.03782026 -0.018523546 -0.14285804 -0.06685114
000160 66 1d 49 be ee 46 61 bd 6e 38 d5 3d 3a a7 40 3e
       -0.19640121 -0.054999284 0.10411154 0.18813792
000170 93 80 38 3c 00 81 0c 3d 06 e1 2b bc 1a 28 39 be
       0.011261123 0.03430271 -0.0104906615 -0.18081704
000180 ff 48 28 3e 90 b9 59 3b b2 15 0d be 31 55 9d bd
       0.16434096 0.0033222176 -0.13777807 -0.076822646
000190 e5 00 40 bd c8 81 21 3b ea b8 ef 3c c5 e8 6a bb
       -0.046875853 0.0024644006 0.029262979 -0.0035844308
0001a0 70 3e 34 3e 0d a9 1e be 2d 6e 37 be b9 bd 43 be
       0.17601943 -0.15494175 -0.17913122 -0.19115342
0001b0 5d f0 2e 3d bd 06 26 3e 11 ca 2f 3e a1 ff 20 3c
       0.042709697 0.16213508 0.17166926 0.009826572
0001c0 44 31 57 ba 12 cb f7 3d 31 09 d4 3d 85 e1 1a be
       -0.000820894 0.120992795 0.103533156 -0.15125091
0001d0 93 6c 74 bd b4 5c 42 be 22 a5 46 3e d8 3a 07 3e
       -0.059673857 -0.18980676 0.1939893 0.13206041
0001e0 02 01 91 bd c1 5c 09 bd 6e 4c a1 3b a1 b7 28 3e
       -0.0708027 -0.033535723 0.004922441 0.16476299
0001f0 8b 02 f7 3d bf 21 27 be 87 99 29 bd 6c 86 84 3d
       0.12061032 -0.16321467 -0.04140618 0.064709514
000200 07 43 33 3e 10 70 90 bd ce 46 d0 3d 8f 8d 9b 3c
       0.17506038 -0.07052624 0.10169755 0.018988399
000210 41 2e ab bd 92 91 87 3d 24 1b eb 3c 2c 93 e4 bd
       -0.083584316 0.06619562 0.028699465 -0.11160883
000220 cf 57 80 3c 88 11 2c 3c 9d 73 fb bc 66 dd 4f 3d
       0.01566687 0.010502227 -0.030694777 0.05074825
000230 0d 09 c6 bd 83 e9 b4 bd f8 c3 60 bd 40 35 8c 3d
       -0.09669695 -0.08833601 -0.05487439 0.06846094
000240 d9 4f 4f bc df 99 45 be c9 36 33 bd 1b 53 d2 3b
       -0.0126533145 -0.19296978 -0.04375342 0.0064185984
000250 68 62 f1 bd a8 fd 47 bd a3 0d 4c 3d 19 6e 21 3e
       -0.11786348 -0.04882589 0.049817692 0.15764655
000260 fd b7 ed 3d d1 d3 bc bd a9 f5 12 be 9a 86 c0 3d
       0.116073586 -0.09220088 -0.14351524 0.09400673
000270 98 56 a2 3c 2a 17 c7 bd 2f 23 c7 3d 8e 9d 38 be
       0.019816682 -0.09721215 0.097235076 -0.18028852
000280 28 21 b0 3d 9d fe 56 3d 39 39 3a 3e a0 f4 3e bd
       0.08600074 0.052488912 0.18185891 -0.04662001
000290 b2 f2 08 be 04 ba 4e 3e 87 14 2f bd 1e e0 4d be
       -0.13373831 0.20188147 -0.042744186 -0.20105025
0002a0 32 1b 9a bd bd c1 27 3e d5 7c 0a be 71 3e 33 3d
       -0.07524718 0.16382499 -0.13524182 0.04376072
0002b0 bf 80 4e be 31 e9 76 bd fa d8 9f bd 6d 9a 7a bd
       -0.201663 -0.060280982 -0.07805057 -0.06118243
0002c0 0f cf d7 bd 32 7b 17 be a6 aa 81 3d 27 7f bf 3d
       -0.1053754 -0.14793089 0.06331377 0.09350424
0002d0 80 86 10 3d 00 8b 6e 3d 45 da 02 be bd 37 aa 3d
       0.03528452 0.05823803 -0.12778576 0.083114125
0002e0 7c 67 61 3d 44 0d 23 3e 90 57 d6 3d bf 9f 52 3e
       0.05503033 0.15923029 0.1046592 0.20568751
0002f0 ef 8d ba 3d 34 f6 33 be 72 30 f8 3d 33 22 e9 bc
       0.09109103 -0.17574388 0.12118615 -0.02845869
000300 0a 9a 22 3c 78 2f b2 3d 35 60 e3 3b 12 71 87 bd
       0.009924421 0.0870046 0.006938959 -0.06613363
000310 39 97 73 3d 20 c4 a2 3d 45 05 a0 3d 93 3b ae bd
       0.05947039 0.07947564 0.07813505 -0.08507457
000320 9e b2 08 be a7 89 2d be 87 2c 24 be 25 45 62 bd
       -0.13349387 -0.16947041 -0.16032611 -0.055241723
000330 d3 48 d5 bd 00 77 25 3e 5f e0 a9 bd 90 04 b3 bd
       -0.10414281 0.16158676 -0.082947485 -0.087411046
000340 a6 0d 08 be b5 2d ec bd 63 e7 ee 3d cd f4 2f 3e
       -0.13286456 -0.115321554 0.11665227 0.17183228
000350 fb b9 1f 3e 71 f8 11 be 89 24 8d bd e3 4d 35 be
       0.1559829 -0.14254929 -0.06891734 -0.17705493
000360 db ee d8 3d cc a4 35 3e 05 b6 2e be 11 53 19 3e
       0.10592433 0.17738646 -0.17061622 0.14973094
000370 75 36 cd bd 82 05 4b be 06 d4 83 3d e0 69 40 be
       -0.100201525 -0.1982632 0.06436925 -0.18790388
000380 30 8b dd bd ba 0e 4b 3e 17 0b 33 be 11 dc 05 be
       -0.108175635 0.19829836 -0.17484699 -0.1307223
000390 46 45 6d bd b3 bd 24 3e b5 16 0b 3e d0 83 12 3e
       -0.057927392 0.1608799 0.13582881 0.14308095
0003a0 4c d3 d4 bd 12 0b d4 bd 66 73 f2 3d f3 f2 3b 3e
       -0.10391864 -0.10353674 0.11838417 0.18354397
0003b0 4a dd 18 3e b8 71 9e 3d ee 36 5b bd b5 dc 30 3d
       0.14928165 0.07736534 -0.053519182 0.043179233
0003c0 96 dd 20 be 26 6b ee bc b7 32 50 3e f9 9b 73 3c
       -0.15709528 -0.029103827 0.20331846 0.01486873
0003d0 e4 5e 22 3e 65 10 0c 3e c3 73 4f 3e 2b ed e0 3d
       0.1585651 0.13678129 0.20259003 0.10982736
0003e0 f7 ae 43 be 9e 2d b4 bd 6f c5 08 bb 48 8d 37 3e
       -0.19109713 -0.08797763 -0.0020869633 0.17924988
0003f0 19 1b f0 3c ac d0 54 3d 30 fd c4 3c 09 d1 d1 bd
       0.029309796 0.051956818 0.02404651 -0.102449484

mlp_layers.2.running_var f4 [400]
000000 93 93 68 40 e9 93 f2 3f ae a6 c7 3f 92 8a 04 3f
       3.6340072 1.8951389 1.5597742 0.5177394
000010 0e 4f 87 3f 44 84 8e 3f 21 5c 7e 40 fc a8 97 3f
       1.0571 1.1134114 3.974373 1.1848445
000020 64 7e 93 40 dc cd 05 40 45 f7 24 40 9a c7 45 3f
       4.6091785 2.0906897 2.5775921 0.7725769
000030 e5 e7 94 3f 11 27 e9 3f 52 29 c3 3f 0e 27 ed 3f
       1.1633269 1.8215047 1.5246985 1.8527544
000040 4f 23 7a 3f ac 49 39 40 df 37 51 3f 59 9a af 3f
       0.97710127 2.8951216 0.8172588 1.3718978
000050 9e 0f 79 40 4a f0 ca 3f 6d 71 08 40 c3 aa eb 3f
       3.8915782 1.585458 2.131923 1.8411487
000060 18 63 2f 3f f4 66 56 41 b1 da ca 3e 8d 25 15 3f
       0.6851058 13.400135 0.39619973 0.5826042
000070 c5 9e a8 3e 7c 05 13 3f c6 2e df 3f 2f 05 f1 3f
       0.32933632 0.57430243 1.7436149 1.8829707
000080 08 c7 d6 3f 78 db 26 3f d5 27 0f 40 a1 f3 be 3f
       1.677949 0.6517863 2.2368062 1.49181
000090 ad 8a 8c 3f de 76 1f 3f cf ff 87 3f a8 52 a4 3f
       1.097982 0.6229075 1.0624942 1.2837725
0000a0 5d c5 0c 40 21 a3 a1 3f 64 bc d4 3f dd 0c 18 40
       2.199546 1.2627908 1.6619992 2.375785
0000b0 16 71 15 3f 26 65 01 40 54 59 da 3e fc ce 93 3f
       0.5837568 2.0217986 0.42646277 1.1547542
0000c0 8c 6a 83 40 bb e0 8a 3e 57 e7 8f 40 94 2d 36 3f
       4.106756 0.2712458 4.4969897 0.71163297
0000d0 3b 6c 14 40 aa c3 ad 3f d0 31 95 3f 33 d8 79 3f
       2.3191059 1.3575337 1.1655827 0.9759552
0000e0 bf f2 bc 40 8f a4 2f 40 fd c5 30 40 33 0b 4e 3f
       5.904632 2.7444189 2.7620842 0.8048584
0000f0 d9 0f d9 3f 71 d6 ab 3f c1 00 bf 3f 07 8d 8b 3f
       1.6957961 1.3424817 1.4922105 1.0902413
000100 7e 9a 84 3f 1c c2 32 40 a7 65 1e 40 8f 16 1b 3f
       1.0359647 2.7930975 2.4749544 0.60581297
000110 eb 04 2d 3f b9 99 6c 3f 62 d2 5e 3f d5 96 8c 40
       0.6758563 0.9242206 0.8703977 4.393412
000120 72 3b 59 3f 6e c1 fc 3f b8 2a 16 40 08 c5 69 40
       0.8485633 1.974653 2.3463573 3.6526508
000130 7f 14 bd 3f 53 e6 9a 3f 36 cd d3 3f 7d f2 fd 3e
       1.477188 1.2101539 1.6547 0.49599066
000140 40 9c 4a 3f 19 82 19 40 e0 56 92 3f 7b 44 8f 3f
       0.7914467 2.3985655 1.1432762 1.1192774
000150 88 e5 4e 3f ba 64 90 3f 10 13 b0 3f 97 2b d1 40
       0.80818987 1.1280739 1.3755817 6.536571
000160 95 ca d4 3f 1c 5d 20 40 50 b5 91 40 cd 79 a0 3f
       1.6624323 2.505683 4.553383 1.2537171
000170 0e ef 45 3e 39 6f 8d 3f 14 c6 92 3f 86 bf 36 3f
       0.19329473 1.1049567 1.1466699 0.7138599
000180 e6 09 0f 40 f8 93 12 40 25 b9 da 3e 60 6b db 3e
       2.2349792 2.2902813 0.4271938 0.42855358
000190 27 10 b5 3f bd 3d c7 3f 72 b3 1e 3f 52 4f 9a 40
       1.4145554 1.5565716 0.6199256 4.8221827
0001a0 e3 92 05 3f ce 63 fe 3f d1 b1 3e 3f 73 5b 3a 40
       0.52177256 1.9874208 0.74490076 2.9118316
0001b0 21 c8 9b 3e 15 5c bb 3e 44 bb 84 40 1d 19 15 3f
       0.30426124 0.3659369 4.1478596 0.58241445
0001c0 b1 4a 74 40 16 4f be 40 a1 46 93 40 6b 4b 5a 3f
       3.8170588 5.947154 4.6023717 0.8527133
0001d0 e9 64 5f 3f ce 37 bf 3f a0 7e 13 3f db e3 60 3f
       0.8726335 1.4938905 0.5761509 0.8784768
0001e0 51 d1 4a 40 aa 6a a6 3f 2f 4e 72 3f f6 1f 84 3f
       3.1690257 1.3001301 0.9465055 1.0322254
0001f0 ad f4 fc 3f 83 f9 2a 3f f4 6b 41 3f 3a 8d be 40
       1.9762169 0.66786975 0.7555535 5.9547396
000200 88 19 ee 3f ca 22 2c 40 41 2d 98 3f 31 61 f8 3f
       1.8601542 2.6896234 1.188881 1.940466
000210 ce 9c b2 3f ac da db 3f d7 e8 e8 3f e9 7a e3 3f
       1.3954103 1.7176108 1.8196057 1.7771884
000220 35 84 c4 3f 34 c2 8f 3f b5 df ce 3f 46 33 a4 3f
       1.5352846 1.1231141 1.616202 1.2828147
000230 ca 3c 66 3f d4 11 a1 3f 00 ad ab 3f 22 dc 03 40
       0.89936507 1.2583566 1.341217 2.0603108
000240 c0 dc 88 3f 96 d6 f7 3f 6f b3 87 3f 13 cc aa 3f
       1.0692368 1.9362361 1.0601634 1.3343529
000250 9e d5 52 40 92 a6 96 3f 3d 6c 0d 40 d8 f5 77 3f
       3.2942882 1.1769583 2.2097313 0.968595
000260 c2 c3 b3 3f b7 83 15 3f 78 f4 0b 40 36 f5 b4 3f
       1.4044116 0.58404106 2.1867962 1.4137332
000270 96 3d ad 40 e9 cb d0 40 b5 6e 37 40 3a f9 a6 3f
       5.413768 6.5248914 2.866132 1.3044808
000280 d6 65 77 40 7a 95 61 3f 7e 83 ea 3f d1 c6 d2 3e
       3.8655906 0.8811871 1.8321378 0.4116731
000290 8d 90 25 3f 30 ab 2e 40 53 0e ca 3f 95 9f 09 40
       0.6467369 2.7291985 1.5785621 2.150365
0002a0 86 e5 48 3f 80 d0 87 3e 26 b7 d5 3e 42 45 95 40
       0.78475225 0.2652626 0.41741294 4.6647043
0002b0 45 0a 12 3f cc f6 31 40 e0 c7 08 3f 92 91 91 3f
       0.5704692 2.7806883 0.53429985 1.137255
0002c0 ee a2 c9 3f 2f 80 c3 3f 68 cf de 40 de 84 96 3f
       1.5752847 1.5273494 6.962818 1.1759298
0002d0 61 e5 79 3f a5 27 c1 3f df 59 bd 3f 78 e9 00 40
       0.9761563 1.5090224 1.4793051 2.0142498
0002e0 89 84 76 3f f5 04 0b 41 4c bc d2 3f c6 b3 4a 40
       0.9629598 8.68871 1.6463714 3.1672225
0002f0 fd 84 a1 3f 36 f1 75 40 2b 76 d2 3e b3 15 b1 3f
       1.261871 3.8428473 0.4110578 1.3834747
000300 e7 77 37 40 32 9e 6a 3f 17 fd 8f 40 a9 91 82 3e
       2.8666933 0.91647637 4.4996448 0.25501755
000310 9a 51 f3 3f 53 fe 8b 40 71 0d 7c 3f 73 09 ed 3f
       1.9009278 4.3747954 0.9845801 1.8518509
000320 d9 df 43 3f 4c cb 64 3f 31 40 19 40 c0 4b 70 3f
       0.7651344 0.89372706 2.394543 0.93865585
000330 d5 1c af 3f 67 b0 f2 3f 7a b3 07 3f f8 ab 77 3e
       1.3680674 1.8960084 0.53008235 0.24186695
000340 c0 23 04 41 f5 e1 6b 3f ea 5a a9 3f b6 d7 92 3f
       8.258728 0.9214166 1.323087 1.147208
000350 8e 4f a7 3e 5a bc f1 3f bb 4e 9b 3f 4c 2a 8d 3f
       0.32677883 1.8885605 1.2133402 1.1028533
000360 1a 50 55 40 fb 4a 7f 3e 86 da 52 40 fe 0d 9c 40
       3.333014 0.24930947 3.2945876 4.876708
000370 63 64 c4 3f e0 a7 db 3f 98 cd d1 3f bc ae 3b 3f
       1.5343136 1.7160606 1.6390867 0.733135
000380 5a 5d 56 40 ea 98 10 40 f9 b8 b6 3f 35 5c 99 3f
       3.3494477 2.2593331 1.4275199 1.1981264
000390 c5 37 41 3f 05 88 80 3f b8 fb 8c 40 d5 45 8e 40
       0.7547572 1.004151 4.4057274 4.4460244
0003a0 cc 65 ca 3e ff 11 b9 40 3b a4 e0 3f 98 d7 80 3f
       0.3953079 5.783447 1.7550119 1.0065794
0003b0 8e 31 65 3f a3 d1 a8 40 91 35 ce 3f 2f 0e 57 3f
       0.8952874 5.2755904 1.6110097 0.8400602
0003c0 8d 40 43 40 16 9d c5 3f c2 54 b7 3e 26 13 6a 40
       3.0508149 1.5438564 0.35806853 3.6574187
0003d0 c4 e1 9a 3f 6a 86 86 3f 99 32 92 3f e7 02 39 3f
       1.2100148 1.050977 1.1421691 0.72270054
0003e0 72 66 43 40 0d c8 59 40 f2 99 f8 3f 96 ab 6e 3f
       3.0531278 3.4028351 1.942198 0.9323057
0003f0 9b 77 97 3f a9 b5 14 3f 85 5a 78 3f 75 ca 37 3f
       1.1833376 0.5808969 0.9701312 0.717933
