tasks/tennis/solutions/maddpg/solution_checkpoint/TennisBrain_homogeneous_maddpg_baseline_critic_checkpoint.pth (torch_old, 576002 bytes, 13 tensors)

fc1.weight f4 [400, 50]
0	0x8003f688	-3.63945e-40
1	0x00063920	5.71506e-40
2	0x80015602	-1.22689e-40
3	0x0007ba6a	7.09721e-40
4	0x0002335a	2.02092e-40
5	0x00081e2d	7.45509e-40
6	0x80011fa5	-1.03187e-40
7	0x0000ae0c	6.2436e-41
8	0x8004d8f2	-4.45167e-40
9	0x800343bb	-2.99804e-40
10	0x8005d478	-5.35397e-40
11	0x00038331	3.22569e-40
12	0x000071a4	4.0767e-41
13	0x0007ac09	7.04563e-40
14	0x0003e253	3.56696e-40
15	0x0002ecff	2.68689e-40
16	0x800584df	-5.06843e-40
17	0x000829ac	7.49633e-40
18	0x80027330	-2.24992e-40
19	0x800758fb	-6.74769e-40
20	0x0007eb28	7.27207e-40
21	0x0005144c	4.66459e-40
22	0x00072948	6.57657e-40
23	0x800058bb	-3.183e-41
24	0x00009f9d	5.7258e-41
25	0x0003cc72	3.48848e-40
26	0x80077403	-6.84466e-40
27	0x80010688	-9.4178e-41
28	0x0004ef51	4.53193e-40
29	0x0006334f	5.69419e-40
30	0x80067487	-5.92815e-40
31	0x0004effd	4.53434e-40
32	0x0006ec37	6.35751e-40
33	0x00079abb	6.98355e-40
34	0x00076f88	6.82858e-40
35	0x0007fdbf	7.33875e-40
36	0x80017ecf	-1.37326e-40
37	0x0002d005	2.58294e-40
38	0x0001dddb	1.71422e-40
39	0x00035f97	3.09798e-40
40	0x00055f0f	4.93278e-40
41	0x0006ba5f	6.1787e-40
42	0x00047ca7	4.12059e-40
43	0x8005aed2	-5.21891e-40
44	0x0000883b	4.887e-41
45	0x0002ecba	2.68592e-40
46	0x0007e738	7.25794e-40
47	0x0005c573	5.30009e-40
48	0x0003b091	3.38847e-40
49	0x00032a71	2.90732e-40
50	0x3c360339	0.011109167
51	0x3caa0018	0.020751998
52	0x39e52b3d	0.000437105
53	0x393c670d	0.00017967467
54	0x3bea81db	0.0071565933
55	0xbc7b0231	-0.015320347
56	0x3a1209fa	0.00055709446
57	0x39cadcc8	0.00038692937
58	0xbbabc9a5	-0.0052425438
59	0xbbffdbac	-0.0078081694
60	0x3c1c78fb	0.009550328
61	0x381981df	3.6598994e-05
62	0xbbbec0d6	-0.0058213277
63	0x3d24eea8	0.040266663
64	0xb5b872c8	-1.3742474e-06
65	0x3baca997	0.00526924
66	0xbc65279e	-0.013986496
67	0xbc1825d9	-0.009286367
68	0xbc1cef71	-0.009578572
69	0x3c503acf	0.012709334
70	0xbc020527	-0.007935799
71	0xbc330363	-0.0109261
72	0x39d1f12b	0.0004004327
73	0x3c60bc78	0.013716809
74	0x3a70978a	0.00091778545
75	0x3c1f729a	0.009731913
76	0xbb1e4410	-0.0024149455
77	0x3a5e1f4c	0.00084732915
78	0xbb8141f1	-0.0039446284
79	0xbc3273c8	-0.010891862
80	0xb990eb63	-0.00027641197
81	0xba1527cb	-0.00056898285
82	0xb92efd23	-0.00016688234
83	0xb9325875	-0.00017008356
84	0x3b6a46d5	0.0035747786
85	0xba903f25	-0.0011005147
86	0x3c090677	0.008363358
87	0xb9c0b2e5	-0.0003675438
88	0x3bce4d52	0.0062958384
89	0xba979610	-0.0011565108
90	0xbc8026e2	-0.01564354
91	0xbc6ac348	-0.014328785
92	0x33d79cf0	1.00402644e-07
93	0x3caa3ec0	0.020781875
94	0xbbb09ae1	-0.0053895568
95	0xbc42b21b	-0.011883284
96	0xbbe6ca11	-0.007043131
97	0xba26ec1b	-0.000636758
98	0xbb1d4d2d	-0.00240023
99	0xbbbc77e7	-0.005751598
100	0x0007dab3	7.21303e-40
101	0x8003064e	-2.77768e-40
102	0x0002ac1f	2.45416e-40
103	0x0007ca42	7.15405e-40
104	0x00084cfa	7.62298e-40
105	0x800050d7	-2.9e-41
106	0x0007eda0	7.28092e-40
107	0x00077ae5	6.86935e-40
108	0x0006b5f3	6.16284e-40
109	0x800798fc	-6.97729e-40
110	0x00082aee	7.50084e-40
111	0x000002b1	9.65e-43
112	0x0004eeee	4.53054e-40
113	0x80014cd1	-1.19392e-40
114	0x8005fb78	-5.49387e-40
115	0x00076ccf	6.81882e-40
116	0x80000e27	-5.077e-42
117	0x80030b76	-2.79618e-40
118	0x00069682	6.05005e-40
119	0x0007fe18	7.34e-40
120	0x00081bbd	7.44635e-40
121	0x8001780c	-1.349e-40
122	0x80036170	-3.1046e-40
123	0x00083569	7.53844e-40
124	0x00043258	3.85402e-40
125	0x8007b8e0	-7.09169e-40
126	0x800455b1	-3.98082e-40
127	0x0004d689	4.44303e-40
128	0x8005ad37	-5.21315e-40
129	0x800853a0	-7.64683e-40
130	0x0000ab78	6.1511e-41
131	0x80004f16	-2.837e-41
132	0x0003769f	3.1806e-40
133	0x8007371a	-6.62615e-40
134	0x00081580	7.42397e-40
135	0x00076987	6.80705e-40
136	0x80085b4f	-7.6744e-40
137	0x00000229	7.75e-43
138	0x00051baf	4.69108e-40
139	0x8006465e	-5.76256e-40
140	0x0007ddc3	7.22402e-40
141	0x800769b4	-6.80768e-40
142	0x800304a0	-2.77166e-40
143	0x00068e8c	6.02149e-40
144	0x8008345d	-7.53468e-40
145	0x8005fabc	-5.49124e-40
146	0x00005fbb	3.4342e-41
147	0x0007f095	7.29153e-40
148	0x0007ed00	7.27868e-40
149	0x80081899	-7.43508e-40
150	0x3bbc2961	0.0057422374
151	0xbc0e651f	-0.008691101
152	0xb81f08f9	-3.791691e-05
153	0x3afe536e	0.0019403526
154	0xbc994c2c	-0.01871308
155	0xbaeb2a4d	-0.0017941684
156	0xb6811211	-3.846603e-06
157	0x3b33ebc6	0.0027453764
158	0x3b7b3405	0.0038330567
159	0x3b96bfd5	0.004600505
160	0xbc042257	-0.008064828
161	0xb8c0ed94	-9.199526e-05
162	0xbba9ac00	-0.0051779747
163	0xbb506e01	-0.0031803849
164	0x382f67bb	4.1819858e-05
165	0xbb4698b2	-0.0030303416
166	0xba51d8b5	-0.0008005009
167	0x3bcaff08	0.006194953
168	0xbb26237e	-0.0025350745
169	0xb86fe16f	-5.719199e-05
170	0x3cb99daf	0.022658197
171	0x3c4e47bd	0.012590346
172	0xb9844b86	-0.0002523327
173	0x38f3e1a1	0.000116291696
174	0xbc11e1f3	-0.008903968
175	0x3c1f042e	0.009705586
176	0x37fb6443	2.996822e-05
177	0xba649cb9	-0.0008720863
178	0x3cc8bbad	0.024503553
179	0xbb0c4691	-0.0021404366
180	0xb7b68bf7	-2.1761267e-05
181	0xbc386830	-0.011255309
182	0xb6fa10cf	-7.4525374e-06
183	0x393effa6	0.00018215048
184	0x3b8fed57	0.004392307
185	0x399d8de8	0.00030051102
186	0x3bf3660b	0.007427936
187	0xb8e7097d	-0.00011016706
188	0x3c037b59	0.008025014
189	0xbb06bb3f	-0.0020558385
190	0x3d07aa5f	0.033121463
191	0x3c3bcc97	0.011462352
192	0xb6ac9364	-5.143158e-06
193	0x3c25b062	0.010112854
194	0xbc9bb49d	-0.019007022
195	0x3c487246	0.012234276
196	0x3bb0b2c6	0.005392405
197	0xb9034db6	-0.00012522083
198	0x3c9e8114	0.019348659
199	0x3c5462a1	0.012962968
200	0x8007a960	-7.03609e-40
201	0x0005b8bf	5.25452e-40
202	0x80032aa8	-2.90809e-40
203	0x8006ce8b	-6.25107e-40
204	0x80013fac	-1.14677e-40
205	0x0007d4b1	7.19148e-40
206	0x8001992c	-1.46783e-40
207	0x80084eb4	-7.62917e-40
208	0x80046be9	-4.06053e-40
209	0x8003b10d	-3.3902e-40
210	0x8007d7c2	-7.20248e-40
211	0x0001efd3	1.77868e-40
212	0x800534f9	-4.7818e-40
213	0x8006bef2	-6.19511e-40
214	0x80041e46	-3.78202e-40
215	0x8008264e	-7.48425e-40
216	0x8003acdc	-3.37517e-40
217	0x800226a2	-1.9753e-40
218	0x00059c7c	5.15313e-40
219	0x00033a68	2.96459e-40
220	0x800738dc	-6.63246e-40
221	0x80061666	-5.59048e-40
222	0x00072baa	6.58512e-40
223	0x00049298	4.1993e-40
224	0x0007185f	6.51591e-40
225	0x000545c7	4.84209e-40
226	0x80049335	-4.2015e-40
227	0x80007ee2	-4.5517e-41
228	0x0007c4ff	7.13517e-40
229	0x0007d620	7.19662e-40
230	0x00029dd7	2.40293e-40
231	0x800174e8	-1.33774e-40
232	0x80068c43	-6.0133e-40
233	0x8003ab12	-3.36875e-40
234	0x80008189	-4.6468e-41
235	0x00021fc7	1.9507e-40
236	0x00083adb	7.55797e-40
237	0x80009f48	-5.714e-41
238	0x8006f6b3	-6.39512e-40
239	0x8004fa1f	-4.57069e-40
240	0x8007baeb	-7.09902e-40
241	0x00083872	7.54933e-40
242	0x0000f549	8.7992e-41
243	0x8005f114	-5.4566e-40
244	0x000638af	5.71347e-40
245	0x8006162c	-5.58967e-40
246	0x8000c804	-7.1752e-41
247	0x800040f4	-2.3301e-41
248	0x00025b94	2.16523e-40
249	0x0004de4a	4.47084e-40
250	0x8006d7f7	-6.28487e-40
251	0x00052d4d	4.75428e-40
252	0x0007d56a	7.19407e-40
253	0x8002b213	-2.47552e-40
254	0x8007ba2e	-7.09637e-40
255	0x80079db9	-6.99429e-40

fc1.bias f4 [400]
0	0x00032910	2.90237e-40
1	0x3506b700	5.018519e-07
2	0x800595ba	-5.12889e-40
3	0x34002666	1.1934898e-07
4	0x0007fe60	7.34101e-40
5	0x0006dbfb	6.29927e-40
6	0x800308a6	-2.78609e-40
7	0x80075962	-6.74913e-40
8	0x80064faf	-5.79598e-40
9	0x80072a7f	-6.58093e-40
10	0x80046432	-4.03285e-40
11	0xb426101e	-1.5465818e-07
12	0x00043229	3.85336e-40
13	0x33eb8b1e	1.09683455e-07
14	0x80050db7	-4.64097e-40
15	0xb46b55e1	-2.1917323e-07
16	0x00062598	5.64499e-40
17	0xb3e7fe1e	-1.08029994e-07
18	0xb5e897e7	-1.7329556e-06
19	0x34fa79b8	4.665469e-07
20	0xb468b104	-2.1671082e-07
21	0x80020333	-1.84819e-40
22	0x80031e30	-2.86336e-40
23	0x8006cea8	-6.25147e-40
24	0x343c526b	1.7538848e-07
25	0x800513f6	-4.66338e-40
26	0x00001214	6.485e-42
27	0x80073437	-6.6158e-40
28	0x80039e47	-3.32286e-40
29	0x800115b2	-9.9618e-41
30	0x00035c1c	3.08549e-40
31	0xb41d4605	-1.4647237e-07
32	0x8006691a	-5.88716e-40
33	0x00079a6c	6.98245e-40
34	0x0000de29	7.9696e-41
35	0x00034088	2.98656e-40
36	0x342da0e6	1.6170415e-07
37	0xb4cff31a	-3.8733634e-07
38	0x0006ae00	6.13432e-40
39	0x800818c0	-7.43563e-40
40	0x800047e0	-2.5784e-41
41	0x0003c070	3.4454e-40
42	0x8003a9fe	-3.36488e-40
43	0x000645f8	5.76113e-40
44	0x0004c439	4.37733e-40
45	0x00013ab8	1.129e-40
46	0x80011006	-9.7584e-41
47	0x80079ae4	-6.98413e-40
48	0x00059d45	5.15595e-40
49	0xb4ad8aa1	-3.2324627e-07
50	0x3398f167	7.1219624e-08
51	0x8004ef2a	-4.53138e-40
52	0x000806f2	7.37175e-40
53	0x3404db65	1.2373273e-07
54	0x80083000	-7.51903e-40
55	0x80041223	-3.73848e-40
56	0x8004c99c	-4.39666e-40
57	0x000678a6	5.94293e-40
58	0xb5ac4b7e	-1.283697e-06
59	0x000097ee	5.4502e-41
60	0x00018481	1.39369e-40
61	0x00012c8e	1.07819e-40
62	0x800436d5	-3.87012e-40
63	0x00059258	5.11676e-40
64	0x0000ebca	8.4585e-41
65	0x0003d47c	3.51732e-40
66	0x358d9d7d	1.0551154e-06
67	0x30279148	6.0960703e-10
68	0x00036724	3.12506e-40
69	0x8004b98c	-4.33904e-40
70	0xb4c07c6b	-3.5853313e-07
71	0x00085dd0	7.68338e-40
72	0x80023eb7	-2.06169e-40
73	0x33bff4c6	8.9386546e-08
74	0x00031be8	2.85517e-40
75	0x8004659c	-4.03793e-40
76	0x0004e534	4.49565e-40
77	0x0002b7a0	2.49543e-40
78	0xb31c712f	-3.642452e-08
79	0x800006b8	-2.41e-42
80	0x80021773	-1.92083e-40
81	0x0002a49d	2.42723e-40
82	0x0001d31e	1.6757e-40
83	0x000773d2	6.84397e-40
84	0x00084563	7.59575e-40
85	0x0005baca	5.26185e-40
86	0x8003f7da	-3.64419e-40
87	0xb11671ef	-2.1892637e-09
88	0x342ae481	1.5915613e-07
89	0x0000b63e	6.5376e-41
90	0x8004d640	-4.442e-40
91	0x80010550	-9.3741e-41
92	0xb5a811c8	-1.252215e-06
93	0x800233be	-2.02233e-40
94	0x000825a9	7.48194e-40
95	0x3484c783	2.473208e-07
96	0x33a51281	7.686777e-08
97	0x800681b9	-5.97549e-40
98	0x8000afe9	-6.3105e-41
99	0x000174b3	1.33699e-40
100	0xaf8e5b6d	-2.5894611e-10
101	0x8001c10f	-1.61092e-40
102	0x000563b8	4.9495e-40
103	0xb3f8bdbe	-1.1582914e-07
104	0x8000c8d0	-7.2038e-41
105	0x0001982b	1.46423e-40
106	0x8004369c	-3.86932e-40
107	0x348551d0	2.4832707e-07
108	0x80038230	-3.22209e-40
109	0x00032900	2.90215e-40
110	0x33f61445	1.1458955e-07
111	0x00077778	6.85706e-40
112	0x0000c5d0	7.0962e-41
113	0x3394e3f7	6.9332536e-08
114	0x800132a7	-1.10006e-40
115	0x8001ca37	-1.64377e-40
116	0x0005722b	5.00133e-40
117	0x0007989b	6.97593e-40
118	0x000527f6	4.73513e-40
119	0x80064f49	-5.79455e-40
120	0x0001c97e	1.64117e-40
121	0x32d511bb	2.4804526e-08
122	0x0000a986	6.0814e-41
123	0x000256be	2.14788e-40
124	0x0000e1e9	8.1041e-41
125	0x000424e8	3.80581e-40
126	0x00080ee0	7.4002e-40
127	0xb540cb95	-7.1821825e-07
128	0xb51c6777	-5.826509e-07
129	0x8001b170	-1.55488e-40
130	0x00009270	5.2532e-41
131	0xb41706ad	-1.40654e-07
132	0x00017e43	1.3713e-40
133	0x000635d6	5.70326e-40
134	0x800778f8	-6.86244e-40
135	0xb3381c5b	-4.2866628e-08
136	0x0007a348	7.01423e-40
137	0x80021038	-1.89489e-40
138	0xb4a81297	-3.1305964e-07
139	0x32ae6dfd	2.0306283e-08
140	0x80063690	-5.70586e-40
141	0xb50363ad	-4.894635e-07
142	0x80030db5	-2.80424e-40
143	0x34185e26	1.4190354e-07
144	0x00026d43	2.22867e-40
145	0x8002dc59	-2.62717e-40
146	0x0001155c	9.9498e-41
147	0x0007ffc4	7.346e-40
148	0x800051b8	-2.9315e-41
149	0x800260b6	-2.18364e-40
150	0x0001b72b	1.57544e-40
151	0x000315c4	2.83315e-40
152	0x8005c200	-5.28772e-40
153	0x8002f8e9	-2.72963e-40
154	0x80050f1c	-4.64598e-40
155	0x80001990	-9.17e-42
156	0x80081170	-7.4094e-40
157	0x00063333	5.6938e-40
158	0x8004c0c9	-4.365e-40
159	0x80023cc0	-2.05464e-40
160	0x8001313b	-1.09496e-40
161	0x0006a93c	6.11723e-40
162	0x800284ed	-2.31356e-40
163	0x00003769	1.9877e-41
164	0x0005ab7e	5.20697e-40
165	0xb4572c1d	-2.0039484e-07
166	0x000009a0	3.453e-42
167	0x33b99635	8.642056e-08
168	0x0007a420	7.01725e-40
169	0x339f5b66	7.42064e-08
170	0x0002412c	2.0705e-40
171	0xb4f9bdda	-4.6518e-07
172	0x8005398a	-4.79819e-40
173	0x800520af	-4.70902e-40
174	0x8002b705	-2.49326e-40
175	0x8000d0af	-7.4862e-41
176	0xb56e2d8e	-8.87282e-07
177	0x8003f813	-3.64499e-40
178	0x00067f59	5.96697e-40
179	0x80066edb	-5.9078e-40
180	0x00074bb0	6.7e-40
181	0x80027918	-2.27111e-40
182	0x80059795	-5.13555e-40
183	0x0003c990	3.47813e-40
184	0x0002939f	2.36627e-40
185	0x348c78e5	2.6164994e-07
186	0x8002dc7e	-2.62769e-40
187	0x000613d8	5.58132e-40
188	0xb399ca94	-7.1614664e-08
189	0x8004dd38	-4.467e-40
190	0x8003c4c2	-3.4609e-40
191	0x80054ac1	-4.85994e-40
192	0xb3c83b46	-9.3240075e-08
193	0x0007c150	7.12196e-40
194	0x8001361d	-1.11248e-40
195	0x350444d9	4.927402e-07
196	0x8005806c	-5.05247e-40
197	0x0000e951	8.3698e-41
198	0xb3a8f204	-7.867132e-08
199	0x0001962b	1.45706e-40
200	0x0007ce16	7.16778e-40
201	0x00022062	1.95288e-40
202	0x00083270	7.52778e-40
203	0x8004e109	-4.4807e-40
204	0xb4a19b29	-3.010148e-07
205	0x800424b1	-3.80504e-40
206	0x0001ddaf	1.7136e-40
207	0x00076ac0	6.81143e-40
208	0x800013a0	-7.04e-42
209	0x8007f2be	-7.29928e-40
210	0xb216b3dc	-8.772044e-09
211	0x0001f02c	1.77993e-40
212	0x00013104	1.09419e-40
213	0x800767e4	-6.80117e-40
214	0x8007abad	-7.04434e-40
215	0x80030486	-2.77129e-40
216	0xb463ba1a	-2.1208726e-07
217	0x800486fc	-4.15765e-40
218	0x000125ea	1.05436e-40
219	0x80037eb4	-3.20959e-40
220	0x00028842	2.32551e-40
221	0xb4db7f6f	-4.088465e-07
222	0x80022500	-1.96944e-40
223	0x00008ef0	5.1276e-41
224	0x0007fa97	7.32743e-40
225	0x80082c55	-7.50587e-40
226	0x34d50c4f	3.9683297e-07
227	0x8007bda4	-7.10879e-40
228	0x80012332	-1.04461e-40
229	0x00083bec	7.5618e-40
230	0xb42c2c9b	-1.6034976e-07
231	0x00001b4b	9.791e-42
232	0x0004ee10	4.52743e-40
233	0x80028f10	-2.34992e-40
234	0x8006123a	-5.57551e-40
235	0x3427d10a	1.5629135e-07
236	0x80042685	-3.8116e-40
237	0x800178fc	-1.35237e-40
238	0x8006fd17	-6.41805e-40
239	0x00059d7f	5.15676e-40
240	0x800341b5	-2.99078e-40
241	0x00023256	2.01728e-40
242	0x80002f71	-1.7019e-41
243	0x00069b30	6.06684e-40
244	0x8005fa20	-5.48905e-40
245	0x000337a0	2.95461e-40
246	0xb3f9f3e0	-1.1639327e-07
247	0x8003f9f0	-3.65167e-40
248	0x8007f99d	-7.32393e-40
249	0x80013faa	-1.14674e-40
250	0x00010002	9.1838e-41
251	0x8006df3e	-6.31097e-40
252	0x800789b1	-6.92243e-40
253	0xb3127387	-3.4098345e-08
254	0x8007a2b8	-7.01221e-40
255	0xb2ab5857	-1.9947192e-08

fc2.weight f4 [300, 402]
0	0x0005663a	4.9585e-40
1	0x2476f636	5.3551296e-17
2	0x80073aec	-6.63986e-40
3	0x2503c7eb	1.1430174e-16
4	0x0002a012	2.41093e-40
5	0x00002cb0	1.6031e-41
6	0x80059207	-5.11562e-40
7	0x800758cd	-6.74704e-40
8	0x8002915e	-2.35819e-40
9	0x8007372d	-6.62642e-40
10	0x00076bf0	6.81569e-40
11	0xa4df3316	-9.679738e-17
12	0x800737d7	-6.6288e-40
13	0x250b2397	1.2068386e-16
14	0x065473fd	3.9957983e-35
15	0x2318bbf9	8.279741e-18
16	0x80082694	-7.48523e-40
17	0x24deb3df	9.6581866e-17
18	0x2565df23	1.9938185e-16
19	0x22855744	3.614212e-18
20	0x232a7833	9.241172e-18
21	0x800311c9	-2.81887e-40
22	0x00070dd3	6.47808e-40
23	0x00026d01	2.22774e-40
24	0xa4fddd02	-1.1009566e-16
25	0x80075f96	-6.77138e-40
26	0x0a077330	6.521678e-33
27	0x8007fac1	-7.32802e-40
28	0x8006ccea	-6.24522e-40
29	0x0008147a	7.4203e-40
30	0x1681752a	2.0915015e-25
31	0x25cbde99	3.5365725e-16
32	0x800030c4	-1.7494e-41
33	0x0001cb9d	1.64878e-40
34	0x9621941f	-1.3052215e-25
35	0x80043511	-3.86379e-40
36	0x254143cf	1.6763056e-16
37	0xa41a6d65	-3.3486088e-17
38	0x000002ac	9.58e-43
39	0x8004e4fd	-4.49488e-40
40	0x0001f470	1.79523e-40
41	0x000211c3	1.90043e-40
42	0x1c8ce8d1	9.324604e-22
43	0x00014683	1.1713e-40
44	0x0004f6ab	4.5583e-40
45	0x000196e9	1.45972e-40
46	0x80083b71	-7.56008e-40
47	0x0004c7ba	4.3899e-40
48	0x8005dc38	-5.38177e-40
49	0xa3492580	-1.0904173e-17
50	0x25698a35	2.0256355e-16
51	0x0002d713	2.60825e-40
52	0x0007a1ae	7.00848e-40
53	0x24192a4b	3.321241e-17
54	0x80062ac7	-5.66359e-40
55	0x8004df0e	-4.47359e-40
56	0x0000a3be	5.874e-41
57	0x8001b13e	-1.55418e-40
58	0x259cd9ee	2.720936e-16
59	0x80043a8d	-3.88346e-40
60	0x1cce0091	1.3632083e-21
61	0x80013bae	-1.13245e-40
62	0x80072dfc	-6.59345e-40
63	0x8002c2b3	-2.53516e-40
64	0x80073659	-6.62345e-40
65	0x8007792c	-6.86317e-40
66	0xa4537006	-4.584822e-17
67	0xa148ec09	-6.8075026e-19
68	0x800299fc	-2.3891e-40
69	0x80007c8c	-4.4679e-41
70	0x251861d2	1.3217041e-16
71	0x0001c516	1.62537e-40
72	0x0004cc4c	4.4063e-40
73	0x2608cf31	4.7465275e-16
74	0x8007ba08	-7.09584e-40
75	0x8001814c	-1.38218e-40
76	0x00015e9f	1.25779e-40
77	0x80061ed4	-5.62072e-40
78	0x25005e15	1.1134106e-16
79	0x0005ae75	5.21761e-40
80	0x8007aad0	-7.04124e-40
81	0x0000f30c	8.7189e-41
82	0x800560d0	-4.93907e-40
83	0x0005006e	4.59332e-40
84	0x80027190	-2.2441e-40
85	0x000685ba	5.98985e-40
86	0x000244ad	2.08307e-40
87	0x201dc05b	1.3362062e-19
88	0x24066827	2.914484e-17
89	0x8007aedc	-7.05576e-40
90	0x000028e9	1.4676e-41
91	0x800390f1	-3.27502e-40
92	0x23e69c5b	2.5002869e-17
93	0x00081a55	7.4413e-40
94	0x00060bbd	5.55224e-40
95	0x250c9073	1.2192006e-16
96	0x23a121bd	1.7469944e-17
97	0x0004d10f	4.42338e-40
98	0x0005320c	4.77131e-40
99	0x0004865e	4.15544e-40
100	0xa20faf4f	-1.9472921e-18
101	0x0001e91b	1.75458e-40
102	0x000371d5	3.16342e-40
103	0x24a75196	7.256292e-17
104	0x00071efe	6.53966e-40
105	0x0003f82e	3.64537e-40
106	0x80039abe	-3.31018e-40
107	0xa520fc55	-1.3963281e-16
108	0x0000415f	2.3451e-41
109	0x8004f33f	-4.54602e-40
110	0x25b115d3	3.0719394e-16
111	0x80020161	-1.84166e-40
112	0x00022b59	1.99221e-40
113	0xa4351afa	-3.927097e-17
114	0x0007eef7	7.28573e-40
115	0x00055456	4.89432e-40
116	0x8003ed66	-3.60669e-40
117	0x80081457	-7.4198e-40
118	0x8004a8ef	-4.27944e-40
119	0x80084e50	-7.62777e-40
120	0x800027ec	-1.4321e-41
121	0xa39368e8	-1.5982201e-17
122	0x0006527e	5.80606e-40
123	0x1d1ff779	2.1171415e-21
124	0x00015145	1.2099e-40
125	0x87c067fd	-2.8950068e-34
126	0x8004c064	-4.36359e-40
127	0x24e68ed8	9.9988587e-17
128	0xa262fe8d	-3.076347e-18
129	0x000620c1	5.62763e-40
130	0x0003a8f8	3.36121e-40
131	0x235c11f1	1.1930023e-17
132	0x800415f7	-3.75221e-40
133	0x000583a0	5.06396e-40
134	0x80054195	-4.82704e-40
135	0x25141930	1.2845488e-16
136	0x0006c127	6.20303e-40
137	0x80000efc	-5.375e-42
138	0x25fe9184	4.4160582e-16
139	0x249a3347	6.687372e-17
140	0x8002f07f	-2.69945e-40
141	0x2255a82c	2.8955912e-18
142	0x0007dbd9	7.21715e-40
143	0x2233eb31	2.4383533e-18
144	0x80056e03	-4.98642e-40
145	0x00009c62	5.61e-41
146	0x00026c4b	2.22519e-40
147	0x8006cc62	-6.24332e-40
148	0x0002eb77	2.6814e-40
149	0x8003fc3e	-3.65994e-40
150	0x0007b08a	7.06179e-40
151	0x800756dc	-6.74008e-40
152	0x80082702	-7.48677e-40
153	0x800200af	-1.83916e-40
154	0x0003b824	3.41564e-40
155	0x80066ab9	-5.89298e-40
156	0x929e10c9	-9.97534e-28
157	0x00080ee1	7.40022e-40
158	0x80004559	-2.4877e-41
159	0x8006f508	-6.38914e-40
160	0x0006a7b0	6.11168e-40
161	0x0006defe	6.31008e-40
162	0x0000f1b4	8.6707e-41
163	0x00057a0d	5.02961e-40
164	0x0006a56e	6.10358e-40
165	0xa4b0b433	-7.66331e-17
166	0x8003210a	-2.87359e-40
167	0xa4b4570f	-7.821004e-17
168	0x00015553	1.22444e-40
169	0x25286475	1.4605713e-16
170	0x98f69c44	-6.3747298e-24
171	0xa481a5cb	-5.6225696e-17
172	0x80081d9c	-7.45306e-40
173	0x8005316c	-4.76907e-40
174	0x8001f4e6	-1.79689e-40
175	0x800719eb	-6.52146e-40
176	0x2370a5c1	1.3045526e-17
177	0x000200c4	1.83946e-40
178	0x0000b95a	6.6492e-41
179	0x0006cda8	6.24789e-40
180	0x0004e6a0	4.50075e-40
181	0x8006cda2	-6.2478e-40
182	0x80053cde	-4.81013e-40
183	0x0007e86c	7.26226e-40
184	0x8000a9bd	-6.089e-41
185	0x238d118e	1.5294685e-17
186	0x0001698c	1.29699e-40
187	0x800602b6	-5.51985e-40
188	0xa4584d37	-4.6902937e-17
189	0x00080255	7.3552e-40
190	0x00081cd8	7.45031e-40
191	0x0004a783	4.27434e-40
192	0x248d0b44	6.116809e-17
193	0x8007c51c	-7.13558e-40
194	0x80004bd2	-2.7199e-41
195	0xa34c9a33	-1.1091515e-17
196	0x80062278	-5.63378e-40
197	0x0c0b158c	1.0714655e-31
198	0x249b395f	6.7317725e-17
199	0x8005c016	-5.28085e-40
200	0x80012ba4	-1.07491e-40
201	0x800516b7	-4.67326e-40
202	0x000092c1	5.2645e-41
203	0x80065a7b	-5.83471e-40
204	0xa4daa01a	-9.481365e-17
205	0x8007ea06	-7.268e-40
206	0x000238ca	2.04043e-40
207	0x8002bb57	-2.50876e-40
208	0x8002d29d	-2.59225e-40
209	0x80021547	-1.91304e-40
210	0xa3be94fd	-2.066294e-17
211	0x09d80d33	5.201252e-33
212	0x00073c5c	6.64501e-40
213	0x0005f0e3	5.45591e-40
214	0x8000b882	-6.6189e-41
215	0x12b800fe	1.1612277e-27
216	0x24312a11	3.841639e-17
217	0x0000082d	2.933e-42
218	0x0003cdce	3.49335e-40
219	0x188bf19e	3.617463e-24
220	0x8007c600	-7.13877e-40
221	0x2395af6e	1.622891e-17
222	0x0007cd8a	7.16582e-40
223	0x0001d5af	1.68491e-40
224	0x80011e20	-1.02642e-40
225	0x1558517d	4.3685136e-26
226	0x24d67997	9.301369e-17
227	0x8006b5ef	-6.16278e-40
228	0x0005e446	5.41067e-40
229	0x80006487	-3.6062e-41
230	0xa4d15490	-9.0782556e-17
231	0x8001a74e	-1.51853e-40
232	0x00015b5b	1.24608e-40
233	0x00026ddf	2.23085e-40
234	0x0001e5b4	1.74237e-40
235	0x2395eb2a	1.6254208e-17
236	0x800826c3	-7.48589e-40
237	0x0000d924	7.7895e-41
238	0x80010971	-9.5222e-41
239	0x80000696	-2.363e-42
240	0x0001faf6	1.81863e-40
241	0x0006de58	6.30775e-40
242	0x8007f667	-7.31241e-40
243	0x00011a16	1.01193e-40
244	0x800845f6	-7.59781e-40
245	0x000106de	9.4299e-41
246	0x242aa9ca	3.700669e-17
247	0x800272dd	-2.24876e-40
248	0x8004ec41	-4.52094e-40
249	0x00075495	6.73191e-40
250	0x00075baf	6.75738e-40
251	0x800807f0	-7.37531e-40
252	0x1596831a	6.079136e-26
253	0xa3e5283a	-2.4845266e-17
254	0x0000795d	4.3537e-41
255	0x24ab04f7	7.416784e-17

fc2.bias f4 [300]
0	0xa7b14f01	-4.9213025e-15
1	0xabb49874	-1.2832083e-12
2	0x3ceca9af	0.028889505
3	0xacaccb81	-4.9111275e-12
4	0xa23d3ebf	-2.5647494e-18
5	0xbab3d29f	-0.0013719386
6	0x3ab643d3	0.0013905711
7	0xadbff9a3	-2.1825047e-11
8	0x930499a7	-1.6736499e-27
9	0x2ec40f28	8.9157404e-11
10	0xba154f01	-0.00056956714
11	0xba82693d	-0.0009949576
12	0xa9f87419	-1.1033552e-13
13	0xb180c572	-3.7477372e-09
14	0x802b35fc	-3.968292e-39
15	0xbb7dcadf	-0.0038725657
16	0xb7d79c0d	-2.5702664e-05
17	0xb2d6bd8f	-2.499908e-08
18	0xbad66f40	-0.0016360059
19	0x95b89938	-7.4558745e-26
20	0x3b110bea	0.0022132345
21	0xbd104583	-0.03522254
22	0x39e59a09	0.0004379305
23	0xb14a5941	-2.9445604e-09
24	0xba79eafd	-0.0009533612
25	0xa841c8c5	-1.0757187e-14
26	0xbb3fc56d	-0.0029261962
27	0x9ca71a15	-1.1057875e-21
28	0xb2f18c65	-2.8119937e-08
29	0xae5b78ed	-4.990224e-11
30	0xb0278f6f	-6.095808e-10
31	0xbc6de761	-0.014520497
32	0xb5edef42	-1.7727509e-06
33	0x9fce7e1e	-8.745304e-20
34	0x9f708bcb	-5.093761e-20
35	0xbbe60f6a	-0.0070208805
36	0xb6770bb3	-3.6812678e-06
37	0xa63ab342	-6.4774653e-16
38	0xb933c77e	-0.00017145087
39	0xba1c2710	-0.00059567485
40	0x3d1b617b	0.03793476
41	0x3ce6e3a6	0.028184723
42	0x9ed32aa7	-2.2358135e-20
43	0xb88089a1	-6.129151e-05
44	0xa37c7763	-1.36862285e-17
45	0x8e2a18e4	-2.0966102e-30
46	0x8f4a9ec0	-9.989943e-30
47	0x97ac5f95	-1.1139368e-24
48	0x394f4d3c	0.0001976983
49	0xbc82e1e6	-0.015976857
50	0xb8b3aa2d	-8.567083e-05
51	0xb64db5f3	-3.0653289e-06
52	0xb0893f85	-9.986115e-10
53	0x9bdc0062	-3.6396194e-22
54	0xb67d3a07	-3.7733714e-06
55	0xa3d850b4	-2.3452946e-17
56	0x3ab53ce2	0.0013827349
57	0xbbe298b4	-0.0069151763
58	0xa6da0be1	-1.5130008e-15
59	0xa7d72eaa	-5.972508e-15
60	0xbb1abfc0	-0.0023612827
61	0x88c53dab	-1.1871004e-33
62	0xa3591595	-1.1768164e-17
63	0xb6028b19	-1.9452475e-06
64	0x9ae910ca	-9.6393666e-23
65	0x8f5000da	-1.0255356e-29
66	0x9954a282	-1.0992961e-23
67	0xaa24ad42	-1.4626237e-13
68	0xbaa221a6	-0.0012369647
69	0xba6cc233	-0.00090316235
70	0xb0aea15c	-1.2706027e-09
71	0x3d1f3f28	0.03887859
72	0xba1cfd08	-0.00059886323
73	0xb3d9b0e0	-1.0137023e-07
74	0xa11ef7ee	-5.3860614e-19
75	0x8910bffb	-1.7423638e-33
76	0xba1c7213	-0.0005967926
77	0xb86032ea	-5.345318e-05
78	0xb89e1f55	-7.539863e-05
79	0xb9afa5ea	-0.00033502217
80	0xbbb225c5	-0.0054366314
81	0x3b1707dd	0.0023045458
82	0xbb49a19f	-0.00307665
83	0xab357aef	-6.447472e-13
84	0x8d7ef7d1	-7.856809e-31
85	0x3cda4bbd	0.026647443
86	0x9d5fc8f7	-2.96177e-21
87	0xb9c296fc	-0.00037115056
88	0x908f3541	-5.6485605e-29
89	0xb985b1d6	-0.00025500235
90	0xb79b310f	-1.8500285e-05
91	0xba0024b3	-0.0004888281
92	0xa6b7dbe2	-1.2757775e-15
93	0xae0e27ef	-3.232253e-11
94	0xae2e19a8	-3.9585807e-11
95	0xbaf50730	-0.0018694159
96	0xb99d3f74	-0.0002999265
97	0x3a80091d	0.0009768341
98	0xa8f93627	-2.7668038e-14
99	0x80df65a9	-2.0515784e-38
100	0x95982a66	-6.1459204e-26
101	0xb61c985d	-2.3334499e-06
102	0x978e8205	-9.209356e-25
103	0x9b005a63	-1.0617117e-22
104	0x8f29f9d5	-8.380459e-30
105	0xa48bfba8	-6.070796e-17
106	0x3b83cd87	0.0040223035
107	0xb734eb1a	-1.0783575e-05
108	0x3d13fa9a	0.036127664
109	0xb443855e	-1.8209309e-07
110	0xb155ed4b	-3.1130465e-09
111	0xaf9ad6cf	-2.8165068e-10
112	0x979ddd47	-1.0201745e-24
113	0xb1c08c3e	-5.603879e-09
114	0xbb14ace8	-0.0022686068
115	0xba637777	-0.00086771644
116	0x20305e0a	1.4938895e-19
117	0xb711fce0	-8.7015505e-06
118	0x3b23363b	0.002490415
119	0x98bdcb19	-4.906043e-24
120	0x8f010524	-6.361181e-30
121	0x3c244c97	0.010028026
122	0x3ceb4e5a	0.028723884
123	0xb850cb26	-4.978026e-05
124	0x9f78fa5c	-5.2723135e-20
125	0xbb530f50	-0.0032205172
126	0xb8e4f297	-0.00010917073
127	0xb4ef5126	-4.4576262e-07
128	0xb361618c	-5.2475613e-08
129	0x92279d62	-5.28899e-28
130	0xb6965a38	-4.480851e-06
131	0xbb66c243	-0.0035211004
132	0xb6c6c854	-5.924181e-06
133	0xb7ada254	-2.0698797e-05
134	0x84d8d2a5	-5.0974802e-36
135	0xace45b8d	-6.490314e-12
136	0x3a0e1dcf	0.0005421312
137	0xb2d3f0a5	-2.4673065e-08
138	0xb5a820bc	-1.2526502e-06
139	0xb5245e4f	-6.1232e-07
140	0x3b88dab1	0.0041764607
141	0x3ca136d8	0.019679472
142	0xba66e8ae	-0.00088084757
143	0xbb39831d	-0.002830691
144	0xb598dc41	-1.1388985e-06
145	0xb3f46358	-1.1380206e-07
146	0x9eaaa027	-1.8065688e-20
147	0xb70649ed	-8.004235e-06
148	0xa7b7820f	-5.0933713e-15
149	0xad5f720e	-1.2701408e-11
150	0xadbb287a	-2.1277414e-11
151	0x9ad2fba5	-8.726052e-23
152	0xaf079f74	-1.2334828e-10
153	0x95dd9d26	-8.9509126e-26
154	0x3d4b99d8	0.049707264
155	0x0fff6aee	2.5186129e-29
156	0x20e706f9	3.9137536e-19
157	0xbb8b39f4	-0.004248852
158	0xb17043ef	-3.4963212e-09
159	0xad01b4ab	-7.372917e-12
160	0xb248198c	-1.1647341e-08
161	0x9fa589df	-7.0108307e-20
162	0x9ad004b9	-8.6034414e-23
163	0xadc929b5	-2.2869576e-11
164	0xa31de927	-8.560359e-18
165	0x8b3eda9b	-3.675713e-32
166	0xba9c0678	-0.0011903783
167	0xb7927824	-1.7460501e-05
168	0xa74e73fc	-2.8651118e-15
169	0xad5369f4	-1.2017488e-11
170	0xb4cbf78b	-3.7991808e-07
171	0xa8c0b645	-2.1395329e-14
172	0x3d20788b	0.03917746
173	0x8e855aee	-3.2874593e-30
174	0xac8f10d7	-4.066174e-12
175	0xa85c6d2b	-1.2236125e-14
176	0x9e3c5373	-9.969894e-21
177	0xb9263a53	-0.00015852721
178	0xada03199	-1.821192e-11
179	0xa724500a	-2.2802961e-15
180	0xa9979e9d	-6.733262e-14
181	0xb8cdf6cc	-9.821131e-05
182	0xadef2684	-2.7188259e-11
183	0x3d1b04fd	0.037846554
184	0xb120a044	-2.3374165e-09
185	0x9887c0b9	-3.5091282e-24
186	0x279f0898	4.4140683e-15
187	0xb73baf24	-1.1186847e-05
188	0xb3f052d4	-1.1190937e-07
189	0xbbbcddc2	-0.0057637403
190	0xb8a4b6c0	-7.854169e-05
191	0xba361f21	-0.00069473876
192	0xb4c1aa16	-3.6072805e-07
193	0xbc888f89	-0.016670005
194	0xaa9ed194	-2.8211862e-13
195	0xbbb2ab44	-0.0054525454
196	0xb9bf928a	-0.0003653954
197	0xb98c439b	-0.0002675325
198	0xb8ff97f7	-0.00012187653
199	0x9336ddda	-2.308101e-27
200	0xb3bbbfac	-8.742731e-08
201	0x3be93410	0.007116802
202	0xabe57d95	-1.6306285e-12
203	0xbaa9963d	-0.0012938451
204	0xb8e4fe85	-0.00010919295
205	0x906f2ad7	-4.7167442e-29
206	0x3cd2abfa	0.02571677
207	0x218f369c	9.704512e-19
208	0xbb19180f	-0.0023360287
209	0xb5d4e0b8	-1.5860633e-06
210	0xb933418d	-0.0001709519
211	0xa5151fd7	-1.2934478e-16
212	0xa50ceeb7	-1.2223944e-16
213	0xb9fc8dbc	-0.00048170786
214	0x85be439f	-1.7892354e-35
215	0xa2e0d1bb	-6.0937382e-18
216	0x8014a99a	-1.897551e-39
217	0xad1753c9	-8.60196e-12
218	0xb0388af3	-6.713627e-10
219	0xb49ac058	-2.8824684e-07
220	0xbaad1162	-0.0013204033
221	0xb6c405eb	-5.841944e-06
222	0xba945a20	-0.0011318363
223	0x9549bcb4	-4.0740487e-26
224	0xa1bc8b45	-1.277624e-18
225	0x9bef21f8	-3.9561185e-22
226	0xabcb436b	-1.444273e-12
227	0x82a95901	-2.4883404e-37
228	0xae863e7c	-6.104714e-11
229	0xbbe39c8e	-0.006946153
230	0xb82b039c	-4.077294e-05
231	0xa8e266d7	-2.513564e-14
232	0x9239cbc1	-5.8626853e-28
233	0xa807125d	-7.497987e-15
234	0xb9bf1d51	-0.000364522
235	0x97617511	-7.284918e-25
236	0x91fcf05f	-3.990673e-28
237	0x3c5da81e	0.013528852
238	0x9f2718f5	-3.538427e-20
239	0x8718b010	-1.1486949e-34
240	0xa5e2ce19	-3.9344408e-16
241	0xb75e0331	-1.3232974e-05
242	0xa21e1802	-2.1425703e-18
243	0x9d7b5e56	-3.3268344e-21
244	0x98185950	-1.969063e-24
245	0xb3e5cc31	-1.0700786e-07
246	0x93451226	-2.4873844e-27
247	0x3ce19253	0.027535593
248	0x9592e822	-5.933517e-26
249	0xa184dad8	-9.002595e-19
250	0x9524b6d7	-3.326377e-26
251	0xaa89a268	-2.444878e-13
252	0x885064bd	-6.271114e-34
253	0x3c86bb1b	0.01644664
254	0xbc80bacd	-0.015714074
255	0xab459f02	-7.0209127e-13

bn.weight f4 [50]
0	0x3d67bc20	0.056575894
1	0x3de07c3e	0.10961197
2	0x3cdff0da	0.027336527
3	0x3cc5ccd3	0.02414552
4	0x3ea020fa	0.3127516
5	0x3e001028	0.12506163
6	0x3c88e354	0.016709961
7	0x3d0aa42b	0.03384797
8	0x3d3c5461	0.045978907
9	0x3d7511eb	0.05983154
10	0x3d70ca1f	0.058786508
11	0x39210904	0.00015357515
12	0x3ce0582c	0.027385794
13	0x3e11db58	0.14243829
14	0xb849560d	-4.8002275e-05
15	0x3d935eb6	0.07195799
16	0x3e0eed53	0.1395772
17	0x3df4f420	0.11960626
18	0x3d3cd33b	0.046099883
19	0x3db80d00	0.089868546
20	0x3ed93adf	0.42427728
21	0x3e3eb887	0.18625079
22	0x39f02ce6	0.0004580982
23	0x3dc56d7b	0.09640022
24	0x3d0ac66b	0.033880632
25	0x3d813a65	0.06309966
26	0x3c7a5031	0.015277908
27	0x3a4aa5f3	0.0007730417
28	0x3e97565a	0.2955807
29	0x3d8bfb47	0.06835037
30	0xba23bb08	-0.00062458264
31	0x3d489408	0.0489693
32	0x38869d4a	6.418915e-05
33	0x3793ea09	1.7632747e-05
34	0x3c5fd373	0.013661253
35	0xb9c93af1	-0.00038381622
36	0x3d343418	0.043994993
37	0x397eb4db	0.00024290702
38	0x3d02a1bf	0.031892534
39	0x3d64f18f	0.05589443
40	0x3da33c86	0.07970528
41	0x3d9c42e4	0.07629946
42	0x37c44095	2.3395094e-05
43	0x3da7acfa	0.081872895
44	0x3ec4c3d0	0.38430643
45	0x3e45ee58	0.19329202
46	0x3d2ec3e0	0.04266727
47	0x372802f2	1.0014266e-05
48	0x3d620c10	0.055187285
49	0x3d4e16dd	0.050314773

bn.bias f4 [50]
0	0x32899ea5	1.6021042e-08
1	0xb4100560	-1.3413e-07
2	0x31c97cd4	5.8640612e-09
3	0x32f5f312	2.863229e-08
4	0xb20d6c98	-8.2319715e-09
5	0xb2bf121d	-2.2243563e-08
6	0xb13a460e	-2.7106384e-09
7	0x33df7a45	1.04064874e-07
8	0x317db628	3.691989e-09
9	0xb3341b00	-4.1934072e-08
10	0xb2895f82	-1.5992331e-08
11	0x3089d6fd	1.0029165e-09
12	0x2ecf7fcd	9.435972e-11
13	0x334cc035	4.7672263e-08
14	0x2fd16d70	3.8094639e-10
15	0xb387dacb	-6.3262256e-08
16	0xb393adac	-6.876812e-08
17	0x333eb20b	4.439975e-08
18	0x32c262fe	2.2629589e-08
19	0xb3e5e28a	-1.0704851e-07
20	0xb470203b	-2.2363467e-07
21	0xb29badde	-1.812344e-08
22	0x30ace5ed	1.2579996e-09
23	0xb1cd8e35	-5.9824523e-09
24	0x32cfa87c	2.417459e-08
25	0xb25e1c13	-1.2928484e-08
26	0x32be6102	2.2163025e-08
27	0xb1fd0ca2	-7.3647053e-09
28	0x32203dc8	9.327273e-09
29	0xb26e984d	-1.38880525e-08
30	0x30ece8ad	1.723739e-09
31	0x32051f23	7.748699e-09
32	0x3058441d	7.8677137e-10
33	0xaf5c118b	-2.0015116e-10
34	0xb1569fb7	-3.1231886e-09
35	0x3136c2e5	2.659527e-09
36	0x32d854cb	2.5184269e-08
37	0xb0a1ecab	-1.1781557e-09
38	0x330ecda0	3.3248966e-08
39	0x33879aaa	6.3145606e-08
40	0xb24f4541	-1.2064732e-08
41	0x33f07829	1.1197728e-07
42	0x2f1ffcfa	1.4550841e-10
43	0xb1b01ddf	-5.12567e-09
44	0xb317b40b	-3.5321175e-08
45	0x324171ac	1.12599245e-08
46	0xb3bd59da	-8.817342e-08
47	0xb01d7b68	-5.729164e-10
48	0xb2ac480c	-2.0056198e-08
49	0x32a78fac	1.9506693e-08

bn.running_mean f4 [50]
0	0xc110cdb6	-9.050222
1	0xbe721dd8	-0.23644197
2	0x3f7b7d56	0.9823812
3	0xbde060fb	-0.109559976
4	0xbc012966	-0.007883405
5	0x407714e3	3.8606498
6	0x3f7b7d56	0.9823812
7	0xbde060fb	-0.109559976
8	0xc11180e3	-9.0939665
9	0xbe803dd4	-0.2504717
10	0x3f9f74c5	1.245751
11	0xbe18782e	-0.14889595
12	0x37899ece	1.6405622e-05
13	0x40765e5a	3.8495088
14	0x3f9f74c5	1.245751
15	0xbe18782e	-0.14889595
16	0xc1131d4f	-9.194655
17	0xbe8a7321	-0.2704096
18	0x3f341816	0.7034925
19	0xbe4627ca	-0.19351116
20	0x3ce11a8e	0.027478483
21	0x4075b0a5	3.8389065
22	0x3f341816	0.7034925
23	0xbe4627ca	-0.19351116
24	0xc11191f3	-9.098132
25	0xbe7700d2	-0.24121407
26	0x3f80a91c	1.0051608
27	0xbd9d08a7	-0.07667666
28	0x3c012966	0.007883405
29	0x407714e3	3.8606498
30	0x3f80a91c	1.0051608
31	0xbd9d08a7	-0.07667666
32	0xc11257b0	-9.146408
33	0xbe7d9192	-0.24762562
34	0x3f86f705	1.0544134
35	0xbd91ccb7	-0.071191244
36	0xb7899ece	-1.6405622e-05
37	0x40765e5a	3.8495088
38	0x3f86f705	1.0544134
39	0xbd91ccb7	-0.071191244
40	0xc11332a2	-9.199862
41	0xbe838053	-0.2568384
42	0x3f8cc9f6	1.0999134
43	0xbd8b6bf8	-0.06807703
44	0xbce11a8e	-0.027478483
45	0x4075b0a5	3.8389065
46	0x3f8cc9f6	1.0999134
47	0xbd8b6bf8	-0.06807703
48	0xbea5f4f2	-0.3241344
49	0x3e4c1b39	0.1993226

bn.running_var f4 [50]
0	0x410fa6d2	8.978228
1	0x3f4faba3	0.8112127
2	0x43a130ab	322.38022
3	0x4189c676	17.221905
4	0x41da1a68	27.262894
5	0x4011c8d0	2.2778816
6	0x43a130ab	322.38022
7	0x4189c676	17.221905
8	0x410b798d	8.7171755
9	0x3f50905a	0.81470263
10	0x43a3ad1f	327.3525
11	0x418cfad2	17.62247
12	0x41dfc8fa	27.973133
13	0x4010c54c	2.262042
14	0x43a3ad1f	327.3525
15	0x418cfad2	17.62247
16	0x40ff6ff4	7.982416
17	0x3f53d37d	0.8274458
18	0x43a48e5c	329.11218
19	0x41914cfb	18.162588
20	0x41e7835c	28.93914
21	0x40146669	2.3187506
22	0x43a48e5c	329.11218
23	0x41914cfb	18.162588
24	0x410c19a4	8.75626
25	0x3f4f00bb	0.8086049
26	0x43a15848	322.6897
27	0x418b548d	17.416285
28	0x41da1a68	27.262894
29	0x4011c8d0	2.2778816
30	0x43a15848	322.6897
31	0x418b548d	17.416285
32	0x4104320c	8.262218
33	0x3f4f1ac8	0.8090024
34	0x43a2388b	324.44174
35	0x418e771c	17.808159
36	0x41dfc8fa	27.973133
37	0x4010c54c	2.262042
38	0x43a2388b	324.44174
39	0x418e771c	17.808159
40	0x40f8f514	7.779917
41	0x3f525b0f	0.82170194
42	0x43a50f4c	330.1195
43	0x41916faf	18.179533
44	0x41e7835c	28.93914
45	0x40146669	2.3187506
46	0x43a50f4c	330.1195
47	0x41916faf	18.179533
48	0x3ec31207	0.3809969
49	0x3eae54d6	0.340491

bn2.weight f4 [400]
0	0x00061cb3	5.61308e-40
1	0x3da8158a	0.08207233
2	0x0004f8bc	4.56571e-40
3	0x3dbc859c	0.092051715
4	0x8000e106	-8.0723e-41
5	0x8005f3dc	-5.46658e-40
6	0x8002c335	-2.53698e-40
7	0x8003ed6f	-3.60682e-40
8	0x000838d0	7.55064e-40
9	0x80059fb0	-5.16463e-40
10	0x80060331	-5.52158e-40
11	0x3dd6a121	0.10479952
12	0x0003c11d	3.44782e-40
13	0x3d907223	0.0705302
14	0x00045b85	4.00173e-40
15	0x3e42ac95	0.19011147
16	0x00015433	1.2204e-40
17	0x3db3b9c3	0.087756656
18	0x3e1510ec	0.14557236
19	0x3ded2247	0.115788035
20	0x3e11bdcf	0.14232562
21	0x9dc104ff	-5.109184e-21
22	0x8006dcc9	-6.30216e-40
23	0x000093e3	5.3052e-41
24	0x3d92a1e8	0.071597874
25	0xaea8e7f6	-7.68096e-11
26	0x8005b310	-5.23413e-40
27	0x8000d315	-7.5722e-41
28	0x8007fe38	-7.34045e-40
29	0x800138d0	-1.12216e-40
30	0x00033b75	2.96836e-40
31	0x3e34cf4e	0.17657205
32	0x800051ef	-2.9392e-41
33	0x0001df24	1.71883e-40
34	0x800808c2	-7.37826e-40
35	0x80020af4	-1.876e-40
36	0x3d9ff96c	0.07811245
37	0x3e3c6751	0.18398787
38	0x00039277	3.28048e-40
39	0x0001b91a	1.58237e-40
40	0x00075f30	6.76995e-40
41	0x0007711b	6.83423e-40
42	0x8005545e	-4.89443e-40
43	0x80033446	-2.94259e-40
44	0x2b415005	6.8678423e-13
45	0x0006bb26	6.18149e-40
46	0x8001f8cc	-1.81087e-40
47	0x8002db86	-2.62421e-40
48	0x00061d58	5.6154e-40
49	0x3e18ae7d	0.14910312
50	0x3dbcbfe1	0.092162855
51	0x8003cdf9	-3.49396e-40
52	0xb59150f0	-1.0826898e-06
53	0x3d506291	0.05087525
54	0x800594fa	-5.1262e-40
55	0x0005a127	5.16988e-40
56	0x0004c26d	4.37089e-40
57	0x0002d3e9	2.5969e-40
58	0x3e35da05	0.17758949
59	0x0001ba46	1.58658e-40
60	0x80009536	-5.3527e-41
61	0x0006892a	6.00218e-40
62	0x80031868	-2.84262e-40
63	0x0003f371	3.62837e-40
64	0x80002bcf	-1.5716e-41
65	0x0319abbc	4.51598e-37
66	0x3e4ac17a	0.19800368
67	0x3bf6f09c	0.007536007
68	0x339ec55d	7.3933485e-08
69	0x80045f95	-4.0163e-40
70	0x3de937a4	0.11387566
71	0x80083dba	-7.56827e-40
72	0x0003c86c	3.47404e-40
73	0x3e335608	0.17513287
74	0x00070e12	6.47896e-40
75	0x0001e378	1.73436e-40
76	0x8006ceb1	-6.2516e-40
77	0x8003c8e6	-3.47575e-40
78	0x3df08d4f	0.117457025
79	0x00004ce9	2.759e-41
80	0x0002d676	2.60605e-40
81	0x800023de	-1.2867e-41
82	0x8008184e	-7.43403e-40
83	0x800368ab	-3.13054e-40
84	0x80077f35	-6.88482e-40
85	0x80076100	-6.77646e-40
86	0x800372f8	-3.1675e-40
87	0x3bacfec6	0.005279395
88	0x3e1b49e8	0.15164912
89	0x8006b570	-6.161e-40
90	0x00064b14	5.77946e-40
91	0x8005b52e	-5.24173e-40
92	0x3e00669e	0.12539145
93	0x00084ffc	7.63377e-40
94	0x0006479e	5.76704e-40
95	0x3df57f1f	0.11987137
96	0x3d2ccdd2	0.042188473
97	0x00047411	4.08979e-40
98	0x000740a1	6.66033e-40
99	0x8005d834	-5.36737e-40
100	0x3bfadf56	0.0076560182
101	0x80027d7b	-2.28685e-40
102	0x00026d66	2.22916e-40
103	0x3dfabfc2	0.12243606
104	0x00076ced	6.81924e-40
105	0xb6c3290b	-5.816231e-06
106	0x0007c890	7.14797e-40
107	0x3df9d26d	0.12198339
108	0x0005215b	4.71143e-40
109	0x8006d936	-6.28934e-40
110	0x3dde3f72	0.10851945
111	0x8006f1c6	-6.37745e-40
112	0x00000368	1.222e-42
113	0x3d902b44	0.07039502
114	0x00077640	6.85269e-40
115	0xa5a5d5c9	-2.8767804e-16
116	0x8002f68d	-2.72117e-40
117	0x0005393a	4.79707e-40
118	0x0007d691	7.1982e-40
119	0x80004fef	-2.8675e-41
120	0x0001940f	1.44949e-40
121	0x3df61275	0.12015239
122	0x80020f3e	-1.89139e-40
123	0x0001d3f4	1.6787e-40
124	0x00057e33	5.04449e-40
125	0x8007ed81	-7.28049e-40
126	0x800156be	-1.22953e-40
127	0x3dad1f56	0.084532425
128	0x3e0ffb79	0.14060773
129	0x0006c481	6.21505e-40
130	0x80006689	-3.6783e-41
131	0x3de46eef	0.111539714
132	0x8005b91d	-5.25584e-40
133	0x1f0b3db6	2.948544e-20
134	0x80067d3e	-5.95941e-40
135	0x3db648f4	0.089006335
136	0x0002f0f8	2.70114e-40
137	0x0007f8fd	7.32169e-40
138	0x3e0f6d01	0.14006425
139	0x3d07f4e9	0.03319255
140	0x0008504f	7.63493e-40
141	0x3e055142	0.13019279
142	0x8000b2ce	-6.4143e-41
143	0x3e08b925	0.13351877
144	0x000548ab	4.85246e-40
145	0x0001a68e	1.51584e-40
146	0x0004b5d1	4.32565e-40
147	0x0004810e	4.13638e-40
148	0x80076567	-6.79225e-40
149	0x8003931b	-3.28278e-40
150	0x00054965	4.85506e-40
151	0x800651b3	-5.80321e-40
152	0x0007ebff	7.27508e-40
153	0xad537dd7	-1.20219034e-11
154	0x8007a2d8	-7.01266e-40
155	0x8001be0e	-1.60014e-40
156	0x00070573	6.44803e-40
157	0x00076395	6.78572e-40
158	0x800025f5	-1.3616e-41
159	0x000271d4	2.24505e-40
160	0x00059329	5.11969e-40
161	0x8001bbe9	-1.59245e-40
162	0x0007a7b0	7.03003e-40
163	0x000777a8	6.85773e-40
164	0x0007ef2c	7.28647e-40
165	0x3e104aa4	0.14090973
166	0x00008aea	4.9833e-41
167	0x3e18a6b9	0.1490735
168	0x8005795c	-5.02713e-40
169	0x3d6836d0	0.0566929
170	0x8007e74d	-7.25824e-40
171	0x3e5632b1	0.20917775
172	0x80006831	-3.7377e-41
173	0x00019fac	1.49115e-40
174	0x8006e166	-6.31871e-40
175	0x000807ec	7.37526e-40
176	0x3dec09ef	0.11525332
177	0x0007c149	7.12186e-40
178	0x8002bb75	-2.50918e-40
179	0x80064671	-5.76283e-40
180	0x00044684	3.92638e-40
181	0x80018c17	-1.4209e-40
182	0x80025716	-2.14912e-40
183	0x8005deb2	-5.39066e-40
184	0x00063a78	5.71988e-40
185	0x3ddd106c	0.10794148
186	0x00022507	1.96954e-40
187	0x80078e3b	-6.93871e-40
188	0x3d6133b8	0.054980963
189	0x0002b19d	2.47387e-40
190	0x219cb92f	1.0619989e-18
191	0x0006c3f7	6.21312e-40
192	0x3db6c7d5	0.08924834
193	0x800046d1	-2.5404e-41
194	0x8005edf5	-5.4454e-40
195	0x3e135504	0.143879
196	0x0002ac34	2.45446e-40
197	0x80083330	-7.53047e-40
198	0x3df40a75	0.11916057
199	0x0005aa3f	5.2025e-40
200	0x80056d0c	-4.98296e-40
201	0x00015e2b	1.25617e-40
202	0x21306f79	5.977865e-19
203	0x0004ea8e	4.51484e-40
204	0x3e3744c3	0.17897324
205	0x800571b3	-4.99965e-40
206	0x00025da2	2.1726e-40
207	0x8003d89b	-3.5321e-40
208	0x8001a606	-1.51393e-40
209	0x8006b4b6	-6.1584e-40
210	0x3e2b6dbb	0.16741078
211	0x0007eace	7.2708e-40
212	0x80041cd3	-3.77682e-40
213	0x80015886	-1.23592e-40
214	0x80004038	-2.3037e-41
215	0x80069feb	-6.08381e-40
216	0x3dc83223	0.09775188
217	0x80022359	-1.96351e-40
218	0x00069c42	6.07068e-40
219	0x8005e036	-5.39609e-40
220	0x0007fdbc	7.33871e-40
221	0x3db9a7ea	0.0906523
222	0x800295e0	-2.37436e-40
223	0x8007c26d	-7.12595e-40
224	0x8005db7a	-5.37911e-40
225	0x00009a81	5.5426e-41
226	0x3daabf5c	0.0833728
227	0x8007cd30	-7.16456e-40
228	0x8006993f	-6.05987e-40
229	0x00010464	9.341e-41
230	0x3e175af4	0.1478079
231	0x8007b976	-7.0938e-40
232	0x0007c6e8	7.14203e-40
233	0x8f3aba45	-9.206382e-30
234	0x00032773	2.89658e-40
235	0x3dafe041	0.08587695
236	0x0001e889	1.75253e-40
237	0x00044498	3.91949e-40
238	0x80010ae4	-9.5742e-41
239	0x00013907	1.12293e-40
240	0x800493c6	-4.20353e-40
241	0x800241fb	-2.0734e-40
242	0x0005d082	5.33976e-40
243	0x8002641e	-2.19586e-40
244	0x000818a9	7.4353e-40
245	0x0001f263	1.78787e-40
246	0x3e200902	0.15628436
247	0x00083859	7.54898e-40
248	0x00027f56	2.2935e-40
249	0x00022d7b	1.99986e-40
250	0x0007da82	7.21234e-40
251	0x80069e21	-6.07739e-40
252	0x800177fb	-1.34876e-40
253	0x3dccdd26	0.10003118
254	0x00073cfc	6.64726e-40
255	0x3d2a1ad4	0.04152949

bn2.bias f4 [400]
0	0x80018412	-1.39213e-40
1	0xbc6e3811	-0.014539734
2	0xb6881115	-4.0551045e-06
3	0xbc666265	-0.014061545
4	0x98f1065a	-6.2303453e-24
5	0x800cd344	-1.177814e-39
6	0x84e0425a	-5.272308e-36
7	0x1804432d	1.7094515e-24
8	0x80121ba8	-1.66296e-39
9	0x808e3089	-1.3058052e-38
10	0x8b482fb1	-3.8554478e-32
11	0xbd2a0fed	-0.041519094
12	0x8b660c41	-4.4305608e-32
13	0x395523b3	0.00020326562
14	0xa30f79ff	-7.777879e-18
15	0xbcd7cd18	-0.026342914
16	0x8019561c	-2.326778e-39
17	0xbcac5909	-0.021038549
18	0xbd311a71	-0.043238107
19	0xbb7ea369	-0.0038854724
20	0xbc70d11d	-0.014698294
21	0xac3e1231	-2.7010722e-12
22	0xa267f508	-3.1436056e-18
23	0x873498af	-1.3586565e-34
24	0xbd7eaff2	-0.062179513
25	0xac4e339e	-2.9303014e-12
26	0xa21c330f	-2.1168973e-18
27	0x87a70f3c	-2.5136321e-34
28	0x80074884	-6.68862e-40
29	0x35a2a447	1.2117752e-06
30	0xae8c92b0	-6.39252e-11
31	0x3c40b9f4	0.011763085
32	0xa1bafda4	-1.2670988e-18
33	0x80041d44	-3.7784e-40
34	0x35b36161	1.336488e-06
35	0x8ea75df2	-4.1259145e-30
36	0x3b8e2dcb	0.004338955
37	0xbc3f5608	-0.011678226
38	0x81fda79f	-9.3178047e-38
39	0xa4f0ab96	-1.04374086e-16
40	0x8841fa42	-5.8373e-34
41	0xb902866c	-0.00012447842
42	0xb8da6dc0	-0.000104154926
43	0xa31b9509	-8.434126e-18
44	0xad255a1a	-9.399171e-12
45	0x0746634c	1.4925045e-34
46	0x852c90f4	-8.114025e-36
47	0x80064509	-5.75778e-40
48	0x801131f6	-1.579126e-39
49	0xbc234395	-0.009964843
50	0x3d5ee95a	0.05442176
51	0xb6b94d4b	-5.5224277e-06
52	0xb6641b7b	-3.3990643e-06
53	0xbb30b511	-0.0026963393
54	0x9b04637b	-1.0950928e-22
55	0x939cf2c0	-3.9619306e-27
56	0xaeba23a6	-8.464633e-11
57	0xb089064d	-9.969853e-10
58	0xbd26bfa1	-0.040710095
59	0x8001d1b3	-1.67061e-40
60	0xb8f74ec7	-0.00011792551
61	0x8006b24b	-6.14972e-40
62	0x0e96f9e8	3.7218506e-30
63	0xa92f5e5b	-3.8939646e-14
64	0x37d2fe66	2.5152414e-05
65	0x9f11df34	-3.0889574e-20
66	0xbc230e21	-0.009952099
67	0xbb3378eb	-0.0027385305
68	0xb3557336	-4.969771e-08
69	0x9bee587c	-3.943098e-22
70	0x3cbcd4b5	0.023050645
71	0x800320a2	-2.87213e-40
72	0x932ffd4c	-2.221299e-27
73	0xbae20d0f	-0.0017246323
74	0x80121dd6	-1.663742e-39
75	0x801ebab1	-2.822037e-39
76	0x80c394ca	-1.7961297e-38
77	0x802fdb28	-4.394887e-39
78	0xbc9aa9a4	-0.01887972
79	0x8d41b121	-5.968593e-31
80	0x88641f19	-6.864781e-34
81	0x88f09438	-1.4479321e-33
82	0x80223ccd	-3.144218e-39
83	0x04a400a7	3.8556814e-36
84	0x96ee6276	-3.8513111e-25
85	0x800238e4	-2.0408e-40
86	0x0071e0f5	1.045811e-38
87	0xba8219f6	-0.000992595
88	0x3c9ffb4f	0.019529013
89	0x8042a0c9	-6.118822e-39
90	0x94245675	-8.296935e-27
91	0x9827896b	-2.1653622e-24
92	0xbbc6e4cf	-0.0060697566
93	0x8006c51b	-6.21721e-40
94	0x994c8492	-1.0573325e-23
95	0xbd526fd2	-0.05137617
96	0xbbca648a	-0.006176536
97	0xa692d268	-1.0187816e-15
98	0x14bc357e	1.9004248e-26
99	0x80072ab9	-6.58174e-40
100	0xba1c60f7	-0.00059653766
101	0x8004dd7a	-4.46793e-40
102	0x001393f0	1.797944e-39
103	0x3cc0daba	0.023541797
104	0xa90d5ff9	-3.1391532e-14
105	0xb53af9fc	-6.9654175e-07
106	0x9fadfa0e	-7.368203e-20
107	0xbcd6a1bc	-0.026200168
108	0x80068efe	-6.02309e-40
109	0x8685ed13	-5.037739e-35
110	0x3cd54325	0.026032994
111	0x88102daa	-4.33871e-34
112	0x8004bccd	-4.35071e-40
113	0x3bea778c	0.0071553644
114	0x8737c6b7	-1.3825787e-34
115	0xa720f1c5	-2.2335524e-15
116	0x802ee3d7	-4.306166e-39
117	0x01e465b8	8.389993e-38
118	0x000086b4	4.8322e-41
119	0x8005e566	-5.4147e-40
120	0x80224675	-3.147682e-39
121	0x3c03a4df	0.008034914
122	0x803f5796	-5.817056e-39
123	0xb50cc66b	-5.24428e-07
124	0x8061b110	-8.971561e-39
125	0x24d0b20f	9.0507264e-17
126	0xa03a2e2a	-1.5770087e-19
127	0xbd3b070b	-0.045661014
128	0xbc3baf0c	-0.011455309
129	0x80078d27	-6.93484e-40
130	0x801d85a3	-2.711169e-39
131	0xbc2c72ce	-0.010525418
132	0xae3f8ade	-4.355171e-11
133	0xab037c83	-4.6713344e-13
134	0x8719669b	-1.1540594e-34
135	0xbd405d6e	-0.0469641
136	0x84a931ba	-3.9777376e-36
137	0x80067c55	-5.95615e-40
138	0x3caf679e	0.021411713
139	0xbb6c5d0b	-0.00360662
140	0x8006bb19	-6.18131e-40
141	0xbc3c0344	-0.011475388
142	0x15cd112e	8.2825945e-26
143	0xbc3c648d	-0.011498583
144	0x0f24a359	8.117284e-30
145	0xa51353fa	-1.277867e-16
146	0x8007794d	-6.86363e-40
147	0x84da2c45	-5.129221e-36
148	0x85523de7	-9.885522e-36
149	0xb5c2c072	-1.4510135e-06
150	0x8000ff01	-9.1478e-41
151	0xa67b2244	-8.7129557e-16
152	0x80072d81	-6.59172e-40
153	0xaae7133c	-4.104719e-13
154	0xb78ea181	-1.7002925e-05
155	0xb807d5b8	-3.238555e-05
156	0x31af372d	5.099443e-09
157	0x800b4351	-1.034339e-39
158	0xbac21d59	-0.0014809772
159	0xb931d93d	-0.00016960963
160	0x801e0817	-2.757967e-39
161	0xb526e7ed	-6.2177315e-07
162	0x25909a15	2.5084428e-16
163	0xb410e02b	-1.3492597e-07
164	0x0c4ae3ea	1.5630099e-31
165	0xbd442997	-0.047891226
166	0xb099aa0d	-1.1180546e-09
167	0x3c7d84b1	0.015473531
168	0xb3453050	-4.5911577e-08
169	0x3c1f34df	0.009717195
170	0x35c11fd2	1.4388881e-06
171	0xbc14d74e	-0.009084536
172	0x87670030	-1.7378564e-34
173	0xaec0f4f2	-8.77466e-11
174	0x000018ac	8.85e-42
175	0xab6c1285	-8.3869744e-13
176	0xbd8154da	-0.06315012
177	0xaada276f	-3.8751942e-13
178	0xb2e7afc2	-2.6971865e-08
179	0x10baf872	7.3746855e-29
180	0x953e3c8d	-3.841796e-26
181	0xae93b10f	-6.716238e-11
182	0x870cc286	-1.0589595e-34
183	0x985449f0	-2.7437687e-24
184	0x8d299727	-5.225909e-31
185	0xbc39a42f	-0.011330648
186	0x1a38a770	3.8185563e-23
187	0xa9ce1834	-9.152436e-14
188	0xbd160bcb	-0.03663234
189	0x8012f079	-1.739304e-39
190	0xac841878	-3.7543822e-12
191	0xa61b9301	-5.3975655e-16
192	0x3bf92cb8	0.007604208
193	0x8ef69f7b	-6.0797256e-30
194	0xb9fb3045	-0.00047910414
195	0xbbe2fc1c	-0.0069270264
196	0x86044a4e	-2.488103e-35
197	0x27ffc194	7.0986596e-15
198	0xbc810c4e	-0.015752938
199	0x8000b13e	-6.3583e-41
200	0x8219f412	-1.131071e-37
201	0x801dcce8	-2.736736e-39
202	0xb6031aa8	-1.9536037e-06
203	0x00208d5b	2.989445e-39
204	0xbd8f4ac9	-0.06996686
205	0x80255773	-3.429284e-39
206	0x80e6f9da	-2.1211794e-38
207	0x8ad340d6	-2.034295e-32
208	0x930bf206	-1.7663593e-27
209	0x80095659	-8.57495e-40
210	0xbc35e743	-0.0111025
211	0x239a8dbe	1.6756744e-17
212	0x0292a5a6	2.154785e-37
213	0x8006e8f6	-6.34584e-40
214	0x800ed724	-1.362875e-39
215	0x2e19c42f	3.496242e-11
216	0xbd44697d	-0.047952164
217	0x8006d9c0	-6.29127e-40
218	0x8040e32a	-5.958963e-39
219	0xb0180a71	-5.5312116e-10
220	0x80226da2	-3.161736e-39
221	0xbc136625	-0.008996521
222	0x80077073	-6.83188e-40
223	0xb5ff7af9	-1.903477e-06
224	0x80002c96	-1.5994e-41
225	0x315c5a5b	3.2065575e-09
226	0xbc7fc51d	-0.01561096
227	0x92897aa6	-8.676151e-28
228	0xb4082b60	-1.2681767e-07
229	0x80075cf1	-6.7619e-40
230	0xbde9d9da	-0.11418505
231	0x8012e622	-1.735595e-39
232	0xb2d67a6b	-2.4968548e-08
233	0xa76716b4	-3.2069997e-15
234	0x8b12ae8f	-2.82499e-32
235	0xbc05b553	-0.008160907
236	0x8144cd75	-3.6146923e-38
237	0x8acf65b1	-1.9971627e-32
238	0x80058cfe	-5.09756e-40
239	0x8002b887	-2.49867e-40
240	0x80abbaa0	-1.5770818e-38
241	0xa2329c32	-2.4206187e-18
242	0x0b0f694b	2.7620012e-32
243	0xa26abf87	-3.1814307e-18
244	0xb76f9c3c	-1.4281886e-05
245	0x8004290b	-3.82065e-40
246	0xbd5d2454	-0.053989723
247	0x96b9802f	-2.9969257e-25
248	0x80056a82	-4.97385e-40
249	0xa590687d	-2.5050822e-16
250	0x910aac26	-1.0939328e-28
251	0x81ab891d	-6.301223e-38
252	0xb255dcb7	-1.24484165e-08
253	0x3ce503bc	0.027955882
254	0x8bcbe152	-7.853178e-32
255	0x3b02b772	0.0019945768
