tasks/tennis/solutions/maddpg/solution_checkpoint/TennisBrain_agent_1_independent_madtd3_critic_checkpoint.pth (torch_old, 586776 bytes, 34 tensors)

q_network_a.state_featurizer.mlp_layers.0.weight f4 [50]
0.52175665 0.6079745 0.26239216 0.37255788 0.9084379 0.7533204 0.29953796 0.3350426
0.55296636 0.38646954 0.34413427 0.44993624 0.4700736 0.56806207 0.4460239 0.3962372
0.8848628 0.65635896 0.49132136 0.47287914 1.2936 1.0361712 0.48695442 0.47629458
0.48484418 0.478383 0.3303538 0.25874647 0.92309505 0.7220605 0.28634527 0.23884675
0.5095143 0.44216514 0.36532533 0.3047859 0.43123108 0.6336239 0.38354057 0.3535787
0.6087273 0.50697553 0.4170343 0.39593238 1.2826507 1.0310632 0.31721652 0.4523586
0.56362486 0.47929487
00000000: d891 053f 38a4 1b3f 4458 863e e8bf be3e
00000010: 638f 683f 9bd9 403f 0a5d 993e b48a ab3e
00000020: 348f 0d3f 56df c53e 5e32 b03e 0b5e e63e
00000030: 7dad f03e 846c 113f 3f5d e43e 9adf ca3e
00000040: 5e86 623f 2407 283f 798e fb3e 371d f23e
00000050: af94 a53f 42a1 843f 1752 f93e e2dc f33e
00000060: 7f3d f83e 9eee f43e 2224 a93e 6b7a 843e
00000070: f54f 6c3f f5d8 383f d99b 923e 3e94 743e
00000080: 876f 023f 7863 e23e ec0b bb3e e60c 9c3e
00000090: 52ca dc3e 2d35 223f 6e5f c43e 4408 b53e
000000a0: 8dd5 1b3f 26c9 013f 8585 d53e a6b7 ca3e
000000b0: e62d a43f e1f9 833f 346a a23e 8c9b e73e
000000c0: b849 103f 2366 f53e

q_network_a.state_featurizer.mlp_layers.0.bias f4 [50]
0.03578121 -0.015453942 0.14154579 -0.17396596 -0.048766535 -0.3233655 0.105665304 -0.020260122
0.1572997 -0.252908 0.38762167 -0.0150249265 0.028041052 0.40556613 -0.12961209 -0.3067321
0.16645463 -0.003907277 0.13695553 -0.34871927 0.013710437 0.12765679 -0.007996219 0.014383983
-0.030939274 -0.14603452 -0.31887764 0.055928964 -0.08148004 -0.111204736 0.31197757 -0.14541246
-0.24052905 0.042232748 0.1153186 -0.13428263 0.07219912 0.3184282 -0.18465587 -0.042226456
0.15079857 -0.15159777 -0.2963608 -0.34512728 -0.07525805 0.14552349 0.00077634735 0.21177723
-0.02748928 0.027192483
00000000: 518f 123d 8832 7dbc 61f1 103e 2224 32be
00000010: 6bbf 47bd 2a90 a5be 0d67 d83d 8ef8 a5bc
00000020: 2c13 213e 287d 81be 5976 c63e 1c2b 76bc
00000030: 59b6 e53c 5da6 cf3e 08b9 04be fd0b 9dbe
00000040: 1573 2a3e 9d08 80bb 123e 0c3e 558b b2be
00000050: bea1 603c 76b8 023e 9302 03bc ccaa 6b3c
00000060: 5c74 fdbc 138a 15be ee43 a3be c515 653d
00000070: 02df a6bd 4fbf e3bd 86bb 9f3e 01e7 14be
00000080: 3f4d 76be 3ffc 2c3d 282c ec3d 6381 09be
00000090: 22dd 933d 0509 a33e 6e16 3dbe a6f5 2cbd
000000a0: f16a 1a3e 723c 1bbe 9abc 97be 86b4 b0be
000000b0: e420 9abd 1c04 153e ca83 4b3a 21dc 583e
000000c0: 3331 e1bc c5c2 de3c

q_network_a.state_featurizer.mlp_layers.0.running_mean f4 [50]
-6.0834928 -0.38246533 7.406045 0.17117535 -0.09439544 3.46013 7.406045 0.17117535
-6.143717 -0.36846492 7.709919 0.20249899 -0.089546785 3.3520372 7.709919 0.20249899
-6.184091 -0.36283103 8.484263 0.16570103 -0.06771816 3.2774866 8.484263 0.16570103
-6.2826405 -0.2955536 6.7955065 0.07560253 0.09439544 3.46013 6.7955065 0.07560253
-6.3037386 -0.29533187 7.5143147 0.04052404 0.089546785 3.3520372 7.5143147 0.04052404
-6.3467016 -0.3094721 7.847345 -0.038092844 0.06771816 3.2774866 7.847345 -0.038092844
-0.0033792371 -0.017198911
00000000: f9ab c2c0 7fd2 c3be 52fe ec40 9748 2f3e
00000010: 6552 c1bd c572 5d40 52fe ec40 9748 2f3e
00000020: 5499 c4c0 6fa7 bcbe a8b7 f640 e55b 4f3e
00000030: 4e64 b7bd c787 5640 a8b7 f640 e55b 4f3e
00000040: 13e4 c5c0 fdc4 b9be 8bbf 0741 88ad 293e
00000050: d2af 8abd 57c2 5140 8bbf 0741 88ad 293e
00000060: 640b c9c0 cd52 97be ca74 d940 80d5 9a3d
00000070: 6552 c13d c572 5d40 ca74 d940 80d5 9a3d
00000080: 3ab8 c9c0 bd35 97be 4475 f040 89fc 253d
00000090: 4e64 b73d c787 5640 4475 f040 89fc 253d
000000a0: 2e18 cbc0 2173 9ebe 731d fb40 3e07 1cbd
000000b0: d2af 8a3d 57c2 5140 731d fb40 3e07 1cbd
000000c0: 3176 5dbb bbe4 8cbc

q_network_a.state_featurizer.mlp_layers.0.running_var f4 [50]
19.859756 0.9407693 461.19952 15.312797 33.846615 2.934806 461.19952 15.312797
19.652441 0.9463282 467.06924 15.258097 36.6776 3.2728584 467.06924 15.258097
19.247746 0.9558919 471.50952 15.614708 39.743946 3.7000952 471.50952 15.614708
19.540257 0.91105735 460.7954 14.911171 33.846615 2.934806 460.7954 14.911171
19.34351 0.9117588 463.2503 15.284487 36.6776 3.2728584 463.2503 15.284487
18.711195 0.92029506 478.78177 15.631243 39.743946 3.7000952 478.78177 15.631243
0.43479958 0.3991549
00000000: c8e0 9e41 42d6 703f 8a99 e643 3701 7541
00000010: ef62 0742 ddd3 3b40 8a99 e643 3701 7541
00000020: 3338 9d41 9142 723f dd88 e943 2a21 7441
00000030: ddb5 1242 8376 5140 dd88 e943 2a21 7441
00000040: 62fb 9941 55b5 743f 38c1 eb43 d8d5 7941
00000050: cdf9 1e42 5cce 6c40 38c1 eb43 d8d5 7941
00000060: 7252 9c41 0e3b 693f d065 e643 2894 6e41
00000070: ef62 0742 ddd3 3b40 d065 e643 2894 6e41
00000080: 82bf 9a41 0669 693f 0aa0 e743 428d 7441
00000090: ddb5 1242 8376 5140 0aa0 e743 428d 7441
000000a0: 87b0 9541 7598 6b3f 1164 ef43 9219 7a41
000000b0: cdf9 1e42 5cce 6c40 1164 ef43 9219 7a41
000000c0: 0d9e de3e 085e cc3e

q_network_a.state_featurizer.mlp_layers.1.weight f4 [400, 50]
0.030897366 0.02544983 -0.101035275 -0.0018468156 -0.0038587397 0.015741836 -0.07693873 0.07288296
0.0018817035 0.0047087055 -0.061436653 -0.047476973 -0.069893695 -0.08189072 -0.03406397 -0.011795175
-0.020256639 -0.026022695 -0.068473645 -0.03913709 -0.024707286 0.0063353735 -0.03318215 0.017699866
0.039253496 0.02279119 0.051219024 -0.0064527052 -0.056767035 -0.022563811 -0.031079952 0.08490969
-0.029617617 -0.011539136 -0.044160187 0.021584745 -0.018907597 -0.0108637465 0.02390368 0.072535485
-0.030484816 0.022170745 0.054983016 -0.043941356 0.002708934 -0.082989976 0.037560955 0.024895478
-0.020522658 0.030141333 0.08836985 0.14975482 -0.0145933265 0.102251425 0.014059317 0.0034679451
-0.01469811 0.013723523 -0.05623216 0.09157906 -0.06620659 0.08824039 -0.062156875 -0.042322665
0.07764677 0.05937294 -0.067415476 0.059338268 -0.02087436 0.0307366 -0.048185375 -0.12384108
-0.024314268 -0.00030513378 -0.005364382 0.05119273 0.08266063 -0.04979151 0.06053056 -0.015320635
-0.09243468 0.099851966 0.036625333 -0.12753776 -0.031668022 0.015249583 -0.013011847 -0.07488388
0.005983043 -0.01664364 -0.03434937 0.046382602 0.039795954 0.052221403 -0.11739258 -0.15832593
-0.014196018 -0.032311637 -0.016092356 -0.028345997 0.003075998 0.017640833 -0.0031726 0.010134553
0.00038573705 -0.021844303 -0.002567028 -0.00031250415 0.017605856 0.017777111 0.013045833 0.007354999
0.0009970925 0.0009917008 0.029315306 0.016196536 0.014238442 0.04426655 -0.013946298 0.075269
0.0009771539 0.03060736 -0.015318338 0.066176504 0.0011689638 -0.031568103 -0.006056897 0.020717347
-0.017496953 -0.04176129 -0.04616243 0.030268472 -0.0023182489 -0.022516891 -0.036135387 -0.00059241033
-0.010829576 -0.0060744574 -0.020809082 -0.0004238225 -0.0100191105 0.0025184387 -0.003812932 0.011486773
-0.010180372 0.015937528 -0.020194259 -0.012805437 -0.036954686 -0.0050108125 -0.036695294 0.0015500248
-0.013632047 0.05178205 0.023367632 0.0045004925 0.000880389 0.011361114 -0.045615546 0.015487487
-0.044512898 0.004808071 -0.02249128 -0.049291007 -0.0024998938 -0.0039971555 -0.12632808 0.028098444
-0.0441153 -0.011780389 0.10921745 -0.09011585 0.01414337 0.008135703 -0.05196059 0.027803894
0.05938874 -0.026098821 0.047892556 0.0033379032 0.013936358 -0.015431312 0.050549865 -0.016180482
0.009854742 0.026424814 -0.027674364 -0.016554343 0.0036198641 0.029405657 0.05141669 0.022439182
-0.03686487 0.013175975 -0.09447419 -0.10114227 -0.038068302 -0.016824523 -0.013234974 -0.035490666
-8.1858e-41 6.22286e-40 -7.023e-41 -7.5622e-41 -3.20616e-40 6.30741e-40 -6.9879e-41 -8.1082e-41
7.5379e-41 4.61309e-40 6.30548e-40 8.2923e-41 6.17371e-40 -6.24583e-40 3.35279e-40 -8.274e-41
-6.28988e-40 -6.27913e-40 -6.23373e-40 -3.4697e-40 2.25662e-40 6.19067e-40 -6.17807e-40 -7.4301e-41
-2.18705e-40 -7.3963e-41 -6.21002e-40 7.9695e-41 -6.25701e-40 -6.21722e-40 6.20243e-40 7.4182e-41
-6.81796e-40 1.9408e-41 6.20708e-40 -2.9754e-41 -3.3837e-41 6.31108e-40 2.35258e-40 1.73048e-40
-6.22702e-40 7.6308e-41 -3.34714e-40 -6.22633e-40 -4.37575e-40 -3.58892e-40 -6.2367e-40 2.37757e-40
7.2718e-41 7.8027e-41 -0.090058655 -0.0150837675 -0.035340432 -0.0054674307 -0.00493005 -0.008104978
00000000: 791c fd3c 297c d03c 95eb cebd d910 f2ba
00000010: e9e2 7cbb 06f5 803c 0e92 9dbd a943 953d
00000020: 7ea3 f63a 7c4b 9a3b 00a5 7bbd 3777 42bd
00000030: 6d24 8fbd 52b6 a7bd a986 0bbd 8d40 41bc
00000040: 40f1 a5bc 8c2d d5bc e93b 8cbd 374e 20bd
00000050: ef66 cabc f798 cf3b 02ea 07bd 4fff 903c
00000060: 46c8 203d 97b4 ba3c 0acb 513d 3771 d3bb
00000070: 8d84 68bd bed7 b8bc 629b febc 22e5 ad3d
00000080: a5a0 f2bc a50e 3dbc 50e1 34bd 7ed2 b03c
00000090: 1be4 9abc dbfd 31bc a6d1 c33c 7c8d 943d
000000a0: 4bbb f9bc 6c9f b53c df35 613d dafb 33bd
000000b0: 5f88 313b a6f6 a9bd 84d9 193d 9af1 cb3c
000000c0: 221f a8bc f5ea f63c 40fb b43d 5459 193e
000000d0: d918 6fbc 3269 d13d 0d59 663c 7746 633b
000000e0: 57d0 70bc a1d8 603c b253 66bd cd8d bb3d
000000f0: 5297 87bd 61b7 b43d 3598 7ebd 885a 2dbd
00000100: 4505 9f3d 0a31 733d 2011 8abd af0c 733d
00000110: b500 abbc 52cb fb3c 075e 45bd 64a0 fdbd
00000120: b72e c7bc 5dfa 9fb9 b3c7 afbb 78af 513d
00000130: fa49 a93d 2ff2 4bbd e4ee 773d 6703 7bbc
00000140: 654e bdbd 307f cc3d 7204 163d 4299 02be
00000150: 54b6 01bd 63d9 793c a42f 55bc b85c 99bd
00000160: 670d c43b 3e58 88bc edb1 0cbd affb 3d3d
00000170: 1501 233d 1ce6 553d 856b f0bd 3120 22be
00000180: 6a96 68bc 3559 04bd 1ed4 83bc dd35 e8bc
00000190: af96 493b 8283 903c 65eb 4fbb 650b 263c
000001a0: c03c ca39 d3f2 b2bc 953b 28bb 99d7 a3b9
000001b0: 283a 903c 4ea1 913c 31be 553c 3402 f13b
000001c0: dfb0 823a f5fb 813a a726 f03c 99ae 843c
000001d0: 5b48 693c d850 353d 037f 64bc a226 9a3d
000001e0: d813 803a 49bc fa3c c4f9 7abc 8c87 873d
000001f0: eb37 993a 8e4d 01bd ef78 c6bb 6db7 a93c
00000200: c555 8fbc e30d 2bbd d114 3dbd 96f5 f73c
00000210: c3ed 17bb 5875 b8bc b302 14bd fc4b 1bba
00000220: 896e 31bc 3e0c c7bb cf77 aabc 7e34 deb9
00000230: 3227 24bc 640c 253b 62e2 79bb 0533 3c3c
00000240: 93cb 26bc 6b8f 823c 6e6e a5bc e5cd 51bc
00000250: cc5d 17bd be31 a4bb ce4d 16bd 342a cb3a
00000260: f358 5fbc 6a19 543d 7a6d bf3c de78 933b
00000270: e8c9 663a f723 3a3c 5ed7 3abd 3bbf 7d3c
00000280: 2853 36bd 068d 9d3b a23f b8bc 5ee5 49bd
00000290: 42d5 23bb 92fa 82bb 265c 01be b52e e63c
000002a0: 3fb2 34bd 8802 41bc 66ad df3d a98e b8bd
000002b0: 98b9 673c 9d4b 053c a1d4 54bd fec4 e33c
000002c0: 9c41 733d 32cd d5bc fc2a 443d b9c0 5a3b
000002d0: 5255 643c 9dd3 7cbc 600d 4f3d ee8c 84bc
000002e0: c975 213c da78 d83c 59b5 e2bc f99c 87bc
000002f0: 3e3b 6d3b 22e4 f03c 4f9a 523d 60d2 b73c
00000300: 9eff 16bd 0be0 573c af7b c1bd ae23 cfbd
00000310: 82ed 1bbd 95d3 89bc 81d7 58bc a95e 11bd
00000320: 30e4 0080 aec6 0600 c6c3 0080 ced2 0080
00000330: bf7d 0380 40de 0600 cbc2 0080 06e2 0080
00000340: 20d2 0000 f105 0500 b6dd 0600 28e7 0000
00000350: fbb8 0600 15cd 0680 9fa6 0300 a5e6 0080
00000360: 5dd9 0680 5ed6 0680 b6c9 0680 36c7 0380
00000370: 0e75 0200 b5bd 0600 32ba 0680 1fcf 0080
00000380: a961 0280 2ece 0080 1ac3 0680 28de 0000
00000390: 33d0 0680 1cc5 0680 fcc0 0600 cace 0000
000003a0: 926c 0780 1a36 0000 48c2 0600 f152 0080
000003b0: 535e 0080 46df 0600 ce8f 0200 63e2 0100
000003c0: d7c7 0680 b7d4 0000 0ca5 0380 a6c7 0680
000003d0: c8c3 0480 72e8 0380 8aca 0680 c596 0200
000003e0: b5ca 0000 82d9 0000 ac70 b8bd e821 77bc
000003f0: 21c1 10bd 2228 b3bb 428c a1bb beca 04bc

q_network_a.state_featurizer.mlp_layers.1.bias f4 [400]
-0.1360185 -0.3128313 -0.057843063 -0.099833906 6.19887e-40 -0.12485375 -0.14115398 -0.07452701
-0.021149235 -0.133838 -0.05102815 -6.301677e-35 -0.09846068 -0.124219246 -0.26858357 -0.10432349
-0.2049369 -0.046880305 0.026678747 -0.058250368 -6.32162e-40 -0.037548885 -0.045754258 -0.07281483
-2.9863e-41 -0.038766444 -0.07945548 -0.14869098 -5.5749162e-05 -0.04566821 -0.09486951 -0.10892029
-0.0840135 -0.07386852 -0.18863218 -0.1007857 -0.042074215 -0.06445172 -0.055165667 -0.14463386
-0.063231826 7.2081e-40 -0.11506876 -0.079896696 -0.07602028 -0.098390765 -0.099969715 -0.21460949
-0.10198843 -0.08580587 -0.07249917 -0.10737323 -0.23355888 -0.09936695 -0.06138425 -0.08318934
-0.10849211 2.17168e-40 -0.16945319 -0.086551495 -0.094242275 -0.1060395 -0.08825671 -0.012937186
0.03955607 -0.034029566 -0.07254412 -0.008125362 -0.16939628 -0.028293839 -0.2320242 -2.31232e-40
-0.09035191 -0.07307927 -0.08319962 -0.026496181 -0.07549294 -0.16150959 -0.25468963 -0.13512559
-0.069941506 -0.09096904 -0.017938502 -0.103723705 -0.07086203 -0.03927103 -0.09673116 -0.16771606
-0.0517358 -8.4495e-41 -0.15777609 5.62415e-40 7.7158e-41 -0.074857816 -0.03401117 -0.06791579
-0.08643517 -0.104461506 -0.10258845 -2.2715e-40 -0.06394784 -0.15830645 0.012667854 0.0045035663
-0.08337413 -0.11441908 -0.07603663 -0.14528595 -0.006831294 -0.11679949 -0.043535687 -0.094830565
0.0018167066 -0.03250134 -0.011977373 -0.0013575901 -0.15104724 -0.11653939 -0.06552277 -0.07491055
-3.96656e-40 -0.022382336 -0.0540627 -0.11661613 -0.0995283 -0.029423075 -0.060231622 -1.6849e-40
-0.12692815 -0.0051248963 -0.028586762 -0.073937014 -0.09473018 0.034517307 -6.204865e-07 -0.16018921
-0.11588412 -0.06738231 -0.108920306 -0.15825601 -0.08042404 -0.05697111 -0.0931835 -0.055615835
2.38947e-40 -0.018269327 -0.058266528 -0.08292487 -0.18207441 -0.07248483 -0.12513539 -0.061573815
-0.1290774 -0.13492286 -0.15700236 -0.13956398 -0.07288258 -0.1091618 -0.015254632 -0.070757955
-0.112042494 -0.07024348 -0.05015902 -0.07775825 -0.121447064 -0.09369807 -0.07817037 -0.15510269
-0.06427555 -0.02446851 -0.04166092 -0.105241425 -0.12325944 0.0031271386 -0.069806695 -0.16542964
-0.07246921 -0.07809115 -0.093572244 -0.073239505 -0.0932041 -0.021865979 -0.21046497 6.2531e-40
-0.13130194 -0.071596675 -0.11218941 -0.14556837 -0.10550734 -0.13807534 -0.108689696 -0.081402294
-0.2003095 -0.0017599235 -0.12963292 0.011240497 -0.0844588 -0.049094323 -0.27512723 -0.10525873
-0.069040716 -0.11494386 -0.057745736 -0.027576717 -0.15142283 -0.031747375 -0.077759646 -0.003922066
0.048503164 -0.08993618 -0.18180496 -0.08186876 -0.122326486 -0.058329392 -0.15426591 -0.06304296
-0.09174144 -0.09837722 -0.11163493 -0.038896494 -0.074987 -0.13202211 -0.04492227 0.024746502
-0.086136006 -0.025957612 -0.038825206 -0.09632276 -0.25702256 -0.17407887 -0.06761634 -0.06826514
-0.13554756 -9.364088e-14 -0.021790562 -0.07369467 -0.04898063 -0.14151616 -0.15729092 -0.018378127
-0.035364907 -0.007927845 -0.15114635 -0.14535233 -1.0938092e-18 -0.08083848 -0.062383763 -0.017404234
-0.057003494 -0.010174978 -0.11517382 -0.08600776 -0.050452124 -1.25945e-40 -0.074241444 -0.026310565
00000000: 6f48 0bbe 6d2b a0be d9ec 6cbd b875 ccbd
00000010: febf 0600 53b3 ffbd ab8a 10be 9ea1 98bd
00000020: 2941 adbc d40c 09be e502 51bd fe86 a786
00000030: c1a5 c9bd a966 febd c983 89be 8ea7 d5bd
00000040: fbda 51be 9005 40bd 638d da3c f097 6ebd
00000050: 36e2 0680 dccc 19bd d168 3bbd f11f 95bd
00000060: 3f53 0080 90c9 1ebd 8eb9 a2bd 7342 18be
00000070: 35d4 69b8 970e 3bbd f24a c2bd 9a11 dfbd
00000080: 450f acbd 6148 97bd cb28 41be bc68 cebd
00000090: 0356 2cbd 43ff 83bd 65f5 61bd e61a 14be
000000a0: b07f 81bd 53d9 0700 2ca9 ebbd e1a0 a3bd
000000b0: 85b0 9bbd 1981 c9bd ecbc ccbd 97c2 5bbe
000000c0: 4fdf d0bd fdba afbd 727a 94bd 7fe6 dbbd
000000d0: 0f2a 6fbe e680 cbbd 0d6e 7bbd 2c5f aabd
000000e0: 1d31 debd 605d 0200 2385 2dbe e941 b1bd
000000f0: 1802 c1bd 3d2b d9bd efbf b4bd 7ef6 53bc
00000100: 8c05 223d 9662 0bbd 0392 94bd 3d20 05bc
00000110: 3876 2dbe 7bc8 e7bc c097 6dbe 9584 0280
00000120: 6c0a b9bd 96aa 95bd 9064 aabd 850e d9bc
00000130: 0b9c 9abd c562 25be ae66 82be 5d5e 0abe
00000140: 7e3d 8fbd fa4d babd c4f3 92bc 186d d4bd
00000150: 1d20 91bd a9da 20bd fd1a c6bd c2bd 2bbe
00000160: ebe8 53bd 8aeb 0080 0e90 21be c91f 0600
00000170: 16d7 0000 0e4f 99bd 4c4f 0bbd 6f17 8bbd
00000180: ec04 b1bd eaef d5bd e519 d2bd 3479 0280
00000190: 16f7 82bd 161b 22be d58c 4f3c a792 933b
000001a0: 0ec0 aabd 8d54 eabd 18b9 9bbd d7c5 14be
000001b0: 0cd9 dfbb 9234 efbd 7a52 32bd 8736 c2bd
000001c0: 8f1e ee3a 2020 05bd be3c 44bc 2af1 b1ba
000001d0: 21ac 1abe 34ac eebd cd30 86bd b46a 99bd
000001e0: b751 0480 295b b7bc da70 5dbd 70d4 eebd
000001f0: 7ed5 cbbd a908 f1bc 6fb5 76bd aed5 0180
00000200: 74f9 01be bfee a7bb c92e eabc 4a6c 97bd
00000210: e601 c2bd 0562 0d3d 828f 26b5 a408 24be
00000220: a754 edbd bdff 89bd 9c11 dfbd dd0d 22be
00000230: 5cb5 a4bd 8a5a 69bd fed6 bebd 6ecd 63bd
00000240: 169a 0200 8ea9 95bc e2a8 6ebd 84d4 a9bd
00000250: b771 3abe ed72 94bd 7e23 00be d334 7cbd
00000260: de2c 04be 3829 0abe 3ac5 20be dce9 0ebe
00000270: 7643 95bd 3990 dfbd 90ee 79bc 8ce9 90bd
00000280: 8976 e5bd d0db 8fbd 8b73 4dbd b83f 9fbd
00000290: 3db9 f8bd c6e4 bfbd c917 a0bd 3dd3 1ebe
000002a0: e6a2 83bd 2f72 c8bc a4a4 2abd d188 d7bd
000002b0: 726f fcbd aef0 4c3b d0f6 8ebd 6366 29be
000002c0: bd6a 94bd 41ee 9fbd cea2 bfbd 98fe 95bd
000002d0: cbe1 bebd 4820 b3bc 2184 57be 1ccf 0600
000002e0: 0474 06be 47a1 92bd 90c3 e5bd e00f 15be
000002f0: 3b14 d8bd 9f63 0dbe b498 debd 3fb6 a6bd
00000300: ef1d 4dbe 3cad e6ba 7ebe 04be 102a 383c
00000310: bcf8 acbd 2117 49bd 7add 8cbe e491 d7bd
00000320: 3865 8dbd b067 ebbd cb86 6cbd 91e8 e1bc
00000330: 960e 1bbe 8909 02bd 7340 9fbd ad84 80bb
00000340: 41ab 463d 7630 b8bd 142b 3abe cfaa a7bd
00000350: 4f86 fabd cdea 6ebd e2f7 1dbe ab1c 81bd
00000360: f0e2 bbbd ff79 c9bd dba0 e4bd ee51 1fbd
00000370: c992 99bd ce30 07be 6a00 38bd 2db9 ca3c
00000380: 1368 b0bd 0fa5 d4bc 2e07 1fbd de44 c5bd
00000390: 7698 83be bb41 32be 707a 8abd 98ce 8bbd
000003a0: fbcc 0abe 4bdc d2a9 1f82 b2bc 3bed 96bd
000003b0: ea9f 48bd 9de9 10be df10 21be ba8d 96bc
000003c0: cbda 10bd cbe3 01bc 1cc6 1abe 3ed7 14be
000003d0: f16a a1a1 a58e a5bd 1e86 7fbd 5393 8ebc
000003e0: 7f7c 69bd f3b4 26bc 40e0 ebbd d624 b0bd
000003f0: e3a6 4ebd 155f 0180 e60b 98bd 4189 d7bc

q_network_a.output_module.mlp_layers.0.weight f4 [402]
0.18133807 0.6172963 0.104476914 0.2528507 4.49465e-40 0.17195469 0.43768382 0.13045554
0.05169529 0.14384589 0.14174241 7.0455665e-17 0.23530708 0.27780965 0.39343053 0.15991837
0.3489455 0.09039839 0.12261492 -0.040976502 3.1638357e-33 0.12287577 0.09543286 0.10912169
4.5208732e-21 0.12032143 0.25328377 0.21815524 -1.1491666e-05 0.06874698 0.15300584 0.24762763
0.07121913 0.08285059 0.3241051 0.19376162 0.0441562 0.10439928 0.27927938 0.14270268
0.12839702 -6.02207e-40 0.24401286 0.16003256 0.13224679 0.11544998 0.20340322 0.36503157
0.16053675 0.07346968 0.15755849 0.24723768 0.25492013 0.08115178 0.07647427 0.09258679
0.14820151 -4.29176e-40 0.30856526 0.27997422 0.1647561 0.12462841 0.3573825 0.03660301
0.33308282 0.20335813 0.071798265 0.02118242 0.3710153 0.17660484 0.4980701 -1.32183625e-30
0.17376749 0.116201594 0.1251095 0.07234128 0.10939617 0.22217916 0.3696493 0.27288067
0.14668569 0.10623213 0.1968211 0.37330687 0.13285471 0.10284812 0.100890934 0.25643137
0.041115016 2.50695e-40 0.25756678 9.4223654e-32 1.91644e-40 0.1185184 0.19433074 0.124505386
0.21039152 0.18508823 0.16729026 1.20847e-40 0.1666933 0.077171534 0.31391057 0.32617086
0.12988564 0.21818344 0.13619366 0.23143731 0.22599553 0.18255448 0.12911491 0.10362238
-0.02549449 -0.027842635 -3.513323e-05 0.0011633697 0.22650346 0.16555339 0.12507291 0.11388105
3.10599e-40 0.24949016 -0.048135705 0.14943077 0.12663935 0.009819214 0.22522931 4.54517e-40
0.18963078 0.00305126 0.1483652 0.2351898 0.27018824 0.092204355 3.8581074e-06 0.10477992
0.30753404 0.108739845 0.14174007 0.2067975 0.14025682 0.116475835 0.13995196 0.107299194
1.3249701e-13 0.17579055 0.10228164 0.28842065 0.3833279 0.12575851 0.2138613 0.101353645
0.1831358 0.234831 0.33962068 0.16247351 0.08458959 0.2651822 0.07553594 0.13600686
0.2626091 0.15498228 0.1051008 0.12711449 0.07541176 0.23261787 0.10306163 0.40575138
0.07028891 0.100751966 0.010792597 0.6412468 0.24096736 0.17153534 0.13658687 0.21638627
0.11372544 0.16015102 0.089582525 0.13602747 0.1654551 0.008026276 0.3423274 5.71934e-40
0.22452341 0.09515723 0.19854818 0.23187913 0.15446185 0.23971032 0.10795186 0.16816099
0.25204992 5.7052683e-05 0.15504318 0.11231183 0.055437356 0.17031088 0.3156632 0.12436549
0.160004 0.30830222 0.08015213 0.12761942 0.27328372 0.013555383 0.124733455 -0.0013510244
0.31086543 0.0824261 0.72270554 0.15939352 0.1501293 0.010980273 0.23766951 0.11119229
0.13753551 0.19461441 0.12130926 0.21218862 0.1287204 0.22157456 0.09115518 0.16087048
0.117531046 0.13714331 0.12587106 0.10797474 0.43987378 0.15410554 0.070138685 0.14552215
0.232922 2.0780965e-07 3.849743e-05 0.25940737 0.15466698 0.22406921 0.18091142 0.024194272
0.11358136 0.25077572 0.27303222 0.1029217 8.385411e-08 0.08174558 0.13521063 0.06910875
0.12437139 0.20478588 0.27794412 0.15078518 0.18230014 -5.64124e-40 0.17381987 0.327576
00000000: b0b0 393e 2107 1e3f fef7 d53d a675 813e
00000010: ede4 0400 e414 303e 1818 e03e 2396 053e
00000020: 71be 533d 564c 133e ec24 113e af75 a224
00000030: 57f4 703e 113d 8e3e ba6f c93e a4c1 233e
00000040: fca8 b23e cb22 b93d 881d fb3d fad6 27bd
00000050: ac6b 8309 4ba6 fb3d 4e72 c33d 317b df3d
00000060: 34cb aa1d 156b f63d 69ae 813e 1664 5f3e
00000070: 54cc 40b7 37cb 8c3d 90ad 1c3e 1992 7d3e
00000080: 56db 913d 92ad a93d 1bf1 a53e 7269 463e
00000090: 22dd 343d 4acf d53d b5fd 8e3e a720 123e
000000a0: 827a 033e b58e 0680 82de 793e 93df 233e
000000b0: b46b 073e 0a71 ec3d ef48 503e 6be5 ba3e
000000c0: bf63 243e 4677 963d 0357 213e e02b 7d3e
000000d0: e484 823e e832 a63d 8b9e 9c3d 259e bd3d
000000e0: 23c2 173e 5eac 0480 44fc 9d3e c858 8f3e
000000f0: d3b5 283e 2e3d ff3d d7fa b63e 0aed 153d
00000100: d589 aa3e 1d3d 503e f80a 933d c186 ad3c
00000110: b8f5 bd3e e6d7 343e 0b03 ff3e ee7a d68d
00000120: 1bf0 313e 1afb ed3d b41c 003e aa27 943d
00000130: 190b e03d ef82 633e ac42 bd3e 04b7 8b3e
00000140: c634 163e 3b90 d93d 788b 493e 1422 bf3e
00000150: 110b 083e 09a2 d23d e89f ce3d f94a 833e
00000160: 3868 283d d6ba 0200 cbdf 833e 5c9e f40b
00000170: 3a16 0200 c6b9 f23d a3fe 463e aefc fe3d
00000180: e070 573e c587 3d3e 234e 2b3e df50 0100
00000190: a6b1 2a3e 1c0c 9e3d e3b8 a03e deff a63e
000001a0: be00 053e 7b6b 5f3e 5a76 0b3e e7fd 6c3e
000001b0: 5f6b 673e 90ef 3a3e b336 043e f837 d43d
000001c0: d2d9 d0bc 3d16 e4bc 055c 13b8 367c 983a
000001d0: 86f0 673e d486 293e 1d13 003e 783a e93d
000001e0: d361 0300 597a 7f3e f229 45bd 6104 193e
000001f0: bfad 013e c5e0 203c 83a2 663e 02f3 0400
00000200: 922e 423e a6f7 473b 0ced 173e 98d5 703e
00000210: 1d56 8a3e a3d5 bc3d e474 8136 db96 d63d
00000220: 1a75 9d3e ffb2 de3d 4f24 113e b9c2 533e
00000230: 7c9f 0f3e e28a ee3d 914f 0f3e aebf db3d
00000240: aa2d 152a 7002 343e 0979 d13d dfab 933e
00000250: 8e43 c43e d7c6 003e 75fe 5a3e 8092 cf3d
00000260: f387 3b3e 8a77 703e c3e2 ad3e 755f 263e
00000270: 4f3d ad3d f6c5 873e 96b2 9a3d 6245 0b3e
00000280: b374 863e adb3 1e3e 173f d73d 4d2a 023e
00000290: 7b71 9a3d 6133 6e3e fa11 d33d a5be cf3e
000002a0: a2f3 8f3d 0c57 ce3d 6fd3 303c c028 243f
000002b0: 26c0 763e f6a6 2f3e 6edd 0b3e 5d94 5d3e
000002c0: e2e8 e83d a1fe 233e 0b77 b73d c94a 0b3e
000002d0: 106d 293e a480 033c 8945 af3e 523a 0600
000002e0: 77e9 653e cbe1 c23d 3750 4b3e b971 6d3e
000002f0: 3f2b 1e3e 9f76 753e dd15 dd3d 6532 2c3e
00000300: b00c 813e da4b 6f38 a4c3 1e3e bf03 e63d
00000310: 4812 633d fa65 2e3e 9b9e a13e 56b3 fe3d
00000320: 17d8 233e cad9 9d3e cd26 a43d aaae 023e
00000330: d8eb 8b3e 6617 5e3c 4174 ff3d db14 b1ba
00000340: c129 9f3e 04cf a83d 3b03 393f 0e38 233e
00000350: 7fbb 193e 9ae6 333c a35f 733e c9b8 e33d
00000360: 1cd6 0c3e 0049 473e fd70 f83d f947 593e
00000370: 48cf 033e 71e4 623e 91af ba3d 3bbb 243e
00000380: 1eb4 f03d 4c6f 0c3e 58e4 003e dc21 dd3d
00000390: 2337 e13e d8cd 1d3e dfa4 8f3d c203 153e
000003a0: 1b83 6e3e 4822 5f34 4d78 2138 0bd1 843e
000003b0: 0561 1e3e 6672 653e d840 393e 1133 c63c
000003c0: 589d e83d ad65 803e e1ca 8b3e 9dc8 d23d
000003d0: 4913 b433 3a6a a73d a874 0a3e e388 8d3d
000003e0: 6db6 fe3d 64b3 513e b14e 8e3e 6e67 1a3e
000003f0: e3ac 3a3e 8c24 0680 d6fd 313e 0bb8 a73e

q_network_a.output_module.mlp_layers.0.bias f4 [402]
-2.850118e-07 -1.7908961e-06 -2.5596205e-07 -7.3155024e-07 -7.4773107e-38 -2.768192e-07 8.224862e-07 3.0621412e-09
-9.741769e-08 -2.250371e-07 -2.6585982e-07 -2.9784795e-28 -1.1784789e-06 -6.1710284e-07 1.241579e-06 -5.8338736e-07
-1.5153282e-07 -1.7910823e-07 -4.1788537e-09 -6.962085e-08 -3.678053e-39 -7.553061e-07 -1.5279348e-07 2.3611382e-07
-6.9135173e-38 3.6137467e-07 -6.888817e-07 -7.5611547e-07 9.74593e-09 2.5379674e-07 -7.9178284e-07 2.4352756e-08
1.584768e-07 2.3782741e-07 -1.3994596e-06 -7.192594e-07 -1.0007752e-08 1.9365486e-07 6.279405e-07 2.180234e-07
2.2391428e-07 1.0043379e-37 -5.1501695e-07 -8.22353e-07 2.2126689e-07 -4.4251604e-07 -2.2104312e-07 -3.6494927e-07
7.2481555e-08 2.201345e-07 -5.618177e-08 8.495045e-07 2.4017467e-07 -6.303006e-08 -1.4387841e-07 7.363681e-08
-1.19486465e-08 4.311007e-38 -4.2972187e-07 -6.644606e-08 -7.2029025e-07 3.2568483e-08 -1.4313055e-06 -9.400934e-08
-1.4138327e-07 -1.5753917e-06 -1.6228942e-07 1.6645448e-07 -7.007723e-07 -4.3999812e-08 -4.1793925e-07 -1.4134753e-38
-2.366113e-07 2.3150363e-08 1.5811156e-07 -3.2644817e-07 -6.01219e-07 -4.7488976e-07 5.72463e-07 -1.8465722e-07
3.254467e-07 4.0499092e-08 -4.0497366e-07 -8.2201225e-08 2.6836022e-07 2.0439998e-07 1.0409906e-06 9.0462926e-08
-2.2011957e-07 3.7745224e-38 1.0291903e-06 4.499569e-38 2.445692e-39 -6.5405527e-07 -2.2800015e-07 -4.057088e-07
-2.0211209e-07 -3.7667687e-07 -2.9413005e-07 -3.092822e-38 2.4822197e-07 -2.6373291e-07 3.4804213e-08 8.934365e-07
-6.513216e-07 3.6372325e-07 -1.8349775e-08 -1.575335e-07 -2.9901346e-07 -5.9199937e-07 -2.5690326e-07 1.9930832e-08
1.43757095e-08 -3.28807e-07 -1.8527306e-08 -1.5904793e-07 -7.810382e-08 4.787384e-08 -6.2937534e-07 -4.5925823e-09
1.2744985e-38 8.918852e-07 1.7322711e-07 2.585815e-07 6.5441576e-08 -1.9810033e-08 6.247149e-07 -3.2532542e-38
-3.8009566e-07 -2.2939214e-07 -8.002877e-08 -7.0834017e-07 -5.32079e-07 -5.4629606e-07 -1.6557422e-10 1.0896361e-07
-5.8057526e-07 -4.2758322e-07 4.861787e-07 3.8667943e-07 -5.4555295e-07 3.6285257e-07 4.526133e-07 -8.5037965e-07
2.0135995e-38 -6.70014e-08 1.6702716e-08 2.7838192e-07 -1.9952116e-09 1.7285943e-07 -1.1366998e-07 -1.0158645e-07
3.1684525e-08 -8.3331526e-07 1.03821534e-07 -4.0232365e-07 -1.8309473e-08 -3.5677826e-07 -4.4612585e-07 3.496128e-07
-3.492812e-07 2.7622306e-07 -7.099114e-08 2.0853715e-08 -1.1333758e-07 -2.3448162e-07 -8.756604e-08 1.1122809e-06
-5.563956e-08 -4.6205966e-07 -1.7439658e-07 5.317795e-07 4.062325e-08 -1.3194233e-07 -3.4904082e-07 5.2163703e-08
-3.8821756e-07 -4.5157225e-07 1.08989646e-07 6.884604e-07 -2.6339288e-07 3.48296e-08 -1.8063204e-07 5.546714e-38
-2.398973e-07 -8.821807e-08 -5.657413e-07 -2.6164696e-07 -3.2992529e-07 -7.924781e-07 -4.337825e-07 2.1547683e-07
-8.6419334e-07 -4.688385e-08 3.5425865e-07 -2.2172172e-07 1.9346546e-08 -1.2865075e-06 -1.676799e-07 -1.5679166e-07
3.651803e-07 -4.44035e-07 -2.9957653e-07 -5.267966e-07 -8.9034603e-07 -8.804329e-09 1.05401135e-07 -6.835621e-09
-3.0737888e-07 3.881087e-08 -6.5622348e-09 -3.8488835e-07 -2.9496505e-07 -2.3022897e-08 -1.367278e-06 -3.100339e-07
3.2537963e-07 1.7543408e-07 -7.060925e-07 -4.33853e-07 1.6267457e-07 9.980679e-08 -4.233317e-07 5.0723474e-07
-4.961294e-08 2.8531895e-07 -2.5459144e-07 -1.757278e-07 -2.2119752e-07 -1.8695964e-07 2.671407e-07 5.9448883e-08
-7.762631e-09 -4.0399972e-16 5.3924637e-08 -1.0525239e-06 -1.5208721e-08 1.8805166e-06 -3.5544338e-07 1.9770252e-09
2.647754e-07 -5.6330947e-07 -5.915892e-07 -4.819001e-07 8.8939506e-20 -3.6173626e-07 -1.95503e-07 -1.5937342e-08
4.9638504e-07 -1.9893302e-07 -6.105396e-07 5.275423e-07 4.0548787e-07 -4.434307e-38 -3.9298922e-07 -1.1669081e-06
00000000: b903 99b4 b95e f0b5 286b 89b4 c05f 44b5
00000010: 408d cb81 be9d 94b4 d2c8 5c35 c26d 5231
00000020: f133 d1b3 baa1 71b4 7fbb 8eb4 98c8 bc91
00000030: 3a2c 9eb5 fca6 25b5 54a4 a635 139a 1cb5
00000040: 06b5 22b4 e550 40b4 9695 8fb1 7882 95b3
00000050: ea0c 2880 3dc0 4ab5 8d0f 24b4 7986 7d34
00000060: 2f34 bc81 f502 c234 97eb 38b5 dcf7 4ab5
00000070: 0e6f 2732 8f41 8834 e78a 54b5 4730 d132
00000080: c529 2a34 805d 7f34 11d5 bbb5 2113 41b5
00000090: 8fee 2bb2 71ef 4f34 be8f 2835 d119 6a34
000000a0: 176d 7034 11b4 0802 b23f 0ab5 abbf 5cb5
000000b0: 6195 6d34 f192 edb4 df57 6db4 3fee c3b4
000000c0: 28a7 9b33 1c5e 6c34 824c 71b3 8109 6435
000000d0: 5bf1 8034 245b 87b3 ff7c 1ab4 4422 9e33
000000e0: b446 4db2 abb6 6a01 86b4 e6b4 1cb1 8eb3
000000f0: f859 41b5 6de1 0b33 481b c0b5 2ee2 c9b3
00000100: 23cf 17b4 0c72 d3b5 c741 2eb4 a9ba 3234
00000110: b51c 3cb5 4efa 3cb3 2261 e0b4 f1e9 9980
00000120: 380f 7eb4 30dc c632 60c5 2934 b242 afb4
00000130: 7563 21b5 5af4 feb4 5cab 1935 3146 46b4
00000140: 0eb9 ae34 39f1 2d33 286b d9b4 9a86 b0b3
00000150: 2613 9034 0a79 5b34 2ab8 8b35 8544 c233
00000160: 025a 6cb4 2a81 4d01 b622 8a35 d7fa 7401
00000170: 98a1 1a00 5692 2fb5 34d0 74b4 31d0 d9b4
00000180: 2604 59b4 133a cab4 ede8 9db4 a663 2881
00000190: 5e43 8534 2d97 8db4 a37b 1533 7dd4 6f35
000001a0: 7bd6 2eb5 be45 c334 959f 9db2 7b26 29b4
000001b0: 1988 a0b4 e3e9 1eb5 84ec 89b4 5d34 ab32
000001c0: 0af9 7632 e486 b0b4 fa25 9fb2 c3c6 2ab4
000001d0: 07ba a7b3 d89d 4d33 58f2 28b5 c8cc 9db1
000001e0: d5c7 8a00 e269 6f35 4e00 3a34 2cd3 8a34
000001f0: e388 8c33 b92a aab2 15b2 2735 bf1f 3181
00000200: f30f ccb4 d54e 76b4 48dc abb3 c424 3eb5
00000210: 31d4 0eb5 2ea5 12b5 000d 36af 61ff e933
00000220: d4d8 1bb5 978e e5b4 f281 0235 d198 cf34
00000230: 1d72 12b5 14ce c234 b3fe f234 a545 64b5
00000240: f642 db00 69e2 8fb3 a979 8f32 8574 9534
00000250: 221c 09b1 3d9b 3934 bb1a f4b3 be27 dab3
00000260: 8115 0833 fdb0 5fb5 7ef4 de33 f1fe d7b4
00000270: f546 9db2 3b8b bfb4 1283 efb4 6bb2 bb34
00000280: d884 bbb4 cf4b 9434 cb73 98b3 ce21 b332
00000290: fe63 f3b3 d1c5 7bb4 f10b bcb3 ae49 9535
000002a0: 58f8 6eb3 ff10 f8b4 c441 3bb4 9cbf 0e35
000002b0: bc79 2e33 08ac 0db4 ce63 bbb4 990a 6033
000002c0: 376c d0b4 9e6f f2b4 b10d ea33 a3ce 3835
000002d0: 7168 8db4 8d97 1533 c2f3 41b4 f4fe 9601
000002e0: 3ccb 80b4 6672 bdb3 72dd 17b5 7c78 8cb4
000002f0: 9620 b1b4 aeba 54b5 9de2 e8b4 d25d 6734
00000300: eafa 67b5 575d 49b3 f030 be34 6712 6eb4
00000310: 812f a632 10ac acb5 800b 34b4 905a 28b4
00000320: 000e c434 b563 eeb4 7cd5 a0b4 3069 0db5
00000330: 1d00 6fb5 d941 17b2 e358 e233 c2de eab1
00000340: d505 a5b4 01b1 2633 077a e1b1 a7a2 ceb4
00000350: b05b 9eb4 e3c3 c5b2 5083 b7b5 bc72 a6b4
00000360: d6af ae34 f45e 3c34 4f8a 3db5 4dec e8b4
00000370: a5ab 2e34 5d55 d633 4446 e3b4 e828 0835
00000380: 0116 55b3 f02d 9934 c8ae 88b4 b1af 3cb4
00000390: 5082 6db4 13bf 48b4 8a6b 8f34 bd54 7f33
000003a0: 6a5c 05b2 d6e3 e8a5 c49a 6733 7244 8db5
000003b0: 55a4 82b2 0f66 fc35 c4d3 beb4 32dc 0731
000003c0: 7426 8e34 5536 17b5 b3cd 1eb5 ec5b 01b5
000003d0: a200 d21f a734 c2b4 75eb 51b4 96e6 88b2
000003e0: 523f 0535 4b9a 55b4 f6e3 23b5 6e9c 0d35
000003f0: d4b1 d934 386d 7181 07fc d2b4 a89e 9cb5

q_network_a.output_module.mlp_layers.0.running_mean f4 [402]
0.0049339854 0.011024265 0.018269598 0.0366725 1.421025e-39 0.005981302 0.005905588 0.013450631
0.051682543 0.00040765596 0.012226108 7.4121453e-34 0.0064586173 0.016232958 0.008160382 0.0025563624
0.008153546 0.0030589816 0.08481773 0.0396982 1.49985e-40 0.049602266 0.023207564 0.0035934118
7.56115e-40 0.051617768 0.011452906 0.009081367 2.242747e-05 0.010976525 0.00045058754 0.062001415
0.010562023 0.0017371547 0.010145541 0.033372626 0.0148507785 0.00038015228 0.03694387 0.0018330901
0.01535428 1.790376e-39 0.018637987 0.007893144 0.005494216 0.004054318 0.0132036405 0.013371094
0.0062586106 0.0013066654 0.0023460458 0.120169185 0.0044776225 0.0138636045 0.010375827 0.00073638005
0.0017841824 7.13643e-40 0.0048227613 0.04254985 0.0017221571 0.004217517 0.043353397 0.0225531
0.20167923 0.024474742 0.00042704362 0.0263997 0.021604808 0.07315433 0.016939845 2.47674e-40
0.0059484486 0.013700431 0.014425748 0.015999474 0.016392944 0.00018608764 0.022773912 0.0075996965
0.0014750896 0.0005469108 0.082963474 0.028397808 0.010275861 0.030162983 0.0017821972 0.040264636
0.0031732565 8.92829e-40 0.0053729406 8.5997e-40 3.6334e-40 0.0007091144 0.11113929 0.0022134872
0.0039013915 0.0021407297 0.00303156 6.0412e-40 0.045099813 0.0004697349 0.18942434 0.22246644
0.0024272655 0.0028187807 0.035814874 0.0004373807 0.067880765 0.0008213875 0.0136647085 0.0019852833
0.11898205 0.02939903 0.0017576263 0.027701657 0.023202395 0.003753165 0.0042319642 0.00063256157
4.83232e-40 0.20588218 0.0032176166 0.00038460514 0.017720396 0.011177763 0.035758648 6.40765e-40
0.0022172718 0.014238478 0.061509952 0.037430033 0.012868412 0.16905852 7.953576e-09 0.005869087
0.036252398 0.0022529059 0.010412264 0.004236554 0.010313211 0.018963553 0.0003437404 0.013899311
7.98851e-40 0.05014551 0.052628472 0.054583084 0.030657405 0.0046095457 0.00020286434 0.012270064
0.0007310786 0.009391496 0.009337199 0.007685139 0.001775497 0.13460006 0.02548446 0.0072714062
0.008894295 0.005637858 0.0055072065 0.0112669105 0.0012390958 0.03690201 0.003837324 0.016760124
0.018267196 0.0074266763 0.004858462 0.32001707 0.0026804965 0.07862362 0.010479768 0.0006293291
0.019506915 0.026150137 0.008467403 0.0033637562 0.00033026995 0.008992126 0.022296539 8.83889e-40
0.00031963023 0.0043945108 0.0027291076 0.0038238934 0.002036611 0.015691191 0.0011453875 0.0058029103
0.0007477529 0.006316217 0.0009578857 0.09042048 0.008819963 0.03983763 0.025541373 0.008565467
0.0048432457 0.049248528 0.061662015 0.056186043 0.025704172 0.005216048 0.00052002876 0.006038293
0.24463925 0.0019610587 0.1998716 0.009385972 0.03577611 1.5587162e-06 0.009371758 0.0023114663
0.0028638898 0.008337171 0.0030298918 0.16072457 0.0038744374 0.005093587 0.0132992035 0.11025284
0.002704671 0.04701156 0.009487279 0.014204982 0.0055134404 0.010141353 0.017478911 0.006500538
0.029329633 2.4503573e-15 0.015928164 0.016853707 0.05663851 0.0024803332 0.015331821 0.08003525
0.03793826 0.17326081 0.0074263387 3.2240918e-05 5.228953e-14 0.0016460712 0.002382126 0.09590679
0.013778404 0.07837306 0.03424034 0.00040998554 0.10692425 4.56648e-40 0.018407816 0.06649645
00000000: 45ad a13b 1e9f 343c 20aa 953c e735 163d
00000010: 3d79 0f00 ccfe c33b aa83 c13b 0960 5c3c
00000020: 13b1 533d a8ba d539 0450 483c 8f4f 7608
00000030: cfa2 d33b fbfa 843c 1fb3 053c a588 273b
00000040: 7396 053c 3279 483b ebb4 ad3d 949a 223d
00000050: 19a2 0100 bf2b 4b3d ca1d be3c 727f 6b3b
00000060: be3b 0800 276d 533d f8a4 3b3c 04ca 143c
00000070: a022 bc37 e2d6 333c d63c ec39 32f5 7d3d
00000080: 560c 2d3c 3db1 e33a 7c39 263c bcb1 083d
00000090: ae50 733c 2d4f c739 7552 173d 4c44 f03a
000000a0: 8590 7b3c d77e 1300 b1ae 983c 3f52 013c
000000b0: d308 b43b 16da 843b 1554 583c 6f12 5b3c
000000c0: 0815 cd3b 6a44 ab3a 1ec0 193b 431b f63d
000000d0: 05b9 923b 2c24 633c 5fff 293c a109 413a
000000e0: 3adb e93a 59c5 0700 4108 9e3b c048 2e3d
000000f0: 01ba e13a 1933 8a3b 5593 313d 47c1 b83c
00000100: 0085 4e3e 417f c83c d3e4 df39 2f44 d83c
00000110: 91fc b03c f0d1 953d 6ec5 8a3c 6ab2 0200
00000120: 34eb c23b c677 603c f959 6c3c 5411 833c
00000130: 7f4a 863c 8520 4339 5b90 ba3c e006 f93b
00000140: cb57 c13a 905e 0f3a c1e8 a93d 85a2 e83c
00000150: 165c 283c 5c18 f73c 9d98 e93a 88ec 243d
00000160: 69f6 4f3b d8b8 0900 7e0f b03b 3f5d 0900
00000170: d8f4 0300 dde3 393a ff9c e33d 2710 113b
00000180: 7dae 7f3b 7c4b 0c3b 23ad 463b 0a94 0600
00000190: 95ba 383d c046 f639 74f8 413e 3ece 633e
000001a0: c212 1f3b 4bbb 383b 9eb2 123d 3e50 e539
000001b0: 1205 8b3d 6252 573a f1e1 5f3c 871b 023b
000001c0: dcac f33d 3cd6 f03c 2760 e63a 96ee e23c
000001d0: f312 be3c a9f7 753b 4aac 8a3b 7dd2 253a
000001e0: 0e43 0500 c7d2 523e a6de 523b d4a4 c939
000001f0: 5d2a 913c f022 373c a977 123d 31fa 0600
00000200: a64f 113b 8148 693c dcf1 7b3d 3c50 193d
00000210: 08d6 523c ad1d 2d3e 32a4 0832 7851 c03b
00000220: 657d 143d 7da5 133b 3398 2a3c cad2 8a3b
00000230: bef8 283c 7459 9b3c 0e38 b439 f0b9 633c
00000240: dfb2 0800 6165 4d3d f490 573d 8392 5f3d
00000250: 3d25 fb3c ac0b 973b fbb7 5439 6108 493c
00000260: dba5 3f3a cade 193c 0dfb 183c 9ed3 fb3b
00000270: cbb7 e83a 99d4 093e c9c4 d03c fa44 ee3b
00000280: 61b9 113c c8bd b83b cc75 b43b d998 383c
00000290: 2869 a23a 9026 173d 9d7b 7b3b 874c 893c
000002a0: 16a5 953c 7a5b f33b bc33 9f3b 47d9 a33e
000002b0: 45ab 2f3b 6c05 a13d 55b3 2b3c 90f9 243a
000002c0: f7cc 9f3c d038 d63c ddba 0a3c 7772 5c3b
000002d0: 1528 ad39 b653 133c 3ba7 b63c ec9f 0900
000002e0: 0b94 a739 d4ff 8f3b d4da 323b 499a 7a3b
000002f0: aa78 053b d08a 803c d420 963a 5726 be3b
00000300: d904 443a 45f8 ce3b 9f1a 7b3a 5f2e b93d
00000310: 9b81 103c c82c 233d 243c d13c 2c56 0c3c
00000320: 17b4 9e3b d3b8 493d 4f91 7c3d 5623 663d
00000330: 8e91 d23c 62eb aa3b 8a52 083a dfdc c53b
00000340: b682 7a3e 1b85 003b 24ab 4c3e 9fc7 193c
00000350: f889 123d 1535 d135 018c 193c f87b 173b
00000360: 19b0 3b3b a198 083c 2691 463b fb94 243e
00000370: 46ea 7d3b 1be8 a63b e7e4 593c 3ecc e13d
00000380: d940 313b 328f 403d 8870 1b3c 03bc 683c
00000390: 17aa b43b eb27 263c ef2f 8f3c 7702 d53b
000003a0: b344 f03c 1d91 3027 c87b 823c c910 8a3c
000003b0: c8fd 673d 168d 223b 5132 7b3c 85e9 a33d
000003c0: 2665 1b3d 486b 313e a558 f33b 6c3a 0738
000003d0: b97d 6b29 fcc0 d73a 711d 1c3b c76a c43d
000003e0: d1be 613c 0e82 a03d 993f 0c3d 54f3 d639
000003f0: 1afb da3d f3f8 0400 fdcb 963c 4a2f 883d

q_network_a.output_module.mlp_layers.0.running_var f4 [402]
0.0006230079 0.003954159 0.0015648096 0.012524147 6e-45 0.00063785864 0.0010226809 0.0013776282
0.0050464016 1.9796771e-05 0.0012621498 6e-45 0.001093954 0.003561265 0.002370447 0.00020753467
0.0018412363 0.0002609139 0.013681847 0.005930317 6e-45 0.0075461594 0.0019999442 0.00021424454
6e-45 0.0075611738 0.0018476173 0.0011693531 3.5706171e-09 0.0009886125 1.9187853e-05 0.013232384
0.0009984173 0.0001190414 0.0016019185 0.008107392 0.0013655755 1.685288e-05 0.0061180275 0.00014617262
0.0016918813 6e-45 0.0037839601 0.0007311644 0.00047472044 0.00028949993 0.0019313323 0.002629244
0.0008498445 6.1184954e-05 0.0001704792 0.030078951 0.0003355711 0.0013920751 0.0008632254 3.630922e-05
9.8587865e-05 6e-45 0.00053474697 0.0070416485 0.00016249865 0.0002923843 0.010987412 0.0016176695
0.05117642 0.0041259276 1.6290789e-05 0.001822454 0.0049485536 0.011342883 0.0022622398 6e-45
0.0008615624 0.0010464421 0.0016576436 0.0011553117 0.0016201908 1.3714873e-05 0.0043829205 0.0011178143
9.9671226e-05 2.8222412e-05 0.014051893 0.0077361776 0.001729981 0.003281629 0.00013181145 0.006446165
0.00015698816 6e-45 0.0007927953 6e-45 6e-45 3.5931054e-05 0.02120835 0.00012506562
0.00051087845 0.00015305776 0.00022798611 6e-45 0.0059565553 2.3271003e-05 0.050397977 0.04785539
0.00015326707 0.00021900646 0.005337016 2.5758769e-05 0.013641501 7.1224385e-05 0.0016539528 0.00012661322
0.022226818 0.0037482004 2.8637594e-05 0.0011503096 0.0036110803 0.00032546534 0.00034366068 3.6865815e-05
6e-45 0.044294313 0.00015116681 2.0815603e-05 0.0020690504 0.0005440792 0.008423934 6e-45
0.00024135175 0.00045408285 0.008536949 0.0077534425 0.002135908 0.021758093 6.7559797e-15 0.00048817758
0.007966494 0.00014367347 0.0010393617 0.0004466527 0.0012626037 0.0019921283 1.5518053e-05 0.0015723717
6e-45 0.00930159 0.00719949 0.008777228 0.009315705 0.00027091903 7.982297e-06 0.0011605477
6.361798e-05 0.0013016837 0.0014702326 0.00079746655 9.613681e-05 0.035870608 0.002605477 0.0010116517
0.0010957194 0.0004916965 0.00038454105 0.0010911105 6.304021e-05 0.009423975 0.00036555846 0.002441141
0.0016223048 0.00056451047 0.00021933432 0.19649203 0.000272797 0.0129818255 0.0012302437 4.5672303e-05
0.0023805788 0.004796964 0.00081805245 0.0002532923 1.6254853e-05 0.0004182867 0.0050922907 6e-45
1.5412883e-05 0.00031946533 0.00027014627 0.0003244458 0.00014025184 0.003036929 5.8053978e-05 0.00068256195
5.6146644e-05 6.346394e-05 6.1523664e-05 0.011761043 0.003508242 0.0074784625 0.0035334828 0.00088253117
0.00049887656 0.011706075 0.00986599 0.006445997 0.006570696 0.0002201773 2.6188867e-05 0.0001226447
0.06183122 0.000100778205 0.088981606 0.0011446106 0.0042787623 5.6687504e-09 0.0007282296 0.00013126092
0.00025157834 0.0013334462 0.0001977049 0.033437435 0.00029131764 0.00071999937 0.0013190798 0.01421716
0.00014363168 0.006168648 0.0009372771 0.0016739314 0.001126863 0.0022091928 0.0020047307 0.0006436165
0.0056875334 1.7381777e-28 0.0008500784 0.0031028339 0.007464176 0.00021306552 0.0020649922 0.008938335
0.010208576 0.04241576 0.0012183182 6.360202e-07 3.1452537e-27 9.9013756e-05 0.00019529827 0.012694042
0.0016722427 0.013568019 0.008426997 1.8036293e-05 0.020827875 6e-45 0.002671376 0.0251174
00000000: 5a51 233a e491 813b 4c1a cd3a 1432 4d3c
00000010: 0400 0000 f835 273a 7a0b 863a 8891 b43a
00000020: 495c a53b 3e11 a637 b86e a53a 0400 0000
00000030: 0163 8f3a 1d64 693b 8059 1b3b aa9d 5939
00000040: a355 f13a 45cb 8839 d329 603c 1b53 c23b
00000050: 0400 0000 c645 f73b 7f11 033b d5a6 6039
00000060: 0400 0000 b9c3 f73b c02b f23a fb44 993a
00000070: f65e 7531 5594 813a 9af5 a037 a4cc 583c
00000080: 53dd 823a dda5 f938 77f7 d13a ded4 043c
00000090: 1cfd b23a 495f 8d37 bc79 c83b ea45 1939
000000a0: 1ec2 dd3a 0400 0000 51fc 773b 9dab 3f3a
000000b0: e6e3 f839 06c8 9739 c224 fd3a 654f 2c3b
000000c0: 19c8 5e3a 6c50 8038 a9c2 3239 2268 f63c
000000d0: 97ef af39 4a76 b63a 134a 623a ba4a 1838
000000e0: f5c0 ce38 0400 0000 432e 0c3a a1bd e63b
000000f0: 6664 2a39 284b 9939 8c04 343c fb07 d43a
00000100: 5e9e 513d ca32 873b 34a8 8837 69df ee3a
00000110: 7a27 a23b 80d7 393c 1642 143b 0400 0000
00000120: 79da 613a c528 893a 4a45 d93a d46d 973a
00000130: 955c d43a ee18 6637 9a9e 8f3b a083 923a
00000140: 9506 d138 2bbf ec37 e939 663c c37f fd3b
00000150: 88c0 e23a 9910 573b de36 0a39 5a3a d33b
00000160: 309d 2439 0400 0000 98d3 4f3a 0400 0000
00000170: 0400 0000 adb4 1638 22bd ad3c 0c24 0339
00000180: 79ec 053a 217e 2039 8e0f 6f39 0400 0000
00000190: 352f c33b 1936 c337 1c6e 4e3d 0304 443d
000001a0: 51b6 2039 19a5 6539 23e2 ae3b 8914 d837
000001b0: 9a80 5f3c 4d5e 9538 72c9 d83a 7ac3 0439
000001c0: 0415 b63c 5ea4 753b c43a f037 fcc5 963a
000001d0: e0a7 6c3b 38a3 aa39 5b2d b439 5ea0 1a38
000001e0: 0400 0000 f46d 353d 8882 1e39 2b9d ae37
000001f0: e898 073b 89a0 0e3a 8a04 0a3c 0400 0000
00000200: 5e13 7d39 f811 ee39 8fde 0b3c 9710 fe3b
00000210: 97fa 0b3b 073e b23c ea68 f327 16f2 ff39
00000220: e685 023c 0ea7 1639 313b 883a b62c ea39
00000230: f37d a53a 5e8e 023b c42c 8237 0a18 ce3a
00000240: 0400 0000 b265 183c b3e9 eb3b 5dce 0f3c
00000250: e6a0 183c 230a 8e39 b4eb 0537 851d 983a
00000260: a56a 8538 429d aa3a d2b4 c03a 130d 513a
00000270: 0f9d c938 0fed 123d a7c0 2a3b 6699 843a
00000280: 3e9e 8f3a 32e5 003a 3a9c c939 9803 8f3a
00000290: 7434 8438 0467 1a3c 6da8 bf39 8dfb 1f3b
000002a0: 84a3 d43a a8fb 133a 1cfd 6539 3535 493e
000002b0: 3206 8f39 b9b1 543c 2140 a13a 4390 3f38
000002c0: 7c03 1c3b da2f 9d3b 9272 563a 51cc 8439
000002d0: 085b 8837 7e4d db39 3bdd a63b 0400 0000
000002e0: ea4a 8137 e97d a739 6ba2 8d39 611a aa39
000002f0: 9110 1339 3707 473b fc7e 7338 f5ed 323a
00000300: 007f 6b38 f117 8538 4406 8138 64b1 403c
00000310: 89ea 653b e40d f53b 0192 673b aa59 673a
00000320: 0ac7 023a d6ca 3f3c f6a4 213c f138 d33b
00000330: fe4e d73b 65df 6639 2ab0 db37 309a 0039
00000340: bc42 7d3d e358 d338 fd3b b63d c206 963a
00000350: dc34 8c3b dbc6 c231 a9e6 3e3a 16a3 0939
00000360: 46e6 8339 08c7 ae3a 014f 4f39 b1f5 083d
00000370: febb 9839 57be 3c3a f9e4 ac3a 17ef 683c
00000380: d69b 1639 5f22 ca3b 9ab3 753a d167 db3a
00000390: 3fb3 933a 1bc8 103b cd61 033b 5fb8 283a
000003a0: 7d5e ba3b 1757 5c11 ccd7 5e3a ea58 4b3b
000003b0: 0c96 f43b 576a 5f39 d254 073b 1872 123c
000003c0: df41 273c 26bc 2d3d faaf 9f3a faba 2a35
000003d0: 5331 7913 9ba5 cf38 fbc8 4c39 acfa 4f3c
000003e0: 272f db3a 654c 5e3c 6311 0a3c a54c 9737
000003f0: 389f aa3c 0400 0000 4112 2f3b 01c3 cd3c

q_network_a.output_module.mlp_layers.1.weight f4 [300, 402]
-6.35885e-40 -1.87435e-40 -8.4748e-41 6.16784e-40 6.9957e-41 -6.19272e-40 1.12123e-40 -2.70062e-40
3.8949e-40 7.5184e-41 -7.9612e-41 6.24126e-40 6.28555e-40 -1.11459e-40 -6.289e-40 8.8758e-41
3.21999e-40 4.19941e-40 -6.24469e-40 -7.8131e-41 -5.9166e-41 -6.19436e-40 -6.26812e-40 -7.1235e-41
6.17736e-40 1.1511e-40 -6.19347e-40 -6.21986e-40 -7.6233e-41 -6.26442e-40 1.02736e-40 6.2382e-40
-1.43398e-40 -6.21835e-40 1.41865e-40 6.33114e-40 -6.28994e-40 6.7814e-41 1.26665e-40 -6.3585e-40
8.0709e-41 -6.22985e-40 5.44483e-40 -6.27892e-40 7.8176e-41 -6.28449e-40 -6.27887e-40 6.27995e-40
6.23788e-40 7.6571e-41 -9.0361e-41 2.22551e-40 5.2418e-41 -7.748e-41 8.4616e-41 6.27319e-40
6.92e-41 -6.0942e-41 6.29093e-40 -6.3003e-40 -8.6866e-41 4.15842e-40 -1.95061e-40 -6.32557e-40
1.78824e-40 -2.64206e-40 8.4518e-41 4.348e-41 1.0949e-40 -3.5276e-40 6.2976e-40 -6.23099e-40
6.29594e-40 6.41446e-40 7.33141e-40 1.01049e-40 6.8575e-41 -6.21275e-40 -1.40623e-40 -6.26781e-40
-6.30212e-40 -8.0104e-41 1.25677e-40 -1.15869e-40 -6.04693e-40 9.5863e-41 -6.29297e-40 -2.18345e-40
-7.578e-41 -5.7998e-41 6.34642e-40 6.2312e-40 -5.084e-41 7.2907e-41 1.39091e-40 -8.0554e-41
6.26411e-40 9.0359e-41 -6.19158e-40 7.0764e-41 1.0994e-40 -7.7216e-41 2.0523e-41 -4.54658e-40
7.0588e-41 -6.21075e-40 -1.24309e-40 8.8158e-41 -1.10906e-40 -6.24846e-40 7.35065e-40 8.9621e-41
6.5239e-41 5.8965e-41 -7.6175e-41 8.8729e-41 -2.93613e-40 -6.20332e-40 8.7789e-41 -9.8558e-41
-7.0981e-41 -4.15537e-40 6.484e-41 8.1211e-41 1.06227e-40 6.21343e-40 1.09608e-40 -6.20461e-40
9.4618e-41 7.5475e-41 -1.08322e-40 -6.45864e-40 -1.03245e-40 -6.20296e-40 6.21985e-40 -8.742e-41
-6.25683e-40 -6.3313e-41 8.4658e-41 4.4047e-40 -6.24288e-40 8.8289e-41 6.34871e-40 6.19692e-40
6.18655e-40 6.29983e-40 -5.64648e-40 -3.31362e-40 -1.26916e-40 -6.23527e-40 -6.25146e-40 8.9791e-41
-6.25783e-40 -6.36105e-40 3.44561e-40 -6.25067e-40 6.30633e-40 1.86654e-40 8.2628e-41 6.26951e-40
-3.96266e-40 5.8911e-40 -8.4629e-41 -7.384e-41 -7.9829e-41 -6.27714e-40 4.95617e-40 1.12229e-40
8.6516e-41 -7.6445e-41 -6.27301e-40 2.99983e-40 -8.7525e-41 6.363e-40 1.05832e-40 -6.23958e-40
-6.36814e-40 9.5641e-41 8.0705e-41 7.5286e-41 -8.5181e-41 6.6912e-41 2.56513e-40 6.8633e-41
-6.25128e-40 -6.28253e-40 6.25847e-40 -1.08151e-40 -8.3265e-41 -5.9921e-41 -6.28579e-40 -1.20286e-40
6.27742e-40 3.0628e-40 6.31467e-40 -9.9468e-41 1.00938e-40 -8.878e-41 -6.25362e-40 6.34683e-40
5.06155e-40 6.56947e-40 -8.3024e-41 6.29643e-40 -6.30311e-40 -8.3508e-41 -6.24178e-40 -2.2496e-40
-9.9767e-41 6.20606e-40 1.60604e-40 1.00203e-40 -6.27024e-40 8.1324e-41 -2.46829e-40 -7.834e-41
-4.07544e-40 -2.29806e-40 -8.1879e-41 6.33229e-40 -7.9053e-41 7.666e-41 -8.1365e-41 -6.30156e-40
-5.363e-42 -1.04059e-40 6.34259e-40 6.22853e-40 -6.35586e-40 6.23935e-40 -5.84346e-40 -9.0923e-41
-1.16613e-40 -6.24213e-40 6.4454e-41 -1.11658e-40 1.02487e-40 9.811e-41 9.9105e-41 -6.5976e-41
-9.7135e-41 6.36691e-40 -6.30141e-40 6.33088e-40 -6.22692e-40 -7.0321e-41 -6.23691e-40 4.25441e-40
-6.21025e-40 -6.53061e-40 7.54734e-40 6.608e-41 1.60373e-40 6.6103e-41 -1.0726e-40 3.0206e-41
00000000: 97ec 0680 7e0a 0280 3eec 0080 58b7 0600
00000010: 03c3 0000 47be 0680 8e38 0100 d3f0 0280
00000020: bd3d 0400 95d1 0000 eddd 0080 cfcb 0600
00000030: 28d8 0600 b436 0180 1ed9 0680 6cf7 0000
00000040: 9a81 0300 a092 0400 c4cc 0680 ccd9 0080
00000050: eea4 0080 bcbe 0680 4cd3 0680 93c6 0080
00000060: ffb9 0600 e140 0100 7dbe 0680 d8c5 0680
00000070: 82d4 0080 44d2 0680 631e 0100 f5ca 0600
00000080: bc8f 0180 6cc5 0680 768b 0100 dde4 0600
00000090: 61d9 0680 0abd 0000 1761 0100 7eec 0680
000000a0: fce0 0000 a1c8 0680 cced 0500 4fd6 0680
000000b0: ecd9 0000 dcd7 0680 4bd6 0680 98d6 0600
000000c0: deca 0600 73d5 0000 e4fb 0080 626c 0200
000000d0: 1f92 0000 fcd7 0080 e0eb 0000 b6d4 0600
000000e0: e7c0 0000 e2a9 0080 a8d9 0600 44dc 0680
000000f0: 26f2 0080 3387 0400 c01f 0280 50e3 0680
00000100: 7df2 0100 80e0 0280 9aeb 0000 3479 0000
00000110: 3731 0100 5ad7 0380 84db 0600 f2c8 0680
00000120: 0ddb 0600 17fc 0600 b3fb 0700 af19 0100
00000130: 29bf 0000 ddc3 0680 0088 0180 36d3 0680
00000140: c6dc 0680 4cdf 0080 565e 0100 ff42 0180
00000150: a395 0680 3a0b 0100 39da 0680 a860 0280
00000160: 3ed3 0080 ada1 0080 20e9 0600 01c9 0600
00000170: b98d 0080 3ccb 0000 bb83 0100 8de0 0080
00000180: 2ed2 0600 e2fb 0000 f6bd 0680 43c5 0000
00000190: 7832 0100 3fd7 0080 3639 0000 67f3 0480
000001a0: c5c4 0000 4ec3 0680 865a 0180 c0f5 0000
000001b0: 2935 0180 d1cd 0680 1001 0800 d4f9 0000
000001c0: dcb5 0000 5fa4 0000 58d4 0080 57f7 0000
000001d0: 7932 0380 3cc1 0680 b8f4 0000 bd12 0180
000001e0: dec5 0080 5986 0480 bfb4 0000 62e2 0000
000001f0: 1e28 0100 0dc4 0600 8b31 0100 98c1 0680
00000200: c207 0100 65d2 0000 f52d 0180 6808 0780
00000210: ce1f 0180 22c1 0680 d7c5 0600 b1f3 0080
00000220: 26d0 0680 7eb0 0080 feeb 0000 dacb 0400
00000230: 43cc 0680 1df6 0000 c3e9 0600 73bf 0600
00000240: 8fbc 0600 23dc 0600 0226 0680 b49b 0380
00000250: ca61 0180 24ca 0680 a7ce 0680 4dfa 0000
00000260: 6ed0 0680 34ed 0680 7fc0 0300 6fce 0680
00000270: f3dd 0600 5108 0200 55e6 0000 afd3 0600
00000280: a150 0480 336a 0600 e9eb 0080 d6cd 0080
00000290: 88de 0080 d0d5 0680 9465 0500 d938 0100
000002a0: 2cf1 0000 19d5 0080 a9d4 0680 3b44 0300
000002b0: fcf3 0080 bfed 0600 0427 0100 57cb 0680
000002c0: 2eef 0680 9c0a 0100 f9e0 0000 ded1 0000
000002d0: 73ed 0080 86ba 0000 0ecb 0200 52bf 0000
000002e0: 9ace 0680 50d7 0680 9bd0 0600 7b2d 0180
000002f0: 1ce8 0080 09a7 0080 39d8 0680 4f4f 0180
00000300: e4d5 0600 c955 0300 46e0 0600 4715 0180
00000310: 6019 0100 7cf7 0080 41cf 0680 3de9 0600
00000320: f482 0500 4d27 0700 70e7 0080 30db 0600
00000330: 0ddd 0680 c9e8 0080 f4cb 0680 1973 0280
00000340: 1c16 0180 ffc1 0600 b3bf 0100 5317 0100
00000350: e3d3 0680 b3e2 0000 0fb0 0280 61da 0080
00000360: 1170 0480 9b80 0280 3fe4 0080 2fe5 0600
00000370: 5edc 0080 b2d5 0000 d0e2 0080 9edc 0680
00000380: f30e 0080 1322 0180 0ee8 0600 43c8 0600
00000390: c1eb 0680 47cb 0600 eb5c 0680 75fd 0080
000003a0: 1245 0180 0dcc 0680 acb3 0000 4237 0180
000003b0: b11d 0100 7e11 0100 4414 0100 eab7 0080
000003c0: c60e 0180 d6ee 0600 94dc 0680 cbe4 0600
000003d0: d0c7 0680 07c4 0080 99ca 0680 f5a1 0400
000003e0: 2ac3 0680 781c 0780 e437 0800 34b8 0000
000003f0: 0ebf 0100 45b8 0000 ff2a 0180 3454 0000
