tasks/tennis/solutions/maddpg/solution_checkpoint/TennisBrain_homogeneous_maddpg_baseline_actor_checkpoint.pth (torch_old, 538256 bytes, 18 tensors)

bn.weight f4 [24]
0.26748982 0.84822583 0.1595187 0.26233464 1.5942364 1.0979439 0.12883575 0.0061001116
0.011659599 0.08731711 0.24665675 0.29233813 -0.02852665 0.3156914 0.28957927 0.027644994
1.1112095 0.569061 0.25141057 0.3841037 1.9788103 1.5869061 0.28756592 0.4247329
00000000: 6df4 883e 5425 593f df58 233e ba50 863e
00000010: f00f cc3f 6d89 8c3f 85ed 033e 72e3 c73b
00000020: e707 3f3c 50d3 b23d 9693 7c3e 58ad 953e
00000030: b9b0 e9bc 4ea2 a13e bc43 943e c177 e23c
00000040: 1d3c 8e3f fbad 113f e3b8 803e 3da9 c43e
00000050: a849 fd3f bd1f cb3f d73b 933e 9776 d93e

bn.bias f4 [24]
1.7160794e-05 -2.5547652e-05 -4.6028413e-07 1.6860101e-06 -4.727153e-05 -2.6845144e-06 1.5921149e-05 -7.526537e-08
-2.0652533e-05 3.1605017e-05 -6.638084e-06 -1.3965405e-06 -1.0766128e-05 -5.8523636e-07 -1.3489263e-05 -1.2873373e-05
-2.4714192e-05 -9.042567e-06 -6.4672518e-06 -1.6425864e-05 1.2024803e-05 3.2118205e-06 -1.0653315e-05 -1.5403594e-06
00000000: 86f4 8f37 2a4f d6b7 f81c f7b4 de4a e235
00000010: 6b45 46b8 9b27 34b6 688e 8537 93a1 a1b3
00000020: fa3e adb7 a18f 0438 b5bc deb6 c470 bbb5
00000030: 2ba0 34b7 2319 1db5 f24f 62b7 b7fa 57b7
00000040: 5351 cfb7 88b5 17b7 4501 d9b6 46ca 89b7
00000050: 23be 4937 a88a 5736 a4bb 32b7 59be ceb5

bn.running_mean f4 [24]
-9.080794 -0.24039732 0.98132014 -0.0860046 -0.009681038 3.8556108 0.98132014 -0.0860046
-9.132685 -0.25165126 1.1250155 -0.10317722 -0.021134468 3.8476186 1.1250155 -0.10317722
-9.200555 -0.26182988 0.93116707 -0.104531 -0.01508146 3.829235 0.93116707 -0.104531
00000000: ef4a 11c1 b72a 76be cc37 7b3f 2e23 b0bd
00000010: 379d 1ebc 54c2 7640 cc37 7b3f 2e23 b0bd
00000020: 7a1f 12c1 6fd8 80be 8200 903f 944e d3bd
00000030: 3122 adbc 623f 7640 8200 903f 944e d3bd
00000040: 7935 13c1 910e 86be f760 6e3f 5914 d6bd
00000050: 3a18 77bc 3012 7540 f760 6e3f 5914 d6bd

bn.running_var f4 [24]
8.79947 0.80692184 321.86856 17.466051 27.37531 2.2560973 321.86856 17.466051
8.397758 0.8149754 327.14056 17.855034 28.188559 2.2512782 327.14056 17.855034
7.932922 0.82453394 329.98123 18.05701 29.14133 2.330422 329.98123 18.05701
00000000: a1ca 0c41 6e92 4e3f 2def a043 79ba 8b41
00000010: a300 db41 e663 1040 2def a043 79ba 8b41
00000020: 375d 0641 3aa2 503f fe91 a343 1cd7 8e41
00000030: 2b82 e141 f114 1040 fe91 a343 1cd7 8e41
00000040: 7fda fd40 a814 533f 99fd a443 c274 9041
00000050: 7221 e941 a225 1540 99fd a443 c274 9041

bn2.weight f4 [400]
0.7838004 0.7442381 0.8733941 1.0189635 0.7820344 1.0482523 0.8250505 1.5424272
0.88304627 0.7106261 0.6628823 0.9362103 1.580829 0.9833057 0.93005604 0.9645648
1.118874 1.003164 1.1645616 0.9078488 0.761749 0.8709035 1.3182765 0.79571116
1.0361241 0.57618064 0.011160878 0.692777 0.78262234 0.7937203 0.5261035 1.2753012
0.45946136 0.5025475 0.8189383 0.89250517 0.4320972 0.8740251 0.73636776 0.6293102
1.0790133 0.61244595 0.7890915 0.9203408 0.7078153 0.7108357 0.8226584 0.9300956
0.8417816 1.2275658 0.6116376 0.8283035 0.7321059 1.1803751 0.9362409 1.2283665
1.4556626 1.0109061 1.1073759 1.1852039 1.0160489 1.0766778 0.87756866 1.1747427
1.3636751 0.7408226 0.6736637 0.7876653 0.9976671 0.6932719 0.5474645 0.4534345
1.1626315 0.78658116 0.68571633 0.7906496 0.7282118 0.8015262 1.443979 0.7037648
1.126611 0.85040754 0.61886996 0.89572203 0.82184553 0.8327574 0.96281797 0.94346696
0.9051507 0.90846986 0.845288 1.3299896 1.2802117 0.516767 0.80381376 0.92254496
1.4178799 1.2005254 1.5728872 0.48765838 0.84839624 0.6164318 0.80742806 0.79004556
0.61867183 0.669324 0.6789085 0.54468524 1.4245663 0.4390291 0.8365641 0.8036097
0.80720687 0.31986403 0.7877051 0.5920931 0.5755924 0.7036839 0.89278287 0.83214027
0.8947037 0.86448956 1.3624126 1.3962746 1.9820108 0.7994611 0.6507155 0.25278056
1.3410398 0.78079903 0.8866535 0.85268754 1.1509608 0.728831 1.0341464 0.60737675
1.7625824 0.5578586 0.97060084 1.1312432 1.2082988 0.46683875 0.793794 0.7268267
0.77787864 1.0682229 0.9166412 0.7813381 0.8016301 0.22115833 1.0775328 0.6863321
0.60913414 1.6415379 0.81828576 0.9735485 0.59464216 0.4603334 0.79456604 0.6326192
0.6416903 0.8055969 0.80029523 0.6123149 0.80841756 0.7851661 0.47569066 1.1157621
0.93377024 0.94240594 0.798977 0.8485508 0.7265837 1.1466616 0.6727704 0.7050909
0.7242366 1.2439239 0.5349164 1.1718321 1.0090989 0.60859144 0.43750528 0.7956211
0.83729607 1.0668131 0.63824916 0.7010683 0.6937488 0.6956355 0.7912885 1.4170865
0.7958912 0.834208 0.91189903 1.6763581 1.0562444 0.98207676 1.1305726 0.22888137
0.9886246 1.2938743 0.8487676 0.7496883 0.6246772 0.6130663 0.8652886 1.5456269
0.744036 0.741342 1.03955 0.9261744 1.1505634 1.1137023 0.9172579 0.9611282
0.7805665 0.7525869 1.0509197 0.98733157 1.6929709 0.94779944 1.5583495 0.9482867
0.7687898 0.9538161 0.8970278 0.44662118 1.1035199 0.91499394 0.8005205 0.52752435
0.86250377 0.79600906 1.0267159 1.500863 0.8132494 0.6783438 0.5775809 0.42508054
0.8547305 0.83803666 0.5801633 0.7665905 0.64085126 0.89798963 0.85157895 1.034634
1.6022916 0.5266729 1.386957 1.060126 0.7907112 0.8042611 0.6307799 1.1203626
00000000: 25a7 483f 6386 3e3f c196 5f3f 656d 823f
00000010: 6833 483f 222d 863f 8236 533f 416e c53f
00000020: 520f 623f 98eb 353f a8b2 293f 7aab 6f3f
00000030: 9b58 ca3f ecb9 7b3f 2718 6e3f b8ed 763f
00000040: 4337 8f3f ae67 803f 5b10 953f c768 683f
00000050: fc01 433f 88f3 5e3f 49bd a83f bab3 4b3f
00000060: b79f 843f 9380 133f 1edc 363c d559 313f
00000070: f059 483f 4131 4b3f b8ae 063f 123d a33f
00000080: 853e eb3e f4a6 003f f1a5 513f 387b 643f
00000090: d83b dd3e 1cc0 5f3f 9982 3c3f 791a 213f
000000a0: 1c1d 8a3f 42c9 1c3f e701 4a3f 749b 6b3f
000000b0: 6233 353f 54f9 353f be99 523f bf1a 6e3f
000000c0: 007f 573f e020 9d3f 4894 1c3f b30b 543f
000000d0: 4b6b 3b3f 8816 973f 7cad 6f3f 1d3b 9d3f
000000e0: 2753 ba3f 5f65 813f 7ebe 8d3f c3b4 973f
000000f0: e40d 823f 94d0 893f 57a8 603f f85d 963f
00000100: e88c ae3f 8da6 3d3f 3975 2c3f 6fa4 493f
00000110: 1c67 7f3f 447a 313f a226 0c3f 9128 e83e
00000120: 1cd1 943f 625d 493f 1b8b 2f3f 0368 4a3f
00000130: 176c 3a3f d230 4d3f 4ed4 b83f ee29 343f
00000140: ca34 903f 4fb4 593f 436e 1e3f 0a4e 653f
00000150: 7864 523f 972f 553f 3d7b 763f 0d87 713f
00000160: f5b7 673f 7b91 683f cb64 583f 193d aa3f
00000170: fadd a33f d84a 043f bdc6 4d3f e82b 6c3f
00000180: 177d b53f d1aa 993f 5e54 c93f 5cae f93e
00000190: 7f30 593f 79ce 1d3f 9bb3 4e3f 6d40 4a3f
000001a0: 4761 1e3f d158 2b3f f3cc 2d3f 7e70 0b3f
000001b0: 3058 b63f 6cc8 e03e 1129 563f 5eb9 4d3f
000001c0: 1ca5 4e3f 38c5 a33e 0ba7 493f 6a93 173f
000001d0: 065a 133f a124 343f 6b8d 643f 2507 553f
000001e0: 4d0b 653f 304f 5d3f 8963 ae3f 20b9 b23f
000001f0: 88b2 fd3f 7ca9 4c3f 4a95 263f 746c 813e
00000200: 31a7 ab3f 72e2 473f b9fb 623f bb49 5a3f
00000210: af52 933f ab94 3a3f e95e 843f 0b7d 1b3f
00000220: 4d9c e13f d2cf 0e3f 4c79 783f 94cc 903f
00000230: 89a9 9a3f 7d05 ef3e 1536 4b3f 5111 3a3f
00000240: 0e23 473f 87bb 883f ffa8 6a3f c605 483f
00000250: a137 4d3f 5477 623e 98ec 893f 76b3 2f3f
00000260: 37f0 1b3f ea1d d23f 2d7b 513f 793a 793f
00000270: 783a 183f d2b0 eb3e ae68 4b3f 55f3 213f
00000280: d145 243f 993b 4e3f 26e0 4c3f abc0 1c3f
00000290: 74f4 4e3f a500 493f ba8d f33e 4bd1 8e3f
000002a0: 910b 6f3f 8441 713f c289 4c3f a03a 593f
000002b0: 6401 3a3f cfc5 923f ae3a 2c3f d680 343f
000002c0: 9267 393f e638 9f3f 48f0 083f 98fe 953f
000002d0: 272a 813f a6cc 1b3f b100 e03e d3ad 4b3f
000002e0: 0959 563f 558d 883f 4c64 233f 3679 333f
000002f0: 8599 313f 2b15 323f e291 4a3f 1763 b53f
00000300: 87bf 4b3f a88e 553f 3772 693f e792 d63f
00000310: 0433 873f 6269 7b3f 9ab6 903f e15f 6a3e
00000320: 8016 7d3f ac9d a53f d548 593f 93eb 3f3f
00000330: d8ea 1f3f eaf1 1c3f 8e83 5d3f 1ad7 c53f
00000340: 2579 3e3f 97c8 3d3f f90f 853f c419 6d3f
00000350: a945 933f cc8d 8e3f 6ad1 6a3f 7f0c 763f
00000360: 35d3 473f 89a9 403f 8984 863f c3c1 7c3f
00000370: 45b3 d83f fca2 723f ff77 c73f ebc2 723f
00000380: 69cf 443f 4b2d 743f 9da3 653f 88ab e43e
00000390: 2440 8d3f 0b3d 6a3f e9ee 4c3f d60b 073f
000003a0: 0ccd 5c3f 40c7 4b3f 6d6b 833f 471c c03f
000003b0: 1d31 503f f0a7 2d3f 58dc 133f 28a4 d93e
000003c0: 9ecf 5a3f 9289 563f 9585 143f 463f 443f
000003d0: d40e 243f a6e2 653f 1401 5a3f e36e 843f
000003e0: e417 cd3f 09d4 063f cf87 b13f 35b2 873f
000003f0: 0d6c 4a3f 0ee4 4d3f cb7a 213f 0b68 8f3f

bn2.bias f4 [400]
-0.88100535 -0.8539837 -0.12169101 -0.9003633 -0.48188847 -0.80307955 -0.5848739 -0.72687566
-0.6776336 -1.0823932 -0.90093243 -0.5655826 -0.4484682 -2.1081731 -1.0766503 -0.8791583
-1.0539371 -0.90152866 -0.72095174 -1.0562637 -0.87046003 -0.43294838 0.056016218 -0.95102024
0.014867424 -0.41432458 -0.029427066 -0.67678696 -0.42763698 -0.65259886 -0.63480735 -0.57130116
-0.28439623 -1.0020174 -1.0875809 -0.9443575 -0.29105696 -0.900142 -1.1786412 -0.6958901
-0.6437922 -0.88981265 -0.89348006 -0.7217105 -1.1209418 -0.61068386 -0.70839727 -0.7266433
-1.1190718 -0.81190765 -0.72249436 -0.96870625 -0.685026 -0.3175242 -0.3390456 0.050265994
-0.67814225 -1.174585 -0.7053421 -1.4167217 -0.60987103 -1.120689 -0.8212086 -0.5516133
-0.74042505 -0.8446116 -0.8632986 -1.0095121 -0.8607228 -0.724855 -0.55645084 -0.55513394
-1.0353823 -0.8440316 -0.95437336 -0.8304825 -0.38977933 -1.1369493 -0.74374807 -0.9931949
-0.52446795 -1.3995667 -0.44851756 -1.0267117 -0.77249837 -0.8645469 -0.91051036 -0.9328115
-0.7806498 -0.53892374 -0.8417246 -0.864687 -0.68361425 -0.023511501 -1.0184054 -0.7775857
-0.53425103 -0.8510116 0.31156105 -0.3607677 -0.92535394 -0.4978306 -0.9526577 -0.3794916
-0.6205298 -0.8681975 -0.7343236 -0.4143755 -0.2272189 -0.6485868 -0.8475442 -0.3521318
-0.7328777 -0.47469723 -0.397834 -0.8188199 -0.6700569 -0.5410274 -0.80769974 -0.9820965
-0.8909585 -1.286664 -0.3860299 -0.35097238 -0.14515622 -1.7960689 -0.9654562 0.001650974
-0.46526682 -1.2458087 -1.1331258 -0.98823655 -0.87729764 -0.78362507 -0.48577702 -0.7774238
-0.13793275 -1.2545872 -0.91298056 -0.4597305 -1.0876583 -0.6136414 -0.8957911 -0.6250565
-0.38301557 -0.48278156 -0.7603486 -0.63058686 -0.88862836 -0.11442734 -1.063229 -1.7508575
-0.49311388 -0.40734237 -0.97414726 -0.9077851 -0.48970985 -0.93798184 -1.0024354 -1.1166788
-1.0886097 -1.1495306 -0.6618106 -0.66124094 -0.79624945 -0.9063997 -0.8890107 -0.6548661
-0.8580838 -0.7660987 -0.62499994 -1.0267162 -0.25639015 -0.8155016 -0.7770323 -0.78732014
-1.2108158 -0.80798644 -0.37719637 -1.2133232 -0.8727188 -0.4930242 -0.7037616 -0.76584935
-0.9160769 -1.3676825 -0.40852013 -0.17854713 -0.81361794 -0.8198483 -0.81078213 -0.6280158
-1.6388713 -0.7378266 -0.70111156 -0.5251598 -0.25429824 -0.6619797 -0.99181587 -0.23722817
-0.5775082 -0.5301414 -0.2877673 -0.031419672 -0.8236499 -0.8697565 -0.721467 -0.35898015
-0.2702341 -0.8308556 -0.7930726 -1.2034498 -0.42100707 -1.0201907 -1.210592 -1.0029126
-0.7750874 -0.49190623 -0.7940478 -0.9965945 -0.0139462855 -0.33958265 -0.070859805 -1.0166205
-0.7940447 -0.7987766 -0.3769998 -0.13841848 -0.89751744 -1.1900736 -0.8256039 -0.98307467
-0.8695646 -0.5153747 -0.9221315 -0.8373254 -0.9549608 -1.016218 -0.44367638 -0.4918844
-1.1704702 -0.83664596 -0.9547 -1.7021182 -0.69715846 -0.72216284 -1.0695496 -0.7248993
-0.08195713 -0.83520997 -0.08902558 -0.6893657 -0.81126744 -0.96601355 -0.5508274 -0.66010815
00000000: 9189 61bf ad9e 5abf 2339 f9bd 367e 66bf
00000010: 16ba f6be 9f96 4dbf 4cba 15bf 8614 3abf
00000020: 6579 2dbf dc8b 8abf 82a3 66bf 05ca 10bf
00000030: a09d e5be 4fec 06c0 adcf 89bf 8510 61bf
00000040: 69e7 86bf 95ca 66bf 4b90 38bf a633 87bf
00000050: 78d6 5ebf 69ab ddbe 4371 653d 1076 73bf
00000060: 7f96 733c 5a22 d4be 0811 f1bc e941 2dbf
00000070: 3cf3 dabe b810 27bf bc82 22bf cb40 12bf
00000080: 629c 91be 1b42 80bf da35 8bbf 6ac1 71bf
00000090: 6b05 95be b56f 66bf b7dd 96bf db25 32bf
000000a0: 91cf 24bf c3ca 63bf 1cbb 64bf 05c2 38bf
000000b0: 057b 8fbf c755 1cbf 8659 35bf 4c05 3abf
000000c0: bf3d 8fbf 2ed9 4fbf 64f5 38bf 22fd 77bf
000000d0: dd5d 2fbf 8892 a2be 6397 adbe b7e3 4d3d
000000e0: bb9a 2dbf cd58 96bf 4d91 34bf 2357 b5bf
000000f0: 8220 1cbf bd72 8fbf ba3a 52bf 8736 0dbf
00000100: 7f8c 3dbf 7738 58bf 2301 5dbf b137 81bf
00000110: 5458 5cbf 1990 39bf 9073 0ebf 421d 0ebf
00000120: 6887 84bf 7412 58bf d051 74bf 809a 54bf
00000130: 2891 c7be 8e87 91bf 4666 3ebf 0542 7ebf
00000140: 8843 06bf 0025 b3bf 18a4 e5be 4a6b 83bf
00000150: 74c2 45bf f252 5dbf 3517 69bf bccc 6ebf
00000160: aad8 47bf e8f6 09bf 437b 57bf 215c 5dbf
00000170: 5801 2fbf 319b c0bc 1c5b 82bf db0f 47bf
00000180: adc4 08bf e5db 59bf ee84 9f3e 8bb6 b8be
00000190: ffe3 6cbf a7e3 febe 60e1 73bf b94c c2be
000001a0: 0adb 1ebf 3142 5ebf a2fc 3bbf 0729 d4be
000001b0: 12ac 68be c909 26bf a8f8 58bf 9f4a b4be
000001c0: df9d 3bbf 840b f3be e6b0 cbbe 2e9e 51bf
000001d0: d988 2bbf c680 0abf 69c5 4ebf ad6a 7bbf
000001e0: db15 64bf 68b1 a4bf b6a5 c5be a7b2 b3be
000001f0: d5a3 14be 96e5 e5bf 2328 77bf 7f65 d83a
00000200: 7437 eebe a976 9fbf 440a 91bf 12fd 7cbf
00000210: 9496 60bf a79b 48bf c4b7 f8be 3f05 47bf
00000220: 3e3e 0dbe 5096 a0bf 18b9 69bf cc61 ebbe
00000230: 6338 8bbf 9a17 1dbf 9152 65bf b403 20bf
00000240: 9e1a c4be 252f f7be 35a6 42bf 246e 21bf
00000250: 267d 63bf e258 eabd e317 88bf 191c e0bf
00000260: 6c79 fcbe 2e8f d0be b761 79bf 9b64 68bf
00000270: 40bb fabe 941f 70bf ce4f 80bf 55ef 8ebf
00000280: 9057 8bbf d223 93bf 6b6c 29bf 1647 29bf
00000290: 01d7 4bbf d009 68bf 3596 63bf 4ea5 27bf
000002a0: 61ab 5bbf 0b1f 44bf ffff 1fbf 706b 83bf
000002b0: 9245 83be b6c4 50bf 97eb 46bf d08d 49bf
000002c0: 03fc 9abf 33d8 4ebf e21f c1be 2d4e 9bbf
000002d0: 806a 5fbf ab6d fcbe b829 34bf b40e 44bf
000002e0: 0484 6abf 3810 afbf 8d29 d1be 0fd5 36be
000002f0: 4449 50bf 94e1 51bf 6b8f 4fbf a5c5 20bf
00000300: 89c6 d1bf 34e2 3cbf 0c7c 33bf df70 06bf
00000310: 6133 82be 8077 29bf a5e7 7dbf f1eb 72be
00000320: 94d7 13bf 59b7 07bf 3c56 93be eab1 00bd
00000330: b8da 52bf 5da8 5ebf 10b2 38bf 3fcc b7be
00000340: 205c 8abe f4b2 54bf ce06 4bbf a50a 9abf
00000350: 3d8e d7be 9c95 82bf aef4 9abf 715f 80bf
00000360: 216c 46bf 22db fbbe b746 4bbf d120 7fbf
00000370: f67e 64bc c7dd adbe f21e 91bd 9f20 82bf
00000380: 8346 4bbf a07c 4cbf 1e06 c1be 93bd 0dbe
00000390: b4c3 65bf 5554 98bf c75a 53bf c8aa 7bbf
000003a0: c99b 5ebf 99ef 03bf cf10 6cbf f55a 56bf
000003b0: 5078 74bf 6e13 82bf 8d29 e3be 46d8 fbbe
000003c0: f8d1 95bf 6e2e 56bf 3867 74bf 02df d9bf
000003d0: fa78 32bf aadf 38bf 00e7 88bf 0093 39bf
000003e0: 24d9 a7bd 52d0 55bf 0b53 b6bd 457a 30bf
000003f0: 39af 4fbf aa4c 77bf 0603 0dbf d9fc 28bf

bn2.running_mean f4 [400]
0.17932339 0.0386323 -0.039536268 0.15629156 0.009136147 -0.0037121251 0.007410578 -0.12654972
-0.059873313 -0.1840645 -0.019169075 -0.19708665 0.031085063 -0.00033208294 0.07230371 -0.12734994
-0.0013905764 -0.056925505 -0.12186358 0.15918171 -0.20139332 0.14447112 -0.050502736 -0.11423128
-0.19816849 -0.19361503 -0.07037309 0.13166963 0.04053104 -0.14909379 0.17214361 0.16722347
0.084775604 0.19984922 0.13593607 0.028967608 0.14106555 -0.11636749 -0.026464446 -0.10636395
-0.035877675 -0.16149671 0.13875227 -0.0805897 0.06282614 0.187146 0.06891546 0.0108386725
0.20269652 -0.2019432 0.189087 -0.1769907 0.20235547 0.016175322 -0.12533934 -0.06970602
-0.10474467 0.12240579 0.17536956 0.12343731 0.14927587 0.19682434 -0.17993408 0.08581702
0.016660552 0.123004965 0.05762109 0.00571397 0.13579142 -0.08254648 -0.15554485 -0.14632441
0.1464387 0.004293331 -0.16596967 0.070628144 -0.0066167274 -0.12107823 0.17888379 0.118533045
0.17274816 -0.033283435 -0.12613824 -0.17263053 0.023905236 -0.14311235 0.12181289 -0.1850134
-0.1452497 0.029650642 0.049977925 -0.026940016 -0.04251891 -0.10349983 -0.059069537 0.026460687
-0.18328181 -0.03534349 -0.03235464 0.0045022103 0.15169545 -0.17113094 0.07055135 0.07566468
0.05661188 -0.05851866 0.11861056 -0.14448045 -0.08230657 -0.005425505 -0.030073669 -0.2019427
0.10956016 0.1206174 -0.18121806 0.00037875355 -0.17175066 -0.0371658 0.024278626 0.1775672
0.1435667 0.10523111 0.026836578 -0.18837191 -0.065875225 0.18196775 0.016808594 -0.045992486
-0.070454694 0.0985898 0.12837954 -0.017743835 0.059746686 0.15033512 0.1366665 0.10587733
0.1393702 0.074354194 0.055971388 -0.20087022 -0.04003279 -0.060906358 0.04576965 -0.058551513
-0.18622193 0.1707969 -0.08847869 -0.19383334 -0.084922574 0.04277685 -0.06938833 -0.20388103
0.067860626 0.07865865 0.19000712 -0.20174237 -0.038659673 -0.077769905 -0.07072535 0.0044313697
0.19030891 -0.021361465 0.1747609 0.028302714 -0.106253915 -0.019596538 0.10507338 0.12063207
-0.067721255 -0.024925139 -0.17071852 -0.12992637 -0.05391974 0.12171199 0.012588575 0.10787286
-0.17034996 0.041831996 -0.16492951 -0.059725292 0.16660626 0.008608963 -0.15283504 -0.20105425
-0.06172329 -0.08006422 -0.18954033 0.111669846 0.0041202614 -0.031365093 0.15774351 -0.19327627
0.0651084 0.15115577 0.044044275 0.10945347 -0.07242156 -0.192115 0.19077647 -0.2026541
-0.083251216 0.18503074 -0.0977002 -0.0404041 -0.104645625 0.041577805 -0.073496476 0.07621378
0.19908717 -0.15335616 0.1336181 -0.051394347 -0.20349437 0.088786006 -0.13654988 0.120145686
-0.035598174 -0.12317126 -0.17770305 0.043955747 -0.19678906 0.112156235 0.07804711 -0.17325063
0.10673771 -0.1608265 0.02075033 -0.058844723 0.13645172 -0.17259036 -0.06424996 -0.07233316
-0.017578386 0.020648327 -0.12765944 0.027818548 0.00924328 -0.103544384 0.04841058 0.14994474
0.10507008 0.06582359 -0.08993749 -0.14777538 0.12197144 0.03151033 0.015790492 0.10404418
-0.09406618 -0.20267619 -0.14010681 -0.19111606 0.12704113 0.12430284 -0.0935204 -0.045700725
00000000: 8da0 373e e73c 1e3d c8f0 21bd e50a 203e
00000010: c7af 153c 2047 73bb 6fd4 f23b 4096 01be
00000020: b83d 75bd 677b 3cbe 7708 9dbc 15d1 49be
00000030: 1aa6 fe3c 6b1b aeb9 f813 943d 0668 02be
00000040: 0044 b6ba b82a 69bd 9d93 f9bd 8800 233e
00000050: 0d3a 4ebe 3df0 133e f5db 4ebd 17f2 e9bd
00000060: aeec 4abe 0543 46be c41f 90bd 67d4 063e
00000070: e003 263d 0bac 18be 6a46 303e a13c 2b3e
00000080: d59e ad3d 46a5 4c3e d332 0b3e 7a4d ed3c
00000090: 7d73 103e 1452 eebd f7cb d8bc 58d5 d9bd
000000a0: 78f4 12bd 655f 25be 1315 0e3e 360c a5bd
000000b0: feaa 803d 33a3 3f3e 8c23 8d3d b094 313c
000000c0: ad8f 4f3e 33ca 4ebe 06a0 413e 0d3d 35be
000000d0: 4636 4f3e 1c82 843c f558 00be 08c2 8ebd
000000e0: 6084 d6bd e3af fa3d 1494 333e b3cc fc3d
000000f0: c6db 183e 528c 493e a440 38be d5c0 af3d
00000100: b67b 883c 07ea fb3d 1804 6c3d 413c bb3b
00000110: e80c 0b3e 210e a9bd 2647 1fbe 11d6 15be
00000120: 07f4 153e 12af 8c3b f4f3 29be 7da5 903d
00000130: 22d1 d8bb ddf7 f7bd 502d 373e 74c1 f23d
00000140: e5e4 303e 3654 08bd 622a 01be 0fc6 30be
00000150: ead4 c33c 0b8c 12be 0979 f93d 2774 3dbe
00000160: 56bc 14be e7e5 f23c a7b5 4c3d 4fb1 dcbc
00000170: 4f28 2ebd b8f7 d3bd e6f2 71bd 15c4 d83c
00000180: 3aae 3bbe 56c4 10bd 4d86 04bd 4787 933b
00000190: 0d56 1b3e f33c 2fbe 3a7d 903d 15f6 9a3d
000001a0: dce1 673d 43b1 6fbd 18ea f23d aff2 13be
000001b0: 5990 a8bd 6fc8 b1bb 0e5d f6bc 11ca 4ebe
000001c0: 1461 e03d 4106 f73d 3a91 39be 7193 c639
000001d0: 68df 2fbe 2a3b 18bd f8e3 c63c 2dd4 353e
000001e0: 2603 133e 6883 d73d 62d8 db3c 91e4 40be
000001f0: 97e9 86bd c155 3a3e 2db2 893c 9e62 3cbd
00000200: 8d4a 90bd 73e9 c93d ed75 033e 855b 91bc
00000210: f1b8 743d 73f1 193e 4ef2 0b3e 37d6 d83d
00000220: 10b7 0e3e 0347 983d 4142 653d ecb0 4dbe
00000230: 6cf9 23bd f278 79bd f578 3b3d b6d3 6fbd
00000240: f6b0 3ebe 62e5 2e3e 5134 b5bd 3f7c 46be
00000250: e3eb adbd c736 2f3d 781b 8ebd 30c6 50be
00000260: 83fa 8a3d c917 a13d 3a91 423e 8d95 4ebe
00000270: 9b59 1ebd d445 9fbd 74d8 90bd 0635 913b
00000280: 57e0 423e 3dfe aebc 85f4 323e 18db e73c
00000290: a79b d9bd eb88 a0bc b630 d73d f20d f73d
000002a0: 71b1 8abd ce2f ccbc d6d0 2ebe 6b0b 05be
000002b0: f2da 5cbd 2344 f93d 4f40 4e3c 72ec dc3d
000002c0: 3870 2ebe 0758 2b3d 48e3 28be 82a2 74bd
000002d0: d59a 2a3e 9c0c 0d3c ca80 1cbe 2ae1 4dbe
000002e0: 8fd1 7cbd b6f8 a3bd dc16 42be 29b3 e43d
000002f0: 4203 873b af78 00bd 8487 213e 37ea 45be
00000300: 8e57 853d 94c8 1a3e c567 343d 2429 e03d
00000310: c151 94bd cbb9 44be e85a 433e 8e84 4fbe
00000320: 9d7f aabd b378 3d3e 0b17 c8bd c57e 25bd
00000330: 7250 d6bd 7d4d 2a3d 5285 96bd f815 9c3d
00000340: 82dd 4b3e 6609 1dbe 2fd3 083e e182 52bd
00000350: d460 50be 70d5 b53d bbd3 0bbe f10e f63d
00000360: 64cf 11bd 3741 fcbd caf7 35be f10a 343d
00000370: 1283 49be 2bb2 e53d 2ad7 9f3d 9d68 31be
00000380: 4d99 da3d b4af 24be 99fc a93c 2a07 71bd
00000390: 00ba 0b3e 87bb 30be 7c95 83bd 6823 94bd
000003a0: 8c00 90bc ae26 a93c 28b9 02be b9e3 e33c
000003b0: 2071 173c 140f d4bd 2c4a 463d 1d8b 193e
000003c0: fb2e d73d 85ce 863d 2631 b8bd 6e52 17be
000003d0: 2acc f93d fa10 013d 105b 813c 1d15 d53d
000003e0: c5a5 c0bd 598a 4fbe 2978 0fbe eeb3 43be
000003f0: 1217 023e 7d92 fe3d a087 bfbd af30 3bbd

bn2.running_var f4 [400]
1.3847399 13.368011 9.2052555 1.5746057 3.06342 5.2662377 7.8529325 2.9710875
7.5251355 1.544923 3.6225438 13.344343 35.99397 3.6815119 17.974766 1.015872
13.421522 5.438463 18.855623 9.969749 3.1936543 9.512002 13.104323 3.9919274
11.759253 8.779136 4.36309 4.8167734 2.6873748 1.1132134 2.0071485 8.805493
3.5977874 2.1260254 1.8463292 5.2634687 6.722733 2.999169 6.8672643 1.5043824
1.4382794 1.9790605 3.0384073 4.748497 0.66990346 4.996917 0.83123064 3.0937467
1.2065363 15.232038 4.3859787 5.259375 1.5922592 9.878116 6.239546 19.623838
2.8355522 11.391913 5.528671 5.5643644 7.647315 5.244487 2.410377 6.532065
0.7642663 3.3707182 2.1220098 5.6142583 1.6379173 8.393847 8.643311 3.9989972
1.9176819 5.1499543 1.6805198 6.5263515 2.6431828 1.6394866 25.2437 1.3989644
9.468764 1.5843129 2.0838997 6.377209 2.9295921 22.168753 3.2005236 0.67151755
7.249612 3.890498 2.327446 8.9578085 15.950184 8.523707 4.289263 13.709686
5.1088367 0.89199007 35.147236 8.006477 13.8511715 3.5536149 11.697513 1.3712217
4.1326923 1.8492507 5.046298 6.4811583 3.5333545 0.87258315 8.951742 6.269281
4.9366074 2.5222666 3.8184404 9.284434 0.6900565 4.1909986 3.8881783 1.9743078
6.2623067 1.7394842 8.023524 8.781435 54.425022 2.382588 1.2000601 5.6836534
29.273048 0.6454313 4.5499997 3.0042965 7.9083734 7.6515126 12.241459 2.5298615
30.569494 5.034954 1.0565461 2.9493692 9.858349 2.0241477 13.877112 3.3727324
5.650909 6.404613 5.5334773 2.0491612 3.0237474 5.5581985 3.1828911 2.428446
0.9076306 42.51119 2.444167 1.82956 2.60993 1.4122841 1.3747069 0.57879156
1.386775 3.577371 2.0841322 4.145877 2.8054457 6.8871922 1.7749062 12.398569
1.2730892 7.1926327 1.7601477 1.1663154 2.5238712 0.70232505 3.522248 3.8951201
1.885288 1.5049855 4.728112 3.272764 3.8475633 2.6262016 1.4478922 5.6437936
0.9968131 4.450625 9.064905 3.7808125 2.0629964 1.5300162 1.6252478 1.3420614
0.9316592 1.5889347 3.007215 21.86333 3.9240897 3.7992694 1.5647072 1.2865009
11.446139 15.631407 2.6859343 4.8814096 1.2141263 0.5617116 5.824889 37.884872
1.7389017 2.500736 6.6137886 5.3910904 1.2786969 1.8588941 1.3483763 9.274772
8.303263 3.5056574 17.465467 7.7216573 19.39166 8.048401 34.363304 4.3592196
7.654475 1.1148639 2.016542 3.793486 15.6082945 8.264699 5.6994495 0.68747634
7.933528 8.967552 8.635848 14.723133 10.675672 0.7874833 6.4543557 5.690408
1.8140033 4.0655994 2.006876 2.8633318 3.8967164 6.614914 3.7722201 1.3052412
47.426926 2.0180244 31.858252 6.846163 5.4771366 6.181997 10.821075 7.0079746
00000000: 283f b13f 60e3 5541 ba48 1341 ae8c c93f
00000010: 130f 4440 0585 a840 394b fb40 4c26 3e40
00000020: e9cd f040 09c0 c53f c2d7 6740 6e82 5541
00000030: d3f9 0f42 e49d 6b40 52cc 8f41 1808 823f
00000040: 8ebe 5641 e407 ae40 51d8 9641 1884 1f41
00000050: d564 4c40 2931 1841 4fab 5141 bd7b 7f40
00000060: e625 3c41 5777 0c41 6f9e 8b40 0223 9a40
00000070: f3fd 2b40 c77d 8e3f 1f75 0040 4de3 0c41
00000080: 2642 6640 cd10 0840 8454 ec3f 566e a840
00000090: a120 d740 63f2 3f40 a1c0 db40 9a8f c03f
000000a0: 8a19 b83f db51 fd3f 4475 4240 b0f3 9740
000000b0: cb7e 2b3f bee6 9f40 88cb 543f f2ff 4540
000000c0: c86f 9a3f 6db6 7341 f059 8c40 cd4c a840
000000d0: 26cf cb3f c30c 1e41 5caa c740 9ffd 9c41
000000e0: b079 3540 4745 3641 dfea b040 460f b240
000000f0: ceb6 f440 d6d2 a740 9e43 1a40 ad06 d140
00000100: f5a6 433f d9b9 5740 02cf 0740 01a8 b340
00000110: 46a7 d13f 334d 0641 004b 0a41 92ef 7f40
00000120: 9a76 f53f 6dcc a440 461b d73f dfd7 d040
00000130: e829 2940 b2da d13f 19f3 c941 4411 b33f
00000140: 0f80 1741 c4ca ca3f 9d5e 0540 1912 cc40
00000150: 707e 3b40 9b59 b141 61d5 4c40 93e8 2b3f
00000160: d2fc e740 ebfd 7840 e0f4 1440 2f53 0f41
00000170: f433 7f41 1b61 0841 a441 8940 e05a 5b41
00000180: 977b a340 7659 643f c596 0c42 881a 0041
00000190: 669e 5d41 6d6e 6340 0329 3b41 3184 af3f
000001a0: 043f 8440 3fb4 ec3f 467b a140 a665 cf40
000001b0: 7b22 6240 9c61 5f3f 563a 0f41 f39d c840
000001c0: b0f8 9d40 d16c 2140 5461 7440 0b8d 1441
000001d0: 8ba7 303f a91c 8640 ead7 7840 1eb6 fc3f
000001e0: d164 c840 6ba7 de3f 5b60 0041 c280 0c41
000001f0: 39b3 5942 527c 1840 929b 993f 7de0 b540
00000200: 342f ea41 fc3a 253f 9999 9140 6546 4040
00000210: 6511 fd40 31d9 f440 04dd 4341 40e9 2140
00000220: 538e f441 581e a140 e73c 873f 77c2 3c40
00000230: ccbb 1d41 a38b 0140 a708 5e41 d9da 5740
00000240: 3fd4 b440 97f2 cc40 3f12 b140 7525 0340
00000250: 1485 4140 c3dc b140 7db4 4b40 a96b 1b40
00000260: 7b5a 683f 750b 2a42 3b6d 1c40 062f ea3f
00000270: 1809 2740 bac5 b43f 65f6 af3f af2b 143f
00000280: d881 b13f a5f3 6440 6c62 0540 06ab 8440
00000290: 6c8c 3340 e163 dc40 2030 e33f 8a60 4641
000002a0: 96f4 a23f 0c2a e640 854c e13f d349 953f
000002b0: 1b87 2140 93cb 333f 836c 6140 a649 7940
000002c0: 1e51 f13f 5da3 c03f b24c 9740 f774 5140
000002d0: 7a3e 7640 b013 2840 8854 b93f f599 b440
000002e0: 252f 7f3f 856b 8e40 da09 1141 d5f8 7140
000002f0: 2208 0440 92d7 c33f 1f08 d03f abc8 ab3f
00000300: 3881 6e3f 3662 cb3f 3676 4040 1ae8 ae41
00000310: 4924 7b40 3b27 7340 5348 c83f 10ac a43f
00000320: 6323 3741 3e1a 7a41 59e6 2b40 8234 9c40
00000330: 7e68 9b3f 55cc 0f3f 7e65 ba40 1c8a 1742
00000340: 5594 de3f 0f0c 2040 28a4 d340 d083 ac40
00000350: 57ac a33f 3ef0 ed3f 9897 ac3f 7765 1441
00000360: 2ada 0441 b15c 6040 47b9 8b41 d117 f740
00000370: 1f22 9b41 40c6 0041 0674 0942 ba7e 8b40
00000380: 76f1 f440 dcb3 8e3f 060f 0140 7ac8 7240
00000390: 93bb 7941 353c 0441 e461 b640 73fe 2f3f
000003a0: 76df fd40 187b 0f41 6f2c 0a41 f491 6b41
000003b0: 8dcf 2a41 8198 493f 158a ce40 d317 b640
000003c0: 4331 e83f 6419 8240 a870 0040 d440 3740
000003d0: cd63 7940 60ad d340 0e6c 7140 2512 a73f
000003e0: 2cb5 3d42 5027 0140 b3dd fe41 c413 db40
000003f0: b444 af40 ebd2 c540 2023 2d41 5441 e040

bn3.weight f4 [300]
1.4117196 0.986149 1.047523 1.1442838 1.4947708 0.7212935 1.3656436 0.8700363
0.7393939 0.9748484 1.333701 1.1876645 1.0853989 1.2522029 0.6393061 0.90456927
1.0337162 1.2677002 1.2950768 0.559351 0.66245383 0.9279827 0.897111 0.7991392
1.2025002 1.049969 1.0147626 1.0338483 0.8805781 1.334337 0.62774414 0.80676186
0.8056809 0.96733856 0.8251694 0.79902136 0.8597853 1.0816848 0.93342096 0.6689299
0.8105293 0.80327225 0.831717 1.2624472 0.94083524 0.65455955 0.92355555 1.0007087
1.0020759 0.58594584 1.2099524 1.3422037 1.1522881 1.1937264 0.88685024 1.092735
0.891344 0.58660406 0.73997337 1.0308857 0.9324049 0.776378 0.82565415 1.0185719
0.7906638 0.94717664 0.8242404 1.0968777 0.6369015 0.7331449 0.7806901 0.94920874
1.2139 1.0139858 1.0745409 0.7042842 0.59994316 1.1599611 1.0712566 0.72765154
0.71317524 1.1338744 0.5830577 1.242194 1.0731195 1.3580455 0.57456785 0.7621877
1.3502911 0.5562263 0.96183556 1.1123828 0.591946 0.49726278 1.1098778 1.1825438
1.3024573 0.3943172 0.8373806 0.9835014 0.88121235 0.3823262 1.0313034 0.46065816
0.7666447 0.57369167 0.5421209 0.66467154 0.67210716 0.7345603 0.9225587 0.53038436
0.8809472 0.6530281 1.0282593 1.149294 0.7068337 0.84855765 1.3854389 0.77873504
0.70786047 1.1361021 0.78921163 1.1900342 0.95132554 1.203413 1.063838 1.3951352
1.051982 0.70398474 0.8720499 0.6598713 0.84643024 1.1382054 1.0878516 0.71871144
1.123742 1.4119449 0.6237051 1.510089 1.0506787 0.62762094 0.5065764 0.82308227
1.2528187 1.366447 1.005635 1.1121106 1.3173221 0.7618824 1.2476357 1.1438591
0.9131021 0.65128434 0.79491013 0.74366593 0.76530415 0.99705124 1.0626366 0.91163576
1.0556335 0.7492341 0.9377923 1.2752157 1.4740922 1.1710383 1.0841126 1.1305274
1.0568695 1.1071028 0.7049824 1.2991972 0.72323173 0.631013 0.85788935 1.0134385
1.1410347 1.2255927 1.1979744 1.0413103 0.9985307 1.2657118 1.0074234 1.2169067
1.1134143 1.3031588 0.6652918 0.98437744 0.88773894 1.2203985 0.7959482 1.0910717
1.178099 0.8593363 0.93637025 0.78925306 0.74623996 1.1289985 0.51304305 1.0244561
0.6762298 0.5612721 0.78040785 0.62443805 0.9411364 0.94716775 0.5875837 0.817624
0.8791856 0.8917292 1.0780568 1.2013731 1.0327615 0.50221515 1.0161034 0.87459797
0.84183496 1.309651 0.9880381 0.82597893 0.7415309 1.2058312 0.6073959 0.87223476
1.041292 0.93344 1.064435 1.2217637 1.1999499 1.6097512 0.9180054 0.54837036
0.9920739 0.75507784 0.88424766 0.6720168 0.9408254 0.7321747 0.55552816 1.0330795
0.6513621 0.81438315 0.91083634 0.83525294 0.8468469 0.8772799 1.1697472 0.8121564
1.1342164 1.0903587 0.5907588 0.5040587 1.1416585 0.45975468 1.4596571 0.9772294
00000000: 3ab3 b43f 4374 7c3f 3c15 863f e477 923f
00000010: a654 bf3f b1a6 383f 69cd ae3f b3ba 5e3f
00000020: eb48 3d3f aa8f 793f b7b6 aa3f 6405 983f
00000030: 5aee 8a3f 2f48 a03f 91a9 233f da91 673f
00000040: d050 843f 0044 a23f 14c5 a53f a131 0f3f
00000050: 9396 293f 4690 6d3f 11a9 653f 6394 4c3f
00000060: 87eb 993f 6265 863f bee3 813f 2455 843f
00000070: 916d 613f 8ecb aa3f d7b3 203f f287 4e3f
00000080: 1a41 4e3f 80a3 773f 4d3e 533f aa8c 4c3f
00000090: e41a 5c3f a674 8a3f adf4 6e3f fd3e 2b3f
000000a0: d97e 4f3f 40a3 4d3f 68eb 543f df97 a13f
000000b0: 94da 703f 3791 273f 236e 6c3f 3917 803f
000000c0: 0644 803f 8c00 163f b8df 9a3f 55cd ab3f
000000d0: 2d7e 933f 07cc 983f 9e08 633f bede 8b3f
000000e0: 1f2f 643f af2b 163f e56e 3d3f 10f4 833f
000000f0: 16b2 6e3f b5c0 463f 125e 533f 9060 823f
00000100: f168 4a3f 2b7a 723f 6b01 533f 7d66 8c3f
00000110: fa0b 233f 62af 3b3f 4edb 473f 58ff 723f
00000120: 1361 9b3f 49ca 813f 8e8a 893f f84b 343f
00000130: e095 193f 9b79 943f f01e 893f 5f47 3a3f
00000140: a792 363f cc22 913f 4543 153f 3700 9f3f
00000150: fb5b 893f 6fd4 ad3f e116 133f bc1e 433f
00000160: 57d6 ac3f d964 0e3f db3a 763f 8f62 8e3f
00000170: c689 173f 3a99 fe3e 7a10 8e3f 985d 973f
00000180: ecb6 a63f f2e3 c93e 935e 563f bfc6 7b3f
00000190: 2297 613f 42c0 c33e c001 843f 63db eb3e
000001a0: d442 443f 75dd 123f 6fc8 0a3f ea27 2a3f
000001b0: 370f 2c3f 250c 3c3f cf2c 6c3f 45c7 073f
000001c0: c185 613f d92c 273f 009e 833f 111c 933f
000001d0: 0ef3 343f 133b 593f 1056 b13f 2e5b 473f
000001e0: 5836 353f cb6b 913f c609 4a3f 0a53 983f
000001f0: 128a 733f 7009 9a3f d82b 883f ca93 b23f
00000200: 59a7 863f 5838 343f aa3e 5f3f 53ed 283f
00000210: a7af 583f b7b0 913f b93e 8b3f 79fd 373f
00000220: c7d6 8f3f 9cba b43f 23ab 1f3f 994a c13f
00000230: a47c 863f c4ab 203f feae 013f 85b5 523f
00000240: 5d5c a03f bce7 ae3f a6b8 803f a459 8e3f
00000250: 039e a83f ba0a 433f 87b2 9f3f fa69 923f
00000260: 0fc1 693f 92ba 263f 3b7f 4b3f e460 3e3f
00000270: f9ea 433f c03e 7f3f 7a04 883f f660 693f
00000280: 001f 873f cecd 3f3f 2813 703f 453a a33f
00000290: 0eaf bc3f 95e4 953f 34c4 8a3f 1fb5 903f
000002a0: 8047 873f 8bb5 8d3f ba79 343f 184c a63f
000002b0: b725 393f 118a 213f a39e 5b3f 5ab8 813f
000002c0: 6d0d 923f 39e0 9c3f 3a57 993f a849 853f
000002d0: b59f 7f3f d802 a23f 40f3 803f 99c3 9b3f
000002e0: 5c84 8e3f e8cd a63f 9050 2a3f 2900 7c3f
000002f0: dc42 633f 0536 9c3f 43c3 4b3f 3da8 8b3f
00000300: f3cb 963f 77fd 5b3f f6b5 6f3f 7d0c 4a3f
00000310: 9509 3f3f 0683 903f ca56 033f 6121 833f
00000320: 651d 2d3f 87af 0f3f cfc8 473f 2cdb 1f3f
00000330: 51ee 703f 9679 723f e36b 163f ce4f 513f
00000340: 4f12 613f 5d48 643f c4fd 893f 98c6 993f
00000350: 8731 843f 2c91 003f ad0f 823f a7e5 5f3f
00000360: 7f82 573f a5a2 a73f 11f0 7c3f 5b73 533f
00000370: f8d4 3d3f ad58 9a3f 4c7e 1b3f c74a 5f3f
00000380: 0e49 853f edf5 6e3f 683f 883f c162 9c3f
00000390: f597 993f 540c ce3f 6702 6b3f 0062 0c3f
000003a0: 8ef8 7d3f c84c 413f 0e5e 623f 4b09 2c3f
000003b0: efd9 703f cd6f 3b3f 1837 0e3f f33b 843f
000003c0: abbf 263f 6a7b 503f 922c 693f 23d3 553f
000003d0: f5ca 583f 6a95 603f 47ba 953f 7be9 4f3f
000003e0: 012e 913f e090 8b3f f83b 173f fe09 013f
000003f0: de21 923f f764 eb3e 0bd6 ba3f b52b 7a3f

bn3.bias f4 [300]
-0.8205551 -0.39302063 -0.36163393 -0.9294975 -0.7248196 -2.0323825 -0.0877953 -1.4548085
-0.98819697 -0.91312915 -0.91285366 -0.42196313 -0.2576828 -0.88025653 -1.0487807 -1.1025361
-1.1499716 -0.34383917 -0.7948031 -1.2065138 -1.0394076 -1.0198256 -1.2120125 -1.0805703
-0.2549075 -0.977885 -0.38788244 -1.1923003 -1.0930693 -0.7121959 -0.8440251 -0.98938143
-1.0684204 -1.0808015 -1.2812169 -0.84045625 -1.2251904 -0.25417107 -0.97238046 -0.8225775
-0.8972397 -1.3923769 -0.35687062 -1.1720392 -0.37569785 -0.96193725 -1.1666487 -1.0950696
-0.67181504 -0.9551604 -0.42752728 -0.92532575 -1.026415 -1.1429557 -0.8663839 -1.0479169
-0.8950948 -1.0410869 -1.3764931 -1.0742773 -1.2121003 -1.0120087 -0.56648314 -0.4798846
-1.2484423 -0.9447321 -1.408557 -0.5939657 -1.0014346 -0.8396462 -1.1371859 -0.75980717
-0.95284396 -0.70166534 -0.5792739 -0.91438335 -0.7820879 -1.0815047 -1.017084 -1.1665201
-1.1885303 -0.5289679 -0.8204362 -0.9997401 -0.41033944 -0.65370613 -0.9778112 -1.0267266
-0.98572004 -0.73718673 -0.946117 -0.57659507 -1.0611718 -0.81662726 -1.2625188 -0.59449726
-0.50971305 -0.7486463 -1.0291444 -1.4332079 -1.221517 -0.7187996 -0.68655354 -0.5535919
-0.8521116 -1.0265251 -0.9022807 -0.74021214 -1.0667598 -0.8584395 -0.4524703 -1.0192766
-1.0460815 -0.96679896 -1.2109154 -1.0412666 -1.0447752 -1.6170005 -1.019281 -1.0284315
-0.8970642 -0.5337521 -1.2317699 -1.2482905 -1.050039 -0.68736774 -0.6828974 -0.94188106
-1.1890098 -1.0298908 -0.42215097 -0.9518526 -1.0672541 -0.7638439 -1.0826675 -0.98750275
-0.6303088 -0.57657856 -1.3254517 -0.4834832 -1.2138797 -0.92562705 -0.8991621 -0.66812134
-1.2482572 -0.9193975 -1.2290154 -0.90097743 -0.31720304 -1.3089728 -0.81684047 -0.827704
-0.9907449 -0.8878244 -1.2597915 -0.93843806 -1.2885143 -0.90848327 -1.2325943 -0.74662787
-0.6102056 -0.57991713 -0.6679472 -0.8645871 -1.0590904 -0.9515052 -1.1705768 -0.6904339
-1.3932073 -0.94224983 -1.2350528 -0.55860424 -1.1611347 -0.85619855 -0.54258925 -1.0875778
-0.99510396 -1.1649742 -0.6318523 -1.1174357 -1.0276241 -0.5380176 -1.0486652 -1.1454489
-0.8799487 -1.1040404 -1.3005897 -1.4734346 -1.0527023 -0.7675655 -0.89808095 -0.6654311
-0.43262616 -0.72915035 -1.2689533 -1.1567775 -0.81937766 -0.2917484 -0.8477495 -1.0031682
-1.329838 -0.88229734 -1.2978123 -0.8852054 -0.56811213 -0.70497286 -1.007537 -0.97067976
-0.9118279 -1.1808877 -0.9405307 -0.67364615 -0.25401232 -0.98545635 -1.2921004 -0.93142915
-1.3066049 -1.06372 -0.9114166 -0.6003696 -1.2482693 -0.34904817 -1.638727 -0.75945127
-1.0327336 -1.1094793 -0.36271724 -1.1617048 -0.9696331 -0.5978468 -1.0149109 -1.0533751
-1.1580904 -1.2390869 -1.1094694 -1.243961 -0.5542953 -0.7745251 -0.6877044 -0.34734586
-0.8731829 -1.2774339 -1.0728997 -1.2119458 -0.6405375 -0.839298 -0.60669124 -1.2408725
-0.5908704 -0.9050455 -0.77430093 -0.6903025 -0.58455455 -0.917871 -0.603047 -1.0035173
00000000: e60f 52bf 003a c9be 1528 b9be 8cf3 6dbf
00000010: c78d 39bf 8e12 02c0 06ce b3bd 2a37 babf
00000020: 7afa 7cbf d5c2 69bf c7b0 69bf 8d0b d8be
00000030: 00ef 83be 7e58 61bf 723e 86bf e71f 8dbf
00000040: 4532 93bf b00b b0be 3778 4bbf 0b6f 9abf
00000050: 4f0b 85bf a589 82bf 3a23 9bbf 2150 8abf
00000060: 3c83 82be ac56 7abf 8798 c6be 4c9d 98bf
00000070: b2e9 8bbf 7852 36bf 0712 58bf 1a48 7dbf
00000080: 00c2 88bf b457 8abf eafe a3bf 2428 57bf
00000090: 0ad3 9cbf b622 82be eded 78bf 7094 52bf
000000a0: 80b1 65bf 6839 b2bf bfb7 b6be 6105 96bf
000000b0: 785b c0be 8541 76bf bf54 95bf 3e2b 8cbf
000000c0: 12fc 2bbf 6485 74bf dbe4 dabe 26e2 6cbf
000000d0: 9161 83bf 5f4c 92bf 56cb 5dbf 2422 86bf
000000e0: ef24 65bf 5642 85bf ed30 b0bf eb81 89bf
000000f0: 1a26 9bbf 8089 81bf 0a05 11bf 6fb3 f5be
00000100: f5cc 9fbf f7d9 71bf 994b b4bf 230e 18bf
00000110: 022f 80bf 0ef3 56bf 4f8f 91bf b982 42bf
00000120: 95ed 73bf 57a0 33bf 4b4b 14bf 0715 6abf
00000130: ea36 48bf bf6e 8abf cf2f 82bf 8850 95bf
00000140: c321 98bf 716a 07bf 1b08 52bf f8ee 7fbf
00000150: 0318 d2be 4959 27bf d651 7abf c76b 83bf
00000160: 2658 7cbf 45b8 3cbf b934 72bf bc9b 13bf
00000170: 7ad4 87bf 7c0e 51bf 379a a1bf f930 18bf
00000180: 8e7c 02bf 49a7 3fbf 01bb 83bf 5b73 b7bf
00000190: ab5a 9cbf 4003 38bf f9c1 2fbf 33b8 0dbf
000001a0: fc23 5abf 2d65 83bf defb 66bf 8b7e 3dbf
000001b0: 968b 88bf b1c2 5bbf 30aa e7be a877 82bf
000001c0: 00e6 85bf 2380 77bf 47ff 9abf 3948 85bf
000001d0: 32bb 85bf dff9 cebf cd77 82bf a5a3 83bf
000001e0: 00a6 65bf faa3 08bf a3aa 9dbf fcc7 9fbf
000001f0: ae67 86bf 55f7 2fbf 5dd2 2ebf 1e1f 71bf
00000200: 7931 98bf 76d3 83bf 2c24 d8be 9dac 73bf
00000210: c89b 88bf 468b 43bf d994 8abf fbcc 7cbf
00000220: eb5b 21bf a79a 13bf 67a8 a9bf 1c8b f7be
00000230: 6960 9bbf e5f5 6cbf 7d2f 66bf 000a 2bbf
00000240: e4c6 9fbf a25d 6bbf 6050 9dbf 75a6 66bf
00000250: 7068 a2be 6c8c a7bf 751c 51bf 69e4 53bf
00000260: 75a1 7dbf 7648 63bf d940 a1bf 7a3d 70bf
00000270: 09ee a4bf 5c92 68bf a6c5 9dbf 0123 3fbf
00000280: 6f36 1cbf 7375 14bf 96fe 2abf 9555 5dbf
00000290: 4690 87bf d895 73bf 76d5 95bf 47c0 30bf
000002a0: 9e54 b2bf 4937 71bf 3616 9ebf b000 0fbf
000002b0: 10a0 94bf d42f 5bbf 21e7 0abf c035 8bbf
000002c0: 22bf 7ebf e01d 95bf 13c1 21bf 2208 8fbf
000002d0: 3089 83bf 85bb 09bf a93a 86bf 129e 92bf
000002e0: 5144 61bf 3251 8dbf b979 a6bf 8199 bcbf
000002f0: f3be 86bf 2c7f 44bf a2e8 65bf b159 2abf
00000300: 2d81 ddbe 99a9 3abf 106d a2bf 4911 94bf
00000310: bcc2 51bf 0c60 95be 1c06 59bf d167 80bf
00000320: 2238 aabf 3dde 61bf b71e a6bf d29c 62bf
00000330: cc6f 11bf 1a79 34bf f9f6 80bf 787e 78bf
00000340: 8e6d 69bf 5427 97bf 9fc6 70bf 1374 2cbf
00000350: e70d 82be de46 7cbf 8c63 a5bf 2472 6ebf
00000360: d43e a7bf fa27 88bf 9952 69bf d2b1 19bf
00000370: 4ac7 9fbf 71b6 b2be cec1 d1bf 666b 42bf
00000380: 9d30 84bf 6b03 8ebf 13b6 b9be beb2 94bf
00000390: e039 78bf 7d0c 19bf 9ae8 81bf ffd4 86bf
000003a0: 4e3c 94bf 669a 9ebf 1803 8ebf 1d3a 9fbf
000003b0: 4ce6 0dbf 4747 46bf 650d 30bf 51d7 b1be
000003c0: ea88 5fbf f482 a3bf c754 89bf 0a21 9bbf
000003d0: 44fa 23bf 3cdc 56bf 1e50 1bbf e9d4 9ebf
000003e0: 4843 17bf 10b1 67bf 9638 46bf aab7 30bf
000003f0: 5ea5 15bf 98f9 6abf 4a61 1abf 4173 80bf

bn3.running_mean f4 [300]
-2.1307728 0.3992768 -4.485777 -7.305304 3.1786644 0.7627413 -1.5236456 -2.380296
-0.93433076 -0.14005734 -6.538866 -2.1906939 -9.915988 -5.1318855 -6.9132314 -9.261714
-3.0101557 -4.859792 -3.1095922 3.735082 -2.9715497 -7.9046493 -2.3268404 -5.998027
0.6192783 -0.83430684 -6.7344418 -7.240572 -5.807797 -1.2570584 -3.291557 -4.607459
-2.8568127 -4.4097533 -4.7012944 -3.9107926 -5.10024 -1.4988589 -3.1752343 -2.3475788
-1.093296 -7.5012617 -7.2543387 -5.2011995 -6.412309 -4.5592093 -7.1992583 -7.8228173
-2.0726974 -5.0923476 3.1881557 -7.7971287 -2.530486 -5.4823847 -7.2849936 -2.88817
-5.331235 0.2583722 -5.2434464 -4.7976847 -7.819596 -5.003933 -4.690608 -1.4836303
-4.242034 -7.658275 -2.495205 -3.2539473 -4.989174 -0.35083318 -7.3192573 1.6323957
-1.3120433 0.96971524 -2.5303903 -5.5930204 -4.6802893 -5.9257393 -6.447109 -4.105852
-0.785964 -2.10558 -6.6114573 -3.2267928 -4.504406 -5.6754203 -7.7577024 -6.478762
-1.8971714 -9.054434 -6.832403 -3.3124335 -3.0201216 -5.5665665 -5.416565 -1.5865893
1.6689095 -0.4223529 -11.412178 -7.293994 -5.9364543 -1.4261098 -2.1287568 -7.190465
-8.116175 -4.6488028 -2.6005712 -7.665509 -5.0281816 -4.7220426 -7.400575 -1.6217452
-2.643101 -4.1561465 -4.688039 -2.26867 -4.1211324 0.9319242 -2.1819408 -7.3851385
-7.349581 -4.2134223 -0.09534697 -2.262326 -4.5948853 -1.5301824 -3.101229 -3.0286438
-2.8053873 -3.8883915 -7.300757 -4.543133 -1.8196976 -2.6336942 -2.4624724 -2.0564537
-0.6876147 -3.5096166 -6.727241 -0.52382535 -5.557949 -1.1579694 -5.5353904 -1.8219903
-9.825885 -2.4788866 -6.099781 -1.9657948 -5.0882735 -6.200253 -0.4479341 -6.4344416
-3.1740026 -7.6000786 -4.236616 -5.7261653 2.3677957 -2.7816124 -7.4121585 -3.4642496
-2.0135453 -5.814785 -3.0435221 -5.4788074 -5.2328286 -1.604539 -1.0244939 -4.449961
-2.3425448 -4.5224504 -5.248827 -1.8080411 0.23916653 -5.3040614 -2.179176 -7.695469
-5.8647428 -1.9360693 0.35983753 -4.615845 -5.986871 0.6970088 1.3021377 -5.161752
1.3545836 -4.580643 -3.7796893 -1.550433 -7.9965744 -2.4376285 -6.5558696 2.876025
2.652469 -7.8341894 -6.3435364 -0.6276955 -4.7621264 -3.992189 -6.110414 2.961775
-4.040049 -4.0011625 1.3706487 -3.80237 -3.3718686 -3.145054 -1.3309134 -4.0825787
4.0358953 -10.532367 -6.5744457 -2.3129354 -3.8712676 -2.4378185 -1.3455216 -0.9898496
-9.606668 -1.7067316 -2.2650821 -4.9723144 -8.721602 -2.773752 -3.0996604 -10.956207
-2.9395702 -2.5530894 -1.9726638 -6.564232 -6.197181 0.9229903 -9.025449 0.000108007356
-6.8701844 -9.162611 -7.4263287 -1.1028057 -4.4384627 -5.244434 -7.2982945 -6.5326247
-6.0987034 2.9623125 -4.0416336 -9.930737 -2.8199048 -2.365473 -2.1258478 -3.9964523
-1.7114772 -7.7317977 -6.032876 -5.8522143 -2.4253345 -4.0314837 1.9908986 -5.462834
00000000: 955e 08c0 026e cc3e 7c8b 8fc0 0dc5 e9c0
00000010: 3d6f 4b40 0443 433f d206 c3bf c556 18c0
00000020: 4d30 6fbf 316b 0fbe 643e d1c0 5434 0cc0
00000030: e3a7 1ec1 6838 a4c0 3139 ddc0 fb2f 14c1
00000040: 64a6 40c0 6b83 9bc0 8f03 47c0 950b 6f40
00000050: df2d 3ec0 e3f2 fcc0 f4ea 14c0 d6ef bfc0
00000060: 0689 1e3f 2295 55bf 8c80 d7c0 c4b2 e7c0
00000070: 79d9 b9c0 4ae7 a0bf dfa8 52c0 4e70 93c0
00000080: 05d6 36c0 b31c 8dc0 0171 96c0 6d4a 7ac0
00000090: 2b35 a3c0 9cda bfbf 0a37 4bc0 bb3e 16c0
000000a0: 20f1 8bbf 560a f0c0 8b23 e8c0 3a70 a6c0
000000b0: a331 cdc0 0be5 91c0 5360 e6c0 8554 fac0
000000c0: 13a7 04c0 83f4 a2c0 be0a 4c40 1482 f9c0
000000d0: 7cf3 21c0 b26f afc0 ab1e e9c0 c7d7 38c0
000000e0: 7a99 aac0 5c49 843e 50ca a7c0 a286 99c0
000000f0: 213a fac0 3820 a0c0 7619 96c0 99e7 bdbf
00000100: bebe 87c0 9710 f5c0 70b1 1fc0 ac40 50c0
00000110: 50a7 9fc0 68a0 b3be 5b37 eac0 58f2 d03f
00000120: 09f1 a7bf 423f 783f eaf1 21c0 06fa b2c0
00000130: eec4 95c0 a89f bdc0 b84e cec0 2463 83c0
00000140: f034 49bf d3c1 06c0 0f91 d3c0 c683 4ec0
00000150: 1824 90c0 0b9d b5c0 193f f8c0 0552 cfc0
00000160: 83d6 f2bf f6de 10c1 0ca3 dac0 e9fe 53c0
00000170: ac49 41c0 5021 b2c0 8054 adc0 5c15 cbbf
00000180: d49e d53f a43e d8be 4898 36c1 6668 e9c0
00000190: 6ff7 bdc0 c48a b6bf 8d3d 08c0 4a18 e6c0
000001a0: dadb 01c1 fec2 94c0 c26f 26c0 da4b f5c0
000001b0: dde6 a0c0 f91a 97c0 83d1 ecc0 5995 cfbf
000001c0: 9128 29c0 27ff 84c0 6a04 96c0 e431 11c0
000001d0: 51e0 83c0 9692 6e3f eba4 0bc0 0e53 ecc0
000001e0: c42f ebc0 5bd4 86c0 4645 c3bd f3c9 10c0
000001f0: 4d09 93c0 04dd c3bf 897a 46c0 4dd5 41c0
00000200: 778b 33c0 68db 78c0 cd9f e9c0 5861 91c0
00000210: daeb e8bf 728e 28c0 2699 1dc0 f09c 03c0
00000220: 8407 30bf 8f9d 60c0 8f45 d7c0 6b19 06bf
00000230: b8da b1c0 5738 94bf eb21 b1c0 fa36 e9bf
00000240: d336 1dc1 14a6 1ec0 6831 c3c0 2a9f fbbf
00000250: 23d3 a2c0 7968 c6c0 9e57 e5be f2e6 cdc0
00000260: dc22 4bc0 d833 f3c0 5c92 87c0 bf3c b7c0
00000270: f789 1740 f005 32c0 6730 edc0 44b6 5dc0
00000280: eddd 00c0 b812 bac0 11c9 42c0 6452 afc0
00000290: 5573 a7c0 8961 cdbf 9e22 83bf 1566 8ec0
000002a0: 41ec 15c0 eab7 90c0 64f6 a7c0 e46d e7bf
000002b0: 12e8 743e dfba a9c0 9f77 0bc0 4841 f6c0
000002c0: f9ab bbc0 1ed1 f7bf a03c b83e 01b5 93c0
000002d0: 7294 bfc0 2b6f 323f 73ac a63f 132d a5c0
000002e0: ff62 ad3f a194 92c0 6ee6 71c0 9774 c6bf
000002f0: f0e3 ffc0 1b02 1cc0 afc9 d1c0 cb10 3840
00000300: 0dc2 2940 aeb1 fac0 40fe cac0 a7b0 20bf
00000310: 5763 98c0 0680 7fc0 8388 c3c0 b98d 3d40
00000320: 1548 81c0 8609 80c0 6b71 af3f 085a 73c0
00000330: b2cc 57c0 9148 49c0 5f5b aabf 7ca4 82c0
00000340: 0e26 8140 9384 28c1 dc61 d2c0 2207 14c0
00000350: d9c2 77c0 3805 1cc0 0d3a acbf c966 7dbf
00000360: eab4 19c1 2e76 dabf 1bf7 10c0 331d 9fc0
00000370: af8b 0bc1 2785 31c0 d660 46c0 a04c 2fc1
00000380: eb21 3cc0 d165 23c0 3f80 fcbf 300e d2c0
00000390: 4f4f c6c0 1849 6c3f 3d68 10c1 0282 e238
000003a0: 8dd8 dbc0 0e9a 12c1 7ca4 edc0 bd28 8dbf
000003b0: e307 8ec0 67d2 a7c0 a18b e9c0 430b d1c0
000003c0: 9428 c3c0 8796 3d40 1055 81c0 4ce4 1ec1
000003d0: 5279 34c0 e963 17c0 e40d 08c0 e0c5 7fc0
000003e0: af11 dbbf e36a f7c0 520d c1c0 5745 bbc0
000003f0: ae38 1bc0 ea01 81c0 c4d5 fe3f 89cf aec0

bn3.running_var f4 [300]
14.227401 27.460354 52.739685 30.339003 45.133537 15.88858 82.84915 11.309945
9.992134 21.038958 24.371603 16.050003 52.788933 18.523434 16.360077 21.578978
8.335951 57.040924 24.67408 9.140876 8.420099 18.551147 24.761084 14.905209
29.86027 23.536993 68.39664 27.964754 8.191743 49.131 4.399716 11.994552
4.364849 22.523134 4.824996 19.53421 14.546368 33.010353 13.474974 11.773781
16.24997 13.418985 82.48617 10.469696 70.644295 8.036796 12.3367815 14.031992
35.397648 4.7164297 29.85159 30.101856 15.666096 10.878733 21.996195 17.4359
8.233563 7.717312 14.5910425 9.23859 12.456385 9.152584 52.424656 29.332672
7.319282 28.529322 14.06008 13.4972925 7.3682113 6.810002 27.323261 23.982407
15.8761835 24.98912 22.407057 5.6674986 22.614819 13.876841 16.628183 24.804447
5.2841697 44.118504 19.152033 14.112992 33.063614 32.407257 23.693974 34.220966
9.9317665 21.905338 12.119428 46.349022 4.7485514 20.557758 8.565486 36.65456
38.842957 2.4048333 23.310736 12.80337 6.96855 3.8491633 39.227444 35.30786
16.316822 6.3791566 14.052596 18.146515 11.192022 19.628834 72.689735 15.76618
10.4908695 9.023859 13.306494 5.275213 4.4419985 7.7319546 8.311995 31.198324
24.721659 17.919746 5.9443073 3.6288831 8.01033 27.916542 27.845137 22.089651
7.112431 8.449844 78.86681 6.3012104 13.035062 17.94676 15.038335 20.130564
32.087666 52.35928 18.92471 27.113798 15.484485 6.5200906 18.964619 33.156796
23.250122 18.875315 21.441544 24.322618 70.23948 9.275651 48.808964 18.819569
12.7173605 14.649718 3.5659518 9.838151 15.39777 19.160404 15.850477 23.184883
12.858969 58.313576 8.014028 26.620737 20.329727 20.969372 14.97249 15.505632
13.77845 22.421402 18.637201 14.226444 7.2011356 13.663795 45.04723 14.919443
11.743225 5.2269993 31.914684 23.102228 30.562296 14.521045 16.41154 10.6179695
33.399742 12.32251 4.1140795 6.569098 15.316211 19.429724 37.980503 35.75008
47.079853 24.20718 21.331297 6.704073 13.785141 60.13057 22.975931 23.479334
6.0386777 4.4423018 9.296199 25.073957 23.585867 9.989128 14.149875 7.078636
14.581064 16.394327 23.478828 20.166208 76.70625 17.009293 12.55658 11.939097
19.983105 9.367116 21.616236 45.50873 14.749704 48.233 16.108322 28.227648
5.803086 6.6862016 59.035942 14.808434 14.596951 46.35882 22.12299 19.346128
17.157516 17.786243 12.928015 6.0947585 44.30117 8.544629 30.056938 79.62234
7.512557 15.989898 6.886825 22.163065 34.634975 5.898967 20.190716 13.753881
33.621994 23.19343 29.177803 40.99553 17.657892 11.938737 38.90053 10.02919
00000000: 6fa3 6341 ceae db41 70f5 5242 47b6 f241
00000010: be88 3442 a037 7e41 c4b2 a542 89f5 3441
00000020: c8df 1f41 c94f a841 0bf9 c241 6866 8041
00000030: de27 5342 fe2f 9441 70e1 8241 bfa1 ac41
00000040: 0e60 0541 e829 6442 8464 c541 0741 1241
00000050: bab8 0641 c068 9441 b316 c641 bc7b 6e41
00000060: d5e1 ee41 c34b bc41 14cb 8842 d1b7 df41
00000070: 6111 0341 2586 4442 79ca 8c40 afe9 3f41
00000080: d8ac 8b40 612f b441 5e66 9a40 1046 9c41
00000090: ecbd 6841 9a0a 0442 7e99 5741 6861 3c41
000000a0: f0ff 8141 2ab4 5641 ebf8 a442 e083 2741
000000b0: e149 8d42 b796 0041 7563 4541 0a83 6041
000000c0: 3197 0d42 feec 9640 0ed0 ee41 9ad0 f041
000000d0: 54a8 7a41 4a0f 2e41 35f8 af41 b97c 8b41
000000e0: adbc 0341 38f4 f640 e974 6941 44d1 1341
000000f0: 5a4d 4741 fc70 1241 d9b2 5142 50a9 ea41
00000100: 8f37 ea40 0d3c e441 16f6 6041 e9f4 5741
00000110: 63c8 eb40 89eb d940 0a96 da41 f8db bf41
00000120: d904 7e41 b8e9 c741 a741 b341 265c b540
00000130: 26eb b441 8a07 5e41 8506 8541 826f c641
00000140: eb17 a940 5979 3042 5d37 9941 d1ce 6141
00000150: 2441 0442 08a1 0142 428d bd41 45e2 0842
00000160: 84e8 1e41 223e af41 2de9 4141 6665 3942
00000170: 22f4 9740 4a76 a441 3b0c 0941 459e 1242
00000180: 305f 1b42 cae8 1940 637c ba41 9bda 4c41
00000190: 5dfe de40 b158 7640 e7e8 1c42 403b 0d42
000001a0: da88 8241 0d22 cc40 6fd7 6041 102c 9141
000001b0: 8612 3341 da07 9d41 2561 9142 4642 7c41
000001c0: 9ada 2741 ba61 1041 66e7 5441 8bce a840
000001d0: da24 8e40 2c6c f740 eefd 0441 2b96 f941
000001e0: f5c5 c541 a45b 8f41 c437 be40 9f3f 6840
000001f0: 502a 0041 1455 df41 d7c2 de41 9bb7 b041
00000200: 0999 e340 9032 0741 cfbb 9d42 84a3 c940
00000210: 9d8f 5041 f792 8f41 059d 7041 650b a141
00000220: c559 0042 e76f 5142 ce65 9741 0fe9 d841
00000230: 73c0 7741 95a4 d040 8ab7 9741 8fa0 0442
00000240: 4000 ba41 a500 9741 4888 ab41 b994 c241
00000250: 9d7a 8c42 1169 1441 613c 4342 7a8e 9641
00000260: 4f7a 4b41 3f65 6a41 8e38 6440 1169 1d41
00000270: 445d 7641 8248 9941 8e9b 7d41 a47a b941
00000280: 56be 4d41 1a41 6942 7539 0041 45f7 d441
00000290: 48a3 a241 46c1 a741 528f 6f41 1217 7841
000002a0: 8874 5c41 085f b341 fd18 9541 849f 6341
000002b0: b46f e640 e89e 5a41 5d30 3442 0ab6 6e41
000002c0: 40e4 3b41 9443 a740 4651 ff41 5dd1 b841
000002d0: 957f f441 3356 6841 d54a 8341 34e3 2941
000002e0: 5699 0542 0029 4541 8aa6 8340 0d36 d240
000002f0: 330f 7541 1370 9b41 09ec 1742 1500 0f42
00000300: c551 3c42 4ea8 c141 7fa6 aa41 c487 d640
00000310: f08f 5c41 b485 7042 b5ce b741 add5 bb41
00000320: d93c c140 5627 8e40 3bbd 1441 7797 c841
00000330: dbaf bc41 78d3 1f41 e365 6241 3084 e240
00000340: 0a4c 6941 9527 8341 a4d4 bb41 6554 a141
00000350: 9a69 9942 0813 8841 c0e7 4841 8b06 3f41
00000360: 66dd 9f41 b5df 1541 0dee ac41 f108 3642
00000370: cafe 6b41 98ee 4042 d8dd 8041 39d2 e141
00000380: e1b2 b940 5df5 d540 ce24 6c42 58ef 6c41
00000390: 1c8d 6941 6f6f 3942 e2fb b041 dfc4 9a41
000003a0: 9842 8941 3a4a 8e41 26d9 4e41 4308 c340
000003b0: 6634 3142 cdb6 0841 9c74 f041 a33e 9f42
000003c0: de66 f040 9fd6 7f41 df60 dc40 f54d b141
000003d0: 378a 0a42 56c4 bc40 9686 a141 e60f 5c41
000003e0: ec7c 0642 258c b941 246c e941 6cfb 2342
000003f0: 5d43 8d41 1105 3f41 259a 1b42 9077 2041
