tasks/reacher_continuous_control/solutions/ddpg/solution_checkpoint/ddpg_baseline_actor_checkpoint.pth (torch_old, 169554 bytes, 6 tensors)

fc1.weight f4 [256, 33]
-0.025710493 -0.3060855 0.15131222 -0.15225892 -0.14516783 0.020217696 -0.026158856 0.119967625
0.092061095 0.33246294 0.07604614 0.004118142 0.13673691 0.045512125 0.22996782 -0.15206139
0.04391859 0.056990534 0.08247029 -0.009532028 -0.034955766 -0.022341099 -0.005276829 0.24957867
0.15503766 0.12724258 -0.11136071 0.10294577 -0.1444009 0.031534612 -0.06979351 0.028442599
-0.45613667 -0.24211723 -0.108249396 0.21625718 -0.07376746 -0.18534972 0.041670132 0.068898305
-0.13471636 -0.17355551 -0.036264498 -0.12300264 0.1076855 -0.07336 0.36019993 0.2550009
-0.45940098 0.0868139 -0.066443905 -0.013446659 -0.009642466 -0.09418508 0.05458902 -0.10996903
0.10869385 0.06814649 -0.120813295 -0.3179677 0.1851137 0.14373296 -0.058925427 -0.17346899
0.051832296 0.4900653 0.18748535 0.0792989 0.07522504 -0.30487844 0.1540915 0.07654189
0.061609972 0.045274273 0.78772473 0.3758947 -0.32771078 0.13784485 0.05246269 -0.044773996
0.09357716 0.16794266 -0.036368236 0.16234344 0.05579908 0.051047366 0.102747604 -0.32228902
0.207069 -0.063795105 0.13308874 -0.062928766 -0.11534609 0.16459022 0.08741902 0.03277698
-0.22687311 -0.035798535 -0.08157372 -0.16930765 -0.09542859 -0.15823455 0.026084658 0.20469871
-0.113764726 -0.1428325 -0.06832195 0.61848265 -0.27139816 0.047890235 -0.1213415 0.002853391
0.020095557 -0.22941975 0.16716613 -0.034614097 0.043529402 -0.01758193 0.060258545 0.008971089
0.044929996 0.044987436 -0.14009476 -0.041979644 0.0076416945 0.061899483 0.14200069 0.11803289
-0.05549769 -0.11241421 -0.044141024 0.87422496 0.35439363 0.23471518 -0.25653163 -0.07101847
0.00080607366 -0.05658565 -0.25173098 -0.12345508 0.11387068 -0.26138532 0.20530623 0.05725861
-0.08461715 -0.3251433 -0.11008957 -0.14105804 -0.02374217 -0.02194398 0.0040082484 0.03324682
-0.009230253 -0.13133746 0.09589725 0.00654761 -0.091557115 -0.17879863 0.32699323 0.20156367
0.017222874 0.01118844 -0.18992198 0.05973068 -1.0949006 -0.45110536 0.49396214 0.17089413
-0.19985709 0.2125832 0.08447469 0.0058104848 0.20133519 0.0019583206 0.059596542 -0.21414305
0.077422775 -0.12916031 0.122735634 0.025377115 0.3064092 -0.01274303 0.08000603 -0.14588726
0.0405713 0.0923802 -0.111013114 -0.0019669842 0.09756876 0.121003196 0.17469037 -0.21678016
0.142458 -0.23081815 0.023382619 -0.1516273 0.015905716 -1.6681082 -0.12737712 -0.083011016
-0.19239594 -0.029332837 -0.073300675 0.0017734582 0.03787448 0.07038211 0.07562693 0.06849341
-0.013337869 -0.10869955 -0.07176247 0.11609253 -0.070383385 0.081286915 0.005861245 -0.047071148
-0.04654325 0.11925896 0.20531379 -0.07462233 -0.0419233 0.11241772 0.09681034 0.012696263
0.025854671 0.03362701 -0.32616365 0.0397287 -0.09034728 0.012115531 1.1595087 0.29062372
-0.1349362 0.14950033 -0.011640011 0.04865693 -0.03134908 -0.123582125 0.103880145 -0.049508676
-0.037787426 0.03368894 -0.1885604 -0.040684976 -0.44816342 -0.003432553 0.06363865 0.10702911
0.008499665 -0.11157644 -0.00066524936 -0.016851608 -0.049361583 -0.07398012 -0.25307572 0.17810972
00000000: d09e d2bc 3db7 9cbe 97f1 1a3e c3e9 1bbe
00000010: e0a6 14be 959f a53c 194b d6bc 96b1 f53d
00000020: 878a bc3d 9538 aa3e 14be 9b3d 7bf1 863b
00000030: c304 0c3e ec6a 3a3d af7c 6b3e fbb5 1bbe
00000040: fbe3 333d e86e 693d 2fe6 a83d 392c 1cbc
00000050: c72d 0fbd ae04 b7bc 40e9 acbb 8d91 7f3e
00000060: 31c2 1e3e e14b 023e 1511 e4bd 3bd5 d23d
00000070: d4dd 13be 702a 013d e6ef 8ebd 7400 e93c
00000080: bf8a e9be 94ed 77be dcb1 ddbd 8672 5d3e
00000090: 6513 97bd 51cc 3dbe 4dae 2a3d 8e1a 8d3d
000000a0: 16f3 09be 89b8 31be 158a 14bd cfe8 fbbd
000000b0: 378a dc3d c53d 96bd 206c b83e 7a8f 823e
000000c0: 9b36 ebbe 7ccb b13d be13 88bd 604f 5cbc
000000d0: 6ffb 1dbc 1be4 c0bd bc98 5f3d 7137 e1bd
000000e0: e29a de3d 6390 8b3d f66c f7bd aacc a2be
000000f0: 728e 3d3e bc2e 133e ca5b 71bd dba1 31be
00000100: 1a4e 543d d7e9 fa3e 29fc 3f3e 7667 a23d
00000110: 960f 9a3d 0719 9cbe 2aca 1d3e ffc1 9c3d
00000120: bd5a 7c3d 8471 393d 54a8 493f 4575 c03e
00000130: b5c9 a7be 3327 0d3e 1ee3 563d f064 37bd
00000140: 62a5 bf3d 29f9 2b3e dcf6 14bd 5c3d 263e
00000150: 938d 643d 0b17 513d 566d d23d 1103 a5be
00000160: e509 543e 02a7 82bd 6a48 083e cce0 80bd
00000170: 923a ecbd 578a 283e be08 b33d 2841 063d
00000180: 6d51 68be 7ca1 12bd 1f10 a7bd fc5e 2dbe
00000190: 1170 c3bd 3d08 22be 7eaf d53c 8a9c 513e
000001a0: 7bfd e8bd af42 12be 61ec 8bbd e154 1e3f
000001b0: b3f4 8abe 8d28 443d e481 f8bd f5ff 3a3b
000001c0: 709f a43c 03ed 6abe 992d 2b3e 83c7 0dbd
000001d0: e34b 323d fb07 90bc aad1 763d 79fb 123c
000001e0: 8408 383d bf44 383d 0075 0fbe d9f2 2bbd
000001f0: 2e67 fa3b 508a 7d3d a168 113e 3abb f13d
00000200: 8c51 63bd 6c39 e6bd 38cd 34bd 35cd 5f3f
00000210: 1573 b53e 2d59 703e 1d58 83be 2272 91bd
00000220: b04e 533a 5bc6 67bd e2e2 80be 04d6 fcbd
00000230: 0835 e93d 4cd4 85be cc3b 523e 0188 6a3d
00000240: c24b adbd 2f79 a6be a476 e1bd 8571 10be
00000250: f07e c2bc ddc3 b3bc a057 833b d12d 083d
00000260: 7d3a 17bc 547d 06be c765 c43d 558d d63b
00000270: 4c82 bbbd fd16 37be a86b a73e b566 4e3e
00000280: fc16 8d3c b84f 373c e87a 42be 28a8 743d
00000290: b425 8cbf 48f7 e6be 9be8 fc3e dffe 2e3e
000002a0: 56a7 4cbe 69af 593e 1101 ad3d e165 be3b
000002b0: d02a 4e3e 2b57 003b 811b 743d 5148 5bbe
000002c0: d58f 9e3d 9a42 04be d25c fb3d abe3 cf3c
000002d0: abe1 9c3e 24c8 50bc 34da a33d 7863 15be
000002e0: 172e 263d d531 bd3d d85a e3bd 85e8 00bb
000002f0: 21d2 c73d 86d0 f73d 08e2 323e 9efb 5dbe
00000300: 83e0 113e 985b 6cbe e88c bf3c 3044 1bbe
00000310: b44c 823c 9284 d5bf 266f 02be ae01 aabd
00000320: 7103 45be 6b4b f0bc aa1e 96bd 6273 e83a
00000330: 4522 1b3d 7f24 903d 4be2 9a3d 4646 8c3d
00000340: 1487 5abc df9d debd 34f8 92bd ecc1 ed3d
00000350: 2a25 90bd c179 a63d b00f c03b adcd 40bd
00000360: 23a4 3ebd 0b3e f43d c73d 523e 98d3 98bd
00000370: c4b7 2bbd 433b e63d 8044 c63d fd03 503c
00000380: 2dcd d33c 7abc 093d ecfe a6be 90ba 223d
00000390: ff07 b9bd 3880 463c c86a 943f a2cc 943e
000003a0: b72c 0abe 9d16 193e bfb5 3ebc 7d4c 473d
000003b0: e567 00bd a018 fdbd 1dbf d43d 9cc9 4abd
000003c0: fdc6 1abd 6afd 093d fa15 41be 4aa5 26bd
000003d0: ad75 e5be aff4 60bb fb54 823d 1432 db3d
000003e0: 2e42 0b3c 3082 e4bd 2164 2eba 620c 8abc
000003f0: 5f2f 4abd e482 97bd 2493 81be 6562 363e

fc1.bias f4 [256]
0.016332716 0.0011539616 -0.21819392 -0.0036899196 -0.24435063 -0.31298757 -0.1966612 0.03886517
-0.10062235 0.16887258 -0.1295784 -0.46230385 -0.2906953 -0.03251438 -0.3406534 0.1254753
-0.39449376 -0.63448644 -0.0037925052 -0.059599686 -0.1005779 -0.10584128 0.008198374 -0.04996031
-0.37056217 -0.16885765 0.21219473 0.12842701 -0.2420752 0.15983926 -0.4490775 -0.1391908
-0.071001746 -0.24914074 -0.18624002 -0.18239157 0.02027079 -0.0003070108 -0.5432292 -0.18134715
-0.46129286 -0.19575441 0.052088164 -0.2950601 -0.13992953 -0.28150257 0.16547424 -0.117679246
0.0086930115 -0.36435223 -0.12087578 -0.030704875 -0.47697762 -0.116155036 -0.527782 0.21759827
-0.686861 -0.51914334 -0.02218629 0.19591808 -0.18674445 -0.048057888 -0.087991424 -0.4413421
0.0010229398 -0.37706625 -0.10681183 -0.054402802 -0.2781403 -0.3180261 0.06685687 -0.09393434
-0.07742532 -0.057504825 0.37159574 -0.11791256 -0.265951 -0.22418807 -0.20022161 -0.048488062
-0.36301333 -0.12061848 -0.081866734 0.04729691 -0.051127516 0.074766405 0.12498574 0.115871355
-0.086412504 -0.25449425 0.07746962 -0.20587392 -0.29227573 -0.5056198 -0.22748478 0.015806288
-0.05235562 0.15090825 -0.085524976 -0.30889598 -0.6149585 0.0056067198 0.05867216 -0.560169
-0.14200033 -0.23141754 -0.14960037 0.036544085 -0.19914685 -0.19537386 0.03326956 -0.021990564
-0.35237157 0.34770626 -0.071766794 -0.25257492 -0.17058322 -0.33323902 0.007277444 0.006013082
-0.17130081 -0.18384072 -0.28528607 -0.1731182 -0.317255 -0.08651273 -0.22277522 -0.09713418
-0.33488056 -0.0388851 -0.008881998 -0.36274 -0.23586528 0.19654393 0.14046967 -0.10641515
-0.47597545 -0.005564474 -0.4639223 0.20464288 0.2673302 0.036708605 -0.26979923 -0.17242645
0.02698137 -0.07251629 -0.065083496 -0.083422676 -0.26378268 -0.10473125 -0.32028764 -0.13990179
-0.27620828 0.09509472 0.098086156 -0.25836563 0.034769423 -0.044643983 0.05037471 -0.2245676
0.1004929 -0.3879915 -0.2709238 -0.6079112 -0.5042602 0.014559101 -0.07871964 -0.12446638
0.0970739 -0.37156013 -0.39449334 -0.12836428 0.31206897 0.071361475 0.2261385 0.04547437
-0.35085016 -0.0027506542 0.15712899 -0.041472346 -0.32400241 0.011106131 -0.6097338 0.11372225
-0.24750237 -0.20474465 -0.11381108 -0.32911557 -0.27423987 0.11447729 -0.11534347 -0.1315084
-0.41913047 0.026204152 -0.05917808 -0.31344795 -0.22490944 -0.35070533 -0.2295836 -0.10126001
-0.07220219 0.13469839 0.045316085 -0.23031203 -0.1044748 -0.3948957 -0.627904 -0.029427702
-0.35461298 0.03463376 0.26188898 0.12554562 -0.03997043 0.02485024 -0.24802306 0.100921154
-0.13003662 0.06841615 0.10843537 0.018868847 -0.026887929 -0.6969727 -0.0027287146 -0.39913324
0.30248657 -0.37013632 -0.1862093 -0.2296058 -0.22577722 -0.2257125 0.12394901 -0.008495853
-0.35315934 -0.26994053 -0.0075699054 -0.46382806 -0.42847115 -0.36127293 -0.005409349 -0.14670792
-0.10032168 -0.3347733 -0.041384585 -0.19361229 0.06202628 0.25637797 -0.3298534 -0.3625954
-0.28379497 -0.5457588 -0.2175736 0.18365858 -0.12738533 -0.14004286 0.18505104 -0.25012532
00000000: 30cc 853c 8740 973a 3a6e 5fbe 94d2 71bb
00000010: 0d37 7abe e83f a0be 8e61 49be 1631 1f3d
00000020: 1713 cebd efec 2c3e 33b0 04be 17b3 ecbe
00000030: 04d6 94be cc2d 05bd 1f6a aebe 997c 003e
00000040: 16fb c9be b46d 22bf ae8b 78bb cd1e 74bd
00000050: c9fb cdbd 50c3 d8bd 7952 063c 2fa3 4cbd
00000060: 53ba bdbe 05e9 2cbe 9349 593e 5f82 033e
00000070: 90e2 77be e7ac 233e 7ced e5be 0888 0ebe
00000080: 5d69 91bd c01e 7fbe b4b5 3ebe dbc4 3abe
00000090: ee0e a63c 4bf6 a0b9 1211 0bbf 11b3 39be
000000a0: 942e ecbe d873 48be 665a 553d 1e12 97be
000000b0: b049 0fbe 1b21 90be 1472 293e d101 f1bd
000000c0: 226d 0e3c 608c babe b98d f7bd ca88 fbbc
000000d0: 6936 f4be b1e2 edbd b91c 07bf 15d2 5e3e
000000e0: 1fd6 2fbf 94e6 04bf 06c0 b5bc c09e 483e
000000f0: f039 3fbe 59d8 44bd d934 b4bd 97f7 e1be
00000100: 2a14 863a d40e c1be 29c0 dabd 79d5 5ebd
00000110: 6868 8ebe 51d4 a2be 41ec 883d a660 c0bd
00000120: 2b91 9ebd 2e8a 6bbd cc41 be3e 247c f1bd
00000130: bb2a 88be 8f91 65be e506 4dbe 6b9b 46bd
00000140: e2dc b9be d206 f7bd bfa9 a7bd 68ba 413d
00000150: 166b 51bd 211f 993d 86f8 ff3d f64d ed3d
00000160: 0af9 b0bd 124d 82be 64a8 9e3d 9dd0 52be
00000170: 2aa5 95be 4d70 01bf c5f1 68be 307c 813c
00000180: d972 56bd b187 1a3e b827 afbd 9d27 9ebe
00000190: ec6d 1dbf 93b8 b73b 3852 703d 3c67 0fbf
000001a0: 8968 11be b8f8 6cbe d730 19be 40af 153d
000001b0: 27ed 4bbe 1610 48be aa45 083d 8e25 b4bc
000001c0: 0c6a b4be 8e06 b23e 78fa 92bd 8051 81be
000001d0: 5ead 2ebe 4e9e aabe a077 ee3b 6309 c53b
000001e0: 7b69 2fbe be40 3cbe 0411 92be e645 31be
000001f0: 3f6f a2be 962d b1bd 301f 64be 49ee c6bd
00000200: 7775 abbe fc45 1fbd cd85 11bc 0fb9 b9be
00000210: ab86 71be d042 493e 48d7 0f3e 30f0 d9bd
00000220: 0eb3 f3be 3156 b6bb 3987 edbe e78d 513e
00000230: 81df 883e c35b 163d 2023 8abe 8f90 30be
00000240: 0908 dd3c 6c83 94bd 7f4a 85bd 82d9 aabd
00000250: 860e 87be 567d d6bd befc a3be 6a42 0fbe
00000260: 2c6b 8dbe 05c1 c23d 65e1 c83d 8048 84be
00000270: 626a 0e3d 9cdc 36bd b655 4e3d 0df5 65be
00000280: 39cf cd3d d2a6 c6be 86b6 8abe 12a0 1bbf
00000290: 3217 01bf 4c89 6e3c c337 a1bd 3be8 febd
000002a0: aece c63d 213d bebe 08fb c9be ed71 03be
000002b0: 81c7 9f3e f725 923d da90 673e 5543 3a3d
000002c0: a2a2 b3be 5244 34bb 6ce6 203e e8de 29bd
000002d0: a5e3 a5be 7df6 353c 8417 1cbf 36e7 e83d
000002e0: 4371 7dbe 95a8 51be c915 e9bd d681 a8be
000002f0: 2b69 8cbe 1273 ea3d 3239 ecbd 23aa 06be
00000300: 4598 d6be 17aa d63c b764 72bd 407c a0be
00000310: a94e 66be a68f b3be f717 6bbe 6861 cfbd
00000320: bede 93bd 60ee 093e 5c9d 393d ebd6 6bbe
00000330: e2f6 d5bd c52f cabe 51be 20bf 5d12 f1bc
00000340: d58f b5be 21dc 0d3d 5016 863e 088f 003e
00000350: 09b8 23bd bb92 cb3c c2f9 7dbe c0af ce3d
00000360: 5228 05be c41d 8c3d 5d13 de3d d792 9a3c
00000370: 1344 dcbc ce6c 32bf 3cd4 32bb 315b ccbe
00000380: 85df 9a3e 8282 bdbe a7ad 3ebe c81d 6bbe
00000390: 2532 67be 2d21 67be fbd8 fd3d 3132 0bbc
000003a0: 4dd1 b4be a535 8abe f80c f8bb df7a edbe
000003b0: 9260 dbbe c4f8 b8be e940 b1bb 9a3a 16be
000003c0: 7475 cdbd 6867 abbe e282 29bd 4d42 46be
000003d0: 450f 7e3d f943 833e 8be2 a8be 1ba6 b9be
000003e0: 934d 91be d9b6 0bbf 9dcb 5ebe ff10 3c3e
000003f0: 4d71 02be 6567 0fbe 057e 3d3e 6d10 80be

fc2.weight f4 [128, 256]
-0.20166212 0.23588565 -0.01832378 0.11148213 0.038804397 -0.6067254 0.11778303 0.29221523
0.27024177 -0.20737298 -0.3153496 0.07886527 0.21310635 0.23286325 -0.026616383 -0.030125966
-0.019853894 -0.007288977 -0.0077270004 0.12165326 -0.24553479 0.18695556 0.10896812 -0.79558605
0.054773323 -0.34671354 -0.19557881 0.11690778 0.6095198 -0.006376007 -0.02612915 0.14524807
0.1113054 -0.15699968 0.24368382 0.09618134 0.15146975 -0.034706827 -0.1605591 0.22284424
-0.11058703 0.23591767 -0.06336835 -0.22572444 0.21483907 0.4174815 -0.29803452 -0.22530259
0.11549085 0.12947099 0.19114062 0.3463514 -0.3345917 0.017876819 -0.1600753 0.12526779
-0.27837378 0.39727485 0.041164044 -0.075585976 0.27232257 -0.050840583 -0.0054559344 -0.39580977
-0.2837725 0.28270265 0.11853025 0.20784089 0.16770299 -0.07122041 0.21583003 0.010712946
-0.08692891 0.109658375 0.27968597 0.087291956 0.008269696 -0.16652048 -0.68461555 -0.21811254
-0.5354772 -0.05804529 -0.0046450794 -0.14135815 -0.011615905 0.033417534 -0.0275408 -0.2734202
0.009208748 0.110944495 0.13572241 -0.38683912 0.27034 -0.16201442 0.13714175 -0.07491156
0.057067752 -0.2854071 -0.15519275 0.034501903 0.10998077 0.2049247 0.074063286 0.29314834
-0.183313 0.2790225 -0.03776838 -0.0011565434 0.0007278645 0.13869566 -0.08218705 -0.06778296
-0.4190581 -0.114459485 0.0005595541 -0.08835586 -0.44015977 0.083949655 0.05126381 0.09621589
0.54417217 -0.113315046 0.29789248 -0.03962575 -0.053239513 -0.041614294 0.04052188 0.33672905
0.31687728 -0.18071349 0.16656546 -0.3068251 -0.15291452 0.009323885 0.3061907 0.16385724
0.069220066 -0.24958831 0.061460834 0.04762038 -0.07257664 0.3338571 -0.12921916 -0.016891064
0.44705343 0.25710428 -0.020447673 -0.3453963 -0.643276 -0.10385827 -0.06323009 -0.6184311
0.45445493 0.0952251 -0.40877977 0.14803939 -0.009787875 0.2374865 0.100921094 -0.9314045
0.101008795 -0.07921043 0.24294049 -0.19517861 -0.66025436 0.08675445 0.034541544 -0.13400066
-0.12371813 0.1881114 0.30100575 0.11424053 -0.14827208 0.08500445 -0.16106337 -0.6347955
-0.100133434 0.26598915 -0.07979625 -0.111873746 0.10951199 0.17062946 0.5101315 0.08920016
-0.24275701 0.085152134 0.25668225 -0.020224504 0.3179421 0.009942352 0.2492021 0.020761052
0.025480855 -0.11948603 0.18511733 0.063225225 -0.31806862 -0.38527283 -0.097360596 0.15913802
0.2501932 -0.16292256 0.0010900202 -0.11590942 0.032027658 -0.11011578 0.09096748 0.1040889
-0.3383135 0.08581667 0.18141975 0.24502148 -0.02924275 -0.07487803 -0.038062092 -0.09955018
-0.058116283 -0.14427696 -0.039408404 0.11237526 0.09796254 0.13060352 -0.37171778 0.33586073
0.18306352 0.020035343 -0.3419471 0.07564082 0.15855262 -0.032544937 0.18452771 0.26451334
-0.5730293 -0.037776496 0.03205633 -0.026900811 0.100574665 -0.04678327 0.1124739 0.30477828
-0.16026711 -0.78205574 -0.2271332 0.2716582 -0.6190732 -0.036906485 0.19906534 -0.10618753
-0.11328486 0.079739735 -0.2604003 -0.072493434 -0.24621473 0.030638801 -0.04793016 0.18998508
00000000: 8480 4ebe 028c 713e c01b 96bc be50 e43d
00000010: 5cf1 1e3d 5b52 1bbf 3b38 f13d 3c9d 953e
00000020: 215d 8a3e 9559 54be 8175 a1be 1d84 a13d
00000030: 8d38 5a3e b473 6e3e 9a0a dabc bbca f6bc
00000040: a2a4 a2bc 5fd8 eebb c732 fdbb 5825 f93d
00000050: 796d 7bbe 4771 3f3e ad2a df3d 87ab 4bbf
00000060: fe59 603d 7084 b1be d045 48be 596d ef3d
00000070: 7d09 1c3f d3ed d0bb cd0c d6bc e9bb 143e
00000080: 16f4 e33d 86c4 20be 4088 793e b9fa c43d
00000090: e31a 1b3e bf28 0ebd 9b69 24be 4831 643e
000000a0: 747b e2bd 6794 713e 44c7 81bd 4f24 67be
000000b0: c6fe 5b3e 23c0 d53e fb97 98be b9b5 66be
000000c0: 7786 ec3d 0b94 043e 5eba 433e f854 b13e
000000d0: 9a4f abbe 6872 923c c8ea 23be 3346 003e
000000e0: 0287 8ebe 9c67 cb3e a19b 283d d2cc 9abd
000000f0: dd6d 8b3e 373e 50bd b2c7 b2bb 94a7 cabe
00000100: a14a 91be 67be 903e fdbf f23d 3ed4 543e
00000110: 55ba 2b3e 02dc 91bd 8c02 5d3e 5a85 2f3c
00000120: c907 b2bd 9294 e03d 0033 8f3e 20c6 b23d
00000130: 9e7d 073c 5884 2abe f742 2fbf e558 5fbe
00000140: 0915 09bf e6c0 6dbd c035 98bb 31c0 10be
00000150: a350 3ebc d3e0 083d 3e9d e1bc bcfd 8bbe
00000160: 4ae0 163c de36 e33d d1fa 0a3e c70f c6be
00000170: 016a 8a3e 1ce7 25be e36e 0c3e 3b6b 99bd
00000180: e0bf 693d e120 92be d9ea 1ebe de51 0d3d
00000190: 993d e13d c8d7 513e 7eae 973d 8a17 963e
000001a0: 67b6 3bbe 0adc 8e3e 04b3 1abd 2897 97ba
000001b0: 29ce 3e3a 3c06 0e3e af51 a8bd cbd1 8abd
000001c0: c98e d6be bc69 eabd 0aaf 123a ebf3 b4bd
000001d0: 9f5c e1be cced ab3d 00fa 513d d60c c53d
000001e0: de4e 0b3f b811 e8bd 5d85 983e 9c4e 22bd
000001f0: ad11 5abd c073 2abd 45fa 253d c067 ac3e
00000200: bd3d a23e f50c 39be 2390 2a3e 2e18 9dbe
00000210: a095 1cbe 35c3 183c 07c5 9c3e 31ca 273e
00000220: 40c3 8d3d 1494 7fbe 5bbe 7b3d 960d 433d
00000230: 10a3 94bd 51ef aa3e 0752 04be 215f 8abc
00000240: 30e4 e43e 2ca3 833e e181 a7bc c9d7 b0be
00000250: bcad 24bf a5b3 d4bd c77e 81bd 8051 1ebf
00000260: 51ae e83e 6105 c33d 954b d1be a397 173e
00000270: 535d 20bc a92f 733e b8af ce3d 8670 6ebf
00000280: b3dd ce3d 1439 a2bd 64c5 783e e7dc 47be
00000290: 6e06 29bf 51ac b13d 6f7b 0d3d 7837 09be
000002a0: ee5f fdbd 46a0 403e 6d1d 9a3e f0f6 e93d
000002b0: a3d4 17be d016 ae3d cced 24be f581 22bf
000002c0: c212 cdbd bb2f 883e 376c a3bd 101e e5bd
000002d0: d247 e03d 7db9 2e3e fa97 023f 93ae b63d
000002e0: 4b95 78be 3e64 ae3d db6b 833e dcad a5bc
000002f0: 4fc9 a23e 3fe5 223c d62e 7f3e 1513 aa3c
00000300: 3abd d03c 17b5 f4bd 668f 3d3e 3a7c 813d
00000310: e4d9 a2be 7b42 c5be fe64 c7bd 14f5 223e
00000320: 5319 803e 2cd5 26be 02df 8e3a eb61 edbd
00000330: 6f2f 033d 6284 e1bd 284d ba3d 902c d53d
00000340: 6d37 adbe a6c0 af3d 19c6 393e e9e6 7a3e
00000350: 7e8e efbc a759 99bd ffe6 1bbd f7e0 cbbd
00000360: 570b 6ebd 57bd 13be b56a 21bd 0025 e63d
00000370: 96a0 c83d eebc 053e cb51 bebe f0f5 ab3e
00000380: 0175 3b3e 2921 a43c b113 afbe 93e9 9a3d
00000390: 9e5b 223e d74d 05bd d5f4 3c3e 4b6e 873e
000003a0: 0cb2 12bf 87bb 1abd 804d 033d 175f dcbc
000003b0: 17fa cd3d d09f 3fbd b758 e63d e60b 9c3e
000003c0: 101d 24be ce34 48bf 9b95 68be c916 8b3e
000003d0: 957b 1ebf 412b 17bd c9d7 4b3e d978 d9bd
000003e0: e501 e8bd 964e a33d 3053 85be 7077 94bd
000003f0: b71f 7cbe 39fe fa3c 6a52 44bd 738b 423e

fc2.bias f4 [128]
0.12588146 -0.11800355 -0.07057981 -0.1039065 0.04487765 -0.43169135 -0.25030556 -0.057505358
0.03235382 -0.058676183 0.20261957 -0.17195989 -0.11755982 -0.15270184 -0.039640483 -0.327648
-0.0072819334 0.062266637 0.20561661 -0.18611327 0.04982358 -0.16030927 -0.16134161 0.26262698
-0.0663476 -0.10859636 -0.15350789 0.013084631 0.07329217 0.13397941 0.02519478 -0.16578493
-0.1033082 -0.040568314 -0.049979832 -0.069003694 0.015468654 -0.22539274 0.17381017 -0.028060121
0.12611373 0.057343725 -0.18792337 -0.027192604 -0.18613486 0.0006002453 -0.20160839 -0.114976496
0.038402393 0.020431308 -0.08672296 -0.098205864 -0.07604241 -0.11123166 -0.046035446 -0.1172623
-0.182799 0.020079846 0.11408586 -0.14255373 -0.01382709 -0.22076006 0.010680507 -0.081693575
-0.37474185 -0.13368315 0.011869433 0.07462117 -0.094406925 0.0904927 -0.036060512 -0.027848557
-0.101625435 0.1279919 0.0624503 -0.06614248 0.07159112 0.05628805 0.046586435 0.028063266
0.006158321 0.20013016 0.008738307 -0.12457741 -0.12542097 -0.05940594 -0.08091214 0.11332735
0.06420616 0.031309266 -0.21082652 0.08934099 0.093222894 -0.03312909 0.08382788 0.07989543
-0.006618338 -0.03946566 0.085941575 0.12759559 -0.025469445 -0.011010578 -0.17261663 -0.12732273
0.08644314 -0.047168408 -0.10002096 -0.082951285 0.08519196 -0.02727592 -0.015564832 -0.13320032
0.012488635 0.002121328 0.20073953 0.1079869 -0.01864918 -0.038266443 -0.034710195 -0.0265389
-0.11141143 0.08086911 -0.007890303 0.15761578 -0.019791676 -0.027964374 -0.29749486 -0.042921275
00000000: 12e7 003e d8ab f1bd 268c 90bd eecc d4bd
00000010: a0d1 373d a606 ddbe 0d28 80be bd8a 6bbd
00000020: 7085 043d 7056 70bd 817b 4f3e 4116 30be
00000030: 34c3 f0bd df5d 1cbe 0f5e 22bd 7bc1 a7be
00000040: 499d eebb 4d0b 7f3d 298d 523e 7a94 3ebe
00000050: cf13 4c3d 1d28 24be bc36 25be 0b77 863e
00000060: 40e1 87bd c567 debd 2c31 1dbe ec60 563c
00000070: 351a 963d e631 093e 4965 ce3c 86c3 29be
00000080: 4093 d3bd f62a 26bd a7b7 4cbd cf51 8dbd
00000090: 3d70 7d3c 5bcd 66be 4bfb 313e 57de e5bc
000000a0: f523 013e 41e1 6a3d fc6e 40be 06c3 debc
000000b0: 239a 3ebe c859 1d3a 6e72 4ebe cc78 ebbd
000000c0: d44b 1d3d 8f5f a73c cf9b b1bd 2820 c9bd
000000d0: 20bc 9bbd 6dcd e3bd aa8f 3cbd 3727 f0bd
000000e0: a92f 3bbe 7d7e a43c d9a5 e93d 9bf9 11be
000000f0: 058b 62bc ed0e 62be 4bfd 2e3c f64e a7bd
00000100: 2ade bfbe 3ce4 08be 0378 423c fcd2 983d
00000110: 6b58 c1bd 3d54 b93d 30b4 13bd a822 e4bc
00000120: ff20 d0bd 4f10 033e e3cb 7f3d b575 87bd
00000130: 5d9e 923d 4c8e 663d 6bd1 3e3d efe4 e53c
00000140: becb c93b ecee 4c3e 1e2b 0f3c 7122 ffbd
00000150: 5b6e 00be a553 73bd 44b5 a5bd 2b18 e83d
00000160: 857e 833d 253e 003d e8e2 57be 69f8 b63d
00000170: a5eb be3d 5eb2 07bd f4ad ab3d 37a0 a33d
00000180: a5de d8bb bea6 21bd 2302 b03d 6ba8 023e
00000190: 4ca5 d0bc b665 34bc 6ac2 30be e460 02be
000001a0: 1a09 b13d a933 41bd cad7 ccbd 5de2 a9bd
000001b0: 1f79 ae3d c071 dfbc a303 7fbc aa65 08be
000001c0: 229d 4c3c fa05 0b3b aa8e 4d3e 3c28 dd3d
000001d0: 2ac6 98bc 46bd 1cbd 472c 0ebd 1b68 d9bc
000001e0: ad2b e4bd b49e a53d 5446 01bc 0866 213e
000001f0: 2722 a2bc 8b15 e5bc 3f51 98be 38ce 2fbd

fc3.weight f4 [4, 128]
0.8936751 0.01214111 0.18515404 0.024356116 -1.424619 -0.4619482 -0.5083991 0.13396731
0.24443743 -0.0012291387 0.5360393 0.11262131 0.19796625 -0.1345345 -0.4772501 1.8184974
0.7104032 -0.82895344 0.7395785 0.14332528 0.89025456 -0.14504713 -1.2317855 -0.22490993
0.22549383 0.34250152 -0.36006054 0.08428345 -0.20806262 -0.91512585 0.28876913 0.66334367
0.43779725 1.7473297 0.017678415 -0.5455199 -2.0039864 -1.6157807 0.17806275 -0.24026285
0.32213652 -0.8305421 0.41573435 -0.78217477 0.30796602 -0.90834486 1.4708171 2.378797
0.55159336 -0.53336376 -0.3170987 0.38978356 0.37237838 0.1307596 0.94615245 0.64212126
0.6742426 -0.8472398 -2.3024404 -1.0198388 -0.2339051 0.40430084 0.3215338 1.6090404
1.6414357 1.2221656 -1.3110054 -0.11630082 0.04661723 0.85967505 -1.4832039 0.5238463
0.44312832 -1.006258 0.08484081 -0.7051626 0.46117467 0.39130968 -0.6715306 -0.21126798
0.62609315 0.29566458 -0.6819744 0.3376115 -0.79882026 1.3006867 -0.35057643 0.35259518
-0.561494 0.19731341 0.49575707 1.2880622 -0.21022929 -0.21118443 0.6916376 0.5007253
-0.5014805 -0.4597959 -0.36522496 -0.71989626 -0.32825157 -1.6557817 0.6400821 -1.176176
1.2893893 -2.382072 0.5663023 1.293697 0.08284914 -0.21955635 0.13313901 0.3217044
-0.031220999 -1.0789016 -0.7758783 -0.7423472 0.5404257 -0.25233936 0.4351059 0.059411854
-1.363761 0.59515715 -0.31825846 -0.9974122 -0.52000785 -1.1021206 -0.0045625055 0.2609818
-0.093057476 0.13861044 -0.2121716 -0.12386683 -0.35686743 0.51165646 0.6786763 0.33420885
0.10468453 0.26280534 -0.6386103 0.38328403 -0.507091 1.2131858 -0.025052859 0.09341558
0.24424808 0.031682927 0.8518354 -0.38248423 0.4456516 1.1508543 0.13828295 -0.02928702
0.06064221 -0.2851904 0.34898508 -0.09817749 -0.70336103 -0.054711286 -0.54340124 -0.9417563
0.056005597 -0.59821117 0.14152275 0.25722724 -0.28824258 0.6011627 0.10928463 0.13271034
-0.57777464 -0.2454241 -0.31678483 0.33511454 -0.49944797 -0.3322621 -0.22246283 0.14981091
-0.34188014 -0.40176246 -0.17430882 0.15965205 0.11359453 0.2882001 -0.17694542 -0.35883093
-0.21844468 0.42864737 -0.2643059 -0.68729556 -0.59265506 -0.45659292 -0.4015814 0.19896248
0.32288745 0.27103567 -0.11515364 -1.4908409 0.27521887 -0.40924007 0.01619866 -0.14649545
0.1834337 0.6595091 0.4021327 0.27971405 0.5379305 -0.19923994 -0.4269535 0.4089377
-0.12843606 0.92119163 0.17668203 0.914518 -0.049073286 0.1883132 -1.0144902 -0.11187877
0.30606404 -0.63140553 0.7766764 0.13994901 0.15078197 -0.5283684 -0.31993568 -0.23982875
-0.3724764 0.3727338 -0.2148491 -0.53421324 -0.2081801 -0.12937692 -0.4964057 0.68418574
0.87440646 0.033308007 0.7808974 0.25629428 0.14211124 0.18471937 0.49335372 0.7736504
0.98167676 -0.14104375 -0.20537779 -0.02161262 -0.09521427 0.1840867 -0.6159483 0.80677795
-0.28355104 0.32377437 -0.042771034 -0.013623681 -0.1581835 0.51592577 0.8154549 -0.14726502
00000000: e4c7 643f 82eb 463c 0599 3d3e 7a86 c73c
00000010: ea59 b6bf 7984 ecbe 7226 02bf ba2e 093e
00000020: ce4d 7a3e 0d1b a1ba df39 093f 00a6 e63d
00000030: aab7 4a3e 69c3 09be 205a f4be 86c4 e83f
00000040: fcdc 353f 4b36 54bf 0455 3d3f ddc3 123e
00000050: b9e7 633f 3c87 14be 26ab 9dbf ca4e 66be
00000060: dbe7 663e 5c5c af3e db59 b8be cd9c ac3d
00000070: 5e0e 55be b045 6abf 8cd9 933e e4d0 293f
00000080: f626 e03e 80a8 df3f 53d2 903c 31a7 0bbf
00000090: 5041 00c0 e7d1 cebf 1556 363e 7707 76be
000000a0: 14ef a43e 689e 54bf 22db d43e 9b3c 48bf
000000b0: b9ad 9d3e 4a89 68bf bc43 bc3f 363e 1840
000000c0: 3935 0d3f 878a 08bf c35a a2be b691 c73e
000000d0: 61a8 be3e d8e5 053e 0c37 723f 0f62 243f
000000e0: 2a9b 2c3f b5e4 58bf 2f5b 13c0 148a 82bf
000000f0: d284 6fbe 8500 cf3e 14a0 a43e 09f5 cd3f
00000100: 911a d23f ec6f 9c3f 06cf a7bf 202f eebd
00000110: b5f1 3e3d aa13 5c3f a0d9 bdbf cb1a 063f
00000120: b7e1 e23e 10cd 80bf 05c1 ad3d 8985 34bf
00000130: 161f ec3e be59 c83e 6ee9 2bbf a256 58be
00000140: a447 203f 5961 973e e095 2ebf 6adb ac3e
00000150: 7c7f 4cbf e77c a63f c17e b3be 5b87 b43e
00000160: 12be 0fbf 870c 4a3e dfd3 fd3e 39df a43f
00000170: 5946 57be bb40 58be 290f 313f 892f 003f
00000180: 0761 00bf 5e6a ebbe c4fe babe 1f4b 38bf
00000190: 9710 a8be a8f0 d3bf 6cdc 233f ef8c 96bf
000001a0: b50a a53f de73 18c0 30f9 103f dd97 a53f
000001b0: cfac a93d 61d3 60be 9855 083e 70b6 a43e
000001c0: 2ec3 ffbc 7319 8abf f69f 46bf 770a 3ebf
000001d0: 5759 0a3f a032 81be 33c6 de3e d859 733d
000001e0: b88f aebf 385c 183f c6f2 a2be 6856 7fbf
000001f0: 3c1f 05bf 4a12 8dbf 1281 95bb 689f 853e
00000200: eb94 bebd e5ef 0d3e 8343 59be e4ad fdbd
00000210: 54b7 b6be ebfb 023f bbbd 2d3f 6c1d ab3e
00000220: d864 d63d 6c8e 863e f77b 23bf ce3d c43e
00000230: b7d0 01bf ac49 9b3f a73b cdbc ab50 bf3d
00000240: 2b1c 7a3e f5c5 013d e311 5a3f f9d4 c3be
00000250: 722c e43e 324f 933f 0c9a 0d3e 55eb efbc
00000260: f763 783d 7a04 92be 2cae b23e 4811 c9bd
00000270: 780f 34bf f118 60bd 581c 0bbf f116 71bf
00000280: 2066 653d 5e24 19bf 57eb 103e 4ab3 833e
00000290: 8894 93be cce5 193f 9fd0 df3d 38e5 073e
000002a0: 0ae9 13bf 7550 7bbe 9f31 a2be 2294 ab3e
000002b0: a5b7 ffbe 421e aabe 4ccd 63be 0868 193e
000002c0: ea0a afbe cfb3 cdbe 037e 32be d47b 233e
000002d0: 40a4 e83d f78e 933e 2e31 35be b0b8 b7be
000002e0: f6af 5fbe ab77 db3e 1a53 87be 9af2 2fbf
000002f0: 3eb8 17bf 8cc6 e9be 149c cdbe d2bc 4b3e
00000300: 8151 a53e 30c5 8a3e acd5 ebbd e0d3 bebf
00000310: 7de9 8c3e ea87 d1be 0db3 843c e702 16be
00000320: 0bd6 3b3e 97d5 283f 56e4 cd3e ae36 8f3e
00000330: d0b5 093f 8e05 4cbe a699 dabe 4860 d13e
00000340: be84 03be 37d3 6b3f 22ec 343e da1d 6a3f
00000350: 1201 49bd 2dd5 403e d1da 81bf b220 e5bd
00000360: 6db4 9c3e cba3 21bf 44d4 463f cb4e 0f3e
00000370: 9766 1a3e 2743 07bf 9cce a3be ab95 75be
00000380: 3ab5 bebe f7d6 be3e 6701 5cbe 33c2 08bf
00000390: 2a2d 55be 627b 04be e328 febe cc26 2f3f
000003a0: 1ad9 5f3f fa6d 083d e4e8 473f 0139 833e
000003b0: 9c85 113e 1327 3d3e dc98 fc3e f40d 463f
000003c0: 2b4f 7b3f c66d 10be 8e4e 52be f30c b1bc
000003d0: b3ff c2bd 3981 3c3e caae 1dbf 0089 4e3f
000003e0: 9a2d 91be c1c5 a53e ae30 2fbd dc35 5fbc
000003f0: dbfa 21be b613 043f a7c1 503f a4cc 16be

fc3.bias f4 [4]
0.12225292 -0.18317012 0.16644526 0.04497195
00000000: bd5f fa3d f390 3bbe a070 2a3e 8234 383d
