tasks/reacher_continuous_control/solutions/ddpg/solution_checkpoint/ddpg_baseline_critic_checkpoint.pth (torch_old, 170053 bytes, 5 tensors)

fc1.weight f4 [256, 33]
0	0x3d0f2828	0.034950405
1	0x3d825bb8	0.0636515
2	0x3dfe50d8	0.124177635
3	0x3cc35664	0.023844905
4	0x3d4aeeb8	0.049544066
5	0xbd70aa85	-0.05875637
6	0xbcc6e4b7	-0.024278982
7	0x3bbd0930	0.0057689175
8	0x3d78e79b	0.06076775
9	0x3c62a5eb	0.013833503
10	0x3ce429af	0.027851908
11	0xbc314cc7	-0.010821528
12	0xbc8443e0	-0.016145647
13	0x3ce8b80d	0.028408075
14	0xbe0c5ff1	-0.13708474
15	0xbe68fe01	-0.22753145
16	0x3d23aa82	0.03995753
17	0x3b5354be	0.0032246555
18	0xbcfe49ff	-0.031041143
19	0xbc9d8da0	-0.019232571
20	0x3ac70281	0.0015183241
21	0x3c99a985	0.018757591
22	0x3c84cb54	0.016210236
23	0xbcd20e91	-0.025641711
24	0xbd600ad4	-0.054697827
25	0xbce6034a	-0.02807774
26	0xbcaba0f7	-0.020950777
27	0x3e0c2e86	0.13689622
28	0x3dc0483c	0.093887776
29	0xbd4e6a80	-0.050394535
30	0xbe4adcff	-0.19810866
31	0x3d2599be	0.040429823
32	0x3d727a6a	0.059198774
33	0x3ded5866	0.11589126
34	0xbeb10b5f	-0.34578988
35	0xbd403dac	-0.046933815
36	0x3c1e4688	0.009660371
37	0x3c8a9b5d	0.016919786
38	0xbdde8c5d	-0.10866616
39	0x3dba62e9	0.09100897
40	0x3ce6c2e2	0.0281691
41	0xbd4a3b15	-0.04937275
42	0x3d7077eb	0.058708113
43	0xbd15d6dc	-0.03658186
44	0x3b9f009a	0.0048523666
45	0x3b8c42c0	0.004280418
46	0xbcfc1a34	-0.030774213
47	0x3ea3b0be	0.3197078
48	0x3da2aaa5	0.07942704
49	0xbd3e47ed	-0.046455313
50	0xbcbba932	-0.022907827
51	0x3c90bebe	0.017669078
52	0x3c8c8863	0.017154878
53	0xbcb5d10c	-0.022194408
54	0xbd2f99ee	-0.04287141
55	0xbd57c28a	-0.05267576
56	0xbcd80c61	-0.02637309
57	0x3ce472ae	0.027886715
58	0x3d6de61f	0.05808079
59	0xbce8d300	-0.028420925
60	0xbd244e22	-0.040113576
61	0x39709624	0.00022944115
62	0x3ca3f630	0.020014852
63	0x3cd57aa8	0.026059464
64	0x3b9d9aa0	0.0048096925
65	0x3efd5aee	0.49483436
66	0xbd1fbfd4	-0.0390013
67	0xbc3081d1	-0.010773138
68	0x3d9db4b4	0.07700482
69	0xbce17c7c	-0.02752518
70	0xbcbe8bbe	-0.023259994
71	0xbd07cd19	-0.03315458
72	0xbe22d9e5	-0.15903433
73	0x3d7cdb8a	0.061732806
74	0xbe0142e7	-0.12623177
75	0xbcbe9a7e	-0.023267027
76	0xbd469ced	-0.0484895
77	0x3bfd301a	0.0077266814
78	0xbbf3bd7c	-0.00743836
79	0xbdd5c2bd	-0.10437534
80	0x3d37c4a1	0.044865254
81	0xbdcf454a	-0.10120638
82	0x3c1680bd	0.009185967
83	0xbd22b511	-0.03972346
84	0xbd10aa76	-0.035318814
85	0xbd92ca45	-0.07167486
86	0xbb135596	-0.0022481433
87	0xbce65eea	-0.02812143
88	0x3cf0b088	0.029381052
89	0x3d4ed1ed	0.05049317
90	0x3cb04edf	0.021521984
91	0xbd88f62b	-0.06687578
92	0x3e50d4c4	0.20393664
93	0x3dba4bc5	0.09096483
94	0xbb6f572d	-0.0036520467
95	0xbb512e40	-0.0031918436
96	0xbcc2fc52	-0.023801956
97	0xbd5e991e	-0.054345243
98	0xbe980ef2	-0.29698902
99	0x3d0125fb	0.03153036
100	0xbea8280d	-0.32843056
101	0xbbe4ce05	-0.0069825673
102	0x3ba6a5cf	0.005085684
103	0x3b87bd74	0.0041424576
104	0xbc0034e3	-0.007825109
105	0xbce95838	-0.028484449
106	0xbbf8872b	-0.0075844727
107	0x3cf8c6e0	0.030368268
108	0xbd0ae872	-0.033913083
109	0x3d1c3882	0.038139828
110	0xbd3b63df	-0.04574954
111	0xbd081348	-0.033221513
112	0xbc8314f0	-0.016001195
113	0x3eae1226	0.3399822
114	0x3c16c602	0.009202482
115	0x3c3ded10	0.011592165
116	0xbc5198f7	-0.012792817
117	0x3c486a1d	0.012232331
118	0xbd2c42f1	-0.042056028
119	0x3c54a964	0.012979839
120	0xbc857c5c	-0.01629465
121	0x3c2e4dbe	0.010638652
122	0xbd183606	-0.037160896
123	0x3e0098b1	0.12558247
124	0x3c88040f	0.016603498
125	0xbc695407	-0.014241225
126	0xbda9e034	-0.082947165
127	0x3b7b3cdd	0.0038335838
128	0xbccaa0b8	-0.02473484
129	0x3e3e496c	0.18582696
130	0xbc33c680	-0.010972619
131	0x3deba01c	0.11505148
132	0x3e2eb17a	0.1705989
133	0xbe93eaef	-0.28890178
134	0xbd1308e7	-0.03589716
135	0x3d3cc755	0.046088535
136	0x3d706cbb	0.058697443
137	0xbc803098	-0.015648171
138	0x3cc06bc5	0.023488889
139	0x3c3b443d	0.0114298435
140	0x3e213669	0.15743412
141	0xbdd40a21	-0.103534944
142	0x3da8b85b	0.08238288
143	0xbdf5f55e	-0.12009691
144	0xbd51cc6f	-0.051220354
145	0xbcff19a9	-0.031140165
146	0x3dbf5b98	0.09343642
147	0xbe08cea8	-0.13360083
148	0xb9d40b60	-0.00040444266
149	0x3bc9b171	0.006155186
150	0xbd1e25ae	-0.038610153
151	0xbc143579	-0.009045952
152	0xbbb21043	-0.0054340675
153	0x3d571d8f	0.052518424
154	0xbba31159	-0.0049764332
155	0x3d357285	0.044298667
156	0xbca34015	-0.019928018
157	0xbda72168	-0.081606686
158	0x3d1f78fb	0.038933735
159	0x3eabd86c	0.33563554
160	0xbcd768a7	-0.02629502
161	0x3c92d958	0.017925903
162	0xbeafb2bd	-0.34316054
163	0x3c88a194	0.016678609
164	0xbd8d81e7	-0.069095425
165	0xbda282bb	-0.07935091
166	0x3ca84c17	0.020544095
167	0xbe1e493c	-0.15457624
168	0xbc435045	-0.011920993
169	0xbe216741	-0.15762044
170	0x3d2452d0	0.04011804
171	0xbd9e0549	-0.07715852
172	0xbaa9c894	-0.0012953454
173	0xbe9d9ff1	-0.30786088
174	0xbe313f55	-0.17309316
175	0x3d3ab3ae	0.045581512
176	0x3de0c61b	0.109752856
177	0xbc352550	-0.011056259
178	0x3cfd05fb	0.03088664
179	0x3d73084c	0.059334084
180	0x3df58249	0.119877405
181	0x3dc30554	0.09522501
182	0x3d0bba8d	0.034113456
183	0xbcea9d49	-0.028639453
184	0xbdb6e798	-0.08930892
185	0x3a97fc65	0.0011595605
186	0x3dbadb4a	0.09123857
187	0x3dbca8bb	0.0921187
188	0x3dbb8d40	0.09157801
189	0x3d198234	0.037477687
190	0x3dd91d7a	0.10601325
191	0xbd5aa3de	-0.053378932
192	0x3e3480d1	0.17627265
193	0x3d91d3d6	0.071204826
194	0x3d441aa4	0.04787697
195	0xbe3063cd	-0.17225571
196	0x3c1980c8	0.009369083
197	0x3dcb32ab	0.099217735
198	0xbdfe7338	-0.1242432
199	0x3d5ba978	0.053628415
200	0x3cfb8471	0.030702801
201	0xbbc43740	-0.0059880316
202	0x3cf7a991	0.030232223
203	0x3d0f1558	0.034932464
204	0x3cc53e6e	0.02407762
205	0x3c6ae353	0.014336425
206	0x3e2f19ea	0.17099729
207	0x3e58906f	0.21148847
208	0x3d3efba2	0.046626695
209	0x3d206085	0.03915455
210	0x3d5bb7c4	0.05364205
211	0x3d1832d9	0.037157867
212	0x3d837178	0.06418127
213	0xbd372aaf	-0.04471844
214	0x3d7bc962	0.06147135
215	0x3d2c947a	0.042133786
216	0x3b775975	0.003774253
217	0x3d40cfb4	0.04707308
218	0xbc7041a2	-0.014664086
219	0xbb04f420	-0.0020287111
220	0xbdaded8c	-0.08492574
221	0xbe201374	-0.15632421
222	0xbc33d969	-0.010977128
223	0xbcf51ec3	-0.029921895
224	0xbe5d13d9	-0.21589603
225	0x3e8450b9	0.25842836
226	0xbb88b173	-0.004171544
227	0xbd438164	-0.04773082
228	0xbe91abf8	-0.28451514
229	0x3abe9d80	0.0014542788
230	0xbe191410	-0.1494906
231	0xbca506c2	-0.020144824
232	0xbefc2637	-0.49247906
233	0xbe59e37d	-0.21278186
234	0xbcabea6e	-0.020985808
235	0xbda29aed	-0.07939706
236	0x3d355ec9	0.044279847
237	0x3dc05b78	0.09392446
238	0x3c6120f8	0.0137407705
239	0xbd8f56d3	-0.06998982
240	0x3dff1e25	0.124569215
241	0x3d0107dd	0.03150164
242	0xbd12b640	-0.03581834
243	0x3c02f766	0.007993555
244	0x3e2f6eba	0.17132083
245	0x3ec057c2	0.37566954
246	0x3dcc6702	0.09980585
247	0x3bc4fc62	0.0060115317
248	0x3c43f2e0	0.011959761
249	0xbca44436	-0.020052057
250	0x3c0a3320	0.008435041
251	0xbba6d2f3	-0.005091065
252	0xbc62729a	-0.013821268
253	0xbcd00a34	-0.02539549
254	0x3c6da7da	0.014505351
255	0x3de75e75	0.11297313

fc1.bias f4 [256]
0	0xbdd0775f	-0.10179018
1	0x3e13ba3c	0.14426512
2	0xbdc450f2	-0.095857516
3	0x3e8fdacf	0.28096625
4	0xbe9e6e64	-0.30943596
5	0xbea2b350	-0.3177743
6	0xbec6e7d2	-0.3884874
7	0xbde339ec	-0.11095032
8	0xbdbfc59b	-0.09363862
9	0xbe550914	-0.20804244
10	0xbec758e9	-0.3893502
11	0x3ea72a51	0.32649472
12	0xba7070b1	-0.0009172066
13	0xbeb4ed89	-0.35337475
14	0xbe86b48a	-0.26309615
15	0xbecd8c75	-0.40146223
16	0x3cdb818e	0.026795175
17	0xbe90e6f7	-0.28301212
18	0x3dd0ea65	0.10200957
19	0xbeadd9e0	-0.33955288
20	0xbdbee3cf	-0.09320795
21	0x3e8bc0b3	0.27295455
22	0xbd86bf24	-0.06579426
23	0xbe906d3e	-0.28208345
24	0xbe8229e9	-0.254226
25	0xbedbee25	-0.42955127
26	0xbe5e836c	-0.21729821
27	0xbee4d16b	-0.44691023
28	0xbebe7ce9	-0.37204674
29	0xbea62c1d	-0.3245553
30	0xbeac7bd7	-0.33688232
31	0xbe990d2c	-0.29892862
32	0xbe9e9457	-0.3097255
33	0xbea1010e	-0.31446117
34	0xbd66351f	-0.056203004
35	0xbe95034d	-0.2910408
36	0xbdb7750b	-0.08957871
37	0xbddcba51	-0.107777245
38	0xbebb70b7	-0.36609432
39	0xbea22813	-0.316712
40	0xbecebf46	-0.40380305
41	0xbee762d6	-0.45192593
42	0xbed064d9	-0.4070194
43	0xbe88b19b	-0.26698002
44	0xbe976fdf	-0.29577538
45	0xbef6a965	-0.48176113
46	0xbe320fe9	-0.17388882
47	0xbe68535a	-0.22688046
48	0xbd1d15a2	-0.03835071
49	0xbe9bced3	-0.30431232
50	0xbe833a15	-0.2563025
51	0xbe7854e1	-0.24251129
52	0xbd88ce9f	-0.06680035
53	0xbda73786	-0.08164887
54	0xbf01d7b6	-0.50719774
55	0x3abfe6b8	0.0014640903
56	0xbed1e242	-0.40992934
57	0xbe322786	-0.1739789
58	0xbe433ad0	-0.19065404
59	0xbee99f75	-0.4562947
60	0xbe2db503	-0.16963582
61	0x3ece3b3f	0.40279576
62	0xbefe8146	-0.49708003
63	0xbe7ec9c6	-0.24881658
64	0xbeac115d	-0.33606997
65	0x3ada7931	0.0016668198
66	0xbd4d4cf8	-0.05012223
67	0x3ee0aec8	0.43883348
68	0xbe81b717	-0.25335
69	0xbe272e67	-0.16326295
70	0x3c983a64	0.01858253
71	0xbe01e653	-0.12685518
72	0xbe9ad049	-0.30237034
73	0xbe736552	-0.2376912
74	0x3d4dac3a	0.050213076
75	0xbe7ae166	-0.24500045
76	0xbdce1003	-0.10061648
77	0x39b83bd4	0.0003513979
78	0x3d9e0490	0.07715714
79	0xbe93dfac	-0.28881586
80	0xbe6643f2	-0.22486857
81	0xbe896e05	-0.2684175
82	0xbdc4c0f2	-0.09607114
83	0x3d982bff	0.074302666
84	0x3d173358	0.0369142
85	0xbe909b9b	-0.28243718
86	0x3edb17b4	0.42791522
87	0x3eb06c50	0.34457636
88	0xbdf007d1	-0.11720241
89	0xbe832d6c	-0.25620592
90	0x3e05cadd	0.13065667
91	0xbe81fd24	-0.25388443
92	0x3e089ec5	0.13341816
93	0xbe3d69b4	-0.18497354
94	0xbe5c4cdc	-0.21513695
95	0xbe45b842	-0.1930857
96	0xbcf4c889	-0.029880779
97	0xbe83c7a3	-0.25738248
98	0x3c752214	0.014961738
99	0xbe68ecb8	-0.22746551
100	0x3e88d63a	0.26725942
101	0xbe8a5e2f	-0.2702498
102	0xbe430fd5	-0.19049008
103	0xbebd2414	-0.36941588
104	0xbedd6727	-0.43242761
105	0xbde54318	-0.11194438
106	0xbede8162	-0.43458086
107	0xbea54200	-0.32276917
108	0x3c6c25af	0.014413281
109	0xbef0c18e	-0.4702267
110	0xbe980892	-0.2969404
111	0xbd08dc69	-0.033413325
112	0xbeab9054	-0.3350855
113	0xbd058b11	-0.032603327
114	0xbdb7a724	-0.089674264
115	0xbe7bfb92	-0.24607685
116	0x3d5a6673	0.05332036
117	0xbeb85fae	-0.36010498
118	0xbd4c0c2d	-0.0498163
119	0xbed32764	-0.4124099
120	0xbc819cb1	-0.015821787
121	0xbec184ec	-0.37796724
122	0x3e7fcae9	0.24979748
123	0xbe904c24	-0.2818309
124	0xbdbf48a5	-0.09340028
125	0x3dbbe2c3	0.09174111
126	0xbd70cee3	-0.058791053
127	0xbcefa229	-0.029252129
128	0xbec13f49	-0.37743595
129	0xbde33ec5	-0.11095957
130	0xbe376d2c	-0.1791274
131	0xbec7febb	-0.3906153
132	0xbebc02a5	-0.36720768
133	0x3da65f5d	0.08123658
134	0xbd674e4e	-0.05647116
135	0xbe75d689	-0.2400762
136	0xbe658ce4	-0.22417027
137	0x3d73c0db	0.059510093
138	0xbe7fcbcd	-0.24980088
139	0xbe736c99	-0.23771895
140	0xbe32c820	-0.17459154
141	0xbe174976	-0.14774117
142	0xbee0fde3	-0.439437
143	0xbca36fa4	-0.019950695
144	0xbd309c04	-0.043117538
145	0xbe5129ce	-0.20426103
146	0xbc0e81f0	-0.008697972
147	0xbd87d3c8	-0.06632191
148	0xbea1eb9a	-0.31625062
149	0xbdc3c316	-0.09558694
150	0xbdc7b414	-0.09751144
151	0xbd83f333	-0.06442871
152	0x3db81f81	0.08990384
153	0x3e0123de	0.12611338
154	0xbe3310be	-0.17486855
155	0xbe134db9	-0.14385118
156	0x3be867ab	0.0070924363
157	0xbe56a3eb	-0.20960967
158	0xbe49cd3a	-0.19707194
159	0xbec96c42	-0.39340407
160	0xbd076ab6	-0.03306075
161	0x3e152298	0.14563978
162	0xbeca5262	-0.39515978
163	0xbf0a0a35	-0.53921825
164	0xbe65cbb0	-0.22440982
165	0xbea2c58a	-0.31791335
166	0x3cd47114	0.025932826
167	0xbe068296	-0.13135752
168	0xbe802200	-0.2502594
169	0xbe15171f	-0.14559601
170	0xbe8087dd	-0.25103655
171	0xbdb3aa69	-0.087727375
172	0xbc98584b	-0.018596789
173	0x3dc1fb39	0.09471745
174	0x3da931cf	0.08261453
175	0xbbe82be6	-0.007085311
176	0x3e9e9fde	0.30981344
177	0xbe0b391a	-0.13596001
178	0xbe065929	-0.1311995
179	0xbe855f0b	-0.26049075
180	0xbe1b674f	-0.15176128
181	0xbe922938	-0.28547072
182	0xbeda63c6	-0.42654246
183	0xbeb2b952	-0.34907013
184	0x3e385537	0.18001257
185	0xbbdc0ff9	-0.0067157713
186	0xbedfb732	-0.43694454
187	0xbe2559b5	-0.16147502
188	0xbde130cb	-0.10995635
189	0x3f1a7ddc	0.60348296
190	0xbec417af	-0.3829932
191	0xbbeab1d7	-0.0071623134
192	0x3cad8317	0.021180673
193	0x3ed280aa	0.41113788
194	0xbe3211b4	-0.17389566
195	0xbea4802d	-0.3212904
196	0xbe8517cf	-0.25994727
197	0xbe227252	-0.15863922
198	0xbe2e4262	-0.1701751
199	0xbe86fc6f	-0.26364467
200	0xbebbf599	-0.36710814
201	0xbe4fe3a3	-0.2030168
202	0x3ea5b9c5	0.32368293
203	0xbe2b73cd	-0.16743393
204	0xbe1d457c	-0.15358537
205	0xbda48006	-0.08032231
206	0xbe023a31	-0.12717511
207	0x3d39538c	0.045245692
208	0xbec075e1	-0.37589934
209	0x3ec4d49f	0.38443467
210	0x3ea7c2f3	0.32765922
211	0x3e5f9c11	0.21836878
212	0xbea640b9	-0.32471254
213	0xbe897358	-0.26845813
214	0xbe12a5b8	-0.14321029
215	0x3e8f7e57	0.28026077
216	0xbe45bc69	-0.19310154
217	0xbe16c35e	-0.14722964
218	0xbe363848	-0.17794907
219	0x3e1376b4	0.1440075
220	0xbda8bcae	-0.08239113
221	0xbeb00d48	-0.34385133
222	0xbee3cb93	-0.44491252
223	0xbe8f728f	-0.2801709
224	0x3e88978c	0.2667812
225	0xbf128eaf	-0.5724897
226	0xbe31df89	-0.17370428
227	0xbe11f73c	-0.14254469
228	0xbe5eb827	-0.21749936
229	0xbe4d699c	-0.20059818
230	0xbed13188	-0.40858102
231	0xbdb136a3	-0.08652999
232	0xbee2b778	-0.442806
233	0xbeb8df38	-0.36107802
234	0xbd3a1b25	-0.045436043
235	0xbeb8e03c	-0.36108577
236	0xbe9d587a	-0.30731565
237	0xbd4ecd8d	-0.050488997
238	0x3d6385b1	0.05554742
239	0xbe6bf9e7	-0.23044549
240	0x3e43eae6	0.19132575
241	0xbea9e04f	-0.33178946
242	0xbd5d05ba	-0.05396054
243	0xbe5b9385	-0.21442993
244	0x3ea0efc8	0.3143294
245	0xbe5c89d3	-0.21536951
246	0x3e60d941	0.21957876
247	0xbe6d9243	-0.23200326
248	0xbda51857	-0.08061283
249	0xbe8e93d7	-0.27847168
250	0xbe2a00d1	-0.16601874
251	0xbebac8e8	-0.36481404
252	0xbd604170	-0.054749906
253	0xbc337c20	-0.010954887
254	0xbe9ff2fb	-0.31240067
255	0xbe8f6672	-0.28007847

fc2.weight f4 [128, 260]
0	0xbd69971d	-0.05702888
1	0xbda68163	-0.08130147
2	0x3dc10f6e	0.09426771
3	0xbd5df563	-0.054189097
4	0xbd593e02	-0.05303765
5	0xbe24d729	-0.16097702
6	0xbe468890	-0.19388032
7	0xbe668916	-0.22513232
8	0x3ca59427	0.020212246
9	0xbcd684a6	-0.026186299
10	0xbe978f49	-0.29601505
11	0x3db4df5b	0.08831664
12	0xbe56df51	-0.20983626
13	0xbe0c8865	-0.13723905
14	0x3cf68ee2	0.030097429
15	0xbe883644	-0.266039
16	0x3e18682a	0.14883485
17	0x3d882385	0.066474
18	0xbdd67540	-0.104715824
19	0xbe114c2a	-0.1418921
20	0x3caa4d62	0.020788852
21	0xbd3501e0	-0.04419124
22	0xbe816b8a	-0.25277358
23	0xbd6e6597	-0.058202352
24	0x3e5d380e	0.21603414
25	0xbdd2e5bd	-0.10297725
26	0x3d402b87	0.04691651
27	0xbe51211c	-0.20422786
28	0xbe4c6424	-0.19960076
29	0xbe33ed7e	-0.17571065
30	0x3e26306b	0.16229407
31	0x3d668288	0.056276828
32	0xbb40e6cb	-0.0029434438
33	0x3e9567af	0.29180667
34	0xbcca1547	-0.024668349
35	0x3e4e2e3d	0.20134826
36	0x3e243418	0.16035497
37	0xbe79a54d	-0.24379463
38	0x3e42f9fc	0.19040674
39	0x3d57c769	0.052680407
40	0x3bc20ab4	0.005921686
41	0xbed8c4bb	-0.42337593
42	0x3df2569a	0.11832924
43	0xbe09faae	-0.13474533
44	0xbee2b70e	-0.44280285
45	0xbd919ec5	-0.07110361
46	0xbe8ba374	-0.27273142
47	0xbe1e7f96	-0.15478358
48	0x3d41c54f	0.04730731
49	0xbdd46b2b	-0.10372003
50	0xbea73dc6	-0.32664317
51	0x3de44f1a	0.111479
52	0xbe1ac595	-0.15114434
53	0xbe1ad11a	-0.15118828
54	0xbdf2ddbf	-0.11858701
55	0xbeb5b25e	-0.35487646
56	0xbd68fc81	-0.05688143
57	0xbd505230	-0.05085963
58	0xbdc48d42	-0.09597255
59	0xbda39417	-0.0798723
60	0x3e096514	0.13417464
61	0x3d965841	0.07341052
62	0xbe822861	-0.25421432
63	0x3d026fe2	0.03184498
64	0x3db5b7b5	0.0887293
65	0xbe07ebe5	-0.1327358
66	0x3dde6a53	0.108601235
67	0x3dc49aed	0.09599862
68	0x3dfda188	0.12384325
69	0xbd931b0d	-0.07182894
70	0xbe3a7ca6	-0.18211612
71	0x3d17525e	0.036943786
72	0xbe1b0579	-0.15138806
73	0xbdc94d91	-0.09829248
74	0xbd316ba3	-0.04331554
75	0xbceac777	-0.028659565
76	0xbbb82854	-0.005620042
77	0x3d06a390	0.03287083
78	0xbc778748	-0.015107937
79	0xbdb7470b	-0.08949097
80	0xbbdebe79	-0.0067976085
81	0x3ca40979	0.020024048
82	0xbe04bbf5	-0.12962325
83	0xbd7cb5ad	-0.061696697
84	0xbe1ed600	-0.15511322
85	0x3d32abd0	0.043620884
86	0x3dc47dfe	0.095943436
87	0xbd429659	-0.047506664
88	0x3d13fe9f	0.036131497
89	0x3c509197	0.012730024
90	0xbe28c46c	-0.16481179
91	0x3cb79535	0.022410015
92	0x3d587bcd	0.05285244
93	0xbd955d02	-0.072931305
94	0x3c07538d	0.008259666
95	0xbe7f41f5	-0.24927504
96	0xbcf1c7c7	-0.029514207
97	0x3dc921ea	0.09820922
98	0xbe10b857	-0.1413282
99	0x3e56af74	0.20965368
100	0xbe02801e	-0.12744185
101	0x3dbe6366	0.092963025
102	0xbe36ba56	-0.17844519
103	0xbb2c1be2	-0.0026261737
104	0xbd151da9	-0.03640524
105	0x3d38ea51	0.045145337
106	0x3e7f104c	0.2490856
107	0xbe65339c	-0.22382969
108	0x3e0c751e	0.13716552
109	0x3eab529a	0.33461457
110	0x3e21e985	0.15811737
111	0x3db88cef	0.09011256
112	0xbe149c8e	-0.14512846
113	0x3d5e20b1	0.054230396
114	0x3c2edfd2	0.01067348
115	0xbea66218	-0.32496715
116	0x3e1ca6c2	0.15297988
117	0x3d877004	0.06613162
118	0x3cff6a8d	0.031178737
119	0x3ca52d20	0.020163119
120	0xbe19a9df	-0.15006207
121	0xbc425075	-0.011860003
122	0xbe2a7c00	-0.16648865
123	0x3e03189e	0.1280236
124	0x3d7c5fdc	0.061614856
125	0x3d8d4413	0.0689775
126	0x3e966e68	0.29381108
127	0xbae5ddfe	-0.0017537472
128	0x3e01b246	0.12665662
129	0xbe3f242b	-0.1866614
130	0x3de3e7b0	0.11128175
131	0x3da6670e	0.08125125
132	0x3e82b052	0.25525147
133	0xbd75981e	-0.059959523
134	0xbd26d36b	-0.040728968
135	0xbebf0585	-0.373089
136	0x3e342cd4	0.17595226
137	0x3d057ec8	0.03259161
138	0x3d302f7c	0.043014035
139	0x3d9dc780	0.07704067
140	0xbd250885	-0.040291328
141	0xbe3a0e1c	-0.18169445
142	0xbd84b19a	-0.06479187
143	0x3dcb752b	0.099344574
144	0xbcfd3c42	-0.030912522
145	0x3e399363	0.1812263
146	0xbde5351c	-0.111917704
147	0xbe1b4ba7	-0.15165578
148	0x3cdf17a3	0.02723295
149	0xbe78b26c	-0.24286813
150	0xbe6e9ae7	-0.23301278
151	0x3dfa4c0f	0.12221538
152	0x3a1c0f6f	0.00059532275
153	0x3d89a7bf	0.06721448
154	0xbde0dd9b	-0.10979768
155	0xbdf65b6c	-0.12029156
156	0xbd60f5d6	-0.054921947
157	0x3db8f4ca	0.09031065
158	0xbe2d8431	-0.16944958
159	0xbe13a139	-0.1441697
160	0x3d8359aa	0.064135864
161	0x3df8c259	0.12146444
162	0xbdc4c9bf	-0.096087925
163	0xbe971b55	-0.2951304
164	0x3e79ecf3	0.24406795
165	0xbe164cdc	-0.14677757
166	0x3bd287ba	0.0064248713
167	0x3ddf5bbe	0.1090617
168	0xbc2b9a0e	-0.010473741
169	0xbc485665	-0.012227629
170	0x3e0a6c3c	0.1351785
171	0xbe6ccbfe	-0.23124692
172	0x3e793865	0.24337919
173	0xbd9cb770	-0.076521754
174	0x3e1f3e2e	0.15551063
175	0x3d6c3332	0.05766601
176	0xbb0f10c2	-0.0021830057
177	0xbe8db89a	-0.27679902
178	0xbdaab854	-0.08335939
179	0x3ea33439	0.3187578
180	0xbe1747dd	-0.14773507
181	0x3df91e82	0.12164022
182	0xbeaaae85	-0.33336273
183	0xbe401a2d	-0.18759985
184	0xbe90d66c	-0.2828859
185	0xbe27d985	-0.16391571
186	0xbd946b4d	-0.072470285
187	0x3d89402a	0.067016914
188	0x3d0fbb52	0.035090752
189	0x3e217243	0.15766244
190	0x3e1c5dc0	0.15270138
191	0x3da27302	0.07932092
192	0xbe8ce08a	-0.2751506
193	0x3db3193c	0.087450475
194	0x3cef2852	0.02919403
195	0x3e056840	0.1302805
196	0x3e162460	0.14662313
197	0xbc71e058	-0.01476296
198	0x3db8647d	0.090035416
199	0xbe14b25b	-0.14521162
200	0x3e01b874	0.1266802
201	0xbd3f21ed	-0.046663214
202	0xbdacebcd	-0.08443413
203	0xbe6821cc	-0.22669142
204	0xbd189872	-0.03725476
205	0x3d7aff26	0.061278485
206	0x3d8f2bd4	0.069907814
207	0xbdaaab1f	-0.0833342
208	0x3cb50ebc	0.022101752
209	0x3d6e4384	0.058169857
210	0x3c9680e9	0.018372016
211	0x3dbdbc8f	0.0926448
212	0xbd62df84	-0.055388942
213	0x3cd01b35	0.025403598
214	0x3e7d22d1	0.24720313
215	0x3d3e1cb0	0.046414077
216	0xbe3bf472	-0.18354967
217	0xbb1372b8	-0.0022498798
218	0x3e95529e	0.29164594
219	0xbc3d6f58	-0.011562191
220	0x3d6a6b97	0.057231512
221	0x3e6f1275	0.23346885
222	0x3e012cfe	0.1261482
223	0xbd4a1fb5	-0.049346644
224	0x3c8d98c1	0.017284753
225	0xbdc413e2	-0.09574105
226	0x3ce53b1e	0.02798229
227	0xbdb12b44	-0.086508304
228	0xbdcf0ec4	-0.10110238
229	0xbc7ad55f	-0.015309661
230	0x3e57d0dd	0.21075769
231	0xbe0a11c0	-0.13483334
232	0x3e3824ae	0.17982742
233	0x3d437667	0.04772034
234	0xbe1ed4e8	-0.15510905
235	0x3da8bc6e	0.08239065
236	0x3db8079e	0.08985828
237	0xbcf06371	-0.029344292
238	0xbe3a2ead	-0.18181868
239	0xbddf44f0	-0.10901821
240	0xbe5139cb	-0.20432203
241	0x3e306607	0.1722642
242	0x3c3900bf	0.011291682
243	0x3e04e36d	0.12977381
244	0x3e05b6b0	0.13057971
245	0x3bb2ff5b	0.0054625697
246	0x3d6fda72	0.058557935
247	0xbe0538e2	-0.1300998
248	0x3db535fd	0.08848188
249	0x3e4c0cf9	0.19926824
250	0x3cc17131	0.023613544
251	0x3da62166	0.08111839
252	0x3e5809dc	0.21097511
253	0x3e64edde	0.22356364
254	0x3d740850	0.05957824
255	0xbe4dc26c	-0.20093697

fc2.bias f4 [128]
0	0x3ee28928	0.44245267
1	0xbdfbfc26	-0.12303953
2	0x3ece5317	0.40297768
3	0xbecd68fa	-0.40119153
4	0x3f3be98e	0.7340325
5	0xbeb2cf04	-0.34923565
6	0x3ec8e64c	0.39238203
7	0x3eab02b8	0.33400512
8	0x3eb14b98	0.34627986
9	0x3ef364ac	0.47537744
10	0xbee14ee9	-0.44005516
11	0xbeabf3ef	-0.33584544
12	0xbe812671	-0.2522464
13	0xbe8a31f2	-0.2699123
14	0xbe820b08	-0.2539904
15	0x3eb9d01e	0.36291593
16	0x3eb80376	0.3594014
17	0x3ecb3e4e	0.39695972
18	0x3ec934fb	0.39298233
19	0x3f1bd589	0.60872704
20	0x3f510e0c	0.8166206
21	0x3ea86762	0.32891375
22	0xbe600e79	-0.21880521
23	0xbe958063	-0.29199514
24	0x3e3e293c	0.18570417
25	0xbe598aaa	-0.21244302
26	0x3efb530e	0.49086803
27	0xbe9eeae9	-0.31038597
28	0xbe2456d7	-0.16048752
29	0xbeb591f0	-0.35462904
30	0x3eccecaf	0.40024325
31	0xbe28fb72	-0.16502169
32	0x3f340f70	0.70336056
33	0xbeab1acf	-0.3341889
34	0x3ea00cab	0.31259665
35	0xbeb2fc67	-0.34958193
36	0xbe49905c	-0.19683975
37	0x3e7a93be	0.24470422
38	0x3effaef0	0.49938154
39	0xbeb1e982	-0.34748465
40	0x3ec9e5f4	0.39433253
41	0xbe7b720c	-0.24555224
42	0x3e9319c7	0.28730604
43	0x3e82c1e1	0.25538543
44	0x3ed588c8	0.41705918
45	0x3ee79921	0.45234016
46	0x3e960b25	0.29305378
47	0xbee2dcdf	-0.44309136
48	0x3eb4496d	0.3521227
49	0xbe92a898	-0.28644252
50	0x3ed4aec0	0.41539574
51	0xbed73a45	-0.42036644
52	0xbe9d0685	-0.30669037
53	0x3e8fde66	0.28099364
54	0xbebc8a77	-0.3682439
55	0xbee3a60f	-0.4446263
56	0x3f4e2fdb	0.8054177
57	0x3dfd3189	0.12362964
58	0xbe6f2618	-0.23354375
59	0xbe1e8efc	-0.15484232
60	0x3db2e659	0.087353416
61	0x3ebea099	0.372319
62	0x3ed65318	0.4186027
63	0x3f1349ab	0.57534283
64	0x3e1e8234	0.15479356
65	0xbece689a	-0.4031418
66	0x3ea8aece	0.32945865
67	0x3ed96e08	0.4246676
68	0xbed4c0d0	-0.41553354
69	0xbde00198	-0.10937804
70	0x3ec29163	0.38001546
71	0xbf668e14	-0.90060544
72	0x3f04ccb5	0.5187486
73	0x3e369a8c	0.17832392
74	0xbecda18c	-0.40162313
75	0x3ede5533	0.43424377
76	0x3f3a6c9c	0.72821975
77	0x3ecfc063	0.40576467
78	0x3f136429	0.5757471
79	0x3e5902d1	0.2119248
80	0x3ec901b8	0.39259124
81	0x3ec1f9ed	0.3788599
82	0xbee8b69b	-0.45451817
83	0x3e998214	0.29982054
84	0xbf040450	-0.5156908
85	0x3f14ff39	0.5820194
86	0xbe81d9e0	-0.25361538
87	0xbedf8b56	-0.43660992
88	0x3f248c79	0.64276844
89	0x3ee07f63	0.43847188
90	0x3ec192eb	0.37807402
91	0x3eec8bc9	0.46200398
92	0xbea565dc	-0.32304275
93	0x3f107c14	0.5643933
94	0x3ecb55cf	0.39713904
95	0x3ee0ac10	0.43881273
96	0xbed8f6c8	-0.4237578
97	0x3e386c26	0.18010005
98	0x3edc4e5b	0.4302853
99	0xbebbe208	-0.36695886
100	0xbef280e7	-0.4736397
101	0x3ecb0c68	0.39657903
102	0xbe73fb97	-0.23826443
103	0x3ed180ce	0.40918583
104	0xbecd2c0a	-0.40072662
105	0xbeb69c1c	-0.35665977
106	0xbe947e28	-0.290025
107	0xbeb8b26c	-0.36073625
108	0xbee14605	-0.43998733
109	0x3eee2cbf	0.46518514
110	0xbe637f6f	-0.22216581
111	0x3ef71b4b	0.4826301
112	0xbf60bbe1	-0.8778668
113	0xbec88dc7	-0.39170668
114	0x3f3bfddd	0.7343424
115	0x3e1ccd5c	0.15312713
116	0xbee20c06	-0.44149798
117	0x3e2dd610	0.1697619
118	0x3e90553a	0.28190023
119	0xbedd1b56	-0.43184918
120	0xbe81d562	-0.2535811
121	0x3ec290e4	0.38001168
122	0x3ebc5f00	0.3679123
123	0x3ee5e735	0.4490296
124	0xbe5891cd	-0.21149369
125	0xbed8f885	-0.42377105
126	0xbebe9553	-0.372233
127	0xbe493ec5	-0.19652851

fc3.weight f4 [1, 128]
0	0x3d2b14a2	0.041767724
1	0xbe1f5980	-0.15561485
2	0x3d0e5c6b	0.034756105
3	0xbd97e9da	-0.074176505
4	0x3e030b0e	0.12797186
5	0xbd4ad3db	-0.049518447
6	0x3db62700	0.088941574
7	0x3d3b6007	0.045745876
8	0x3d6da8e5	0.0580224
9	0x3d7a8be2	0.06116856
10	0xbdfd0fd8	-0.123565376
11	0xbd30e273	-0.04318471
12	0xbdbbfc66	-0.091790006
13	0xbe4e5a1b	-0.2015156
14	0xbd83c039	-0.06433148
15	0x3d9b9137	0.07596057
16	0x3d2c23bd	0.04202627
17	0x3d0d315d	0.034470905
18	0x3da02830	0.07820165
19	0x3dbcdcc1	0.09221793
20	0x3e26cc5a	0.16288891
21	0x3d59cc51	0.053173367
22	0xbe82f4b2	-0.25577313
23	0xbdaaa613	-0.083324574
24	0x3dbcc093	0.09216418
25	0xbdab5afd	-0.08366964
26	0x3e2d8dd0	0.16948628
27	0xbea7ccc5	-0.32773414
28	0xbd88afdc	-0.066741675
29	0xbd7f4279	-0.062319253
30	0x3d8b8af6	0.06813614
31	0xbeb484d8	-0.35257602
32	0x3e01c852	0.12674072
33	0xbdbafd68	-0.09130365
34	0x3d88058b	0.06641682
35	0xbd77d50b	-0.060505908
36	0xbd9f3cae	-0.077752456
37	0x3d4d4967	0.05011883
38	0x3db008ca	0.085954264
39	0xbd6a39c9	-0.057184014
40	0x3d84dc25	0.06487302
41	0xbddd5a42	-0.10808231
42	0x3d16e9fc	0.03684424
43	0x3d100b9a	0.035167314
44	0x3e13d269	0.14435734
45	0x3d3aebcd	0.045635033
46	0x3d27981c	0.040916547
47	0xbd8545fe	-0.065074906
48	0x3db1e25e	0.08685754
49	0xbd50ac06	-0.050945304
50	0x3d8da098	0.069153965
51	0xbe026dc1	-0.1273718
52	0xbd2fca6a	-0.042917646
53	0x3d68c4c8	0.05682829
54	0xbd8001ce	-0.06250344
55	0xbd2436c3	-0.040091287
56	0x3e1e6ea8	0.154719
57	0x3e09870e	0.13430426
58	0xbd8a34b4	-0.067483336
59	0xbdbd85d4	-0.09254041
60	0x3dcfed39	0.101526685
61	0x3deb8dc1	0.11501647
62	0x3d267961	0.0406431
63	0x3d5b257d	0.05350255
64	0x3e16b4a8	0.14717352
65	0xbdabf7b9	-0.08396859
66	0x3d70b3f1	0.058765355
67	0x3d3f3aa0	0.04668677
68	0xbdbd68e2	-0.092485204
69	0xbe4ced91	-0.200125
70	0x3d59ea33	0.053201865
71	0xbe506dfb	-0.20354454
72	0x3d843321	0.064550646
73	0x3d100162	0.03515757
74	0xbd12c664	-0.03583373
75	0x3da03b84	0.07823852
76	0x3e0f3be5	0.13987692
77	0x3e152978	0.145666
78	0x3dc9fb03	0.0986233
79	0x3e2d9089	0.16949667
80	0x3d5f1e6d	0.054472376
81	0x3d393152	0.04521305
82	0xbd4c3026	-0.049850605
83	0x3d73ac73	0.059490632
84	0xbd97950a	-0.07401474
85	0x3d7c0660	0.061529517
86	0xbd9fea9e	-0.078084216
87	0xbf25d845	-0.64783126
88	0x3ddbfae0	0.1074121
89	0x3d8e2f9c	0.069426745
90	0x3d993a38	0.074818075
91	0x3d0d92de	0.03456389
92	0xbdf4f6d0	-0.11961138
93	0x3e12f940	0.14352894
94	0x3e223400	0.15840149
95	0x3da2fee9	0.079587765
96	0xbdcb6d67	-0.09932976
97	0x3d8470d3	0.06466832
98	0x3d9e5030	0.07730138
99	0xbdc2eb4f	-0.09517538
100	0xbe14fc78	-0.14549434
101	0x3d40f317	0.04710683
102	0xbece909e	-0.4034471
103	0x3da469cd	0.080279924
104	0xbd8e58e6	-0.0695055
105	0xbd4e8535	-0.050420005
106	0xbdbe9ff7	-0.093078546
107	0xbd84a9e0	-0.064777136
108	0xbcefaed0	-0.029258162
109	0x3d13448f	0.035954054
110	0xbd851d19	-0.064996906
111	0x3d3fce06	0.04682734
112	0xbe682a89	-0.22672476
113	0xbd2f34e5	-0.042775054
114	0x3e2b703b	0.16742031
115	0x3e216429	0.15760864
116	0xbd621ce6	-0.05520334
117	0x3e22bc01	0.1589203
118	0x3e2b9961	0.16757728
119	0xbdaea9a2	-0.08528449
120	0xbdac582e	-0.084152564
121	0x3d9661b5	0.07342855
122	0x3d437c4b	0.047725957
123	0x3d85d423	0.065346025
124	0xbd633023	-0.05546583
125	0xbdbb064e	-0.09132062
126	0xbd3919ba	-0.04519055
127	0xbe546f98	-0.20745695
