tasks/reacher_continuous_control/solutions/ddpg/solution_checkpoint/per_td3_baseline_critic_checkpoint.pth (torch_old, 340072 bytes, 10 tensors)

q_network_a.fc1.weight f4 [256, 33]
-0.017559832 0.057419486 0.18747097 0.10240138 0.09189235 -0.08048234 -0.19740474 -0.08486001
0.031961985 0.021920644 -0.012560603 -0.029825842 -0.04531971 0.116469406 -0.13695017 -0.060414582
-0.07041525 0.006836545 0.14186038 0.020494808 -0.0066443803 -0.059065457 -0.0036990896 0.007480945
-0.01685432 -0.026758539 0.033079743 -0.021282151 0.05432416 -0.043883666 0.044752736 0.02529627
-0.1486111 -0.038525376 -0.043460872 0.043654013 0.17502129 -0.18401496 -0.056103364 -0.004089213
0.28796324 0.09885613 0.035994347 -0.014892263 0.016886653 0.11369805 0.02641616 0.061338987
0.1073051 -0.07259747 0.051253747 0.019137906 0.11586112 -0.082799554 0.04864892 0.0006732926
0.06937789 0.024554847 -0.053369287 -0.018691028 0.07251311 0.032956034 0.022899702 -0.1054846
-0.045943208 0.00049527944 0.088547744 -0.02202587 0.054705117 -0.12749039 -0.06589888 -0.024280297
0.24794509 0.053977024 0.04858944 0.09450461 0.00043371067 -0.026778001 0.062593706 -0.062054332
0.02806203 0.04789126 0.04860439 -0.14635605 -0.2119639 -0.054793876 -0.020121599 0.057015065
-0.005763688 -0.021355428 0.018356988 0.06588736 0.005085606 -0.008618895 0.02900779 0.010810047
0.056591757 0.007677436 0.55587745 -0.026613306 -0.050937057 0.057967905 0.073448904 -0.056017503
0.013827838 0.09949695 0.020806223 0.029741628 -0.049287274 0.018572414 -0.0062003722 0.008225338
0.052164856 0.049811814 -0.031794433 -0.034036912 0.08406103 0.042856853 -0.031390253 -0.014022843
0.0059338054 0.0021618563 0.012116894 -0.0038240778 -0.014856465 -0.053087153 -0.009856984 -0.024794606
0.024382912 0.050943974 -0.03700468 -1.1848357 0.13822925 0.18406469 0.08872097 0.09420868
-0.00059932505 -0.07680505 -0.26852205 -0.1424553 0.06406065 -0.16862257 -0.011597537 0.10433417
-0.06195464 0.022895118 -0.01784896 -0.1446044 0.12033091 -0.13385834 0.054727085 0.3263574
-0.0056781475 -0.07729019 -0.005938834 0.042653073 0.05638323 -0.012208749 -0.0476612 0.13047165
-0.0704445 0.029018186 -0.15611812 -0.0112369135 -0.2826928 -0.15552777 0.018768061 -0.11880519
-0.023929724 0.26049924 -0.101637654 -0.10054182 0.0063041043 -0.12884894 -0.20937884 -0.0064018588
0.06850502 -0.06645664 0.036410846 0.052796125 0.031848714 0.067106016 -0.026963186 0.39065257
0.06891078 -0.033072934 0.006563908 0.06774751 0.022982545 -0.026803847 0.049943272 0.0009891297
0.05973537 0.06905421 0.043116577 -0.009512471 -0.034902394 -0.1948818 0.12929146 -0.054118115
-0.06442637 0.13629659 0.034788374 0.2786161 -0.0045023155 0.01709756 -0.06036828 -0.017742546
-0.0328068 0.0062429463 0.009807477 -0.046947 -0.022486469 0.008325362 -0.21106306 -0.057331923
0.060928762 -0.27624413 -0.048512243 -0.033253513 -0.08080232 0.069752194 0.03157502 0.014442613
-0.022766436 0.02007866 0.092537 -0.030927055 -0.032975044 0.03566014 0.11542029 0.080442294
0.18108939 -0.095004976 -0.0036445982 0.0145695945 0.004538931 -0.062897876 0.007148688 0.029521268
-0.010763497 -0.00047904797 -0.0074079093 -0.026554424 -0.111817725 -0.18021458 0.17049883 -0.01677052
-0.001062734 -0.0065034376 0.02809637 0.0027258752 0.0034621302 0.015591997 -0.002211106 -0.024654418
00000000: a3d9 8fbc b230 6b3d 64f8 3f3e d1b7 d13d
00000010: 0e32 bc3d edd3 a4bd 7824 4abe 16cb adbd
00000020: 92ea 023d ec92 b33c fdca 4dbc 5355 f4bc
00000030: 29a1 39bd 8387 ee3d aa3c 0cbe 4875 77bd
00000040: df35 90bd 1905 e03b d943 113e bae4 a73c
00000050: 1ab9 d9bb 9fee 71bd 6d6c 72bb b722 f53b
00000060: 1212 8abc b934 dbbc a07e 073d e857 aebc
00000070: 0383 5e3d 5cbf 33bd a54e 373d 203a cf3c
00000080: 822d 18be c9cc 1dbd 0704 32bd 8dce 323d
00000090: c838 333e 6b6e 3cbe a4cc 65bd cefe 85bb
000000a0: eb6f 933e 1575 ca3d cf6e 133d aefe 73bc
000000b0: e155 8a3c 86da e83d b466 d83c 973e 7b3d
000000c0: c7c2 db3d fbad 94bd 73ef 513d 19c7 9c3c
000000d0: 9848 ed3d d092 a9bd 1744 473d e77f 303a
000000e0: ff15 8e3d 3f27 c93c c199 5abd ed1d 99bc
000000f0: c181 943d e8fc 063d 2898 bb3c 4f08 d8bd
00000100: f22e 3cbd a4d5 013a 8558 b53d 996f b4bc
00000110: 7912 603d d78c 02be fef5 86bd 79e7 c6bc
00000120: 51e5 7d3e 0317 5d3d b805 473d a28b c13d
00000130: a963 e339 8a5d dbbc 2131 803d af2c 7ebd
00000140: 58e2 e53c a029 443d 6615 473d 5cde 15be
00000150: 110d 59be 8b6f 60bd 0dd6 a4bc a188 693d
00000160: 52dd bcbb 94f1 aebc 6561 963c f4ef 863d
00000170: 28a5 a63b 4436 0dbc bfa1 ed3c a01c 313c
00000180: c2cc 673d 0093 fb3b fc4d 0e3f 2604 dabc
00000190: 60a3 50bd c16f 6d3d 616c 963d 9c72 65bd
000001a0: 288e 623c 0fc5 cb3d d071 aa3c b7a4 f33c
000001b0: 74e1 49bd 2d25 983c 7e2c cbbb 91c3 063c
000001c0: d1aa 553d 7907 4c3d e13a 02bd 4a6a 0bbd
000001d0: 3028 ac3d ab8a 2f3d 1193 00bd 11c0 65bc
000001e0: 5e70 c23b eead 0d3b f085 463c 619d 7abb
000001f0: 8868 73bc ea71 59bd 307f 21bc 0f1e cbbc
00000200: acbe c73c a1aa 503d 3892 17bd b2a8 97bf
00000210: f88b 0d3e 747b 3c3e 57b3 b53d 7bf0 c03d
00000220: 061c 1dba f74b 9dbd b97b 89be cddf 11be
00000230: 3b32 833d 65ab 2cbe 9903 3ebc 27ad d53d
00000240: 26c4 7dbd 8b8e bb3c fb37 92bc 2d13 14be
00000250: 0d70 f63d 2912 09be 8229 603d 5118 a73e
00000260: c10f babb 524a 9ebd 8d9a c2bb fdb4 2e3d
00000270: 1af2 663d 3407 48bc 6438 43bd 5c9a 053e
00000280: 3545 90bd 8cb7 ed3c 6edd 1fbe 081b 38bc
00000290: 1cbd 90be ac42 1fbe 7abf 993c 2350 f3bd
000002a0: 4508 c4bc 2860 853e 6727 d0bd dfe8 cdbd
000002b0: a992 ce3b faf0 03be 6867 56be afc6 d1bb
000002c0: 5c4c 8c3d 6b1a 88bd 8a23 153d c040 583d
000002d0: cc73 023d e16e 893d e6e1 dcbc 9d03 c83e
000002e0: 1821 8d3d 7c77 07bd 0d16 d73b 35bf 8a3d
000002f0: e445 bc3c be93 dbbc 5191 4c3d afa5 813a
00000300: 13ad 743d 4b6c 8d3d 029b 303d 32da 1bbc
00000310: d0f5 0ebd 188f 47be fb64 043e f5aa 5dbd
00000320: f9f1 83bd 5591 0b3e 417e 0e3d c5a6 8e3e
00000330: 2988 93bb 2f10 8c3c bb44 77bd d158 91bc
00000340: 6c60 06bd a191 cc3b 8aaf 203c 7f4b 40bd
00000350: 8b35 b8bc 1967 083c ea20 58be e1d4 6abd
00000360: 7090 793d df6f 8dbe c6b4 46bd d634 08bd
00000370: b07b a5bd 3dda 8e3d cf54 013d b6a0 6c3c
00000380: ad80 babc 017c a43c 0a84 bd3d bc5a fdbc
00000390: d710 07bd 5e10 123d 7961 ec3d eebe a43d
000003a0: 7f6f 393e f891 c2bd 36da 6ebb 4fb5 6e3c
000003b0: 50bb 943b 9ad0 80bd 8b3f ea3b 96d6 f13c
000003c0: 6159 30bc bb28 fbb9 0cbe f2bb aa88 d9bc
000003d0: b100 e5bd 2c8a 38be 3f97 2e3e 5462 89bc
000003e0: 704b 8bba ca1a d5bb 5c2a e63c 99a4 323b
000003f0: e8e4 623b 9375 7f3c 34e8 10bb 10f8 c9bc

q_network_a.fc1.bias f4 [256]
-0.18363647 -0.21929552 0.2127291 0.03310432 -0.21080929 0.13218768 -0.03572449 -0.035231132
-0.30979726 -0.09103085 -0.2407041 0.056817938 0.006065576 -0.11436622 0.09149305 0.15367815
0.009554935 0.005698406 -0.1374807 0.02269051 0.034154586 0.05311987 -0.2213049 -0.06546399
-0.16889817 0.05985899 -0.12510696 -0.16052742 0.032800853 -0.0684668 -0.0069079497 0.03888667
-0.062029228 -0.10931418 0.10388321 -0.08080727 0.19248712 0.09395032 -0.25307354 -0.090259954
-0.09455958 -0.078581944 0.12978561 -0.14267856 0.08074041 -0.1697983 0.110396154 -0.23403773
-0.030603483 0.06890495 -0.0077813407 0.13529779 -0.1272682 0.07213041 -0.072796166 -0.19231835
0.010767446 -0.18660982 0.037997767 -0.056178242 -0.40207878 0.11511943 -0.20817238 0.00395226
0.12243433 -0.21864277 -0.13241193 0.105573535 -0.0655037 0.115097895 0.0015085165 0.08911951
0.12940055 -0.23383144 -0.014095976 -0.14184573 -0.06852698 -0.12588102 -0.08404552 0.15417947
-0.09002881 -0.31396264 -0.007344445 0.028351467 -0.21348435 -0.036710173 0.11957072 0.091657676
-0.07641787 -0.07649909 -0.027641503 -0.038819227 -0.1561918 -0.06613275 -0.11865224 -0.06219857
-0.09993836 0.0044962554 -0.036502987 -0.024877027 0.16564174 0.08110478 0.15348388 0.095593706
-0.038316436 -0.22852743 -0.22890826 -0.07534532 -0.09333046 -0.036218468 0.1609407 -0.2588411
0.12614836 0.013346981 -0.025994541 -0.029339666 0.065412395 -0.10828407 -0.09359085 0.032655146
0.019075138 -0.080050014 0.018783998 -0.061188716 0.119105734 -0.34474197 0.06533412 0.008882263
-0.11647934 0.021650277 -0.27863175 0.09731049 0.05774736 0.06178376 0.018270172 0.19611326
-0.1869497 0.20484589 0.1440842 -0.01989383 0.123641446 -0.032763936 -0.01016732 0.12079016
-0.16127716 0.051545832 -0.04434724 0.03720637 0.077649586 0.0682146 -0.015322244 -0.22031513
-0.074612625 0.09247941 0.07106629 -0.15057804 0.018118264 -0.18429397 0.10748397 -0.017761333
-0.07641258 -0.23859902 -0.20306073 -0.06093709 0.088341594 -0.22597721 -0.23008536 -0.14916156
-0.08817844 -0.07790491 0.099492244 -0.2801519 0.061787702 -0.10766176 -0.18925658 -0.040842965
-0.026049126 0.047727827 -0.19845863 0.15850863 0.115487136 0.21414635 0.034646135 0.0010185323
-0.17869051 0.14061283 -0.010385731 -0.082667425 -0.107585154 -0.12756504 -0.16524099 -0.047314946
-0.16721314 -0.19379085 0.077397324 0.075276084 -0.18564232 0.04134902 -0.066371344 -0.034941256
-0.008246462 0.07880831 -0.03140775 0.046308674 0.12870842 0.20777597 -0.2994391 0.18990044
-0.1548019 0.025126692 0.0878653 0.04101561 -0.09670912 0.059774145 0.0707215 0.052500907
-0.08213568 0.07232002 -0.029036788 0.061250396 -0.17947394 -0.09243967 0.14911906 0.12524384
-0.13032562 -0.2921831 -0.19200233 -0.00616725 0.11634516 0.029693428 -0.23665518 -0.076864414
0.11584 0.12917629 0.14887132 0.0018213268 -0.13448974 -0.016020618 -0.040800523 0.015021796
0.1458009 -0.018442571 0.079946585 0.059431657 0.058205973 -0.044140626 -0.02240799 -0.042281702
-0.2321752 -0.10350838 0.017218992 -0.06639757 -0.040949818 -0.042303503 -0.13786383 0.0086966995
00000000: 330b 3cbe 018f 60be a8d5 593e 6598 073d
00000010: 64de 57be 355c 073e d853 12bd 854e 10bd
00000020: bf9d 9ebe 626e babd 237b 76be edb9 683d
00000030: bdc1 c63b d638 eabd b560 bb3d ce5d 1d3e
00000040: 4d8c 1c3c b2b9 ba3b bec7 0cbe 73e1 b93c
00000050: aee5 0b3d 3994 593d c09d 62be fc11 86bd
00000060: a4f3 2cbe b32e 753d 0a1c 00be 4d61 24be
00000070: 305a 063d 5238 8cbd 155c e2bb a147 1f3d
00000080: 5c12 7ebd 1de0 dfbd b8c0 d43d 487e a5bd
00000090: 581b 453e 0669 c03d db92 81be 36da b8bd
000000a0: 74a8 c1bd 92ef a0bd 85e6 043e 541a 12be
000000b0: 3a5b a53d 9bdf 2dbe 6117 e23d 96a7 6fbe
000000c0: 28b4 fabc 0a1e 8d3d 9efa febb 818b 0a3e
000000d0: 9852 02be 1cb9 933d 2816 95bd 1aef 44be
000000e0: f169 303c a516 3fbe 8ca3 1b3d 281b 66bd
000000f0: 45dd cdbe bcc3 eb3d 242b 55be f681 813b
00000100: dabe fa3d e4e3 5fbe fe96 07be f036 d83d
00000110: ce26 86bd 72b8 eb3d 6ab9 c53a 4a84 b63d
00000120: 9481 043e 8271 6fbe cff2 66bc 0240 11be
00000130: e057 8cbd f4e6 00be 0f20 acbd 39e1 1d3e
00000140: 0661 b8bd b6bf a0be aca9 f0bb 5641 e83c
00000150: a49b 5abe 685d 16bd 7ee1 f43d 05b7 bb3d
00000160: f980 9cbd 8eab 9cbd 6f70 e2bc e900 1fbd
00000170: bef0 1fbe 9b70 87bd f2ff f2bd eec3 7ebd
00000180: 7cac ccbd 5355 933b 2884 15bd e8ca cbbc
00000190: fd9d 293e 431a a63d e12a 1d3e a2c6 c33d
000001a0: b2f1 1cbd 1803 6abe ed66 6abe a64e 9abd
000001b0: 0a24 bfbd d159 14bd a4cd 243e d286 84be
000001c0: 092d 013e 4cad 5a3c 81f2 d4bc bd59 f0bc
000001d0: eff6 853d 0ac4 ddbd 8fac bfbd 67c1 053d
000001e0: 7743 9c3c 43f1 a3bd e6e0 993c 05a1 7abd
000001f0: b5ed f33d 0582 b0be e5cd 853d e986 113c
00000200: b88c eebd ec5b b13c d2a8 8ebe b94a c73d
00000210: 7f88 6c3d f810 7d3d 54ab 953c ead1 483e
00000220: be6f 3fbe 1fc3 513e cf8a 133e 63f8 a2bc
00000230: ba37 fd3d 7a33 06bd d594 26bc d560 f73d
00000240: d725 25be b921 533d 74a5 35bd b565 183d
00000250: bf06 9f3d 19b4 8b3d 260a 7bbc 4a9a 61be
00000260: 81ce 98bd d865 bd3d 348b 913d 2131 1abe
00000270: c16c 943c 8fb7 3cbe 8e20 dc3d 3780 91bc
00000280: 337e 9cbd 4d53 74be 27ef 4fbe 2c99 79bd
00000290: 70ec b43d 9266 67be 7f9b 6bbe cfbd 18be
000002a0: e696 b4bd 9c8c 9fbd 97c2 cb3d 1270 8fbe
000002b0: 1a15 7d3d c57d dcbd 7acc 41be f44a 27bd
000002c0: fa64 d5bc 417e 433d bd38 4bbe 1650 223e
000002d0: 8584 ec3d 2e49 5b3e 1be9 0d3d 4680 853a
000002e0: a5fa 36be cffc 0f3e ea28 2abc 8a4d a9bd
000002f0: 9b55 dcbd 69a0 02be ef34 29be 51cd 41bd
00000300: ec39 2bbe 1c71 46be 7d82 9e3d 592a 9a3d
00000310: 0519 3ebe 975d 293d b3ed 87bd 901e 0fbd
00000320: 2b1c 07bc 4066 a13d 6aa5 00bd 2aae 3d3d
00000330: 24cc 033e 39c3 543e 1550 99be 4375 423e
00000340: 6484 1ebe 7ed6 cd3c b9f2 b33d fcff 273d
00000350: 6e0f c6bd bcd5 743d 6fd6 903d 310b 573d
00000360: c036 a8bd 851c 943d 8fde edbc b2e1 7a3d
00000370: 04c8 37be 0251 bdbd abb2 183e ec3f 003e
00000380: 1474 05be 0699 95be 429c 44be a516 cabb
00000390: 5f46 ee3d a23f f33c bc55 72be 176b 9dbd
000003a0: 863d ed3d ca46 043e b971 183e 96b9 ee3a
000003b0: aeb7 09be ac3d 83bc 731e 27bd fb1d 763c
000003c0: d54c 153e e014 97bc 09bb a33d 9c6e 733d
000003d0: 6369 6e3d cdcc 34bd f690 b7bc 942f 2dbd
000003e0: 56bf 6dbe 34fc d3bd d80e 8d3c 73fb 87bd
000003f0: ffba 27bd 7046 2dbd 2d2c 0dbe 9a7c 0e3c

q_network_a.fc2.weight f4 [128, 260]
-0.037073594 0.040304005 0.06759854 0.019648269 0.056003872 0.08900227 0.0326725 -0.19302674
-0.03462012 -0.1256935 -0.22687939 0.014976012 0.064328 0.08271099 -0.03878032 0.078241594
-0.040004216 0.0033932137 -0.034080893 0.0008406745 -0.07373455 -0.18080233 -0.062450517 -0.20448965
0.15976223 -0.01200797 0.00091641897 0.0027986243 -0.10860059 0.08224701 0.029177947 -0.012638869
0.14932661 0.033212632 0.04372233 0.03202536 0.092633955 -0.096114926 -0.3439348 -0.037128277
0.016953591 -0.0614469 0.00088577427 0.04668843 0.021965127 0.02992081 0.09689835 -0.11788891
-0.007411667 -0.019852117 0.028358474 -0.36538312 -0.0559763 0.10154994 -0.059945077 -0.13284644
0.053513788 0.042223826 0.077409446 -0.015679188 -0.1997891 0.015208916 -0.15954272 -0.10972873
0.07139759 -0.16204531 0.07784003 0.009366765 0.027126713 -0.060804244 0.100132674 0.09049321
0.039522476 0.036492933 -0.11047035 0.035039753 -0.01414928 0.032470822 -0.069149114 0.0013628158
-0.17149355 0.09726324 -0.08673331 0.0714314 0.025316482 -0.023552112 0.017988691 -0.034017324
-0.035927188 -0.021699097 -0.06287758 0.0053843698 0.02325616 0.039466243 0.07186475 0.14105572
-0.059327602 -0.06514022 -0.00901648 -0.05469791 0.02503533 0.08254696 0.056818794 -0.06330617
0.3013939 -0.010737813 0.08765343 0.13514528 0.095766656 0.08742729 0.08694203 0.02572882
-0.25154072 0.059989713 -0.01264179 -0.020138234 -0.027045645 0.08214731 0.021752376 0.06165733
-0.001074397 -0.045727264 -0.0320968 0.15496068 0.03162837 0.025670256 -0.0494071 0.043920964
-0.019640403 -0.017987559 -0.021448638 0.039840717 -0.035564583 -0.151354 0.13393465 0.035370383
0.06841677 -0.021050602 -0.054383483 0.05193052 0.04349579 0.0282824 0.027556356 0.06656593
0.055329017 -0.22369753 -0.18839718 -0.049524717 -0.015015943 -0.00671428 0.08996405 0.07088524
0.11600693 -0.17194408 -0.11225978 -0.40634456 0.026197486 -0.042519998 -0.055013314 0.0008923658
-0.011630934 -0.093605824 -0.1793159 0.037812836 -0.10459426 -0.09611299 -0.12631325 -0.068353795
-0.056051027 -0.06398643 0.04610444 0.05409427 -0.11720645 0.008628684 -0.035344973 0.055989258
-0.022888208 -0.09106802 -0.11582524 0.035396088 0.06731436 -0.04554578 0.22885676 0.029931786
-0.08029748 -0.0746777 -0.22568403 0.092012614 -0.10321825 -0.15374462 -0.23284091 -0.07165189
-0.04457647 0.03201472 0.080099046 0.090642825 -0.1852722 -0.022476537 0.013238447 0.074951634
0.011590561 0.008278377 0.015909985 0.046863455 -0.05772973 -0.078171656 -0.11430391 -0.03569658
0.027207468 -0.040782336 0.08457645 -0.044311162 -0.013707293 0.121955 0.08460812 -0.095729895
0.030594902 -0.027640084 0.05725599 -0.04647049 0.05809544 -0.065503284 -0.08921865 0.09443458
0.081600025 0.027715579 -0.063828394 -0.043580845 -0.011495055 -0.22271216 0.04507053 0.12787771
0.07101761 0.030345809 0.11826053 0.018312577 0.05997765 -0.16099958 0.04664483 0.13514024
0.03705095 -0.11480791 0.060137387 -0.06965537 -0.0020433539 -0.17217515 0.016743952 -0.09009539
0.050089423 0.015447719 -0.06550686 -0.003866311 -0.13049957 0.014535762 -0.0009537973 -0.0305772
00000000: 7bda 17bd d015 253d 1a71 8a3d 68f5 a03c
00000010: 5164 653d d246 b63d 99d3 053d cda8 45be
00000020: d4cd 0dbd ccb5 00be 1253 68be f25d 753c
00000030: 66be 833d 6164 a93d 1dd8 1ebd 213d a03d
00000040: 76db 23bd ae60 5e3b 6898 0bbd b660 5c3a
00000050: 2402 97bd 3f24 39be 1dcc 7fbd bc65 51be
00000060: b698 233e 14bd 44bc d63b 703a 2069 373b
00000070: fc69 debd 1f71 a83d 9706 ef3c 4213 4fbc
00000080: 13e9 183e f809 083d 3016 333d 062d 033d
00000090: dfb6 bd3d e7d7 c4bd 3918 b0be d213 18bd
000000a0: 42e2 8a3c bfaf 7bbd 4e33 683a 5e3c 3f3d
000000b0: 36f0 b33c 7d1c f53c a472 c63d be6f f1bd
000000c0: 92dd f2bb e8a0 a2bc 0850 e83c 7f13 bbbe
000000d0: 6847 65bd 6af9 cf3d f888 75bd e608 08be
000000e0: 4631 5b3d e4f2 2c3d d888 9e3d a471 80bc
000000f0: 8495 4cbe d12e 793c 2b5f 23be 75b9 e0bd
00000100: e638 923d 35ef 25be 986a 9f3d 0f77 193c
00000110: d738 de3c df0d 79bd 5c12 cd3d 8154 b93d
00000120: 52e2 213d 9d79 153d 473e e2bd d885 0f3d
00000130: 62d2 67bc 2000 053d 0d9e 8dbd 83a0 b23a
00000140: 019c 2fbe f331 c73d 3ca1 b1bd a04a 923d
00000150: 8364 cf3c 5cf0 c0bc 055d 933c c055 0bbd
00000160: 6328 13bd 4ec2 b1bc f6c5 80bd 5e6f b03b
00000170: b483 be3c 5ba7 213d d32d 933d e970 103e
00000180: 8001 73bd 3c68 85bd dcb9 13bc ea0a 60bd
00000190: e416 cd3c 610e a93d d3ba 683d aaa6 81bd
000001a0: 4d50 9a3e a7ed 2fbc a483 b33d 8663 0a3e
000001b0: 4f21 c43d 140d b33d aa0e b23d 3fc5 d23c
000001c0: f2c9 80be c6b7 753d 831f 4fbc f0f8 a4bc
000001d0: d48e ddbc d93c a83d 0a32 b23c 658c 7c3d
000001e0: c8d2 8cba 834c 3bbd ef77 03bd 03ae 1e3e
000001f0: c08c 013d 6e4a d23c 195f 4abd 78e6 333d
00000200: e9e4 a0bc a55a 93bc 0eb5 afbc 0530 233d
00000210: 2bac 11bd 8bfc 1abe 2a26 093e 89e0 103d
00000220: 171e 8c3d 5072 acbc 37c1 5ebd 19b5 543d
00000230: a428 323d 7eb0 e73c debd e13c b853 883d
00000240: aea0 623d f710 65be 31eb 40be 6eda 4abd
00000250: 6e05 76bc 7703 dcbb 123f b83d 482c 913d
00000260: 0b95 ed3d 1c12 30be 75e8 e5bd 650c d0be
00000270: 1c9c d63c 7329 2ebd a455 61bd a8ed 693a
00000280: ac8f 3ebc 69b4 bfbd 969e 37be a2e1 1a3d
00000290: 8435 d6bd e3d6 c4bd 4358 01be 13fd 8bbd
000002a0: c395 65bd 510b 83bd 02d8 3c3d f491 5d3d
000002b0: ef09 f0bd 535f 0d3c e4c5 10bd fe54 653d
000002c0: 0d80 bbbc df81 babd c935 edbd 7dfb 103d
000002d0: 1cdc 893d 368e 3abd 6d59 6a3e 8133 f53c
000002e0: 0173 a4bd 9ff0 98bd b719 67be 1c71 bc3d
000002f0: 1764 d3bd 3b6f 1dbe d96d 6ebe 3abe 92bd
00000300: d195 36bd de21 033d f80a a43d f2a2 b93d
00000310: ffb7 3dbe b720 b8bc 12e6 583c 3e80 993d
00000320: 56e6 3d3c 08a2 073c a855 823c e5f3 3f3d
00000330: 0276 6cbd 7618 a0bd 2b18 eabd 9436 12bd
00000340: 32e2 de3c 610b 27bd 6b36 ad3d 9f7f 35bd
00000350: 8e94 60bc 8bc3 f93d 0647 ad3d 090e c4bd
00000360: 29a2 fa3c 756d e2bc 4285 6a3d d757 3ebd
00000370: 7cf5 6d3d 9626 86bd 44b8 b6bd eb66 c13d
00000380: ea1d a73d c80b e33c 76b8 82bd d481 32bd
00000390: c155 3cbc a80e 64be e09b 383d 60f2 023e
000003a0: ae71 913d c697 f83c 9432 f23d 4204 963c
000003b0: 20ab 753d 13dd 24be a60e 3f3d 3462 0a3e
000003c0: bdc2 173d 6920 ebbd 9f52 763d 7aa7 8ebd
000003d0: cae9 05bb af4e 30be 9d2a 893c ef83 b8bd
000003e0: 912a 4d3d 6e18 7d3c 7628 86bd ef61 7dbb
000003f0: aea1 05be 6827 6e3c 4108 7aba 097d fabc

q_network_a.fc2.bias f4 [128]
0.049803205 -0.07156392 -0.1750671 -0.025055924 -0.013831942 -0.11084421 -0.086501434 -0.1137018
-0.13868882 -0.13646257 -0.16018464 -0.05938695 0.13202341 0.07849003 0.14324611 -0.15186913
0.13498977 -0.0663668 0.1478592 -0.124637924 0.05717274 0.19645423 0.13540022 -0.057243176
-0.19986363 -0.04958444 -0.16571574 -0.043263707 0.14797503 -0.08935129 -0.06493037 -0.020290619
-0.049571354 0.06219428 -0.15830593 -0.14391099 0.14763208 -0.12198138 -0.016635085 -0.0059689702
0.058680363 -0.08237856 0.013839066 0.12625228 -0.20423289 -0.003293302 0.08523837 -0.017468633
-0.08113444 0.026986776 -0.08330449 -0.07758245 0.0411441 -0.12972572 -0.09754354 -0.12853262
-0.14616439 -0.1035859 -0.051646635 -0.04135507 -0.04336808 0.16843583 -0.14796907 -0.0510397
0.095229484 -0.06671647 -0.14777917 -0.08782315 -0.09390659 -0.041825186 0.21619901 -0.14124143
-0.15231377 -0.07690162 0.0046488377 -0.08856092 0.07895401 -0.08035703 0.026776051 -0.020553447
-0.09592582 -0.16800524 -0.050698917 -0.119430214 -0.07291165 -0.18816666 0.116487 0.14015546
0.118699946 -0.12964068 -0.1223844 -0.09596008 -0.15500993 0.16033295 0.10688931 0.11843834
0.045280367 -0.10250726 0.080488995 0.08809094 0.08928382 -0.022810569 -0.13283011 -0.14957212
0.1501544 0.115814246 -0.13052863 -0.13751289 0.10360891 0.1267151 0.060078554 0.07161486
-0.08073838 -0.046831958 0.0869216 -0.06998908 -0.12656416 0.06940214 0.123895966 0.054026924
0.08285671 0.16554153 0.14328294 -0.08022486 -0.03522141 0.11381333 -0.036070716 0.1302422
00000000: 72fe 4b3d 1b90 92bd ca44 33be 1542 cdbc
00000010: 5f9f 62bc 4a02 e3bd aa27 b1bd 7ddc e8bd
00000020: 7104 0ebe d8bc 0bbe 7107 24be bb3f 73bd
00000030: 2531 073e 61bf a03d 1caf 123e 9583 1bbe
00000040: c23a 0a3e 51eb 87bd 6768 173e 2b42 ffbd
00000050: f72d 6a3d 4c2b 493e 5ba6 0a3e d277 6abd
00000060: 0da9 4cbe 0e19 4bbd 63b1 29be 4935 31bd
00000070: c486 173e cffd b6bd 37fa 84bd 8338 a6bc
00000080: 550b 4bbd 6ebf 7e3d f31a 22be 675d 13be
00000090: dd2c 173e 60d1 f9bd 4d46 88bc 5a97 c3bb
000000a0: d25a 703d 17b6 a8bd 40bd 623c 4748 013e
000000b0: 6d22 51be 70d4 57bb 7491 ae3d 611a 8fbc
000000c0: d029 a6bd 5f13 dd3c 8b9b aabd 8ce3 9ebd
000000d0: b786 283d d2d6 04be e8c4 c7bd 0e9e 03be
000000e0: 1eac 15be d824 d4bd 6c8b 53bd ef63 29bd
000000f0: baa2 31bd 717a 2c3e 3485 17be 010f 51bd
00000100: ad07 c33d a5a2 88bd 6c53 17be a0dc b3bd
00000110: 1952 c0bd e350 2bbd 4663 5d3e 98a1 10be
00000120: 24f8 1bbe 997e 9dbd 4755 983b 6d5f b5bd
00000130: a4b2 a13d 3a92 a4bd 7359 db3c b45f a8bc
00000140: c274 c4bd 9109 2cbe aba9 4fbd d497 f4bd
00000150: b452 95bd c3ae 40be bc90 ee3d ea84 0f3e
00000160: f518 f33d 87c0 04be aca4 fabd b886 c4bd
00000170: ecba 1ebe 522e 243e c8e8 da3d cd8f f23d
00000180: e877 393d 54ef d1bd 6ad7 a43d 0669 b43d
00000190: 6fda b63d 3bdd babc 9e04 08be 6f29 19be
000001a0: 13c2 193e 0530 ed3d 4ca9 05be 2ed0 0cbe
000001b0: e930 d43d 9ac1 013e ee14 763d d0aa 923d
000001c0: 2a5a a5bd ded2 3fbd f403 b23d 6f56 8fbd
000001d0: 099a 01be b622 8e3d 2bbd fd3d 564b 5d3d
000001e0: c7b0 a93d b883 293e c3b8 123e ee4c a4bd
000001f0: 5344 10bd f716 e93d e3be 13bd 365e 053e

q_network_a.fc3.weight f4 [1, 128]
0.25744885 -0.17661153 -0.20541246 -0.1548386 -0.4759471 -0.18527235 -0.1611452 -0.13982971
-0.33382303 -0.31270564 -0.12306405 -0.11376868 0.13492548 0.1311263 0.12641771 -0.12956737
0.1813615 -0.144176 0.14757545 -0.13101953 0.26264545 0.12493137 0.18066917 -0.2615259
-0.14498438 -0.17047192 -0.05959929 -0.13680941 0.24249049 -0.200709 -0.109044164 -0.11614939
-0.1583137 0.21539542 -0.104247026 -0.12909006 0.13631646 -0.15177917 -0.1762017 -0.29667813
0.21793115 -0.06676129 -0.08317268 0.17519774 -0.1177254 -0.09663649 0.19153933 -0.11021155
-0.19111031 0.1237705 -0.0849697 -0.14571053 0.11477575 -0.110673636 -0.14100029 -0.43308994
-0.14830434 -0.10748487 -0.14581247 -0.14259973 -0.120514974 0.122357085 -0.121165924 -0.09274453
0.28216863 -0.13844675 -0.10962725 -0.1579211 -0.12599814 -0.11946043 0.22938222 -0.15163587
-0.123670295 -0.17152275 0.54332733 -0.26980606 0.22753061 -0.078310646 0.18424135 -0.15949744
-0.16526137 -0.19609028 -0.1259737 -0.15221727 -0.2613002 -0.10586772 0.17469065 0.11191325
0.10618076 -0.16912547 -0.105982065 -0.18611899 -0.120275095 0.16595896 0.14578414 0.0910307
0.41532612 -0.13424875 0.14894037 0.0954115 0.12987784 0.17078191 -0.15944906 -0.14935431
0.21133892 0.16557059 -0.10859289 -0.14775711 0.12088436 0.17328222 0.58670807 0.1427805
-0.12986335 -0.37080175 0.14008218 -0.17031935 -0.24392004 0.2573553 0.12638058 0.17479959
0.26354593 0.13173196 0.087161444 -0.17238355 -0.19016916 0.17120296 -0.22620006 0.09992031
00000000: 56d0 833e a7d9 34be a557 52be 038e 1ebe
00000010: 57af f3be 09b8 3dbe 3f03 25be 852f 0fbe
00000020: daea aabe f41a a0be 0109 fcbd 8eff e8bd
00000030: e829 0a3e f945 063e a573 013e 4fad 04be
00000040: d4b6 393e e0a2 13be 051e 173e fc29 06be
00000050: 7779 863e 05dc ff3d 5701 393e b9e6 85be
00000060: c976 14be 3190 2ebe 631e 74bd c417 0cbe
00000070: 6d4f 783e a986 4dbe 8c52 dfbd bbdf edbd
00000080: fd1c 22be 9e90 5c3e 777f d5bd 2f30 04be
00000090: 8b96 0b3e 006c 1bbe 386e 34be 32e6 97be
000000a0: 5829 5f3e 25ba 88bd 7056 aabd 0967 333e
000000b0: 041a f1bd 5ae9 c5bd e322 443e 98b6 e1bd
000000c0: 6cb2 43be 637b fd3d 9804 aebd 2435 15be
000000d0: 8c0f eb3d dca8 e2bd 6162 10be f7bd ddbe
000000e0: 18dd 17be 0721 dcbd dd4f 15be aa05 12be
000000f0: 8ed0 f6bd 5a96 fa3d d725 f8bd d8f0 bdbd
00000100: 6878 903e fcc4 0dbe 4084 e0bd 12b6 21be
00000110: a805 01be aca7 f4bd 2ce3 6a3e 6f46 1bbe
00000120: da46 fdbd a9a3 2fbe 8017 0b3f 0524 8abe
00000130: c9fd 683e 5561 a0bd c4a9 3c3e 4c53 23be
00000140: 473a 29be e4cb 48be 40ff 00be d8de 1bbe
00000150: 24c9 85be 2dd1 d8bd 1be2 323e c632 e53d
00000160: 4c75 d93d 3a2f 2dbe 200d d9bd fa95 3ebe
00000170: ca52 f6bd 25f1 293e 7048 153e 4e6e ba3d
00000180: a0a5 d43e 8178 09be d383 183e 1b67 c33d
00000190: b2fe 043e 74e1 2e3e 9d46 23be 56f0 18be
000001a0: 3b69 583e 568b 293e f365 debd a44d 17be
000001b0: 3892 f73d e570 313e 8032 163f 0d35 123e
000001c0: e6fa 04be bad9 bdbe b471 0f3e 3268 2ebe
000001d0: 2dc6 79be 13c4 833e e969 013e aafe 323e
000001e0: 7eef 863e bee4 063e b381 b23d 5085 30be
000001f0: b4bb 42be d44f 2f3e fda0 67be 05a3 cc3d

q_network_b.fc1.weight f4 [256, 33]
0.00011987438 0.065084904 -0.0036289515 -0.18775105 0.03689619 0.09498773 0.28315827 -0.030693686
-0.08981649 -0.12289664 0.009897082 -0.005981493 -0.028797248 0.03630164 -0.043883115 -0.04601256
0.12347287 -0.037971325 0.1409151 0.23644498 -0.09287316 -0.04617304 -0.08891618 -0.11748399
0.06799869 0.01674793 -0.03705517 0.08301366 0.021096341 -0.017643295 -0.14155497 -0.01598186
-0.6317874 -0.02712038 -0.0011346168 -0.0063556465 0.023058334 -0.26850304 -0.098652594 -0.04216853
0.042903863 0.20333315 0.0031071408 0.021686338 -0.065670885 -0.026887726 0.17743254 -0.049393173
-0.053551253 -0.007066659 -0.050517913 -0.05578027 0.35467485 -0.0019213769 -0.021752816 0.037714645
-0.0056320475 0.021424973 -0.017780013 -0.13485935 0.15110214 -0.021608934 -0.026041903 -0.15797289
-0.0058943555 -0.1468785 0.045784794 0.19087428 0.013623176 0.25345364 -0.169188 -0.31893247
-0.2682657 0.034591667 0.014386779 -0.060037483 0.10726833 0.04075773 0.0027828072 -0.013133992
0.005390029 0.053050082 -0.16148876 -0.20556848 -0.2398557 -0.055664074 0.018473227 0.0482113
0.01777693 -0.031129835 -0.0020596553 0.027960444 -0.07877805 0.01960277 0.03147457 -0.06204529
0.022095487 -0.046474315 0.25704753 0.07934783 0.18596143 0.0100875525 -0.055782776 0.1763165
0.074976705 -0.058571298 -0.07508507 0.39094815 -0.011211716 0.10378625 0.026238078 -0.019031998
-0.02797653 -0.004798163 0.027999328 -0.22283423 0.026170038 -0.008295719 0.019457957 -0.03168429
0.051027913 0.014267484 -0.055614118 -0.047904044 -0.064008616 0.017112022 0.010953377 -0.0180651
-0.047210485 -0.0005169528 0.00021792203 -0.68958795 0.16771851 -0.044024486 -0.047086157 -0.1872024
-0.14029998 0.11036856 0.19409744 0.023299236 0.13647288 0.086963646 0.0042063217 -0.0071016443
-0.014254112 -0.037690908 0.01383975 0.07467225 0.057940938 0.0031475585 -0.078502804 -0.044078596
0.04023656 -0.031425193 -0.005173902 -0.042859603 0.009717065 -0.017732298 -0.07842247 0.01675964
-0.1164029 -0.008424118 -0.099704 0.002466254 0.7365488 -0.07694062 -0.06287267 0.016579043
0.17922148 -0.011974014 -0.03836584 0.017049816 0.012603401 -0.10571218 -0.17711744 0.015462781
0.0077195885 0.01309422 0.032239966 -0.0025505964 0.0017841284 0.18108682 0.03224093 0.044841003
0.3009362 -0.02811657 0.059464253 0.091275 -0.0064687063 -0.031159569 0.034723412 0.08707066
0.00970419 0.07794932 -0.015213482 -0.028461194 -0.03610988 0.26898283 -0.003947732 -0.0338946
0.07842714 0.21822369 0.3124995 0.0019982597 0.29171124 -0.025625143 0.06842527 -0.11013647
0.06237241 -0.03917404 0.0033594444 0.030122194 -0.015487471 0.015781386 0.1665129 -0.13585185
-0.027067406 -0.037743054 -0.08983916 -0.10728026 0.016259283 -0.025216201 -0.021324072 -0.046570826
-0.016907467 -0.02114583 -0.08883271 0.032453857 0.020789037 0.02632422 -0.0070139826 0.1662546
-0.040083267 0.12512429 -0.02586859 -0.015535633 -0.10619643 0.09833794 -0.03977675 0.28280094
0.00029169317 0.02262444 0.035227954 0.05172938 -0.21924083 0.003268204 -0.16512085 0.029382102
0.09526958 -0.14979982 -0.032285105 0.00089996256 -0.025921308 -0.014620076 -0.09933312 -0.020433867
00000000: 1165 fb38 3c4b 853d b4d3 6dbb d041 40be
00000010: 7620 173d ed88 c23d 1ffa 903e 5371 fbbc
00000020: b5f1 b7bd 3cb1 fbbd 5f27 223c 6600 c4bb
00000030: 35e8 ebbc 07b1 143d c8be 33bd ab77 3cbd
00000040: 58df fc3d d287 1bbd 0c4c 103e a21e 723e
00000050: 4934 bebd f11f 3dbd b019 b6bd 729b f0bd
00000060: e642 8b3d f432 893c 29c7 17bd 1103 aa3d
00000070: 3cd2 ac3c ac88 90bc c9f3 10be 64ec 82bc
00000080: d2bc 21bf 8f2b debc 6cb7 94ba 0743 d0bb
00000090: d5e4 bc3c 3b79 89be 5f0a cabd e9b8 2cbd
000000a0: f6bb 2f3d 9136 503e 2ca1 4b3b 8ca7 b13c
000000b0: 757e 86bd a643 dcbc e0b0 353e 7f50 4abd
000000c0: 8f58 5bbd 6f8f e7bb dfeb 4ebd da79 64bd
000000d0: f197 b53e b6d6 fbba f632 b2bc ac7a 1a3d
000000e0: 0a8d b8bb 6d83 af3c 64a7 91bc 9218 0abe
000000f0: 85ba 1a3e 3805 b1bc d455 d5bc a5c3 21be
00000100: 7025 c1bb 5167 16be d688 3b3d 8c74 433e
00000110: be33 5f3c adc4 813e 9e3f 2dbe 1e4b a3be
00000120: 1f5a 89be feaf 0d3d 86b6 6b3c dde9 75bd
00000130: 80af db3d 94f1 263d c25f 363b f52f 57bc
00000140: d79e b03b 0b4b 593d 4f5d 25be 8b80 52be
00000150: bc9c 75be 0300 64bd 2a55 973c 3679 453d
00000160: eda0 913c ff03 ffbc 48fb 06bb 4d0d e53c
00000170: 6356 a1bd fd95 a03c 7beb 003d 3423 7ebd
00000180: 9801 b53c da5b 3ebd bc9b 833e 1d81 a23d
00000190: ac6c 3e3e 4346 253c 7b7c 64bd 508c 343e
000001a0: 638d 993d 75e8 6fbd 34c6 99bd 5b2a c83e
000001b0: 58b1 37bc e38d d43d 3df1 d63c fee8 9bbc
000001c0: 092f e5bc e939 9dbb d95e e53c a82e 64be
000001d0: 8c62 d63c c4ea 07bc 4b66 9f3c 63c7 01bd
000001e0: a502 513d 2ac2 693c a1cb 63bd 0837 44bd
000001f0: f316 83bd 832e 8c3c cb75 333c 43fd 93bc
00000200: c85f 41bd 1d84 07ba 0082 6439 d688 30bf
00000210: 67be 2b3e 0553 34bd 6add 40bd fcb1 3fbe
00000220: ccaa 0fbe e908 e23d 7bc1 463e 0ade be3c
00000230: 8cbf 0b3e ff19 b23d 2fd5 893b e9b4 e8bb
00000240: 148a 69bc c861 1abd 1ec0 623c c4ed 983d
00000250: 7a53 6d3d 4547 4e3b 14c6 a0bd c28b 34bd
00000260: 17cf 243d b4b7 00bd d689 a9bb 8d8d 2fbd
00000270: 5334 1f3c 5343 91bc f69b a0bd 834b 893c
00000280: a564 eebd 5005 0abc 9c31 ccbd e0a0 213b
00000290: 768e 3c3f 0b93 9dbd 63c3 80bd c6d0 873c
000002a0: d685 373e a82e 44bc 8025 1dbd 0eac 8b3c
000002b0: 7f7e 4e3c a17f d8bd 465e 35be 9b57 7d3c
000002c0: 9af4 fc3b 2489 563c 0e0e 043d e827 27bb
000002d0: 6ad9 e93a d36e 393e 110f 043d 33ab 373d
000002e0: 4f14 9a3e b954 e6bc ca90 733d 63ee ba3d
000002f0: 71f7 d3bb 5a42 ffbc 233a 0e3d 1a52 b23d
00000300: 53fe 1e3c e5a3 9f3d f841 79bc 7327 e9bc
00000310: f4e7 13bd 1eb8 893e fa5b 81bb 10d5 0abd
00000320: 699e a03d 0876 5f3e efff 9f3e 3cf5 023b
00000330: 2d5b 953e d2eb d1bc 8c22 8c3d 3b8f e1bd
00000340: 367a 7f3d f574 20bd 202a 5c3b d2c2 f63c
00000350: 29bf 7dbc f747 813c 5c82 2a3e bf1c 0bbe
00000360: 77bc ddbc 7698 1abd 98fd b7bd c1b5 dbbd
00000370: 3032 853c 3592 cebc d2af aebc 0dc1 3ebd
00000380: 8781 8abc 053a adbc eded b5bd 56ee 043d
00000390: c54d aa3c e4a5 d73c 8dd5 e5bb a53e 2a3e
000003a0: 5a2e 24bd 9520 003e 5eea d3bc 2b89 7ebc
000003b0: 847d d9bd 6765 c93d f2ec 22bd 49cb 903e
000003c0: 65ee 9839 e456 b93c 304b 103d 30e2 533d
000003d0: ab80 60be 5d2f 563b 7115 29be bcb2 f03c
000003e0: b31c c33d 2065 19be 633d 04bd 77eb 6b3a
000003f0: ec58 d4bc 0b89 6fbc 2a6f cbbd ed64 a7bc

q_network_b.fc1.bias f4 [256]
-0.16171667 -0.19425377 0.14656584 -0.07363223 0.037475463 -0.049111977 -0.18532984 -0.05530563
0.07208857 0.078321345 -0.03479953 0.11790988 -0.09976146 0.15683255 0.18578221 0.18131344
0.024381602 -0.042561438 0.026673121 -0.039337862 0.04716188 -0.19809641 -0.12118355 -0.0076644854
-0.20932944 0.042681802 0.14496931 0.01773682 0.09211017 -0.095529646 -0.06291646 -0.010665323
0.0062995744 -0.16198163 -0.12143069 0.08968646 -0.11135864 -0.1870655 0.2329004 0.13434732
-0.14425984 0.113947004 0.11975613 0.1946503 0.11547728 -0.15851721 0.12940447 -0.098947555
0.04170501 0.16549875 -0.22424527 0.037610468 -0.050193336 -0.09847737 0.03500384 0.070233434
-0.09153703 -0.04578393 -0.23467565 0.021881282 -0.09738582 -0.30259675 0.088893965 -0.02596155
-0.029058376 -0.014436036 0.04106561 -0.023941534 0.07366505 -0.18760526 0.053146064 -5.595442e-06
-0.21186231 -0.008355046 0.012399715 -0.007998863 -0.19359854 -0.16726105 -0.08378398 0.008513119
0.09094636 -0.05673761 -0.020877281 -0.022164535 0.032984566 0.009199176 -0.09876392 -0.09698929
-0.07140411 0.10333533 -0.025984827 -0.006281814 0.06629935 0.15997064 0.021379678 0.0029674284
-0.01587347 -0.18840185 -0.06034493 0.010534551 -0.04382685 0.07799864 0.111941546 -0.043106727
-0.055714317 -0.049405713 -0.21085252 0.01413322 0.046796944 -0.071022354 0.2739491 -0.08063737
-0.3621493 -0.16814858 -0.026489424 -0.1830283 -0.014776313 -0.09134621 0.033870157 -0.11936123
0.19016813 0.14389424 -0.06800077 -0.0046356274 0.11905924 -0.08860702 -0.21204405 -0.11688973
-0.0870654 -0.21489014 -0.20734866 -0.17070614 -0.06147601 -0.18764518 -0.18058883 0.14375745
-0.15798613 -0.14635815 -0.10528541 -0.04682184 -0.008580163 0.018658733 -0.04062623 -0.09279672
-0.034384403 -0.18010151 -0.06607811 0.1647925 0.14730455 -0.049314845 -0.18485384 -0.05269806
0.015465183 -0.11877735 0.034847066 -0.074947245 -0.20588306 0.06419118 -0.07025311 -0.1363133
-0.093663625 -0.05132796 0.09643686 0.26853317 -0.030138148 -0.04266803 -0.098202825 -0.08288359
-0.073669374 0.023351261 0.12261512 0.19828819 -0.18713473 -0.013404051 0.018357612 0.044388093
-0.25658447 -0.12630469 -0.06389572 -0.090739965 -0.010967251 0.03459378 0.07096557 -0.14571644
0.059941996 0.07141951 0.08527204 -0.04566173 -0.17557226 0.048899803 -0.131668 0.11828319
0.14928892 -0.105336875 -0.033248182 -0.110464774 0.07548619 0.20595697 -0.18982528 0.027039465
0.13893008 0.13781214 0.017979112 0.07420403 -0.046362042 -0.22886862 -0.2105539 -0.2146407
-0.052393254 0.05684474 -0.12436289 -0.0048468644 -0.21932793 0.039232038 -0.22162206 -0.055573914
-0.15136518 -0.0854476 -0.11025336 0.09046383 -0.044800963 -0.11122938 0.07413733 -0.03655715
0.080882855 -0.070648454 -0.117174305 -0.16001259 -0.21334629 -0.07044762 -0.0021186327 0.12627442
-0.22794783 0.1765939 -0.104207285 -0.20705527 0.07974162 0.020065332 -0.080974214 -0.017950954
-0.20064658 -0.2871408 -0.17040843 -0.057367645 -0.033304412 -0.16026354 -0.018191703 0.051557135
-0.113466956 0.15768722 -0.002925432 -0.1120358 -0.072459266 -0.0520706 -0.24217467 0.026287379
00000000: 0e99 25be 76ea 46be 5b15 163e 7fcc 96bd
00000010: df7f 193d a429 49bd 1bc7 3dbe 2888 62bd
00000020: 2ca3 933d f166 a03d f489 0ebd bc7a f13d
00000030: bd4f ccbd b698 203e b13d 3e3e 3baa 393e
00000040: edbb c73c e754 2ebd 9781 da3c bd20 21bd
00000050: d12c 413d c9d9 4abe 152f f8bd 5d26 fbbb
00000060: 755a 56be 1dd3 2e3d d672 143e cf4c 913c
00000070: 42a4 bc3d 0ca5 c3bd 58da 80bd 9bbd 2ebc
00000080: a96c ce3b 83de 25be a7b0 f8bd 89ad b73d
00000090: 0010 e4bd 198e 3fbe 717d 6e3e 5892 093e
000000a0: dab8 13be 0c5d e93d b442 f53d 6952 473e
000000b0: 5a7f ec3d 5652 22be 9b82 043e 04a5 cabd
000000c0: dfd2 2a3d 8178 293e 8da0 65be 6f0d 1a3d
000000d0: 8797 4dbd 81ae c9bd 3060 0f3d 8cd6 8f3d
000000e0: c477 bbbd ee87 3bbd d04e 70be 6040 b33c
000000f0: 3772 c7bd f6ed 9abe 0a0e b63d 51ad d4bc
00000100: d50b eebc 2085 6cbc 6a34 283d 0921 c4bc
00000110: b4dd 963d 981b 40be b0af 593d 7bc0 bbb6
00000120: 6ff2 58be 9ae3 08bc 2d28 4b3c aa0d 03bc
00000130: b23e 46be 7b46 2bbe ef96 abbd 9c7a 0b3c
00000140: 1642 ba3d b265 68bd d506 abbc 6692 b5bc
00000150: d31a 073d 24b8 163c bd44 cabd 52a2 c6bd
00000160: 513c 92bd 79a1 d33d 22de d4bc add7 cdbb
00000170: f4c7 873d 58cf 233e 6f24 af3c 3079 423b
00000180: 1409 82bc 6aec 40be 3f2c 77bd 1c99 2c3c
00000190: c883 33bd c0bd 9f3d 9c41 e53d ae90 30bd
000001a0: b234 64bd a55d 4abd b9e9 57be 058f 673c
000001b0: 27ae 3f3d 2b74 91bd 0e43 8c3e 3525 a5bd
000001c0: a26b b9be 242f 2cbe 5900 d9bc c56b 3bbe
000001d0: 5918 72bc b913 bbbd 6fbb 0a3d a973 f4bd
000001e0: 6fbb 423e 0359 133e fd43 8bbd 76e6 97bb
000001f0: 55d5 f33d 9977 b5bd 1322 59be e263 efbd
00000200: 584f b2bd 290c 5cbe 3553 54be 97cd 2ebe
00000210: 45ce 7bbd 0f26 40be 47ec 38be 2735 133e
00000220: 1ec7 21be e9de 15be e19f d7bd 42c8 3fbd
00000230: d093 0cbc 33da 983c b167 26bd 350c bebd
00000240: a9d6 0cbd 886c 38be f653 87bd 5dbf 283e
00000250: 01d7 163e 5dfe 49bd 534a 3dbe ecd9 57bd
00000260: ae61 7d3c 8a41 f3bd ccbb 0e3d f17d 99bd
00000270: 02d3 52be aa76 833d dde0 8fbd b795 0bbe
00000280: b7d2 bfbd 443d 52bd b080 c53d 2e7d 893e
00000290: 47e4 f6bc acc4 2ebd 901e c9bd dfbe a9bd
000002a0: f8df 96bd 254b bf3c a31d fb3d 0f0c 4b3e
000002b0: 3fa0 3fbe aa9c 5bbc b462 963c 4ad0 353d
000002c0: 0a5f 83be 0456 01be c2db 82bd e0d5 b9bd
000002d0: fcaf 33bc 35b2 0d3d 6656 913d b136 15be
000002e0: bd85 753d 6444 923d 1ba3 ae3d cb07 3bbd
000002f0: 37c9 33be 294b 483d fad3 06be 753e f23d
00000300: 32df 183e dcba d7bd 3f2f 08bd 5b3b e2bd
00000310: 8198 9a3d 62e6 523e 8f61 42be de81 dd3c
00000320: b043 0e3e a01e 0d3e ee48 933c 48f8 973d
00000330: 20e6 3dbd 895c 6abe 719b 57be c6ca 5bbe
00000340: 4f9a 56bd 08d6 683d f9b1 febd 72d2 9ebb
00000350: 8097 60be c6b1 203d e5f0 62be 79a1 63bd
00000360: 79ff 1abe 27ff aebd 83cc e1bd 1a45 b93d
00000370: 3781 37bd 3bcc e3bd 50d5 973d f3bc 15bd
00000380: e9a5 a53d 23b0 90bd 15f9 efbd 57da 23be
00000390: 7377 5abe d746 90bd c2d8 0abb 154e 013e
000003a0: 286b 69be 08d5 343e a16a d5bd 4c06 54be
000003b0: 934f a33d 0d60 a43c cfd5 a5bd e10d 93bc
000003c0: 4c76 4dbe 1e04 93be 8c7f 2ebe 56fa 6abd
000003d0: 356a 08bd 201c 24be c406 95bc 932d 533d
000003e0: 5d61 e8bd c278 213e 9bb8 3fbb 0773 e5bd
000003f0: 8665 94bd fb47 55bd a3fc 77be a158 d73c

q_network_b.fc2.weight f4 [128, 260]
0.10445907 -0.04862364 0.062412888 0.09700014 -0.03274887 -0.003935649 0.031450238 0.06764139
0.05972262 -0.1122631 -0.13021426 0.10661145 -0.024969935 0.011168474 0.011018351 0.01298879
0.025302304 -0.45082355 -0.20179445 0.13222764 0.0039910385 -0.0003664231 -0.061475683 0.034888644
-0.004257724 0.022844851 -0.038316913 0.055925053 0.15147932 0.041993584 -0.04933015 -0.08382185
-0.0809647 -0.12820566 -0.12938717 -0.057594586 0.06915893 0.12337135 0.017812839 0.040862583
-0.09954922 -0.1146041 0.053478524 -0.062342808 0.11335298 -0.18496333 0.15348808 0.032916807
0.08196278 0.10602557 -0.06671382 -0.11109168 -0.04764847 0.08476597 -0.15368223 -0.023921957
0.0028076556 1.1031237e-05 0.074239075 -0.0018570076 -0.046275593 -0.09319536 0.04553762 0.077089965
-0.012369241 -0.40321568 0.058829736 0.02193253 0.10464265 0.001316707 0.012665581 -0.050075855
0.03744879 0.07162396 -0.12634085 0.049299147 0.029231638 0.03088702 0.04999614 0.037169103
0.08054992 -0.015507209 0.09817308 0.004599749 0.0096873585 0.096108995 0.008726711 0.045652594
-0.012936588 0.09542706 -0.0524888 0.015485199 0.06929864 0.06485633 0.07248363 0.1228498
-0.21158849 0.08079866 -0.048776336 0.0506894 -0.13609797 0.2013922 0.022741973 -0.012263312
-0.06400799 -0.03749355 -0.02581946 0.12292779 -0.05460503 0.0154752415 0.03944761 -0.02023847
-0.018284615 0.13464735 0.035789065 -0.024027158 0.1322634 -0.21080114 -0.04167366 -0.043513376
0.05038337 -0.015956225 0.07623196 -0.019066691 -0.08128691 0.048617072 0.14880963 0.094775416
-0.053221278 -0.04350602 -0.13845891 0.03323569 0.053009838 -0.18039152 0.0053413124 0.0925853
0.010569659 0.011751506 -0.03386157 -0.015104331 -0.040945824 -0.026135108 0.0100246845 -0.10786911
-0.5459097 -0.023433367 0.0052467147 -0.06879971 -0.05884122 0.040382843 0.020912973 0.02412923
0.056575604 -0.068082735 -0.058026005 0.0113897575 -0.026360074 0.10864751 0.005326298 0.08005856
0.093100816 -0.06136172 0.09279976 -0.42133975 0.09401641 0.04005121 -0.05565515 -0.20310357
0.0018223051 -0.080731265 0.048213016 -0.054040015 0.0675142 -0.041906014 0.15884495 0.00043287588
0.0009646624 0.023596046 -0.0011056678 0.04464103 -0.09130039 -0.062360864 -0.08149465 -0.026135404
-0.080599986 -0.012739034 0.05555008 0.16704549 -0.12001293 0.11114229 -0.05362078 -0.7050018
-0.08753566 -0.049604774 -0.080142274 -0.077160105 -0.17872743 0.08754483 0.02871014 -0.039831482
0.04364789 0.1352193 -0.006500251 0.13103499 -0.118946634 -0.054646876 -0.0027936548 0.08413727
-0.101527266 -0.19526678 0.047738045 0.06776544 -0.013000179 0.0789844 -0.036621552 -0.00072951417
0.011057551 -0.0040576668 0.07952716 0.03009684 -0.14965415 0.13250764 -0.08610142 0.006768687
0.0019431995 -0.09920715 0.06725679 -0.15640908 -0.06818482 0.03860048 0.007471305 -0.092622794
-0.08082386 -0.06184235 -0.011395006 -0.0066560567 -0.0017701136 0.030256948 0.0703616 -0.006669158
-0.08529747 -0.093024924 -0.11600681 -0.12187467 0.08225855 0.0642348 -0.031477 -0.03008954
0.0022991719 -0.061037954 0.100675605 0.11362978 -0.077864975 0.14066665 0.11152986 -0.10993919
00000000: a3ee d53d 9529 47bd a8a4 7f3d 02a8 c63d
00000010: ae23 06bd 9ef6 80bb f7d1 003d 9287 8a3d
00000020: b59f 743d 32ea e5bd e356 05be 1b57 da3d
00000030: c08d ccbc fafb 363c 5086 343c efce 543c
00000040: c746 cf3c 58d2 e6be 34a3 4ebe af66 073e
00000050: 42c7 823b 7a1c c0b9 edcd 7bbd 65e7 0e3d
00000060: 6184 8bbb 2025 bb3c 32f2 1cbd ab11 653d
00000070: 651d 1b3e 7701 2c3d 690e 4abd caaa abbd
00000080: d2d0 a5bd 5848 03be 127e 04be 4de8 6bbd
00000090: 32a3 8d3d 1eaa fc3d 3bec 913c 865f 273d
000000a0: 76e0 cbbd 8eb5 eabd 4c0c 5b3d 2c5b 7fbd
000000b0: 9b25 e83d 0767 3dbe fb2b 1d3e c6d3 063d
000000c0: 1adc a73d ef23 d93d 41a1 88bd 0984 e3bd
000000d0: 0b2b 43bd c899 ad3d e05e 1dbe fbf7 c3bc
000000e0: a500 383b cd12 3937 a80a 983d d666 f3ba
000000f0: 7a8b 3dbd 35dd bebd a885 3a3d 58e1 9d3d
00000100: 5ba8 4abc 4972 cebe 73f7 703d d9ab b33c
00000110: e34e d63d 5b95 ac3a 4c83 4f3c 571c 4dbd
00000120: e763 193d 95af 923d 7f5f 01be e7ed 493d
00000130: 3077 ef3c c706 fd3c c1c8 4c3d a13e 183d
00000140: 5bf7 a43d f311 7ebc f80e c93d 7eb9 963b
00000150: bab7 1e3c cbd4 c43d 7bfa 0e3c 37fe 3a3d
00000160: fcf3 53bc 436f c33d 7ffe 56bd a2b5 7d3c
00000170: 72ec 8d3d 65d3 843d 4c72 943d ad98 fb3d
00000180: a7aa 58be c579 a53d b2c9 47bd b09f 4f3d
00000190: 445d 0bbe c239 4e3e 604d ba3c 0fec 48bc
000001a0: 9f16 83bd d692 19bd 5583 d3bc 91c1 fb3d
000001b0: 86a9 5fbd de8b 7d3c d193 213d 26cb a5bc
000001c0: 9ec9 95bc ffe0 093e 8e97 123d 9ad4 c4bc
000001d0: 0f70 073e 41dc 57be 00b2 2abd 153b 32bd
000001e0: cb5e 4e3d a1b6 82bc 801f 9c3d c031 9cbc
000001f0: c079 a6bd b222 473d 8d61 183e 9d19 c23d
00000200: 8efe 59bd 5e33 32bd 2cc8 0dbe 2622 083d
00000210: d820 593d 8eb8 38be 2d06 af3b 5d9d bd3d
00000220: 5d2c 2d3c 6389 403c 6eb2 0abd 2878 77bc
00000230: cfb6 27bd 4b19 d6bc 933e 243c 7bea dcbd
00000240: bdc0 0bbf 55f7 bfbc a2ec ab3b dde6 8cbd
00000250: 7e03 71bd 7b68 253d af51 ab3c aaaa c53c
00000260: d2bb 673d f66e 8bbd adac 6dbd 1b9c 3a3c
00000270: 15f1 d7bc 9682 de3d 3a88 ae3b bef5 a33d
00000280: a4ab be3d 6d56 7bbd cd0d be3d d8b9 d7be
00000290: ad8b c03d bd0c 243d a8f6 63bd 62fa 4fbe
000002a0: 6ada ee3a 6f56 a5bd 037b 453d 1059 5dbd
000002b0: e344 8a3d a4a5 2bbd 40a8 223e 9ef3 e239
000002c0: 66e1 7c3a 7f4c c13c 0eec 90ba 83d9 363d
000002d0: b3fb babd 1b6e 7fbd abe6 a6bd ea19 d6bc
000002e0: 9b11 a5bd 62b7 50bc 7b88 633d f90d 2b3e
000002f0: 57c9 f5bd 929e e33d 77a1 5bbd ff7a 34bf
00000300: e545 b3bd 602e 4bbd a221 a4bd 1e06 9ebd
00000310: 5304 37be b44a b33d 8731 eb3c 5626 23bd
00000320: 21c8 323d ee76 0a3e 0f00 d5bb 092e 063e
00000330: 4b9a f3bd 67d5 5fbd c015 37bb 2950 ac3d
00000340: 87ed cfbd 04f4 47be f888 433d 9bc8 8a3d
00000350: b4fe 54bc 93c2 a13d 7b00 16bd de3c 3fba
00000360: bb2a 353c 2df6 84bb 23df a23d a68d f63c
00000370: f03e 19be 15b0 073e f155 b0bd ddcb dd3b
00000380: f5b2 fe3a 1e2d cbbd eebd 893d b429 20be
00000390: 7ca4 8bbd 891b 1e3d d9d1 f43b 05b1 bdbd
000003a0: fb86 a5bd 674e 7dbd 1fb2 3abc 0d1b dabb
000003b0: 2803 e8ba 6bdd f73c be19 903d f488 dabb
000003c0: 71b0 aebd da83 bebd fa94 edbd 6d99 f9bd
000003d0: 2c77 a83d 898d 833d 07ee 00bd 577e f6bc
000003e0: b4ad 163b ef02 7abd 032f ce3d bbb6 e83d
000003f0: ac77 9fbd eb0a 103e c469 e43d cc27 e1bd

q_network_b.fc2.bias f4 [128]
-0.008507553 0.05479275 0.00045195478 -0.16555442 -0.038740784 -0.14995323 -0.020993048 -0.23983683
-0.1302414 0.14173697 -0.10091449 -0.08204934 0.20357189 -0.11696333 -0.07449473 0.11494905
0.23257565 0.021152237 -0.11863443 -0.21019834 -0.21749546 -0.09834895 -0.090057276 -0.1522062
0.04716224 0.062224764 0.15217192 0.03341026 -0.16284738 -0.08892907 0.1454264 -0.09244232
0.09725532 0.073584266 0.19748934 0.23663078 0.101230375 -0.09872977 -0.07120038 0.0799776
-0.12230215 0.033525705 0.12220735 0.0035456081 -0.07111015 0.13005945 0.06207607 0.1541742
-0.084518045 0.11791366 0.10467419 0.11739701 -0.18946016 0.015824905 0.14026979 0.20989461
0.15590636 0.23968631 0.11163244 -0.101950906 0.16495222 -0.06913146 0.120949 -0.09851214
-0.0035772182 -0.08865362 -0.19346048 -0.17971106 -0.09713703 0.07956027 -0.049903024 0.1814906
0.17553967 -0.14126906 -0.09950233 0.056922764 0.16587974 -0.10968834 -0.13155374 -0.18536477
-0.08672515 0.074497834 0.083078116 0.103198774 -0.05240606 -0.203154 0.13142754 -0.1901654
0.123785384 0.007177172 -0.058483794 0.1514378 0.15000916 -0.19335388 -0.09879093 0.18524712
0.10882192 0.16662773 0.16511479 0.11052229 -0.12872393 0.16845575 -0.20008577 -0.08875886
-0.085913464 -0.09388657 -0.025196835 0.25809076 0.16489351 0.32563803 -0.109691605 0.042929016
0.058796927 0.121824704 -0.051885065 -0.009100382 0.1791717 0.015844032 0.09796657 0.2517127
0.22365665 0.15963395 0.14642137 -0.102502555 -0.11924624 0.1166337 0.23581289 -0.09895673
00000000: 4363 0bbc 5d6e 603d 58f4 ec39 1987 29be
00000010: a8ae 1ebd 578d 19be 9df9 abbc c997 75be
00000020: 005e 05be 7f23 113e 42ac cebd 7c09 a8bd
00000030: 2675 503e 788a efbd b190 98bd 686a eb3d
00000040: 5028 6e3e 7547 ad3c 9cf6 f2bd 3c3e 57be
00000050: 21b7 5ebe 2d6b c9bd f36f b8bd f1db 1bbe
00000060: 312d 413d 65df 7e3d f5d2 1b3e 32d9 083d
00000070: 77c1 26be 7220 b6bd a8ea 143e 6652 bdbd
00000080: cc2d c73d 59b3 963d a53a 4a3e 574f 723e
00000090: df51 cf3d d532 cabd 81d1 91bd 4ccb a33d
000000a0: 8d79 fabd 4052 093d d947 fa3d 6f5d 683b
000000b0: 33a2 91bd 4e2e 053e 7a43 7e3d d7df 1d3e
000000c0: cc17 adbd b87c f13d 6c5f d63d d86d f03d
000000d0: d801 42be 3ba3 813c e2a2 0f3e 9dee 563e
000000e0: eba5 1f3e 5470 753e 8c9f e43d a3cb d0bd
000000f0: 3ce9 283e cb94 8dbd 1cb4 f73d bcc0 c9bd
00000100: c36f 6abb 0790 b5bd 811a 46be 2d06 38be
00000110: c7ef c6bd 7ff0 a23d 1d67 4cbd acd8 393e
00000120: acc0 333e d6a8 10be e1c7 cbbd d827 693d
00000130: 61dc 293e 48a4 e0bd 06b6 06be 43d0 3dbe
00000140: f59c b1bd 5292 983d dc24 aa3d e159 d33d
00000150: bda7 56bd 9a07 50be f194 063e b8ba 42be
00000160: 3183 fd3d 7c2e eb3b b48c 6fbd 8312 1b3e
00000170: 009c 193e 8ffe 45be e652 cabd 6cb1 3d3e
00000180: 07de de3d 76a0 2a3e da13 293e 8359 e23d
00000190: 35d0 03be aa7f 2c3e 49e3 4cbe 35c7 b5bd
000001a0: 66f3 afbd 9a47 c0bd 9869 cebc 7924 843e
000001b0: d8d9 283e 07ba a63e fea5 e0bd 56d6 2f3d
000001c0: 0cd5 703d 3b7f f93d 6f85 54bd c519 15bc
000001d0: c978 373e 58cb 813c b2a2 c83d 7de0 803e
000001e0: 4006 653e 1577 233e 7cef 153e dcec d1bd
000001f0: 5f37 f4bd a6dd ee3d ef78 713e d3a9 cabd

q_network_b.fc3.weight f4 [1, 128]
-0.24315803 0.16955085 0.22864139 -0.17357464 -0.12675808 -0.14235714 -0.092817076 -0.091900274
-0.12741469 0.21234454 -0.16088629 -0.21042444 0.09904337 -0.20302495 -0.2550255 0.13614292
0.10379836 0.23223116 -0.17670818 -0.20524395 -0.09760231 -0.148633 -0.26223046 -0.14836136
0.20865898 0.14400749 0.10844861 0.49367818 -0.14125322 -0.13019878 0.108640544 -0.14076038
0.20464456 0.13907963 0.12885793 0.106265895 0.111885294 -0.106359154 -0.14631066 0.17990674
-0.33086595 0.29748997 0.13927145 -0.14797299 -0.11700306 0.07785426 0.2490415 0.15867616
-0.12662184 0.28968155 0.18292582 0.1069795 -0.1280715 0.2651038 0.081902556 0.14036278
0.1797487 0.07637813 0.22537445 -0.13093443 0.20831391 -0.3321136 0.1948092 -0.12792484
0.14061752 -0.16488422 -0.12608662 -0.09528103 -0.16576928 0.09613098 -0.11892984 0.19027293
0.13498381 -0.24414195 -0.13684617 0.1672314 0.20549479 -0.52816457 -0.120558664 -0.123882234
-0.22699246 0.17884345 0.13189586 0.10775873 -0.13039522 -0.12765749 0.2113884 -0.11346295
0.2450137 0.29831013 -0.18268476 0.10089073 0.1709232 -0.09741517 -0.21842897 0.13328461
0.07675647 0.10832571 0.12257248 0.12153557 -0.19775681 0.150283 -0.18954492 -0.1543044
-0.15055324 -0.100651644 0.6247934 0.127304 0.14289215 0.12034739 -0.11475782 0.13298345
0.07143993 0.14416249 -0.14559366 -0.24871662 0.1133279 0.38793185 0.14133114 0.11427175
0.111153 0.077818856 0.29468888 -0.35036048 -0.07925833 0.08838407 0.114559986 -0.107272014
00000000: 6bfe 78be bd9e 2d3e f820 6a3e 8dbd 31be
00000010: dfcc 01be 12c6 11be e116 bebd 3636 bcbd
00000020: ff78 02be d970 593e 60bf 24be 8179 57be
00000030: 40d7 ca3d c6e5 4fbe b492 82be 0d69 0b3e
00000040: 3c94 d43d 01ce 6d3e fdf2 34be 782b 52be
00000050: b8e3 c7bd 4033 18be 1243 86be 0aec 17be
00000060: b3aa 553e b376 133e 4e1a de3d 63c3 fc3e
00000070: afa4 10be d452 05be ef7e de3d 7d23 10be
00000080: 588e 513e e46a 0e3e 55f3 033e efa1 d93d
00000090: 1e24 e53d d4d2 d9bd 76d2 15be 7939 383e
000000a0: 4367 a9be 9b50 983e 2d9d 0e3e 3b86 17be
000000b0: 4d9f efbd 0e72 9f3d bc04 7f3e 017c 223e
000000c0: 28a9 01be 2451 943e e850 3b3e 1118 db3d
000000d0: 2d25 03be afbb 873e 87bc a73d 43bb 0f3e
000000e0: 0b10 383e 236c 9c3d 8fc8 663e ad13 06be
000000f0: 3e50 553e cb0a aabe 107c 473e bbfe 02be
00000100: 0afe 0f3e 69d7 28be da1c 01be b322 c3bd
00000110: 6cbf 29be 52e0 c43d 7d91 f3bd e8d6 423e
00000120: 3239 0a3e 5900 7abe 6721 0cbe b53e 2b3e
00000130: 3a6d 523e cb35 07bf 76e7 f6bd f8b5 fdbd
00000140: b670 68be bd22 373e b50f 073e 9cb0 dc3d
00000150: 5386 05be a5b8 02be 3376 583e 435f e8bd
00000160: dfe4 7a3e 1bbc 983e b711 3bbe cd9f ce3d
00000170: 7e06 2f3e 9b81 c7bd d8ab 5fbe c37b 083e
00000180: 7f32 9d3d dfd9 dd3d 4807 fb3d a4e7 f83d
00000190: c380 4abe c9e3 193e 1018 42be f901 1ebe
000001a0: a12a 1abe 7322 cebd 76f2 1f3f fb5b 023e
000001b0: 5252 123e b178 f63d 2606 ebbd d02c 083e
000001c0: 194f 923d 559f 133e 8116 15be 92af 7ebe
000001d0: 7518 e83d 019f c63e 1cb9 103e 4f07 ea3d
000001e0: 2fa4 e33d 7e5f 9f3d 76e1 963e 7362 b3be
000001f0: 3152 a2bd b502 b53d 6d9e ea3d 6eb1 dbbd
