tasks/reacher_continuous_control/solutions/ddpg/solution_checkpoint/per_td3_baseline_actor_checkpoint.pth (torch_old, 169554 bytes, 6 tensors)

fc1.weight f4 [256, 33]
0.054992188 0.0039101946 -0.0052167955 0.3597153 -3.79796e-05 -0.3483107 -0.22040418 0.12330013
-0.023855802 -0.1307481 0.10590763 0.02038747 0.033050284 -0.041664258 0.13117266 0.08011575
-0.4046334 -0.04356516 0.06647337 -0.078231074 -0.093606494 -0.075252905 -0.04249439 -0.070610024
0.030196812 0.011062139 -0.023543613 0.08030903 -0.24622245 0.031534612 -0.047161985 0.028442599
0.0987643 -0.019164192 -0.0027951824 -0.015156632 0.2968139 0.19656092 0.07248663 0.5640352
-0.009179481 0.038002554 -0.0894858 -0.11048939 0.032278724 -0.06280959 0.027887965 0.3136784
-0.24522758 0.2023582 -0.043113902 0.07253579 -0.23055229 0.01569481 -0.0013708071 -0.11783886
0.04444322 0.12152947 0.0066533843 0.12807836 0.046074178 0.06327624 -0.058925427 -0.034431096
0.051832296 -0.59272623 -0.033056647 0.23532803 0.084052384 -0.11753595 0.3225944 0.16537221
-0.25220954 0.0028300632 0.09725594 -0.00078164745 0.049391635 0.059604682 0.03178513 0.102225356
0.061721385 -0.064273566 -0.06957399 0.38189515 -0.1786822 -0.15248711 0.026139041 -0.051773906
0.050502043 -0.0692394 0.06169642 -0.00653892 -0.1577034 -0.23743553 -0.113366 0.03277698
0.17515276 -0.035798535 -0.96388805 -0.046393663 0.12625815 0.19082892 0.24179599 -0.15797628
-0.036392502 0.36896786 -0.07261085 0.16045083 -0.16181368 -0.01667341 -0.026468646 0.01476879
-0.07378168 -0.04319561 -0.21291183 0.21322286 0.3754511 0.074398324 0.29788873 0.03331857
0.0924509 0.10532882 0.026509868 -0.023124823 -0.12301161 0.16878429 -0.06408137 -0.032583762
-0.05549769 0.093671076 -0.044141024 -0.48739538 -0.019805538 0.18572257 0.076817386 0.087006785
-0.077071935 -0.091953635 0.29353034 0.009838089 0.021963036 0.15940921 0.065292224 0.13349865
0.021165349 0.048603464 0.06526639 0.17402868 0.06248965 -0.27361253 0.020481838 -0.107690185
-0.06663398 0.17643419 0.061875846 -0.08575463 0.041032016 -0.024037892 0.0016724641 -0.09102563
0.023639962 0.01118844 0.102667235 0.05973068 -0.33687937 -0.014508037 0.030310169 0.12993298
-0.12639451 0.25349614 0.2920817 -0.2263174 0.046533525 0.042381745 0.016784225 -0.020142963
0.15888496 0.16995445 -0.02588998 0.10775105 0.12051871 0.6439927 0.116184086 0.28699747
0.46592933 0.011099756 0.021925278 -0.05973126 -0.086799845 0.0013095533 0.06867486 -0.030246282
-0.116074435 0.138162 0.023382619 0.1069007 0.015905716 0.36354545 -0.0588759 0.32160833
-0.019705504 0.12926205 0.21733999 -0.029562457 -0.2027005 0.06860427 0.083113864 0.05271925
-0.061633192 -0.012224093 -0.0027885917 -0.18212889 -0.1891988 -0.1754005 0.15669602 0.12919448
-0.21362834 -0.12385366 0.054911368 -0.054314435 -0.08667215 -0.08970757 -0.09554561 -0.09919418
0.09004622 0.11747328 0.2846305 0.0397287 -0.17419274 0.012115531 0.08690062 0.021068031
-0.05144754 0.17122361 -0.2173357 0.22794801 0.6242322 -0.174608 -0.13052833 0.1723133
-0.29174006 -0.10245601 0.1285609 0.054155506 0.1815502 0.077665925 -0.22343543 -0.2276628
-0.07505044 0.017388735 -0.08511063 0.006348215 0.036810536 0.264728 0.22190464 -0.076147
00000000: 7d3f 613d 1721 803b a7f1 aabb 9b2c b83e
00000010: 494c 1fb8 c855 b2be a2b1 61be c784 fc3d
00000020: 3e6d c3bc d4e2 05be 19e6 d83d a003 a73c
00000030: bc5f 073d 24a8 2abd 2052 063e ba13 a43d
00000040: 1c2c cfbe 6271 32bd 3123 883d 9d37 a0bd
00000050: c3b4 bfbd 321e 9abd 990e 2ebd fd9b 90bd
00000060: 4e5f f73c f93d 353c 89de c0bc 1079 a43d
00000070: bd21 7cbe 702a 013d ed2c 41bd 7400 e93c
00000080: f044 ca3d 39fe 9cbc 612f 37bb 8653 78bc
00000090: fef7 973e 4447 493e df73 943d 9c64 103f
000000a0: 8965 16bc 91a8 1b3d 5544 b7bd 4348 e2bd
000000b0: b236 043d 50a2 80bd 4d75 e43c 759a a03e
000000c0: f01c 7bbe fd36 4f3e 3498 30bd a58d 943d
000000d0: e615 6cbe 6792 803c a7ac b3ba 8055 f1bd
000000e0: 180a 363d 71e4 f83d a204 da3b f926 033e
000000f0: 47b8 3c3d f996 813d ca5b 71bd 9f07 0dbd
00000100: 1a4e 543d e8bc 17bf 6866 07bd d5f9 703e
00000110: a823 ac3d b0b6 f0bd 182b a53e 5557 293e
00000120: 9c21 81be 9578 393b 1f2e c73d 79e7 4cba
00000130: e24e 4a3d 0a24 743d 2031 023d 875b d13d
00000140: 90cf 7c3d dca1 83bd cf7c 8ebd c387 c33e
00000150: 77f8 36be 9525 1cbe 8b21 d63c e010 54bd
00000160: 3bdb 4e3d 63cd 8dbd 63b5 7c3d 7044 d6bb
00000170: 007d 21be 4d22 73be 6f2c e8bd 2841 063d
00000180: 3f5b 333e 7ca1 12bd 5ec1 76bf 4807 3ebd
00000190: d149 013e a868 433e 5e99 773e 89c4 21be
000001a0: 4e10 15bd 5be9 bc3e ffb4 94bd 394d 243e
000001b0: 7cb2 25be ad96 88bc c6d4 d8bc ccf8 713c
000001c0: d91a 97bd e1ed 30bd 8f05 5abe 1857 5a3e
000001d0: 203b c03e 265e 983d df84 983e 0e79 083d
000001e0: e656 bd3d a3b6 d73d 392b d93c 4570 bdbc
000001f0: 83ed fbbd cad5 2c3e 183d 83bd 8d76 05bd
00000200: 8c51 63bd 9fd6 bf3d 38cd 34bd e38b f9be
00000210: 393f a2bc 0f2e 3e3e 6f52 9d3d 9d30 b23d
00000220: e4d7 9dbd 3052 bcbd 9c49 963e f02f 213c
00000230: d3eb b33c 2b3c 233e eeb7 853d dfb3 083e
00000240: f462 ad3c 6d14 473d 63aa 853d 9334 323e
00000250: 26f5 7f3d f116 8cbe 87c9 a73c ac8c dcbd
00000260: 6577 88bd 2aab 343e 8771 7d3d 20a0 afbd
00000270: 3011 283d 1deb c4bc 9536 db3a a56b babd
00000280: 98a8 c13c b84f 373c 3343 d23d 28a8 743d
00000290: 747b acbe 1eb3 6dbc 084d f83c 270d 053e
000002a0: 906d 01be 3fca 813e bc8b 953e c0bf 67be
000002b0: f099 3e3d 7b98 2d3d 127f 893c db02 a5bc
000002c0: bdb2 223e 8a08 2e3e 3917 d4bc 95ac dc3d
000002d0: 83d2 f63d b5dc 243f ecf1 ed3d 55f1 923e
000002e0: 4a8e ee3e c0db 353c a49c b33c c4a8 74bd
000002f0: 1ec4 b1bd 51a5 ab3a 68a5 8c3d 0dc7 f7bc
00000300: 6fb8 edbd 577a 0d3e e88c bf3c c1ee da3d
00000310: b44c 823c a122 ba3e db27 71bd d9a9 a43e
00000320: 706d a1bc 455d 043e 608e 5e3e f72c f2bc
00000330: b890 4fbe 6580 8c3d 9a37 aa3d 24f0 573d
00000340: 1673 7cbd 9047 48bc cec0 36bb ff7f 3abe
00000350: 55bd 41be 309c 33be ec74 203e 8f4b 043e
00000360: 63c1 5abe fda6 fdbd beea 603d d078 5ebd
00000370: 2b81 b1bd 9ab8 b7bd 6bad c3bd 5126 cbbd
00000380: 276a b83d d595 f03d 17bb 913e 90ba 223d
00000390: 955f 32be 3880 463c f4f8 b13d dd96 ac3c
000003a0: a8ba 52bd 3e55 2f3e 408d 5ebe 346b 693e
000003b0: aecd 1f3f 71cc 32be 38a9 05be e672 303e
000003c0: f45e 95be 75d4 d1bd 78a5 033e 2ad2 5d3d
000003d0: 4ce8 393e 500f 9f3d 42cc 64be 7020 69be
000003e0: 0cb4 99bd d272 8e3c 7b4e aebd b004 d03b
000003f0: a5c6 163d 6e8a 873e f83a 633e f5f2 9bbd

fc1.bias f4 [256]
0.03896639 0.1401804 0.18383065 0.20239733 0.048253205 -0.054457862 -0.28049403 -0.09123484
-0.071776725 0.25115192 -0.021776386 -0.06671368 -0.022911083 -0.064608864 0.11350196 0.06499193
-0.15555017 -0.13332807 0.12805755 -0.30660355 -0.048557583 -0.10003471 0.18667212 -0.07551375
-0.03566134 -0.16618015 0.15825592 0.073045224 0.06963524 -0.028282877 -0.020348381 -0.07084752
0.03596933 -0.13202874 0.09841175 0.05412961 0.19544736 0.11411241 0.0107451035 0.2357168
-0.13678984 -0.123858005 -0.025929492 -0.068487145 0.051251467 -0.08960754 0.17170373 0.13722157
0.08593105 -0.07777239 -0.16506201 0.104054004 -0.20951225 -0.22236283 0.012418941 0.10283919
-0.09820274 -0.096594825 -0.024729641 -0.13284676 -0.0053504584 0.09474685 -0.14974356 0.09129983
-0.012111985 -0.23734969 0.18550177 0.1163592 0.11319864 0.013826344 0.084025554 0.15874596
-0.22766119 -0.0070878095 -0.011372426 0.04275562 0.11570514 0.08132185 0.061519206 -0.22082186
0.00048621034 0.037439115 0.055692792 -0.030574992 0.08514108 -0.2746815 0.1959876 -0.08414419
0.10560961 0.06992208 0.09186127 -0.09794313 0.104962975 -0.034711692 -0.27413896 0.20529221
0.36391267 -0.14122732 0.1050361 -0.14448608 0.15923399 -0.09692917 -0.010739011 -0.036253452
-0.16122665 0.09553341 0.04518283 0.24696419 0.017508227 -0.0683486 0.12454334 0.05523267
-0.0011310794 0.057073787 0.07514509 -0.08718579 -0.044810846 -0.029898046 0.04804359 -0.16271886
0.10790391 0.05565766 0.10205022 -0.0654262 -0.082580686 -0.11284589 -0.16101938 -0.11381006
-0.11925446 0.21375388 -0.09604252 -0.19876839 0.13290496 0.11445492 0.0841823 -0.040630937
-0.26591784 0.13708691 -0.23580192 -0.049826138 0.011520282 -0.07556759 -0.11839901 -0.15170993
0.206958 -0.10411477 -0.07495641 -0.15786518 -0.1994561 0.114399575 -0.047435198 -0.032699097
-0.11100311 0.18997207 0.104911916 -0.055641282 0.11515889 -0.13687123 -0.023957247 -0.113309056
-0.12557404 0.07759864 -0.013718696 0.14898694 -0.112809405 -0.21043697 0.18202785 -0.037464082
0.016488608 0.14253303 -0.012851822 0.01888523 0.2693519 0.24202648 0.12595735 0.056935415
0.21266173 -0.12957603 0.0055172234 -0.24713038 -0.10216166 0.048557147 -0.11370448 -0.07258056
0.09793175 -0.019002656 -0.041977752 -0.060189772 0.12603474 0.16635847 -0.24601766 0.18603998
0.0482918 0.06517462 0.05236077 -0.06603871 -0.015573043 -0.023674645 -0.0660429 -0.06262853
-0.13632846 0.24575652 0.023429997 -0.05562882 -0.12197395 0.01319585 0.122588046 -0.18118726
-0.2438489 0.13115665 0.13574046 0.045524597 0.06847134 -0.109535836 0.031123912 0.040514346
0.06062245 0.15845762 0.15375409 0.07190802 0.02718575 -0.091308236 -0.017411146 -0.21393539
0.109865405 -0.24759874 -0.02487868 0.07167855 -0.066012196 0.27332976 -0.03431586 0.07571921
0.07008911 -0.27406836 0.143147 -0.11193024 -0.10607748 -0.10197753 0.025908448 -0.075791426
0.07897614 -0.08064625 0.24061598 0.09873436 0.15834747 0.085992865 0.018266177 0.13020483
-0.030769095 -0.1536668 0.19153568 -0.008659942 -0.29126596 0.025864324 0.15137468 0.13696918
00000000: 399b 1f3d 738b 0f3e 1a3e 3c3e 3f41 4f3e
00000010: 27a5 453d 350f 5fbd ea9c 8fbe 55d9 babd
00000020: adff 92bd fc96 803e 6464 b2bc 2fa1 88bd
00000030: 06b0 bbbc a751 84bd b773 e83d 7d1a 853d
00000040: 8b48 1fbe 2787 08be 8521 033e 24fb 9cbe
00000050: 51e4 46bd ffde ccbd fa26 3f3e f4a6 9abd
00000060: a011 12bd 212b 2abe d70d 223e bc98 953d
00000070: ec9c 8e3d 7eb1 e7bc a6b1 a6bc 8118 91bd
00000080: 9454 133d 8b32 07be 198c c93d 03b7 5d3d
00000090: 5a23 483e c4b3 e93d 3b0c 303c bf5f 713e
000000a0: a312 0cbe 44a9 fdbd 166a d4bc fd42 8cbd
000000b0: 0fed 513d 2884 b7bd 1ad3 2f3e d083 0c3e
000000c0: 9efc af3d 2147 9fbd 0406 29be 441a d53d
000000d0: 618a 56be 15b3 63be d078 4b3c 5a9d d23d
000000e0: 851e c9bd 82d3 c5bd d195 cabc fb08 08be
000000f0: e652 afbb a30a c23d 6056 19be 68fb ba3d
00000100: 5971 46bc cc0b 73be 2df4 3d3e bb4d ee3d
00000110: b0d4 e73d e487 623c 9715 ac3d 4d8e 223e
00000120: 0420 69be db40 e8bb 6953 3abc 8420 2f3d
00000130: d1f6 ec3d 128c a63d 90fb 7b3d 201f 62be
00000140: 0cea fe39 c259 193d 201e 643d 6878 fabc
00000150: 725e ae3d 0ea3 8cbe f9b0 483e ca53 acbd
00000160: da49 d83d 4f33 8f3d c321 bc3d 6896 c8bd
00000170: d4f6 d63d d92d 0ebd f15b 8cbe 1f38 523e
00000180: c352 ba3e e59d 10be 2b1d d73d 29f4 13be
00000190: 3c0e 233e cd82 c6bd adf2 2fbc 807e 14bd
000001a0: 9918 25be 05a7 c33d a211 393d 2ee4 7c3e
000001b0: 6a6d 8f3c 5afa 8bbd 9410 ff3d a73b 623d
000001c0: ba40 94ba 34c6 693d abe5 993d 778e b2bd
000001d0: 948b 37bd bfec f4bc 5bc9 443d c69f 26be
000001e0: bafc dc3d 49f9 633d b5ff d03d 2cfe 85bd
000001f0: 1020 a9bd bf1b e7bd 44e2 24be 4015 e9bd
00000200: af3b f4bd 4ce2 5a3e f1b1 c4bd f189 4bbe
00000210: 3d18 083e 5767 ea3d c567 ac3d a06c 26bd
00000220: 6226 88be 8360 0c3e 0f76 71be 7e16 4cbd
00000230: 91bf 3c3c 2ec3 9abd 2e7b f2bd d959 1bbe
00000240: ccec 533e 203a d5bd bf82 99bd 69a7 21be
00000250: 383e 4cbe 534a ea3d 694b 42bd 7def 05bd
00000260: 9955 e3bd 0a88 423e 0fdc d63d 1de8 63bd
00000270: 6dd8 eb3d f927 0cbe fd41 c4bc 940e e8bd
00000280: 7b96 00be 09ec 9e3d 62c4 60bc 0890 183e
00000290: 9e08 e7bd ca7c 57be 8265 3a3e f073 19bd
000002a0: 1e13 873c 2ef4 113e 7390 52bc 33b5 9a3c
000002b0: 7ee8 893e cad5 773e f7fa 003e 1c35 693d
000002c0: ffc3 593e 94af 04be d3c9 b43b bf0f 7dbe
000002d0: 223a d1bd dce3 463d e5dd e8bd 1ea5 94bd
000002e0: 7190 c83d 75ab 9bbc ddf0 2bbd 8d89 76bd
000002f0: 400f 013e e059 2a3e 0eec 7bbe 4481 3e3e
00000300: 9fcd 453d 457a 853d 3f78 563d 4e3f 87bd
00000310: 1426 7fbc 54f1 c1bc 8041 87bd 6343 80bd
00000320: b099 0bbe 99a7 7b3e 44f0 bf3c 0cdb 63bd
00000330: 7acd f9bd 6833 583c 710f fb3d 2789 39be
00000340: 87b3 79be ee4d 063e 8cff 0a3e 0078 3a3d
00000350: b43a 8c3d 5354 e0bd 93f7 fe3c 5ff2 253d
00000360: 3f4f 783d b742 223e b671 1d3e 8344 933d
00000370: a6b4 de3c d0ff babd d2a1 8ebc e111 5bbe
00000380: 1d01 e13d 868a 7dbe 60ce cbbc 34cc 923d
00000390: 6731 87bd e1f1 8b3e ca8e 0cbd ac12 9b3d
000003a0: e18a 8f3d b052 8cbe 2195 123e af3b e5bd
000003b0: 263f d9bd 98d9 d0bd f43d d43c 8938 9bbd
000003c0: 3ebe a13d dc29 a5bd 0964 763e 3d35 ca3d
000003d0: d725 223e 071d b03d f3a2 953c 6a54 053e
000003e0: 780f fcbc d45a 1dbe ee21 443e 6ee2 0dbc
000003f0: d020 95be 6be1 d33c f701 1b3e a641 0c3e

fc2.weight f4 [128, 256]
-0.1491043 0.06991179 0.14509863 -0.1008623 0.1619495 0.072599605 0.13248059 -0.048436526
-0.21247688 0.050765656 0.003307835 -0.32171312 0.009904441 -0.10535592 0.2785693 0.017173398
0.09629076 0.019167779 -0.3584138 -0.116502255 -0.04913973 -0.016197665 -0.014105041 0.09538301
-0.066286884 -0.087618254 0.07393434 0.20344152 -0.06283681 0.2587571 0.6042896 -0.45368156
0.030554771 -0.466203 -0.18996744 0.14651655 0.060857676 -0.16595668 0.16711384 -0.05060274
-0.13910061 0.06947911 0.18174349 0.3554354 0.09725879 -0.18996757 0.12054471 -0.07890864
-0.17484938 0.13910854 -0.117008045 -0.3796943 -0.061526503 -0.084072515 0.07277369 0.065496616
0.013095753 0.42450157 -0.11942368 -0.007698852 0.10557842 -0.36571094 0.12044631 0.20752761
0.27584526 -0.1400352 -0.059534784 -0.19505543 -0.023259683 0.16249736 0.05805002 -0.04153799
0.16510044 -0.013054236 0.08281699 0.1498133 -0.12886137 0.24720415 -0.35308704 -0.18383548
-0.3455689 -0.10911651 -0.016287861 0.08228327 0.00588871 -0.66873467 -0.009311442 -0.0080446405
-0.06670443 0.10378307 -0.07805704 -0.025979176 0.25270593 -0.2576489 0.15825035 0.04197837
0.037094053 -0.05849928 -0.13415268 -0.1938706 0.05901704 0.061732 -0.11395105 -0.16191432
-0.22964886 -0.070430614 -0.03474006 -0.05507534 0.05349387 -0.074355714 0.085980445 -0.31984237
-0.5932643 0.03640351 0.01635359 0.18846369 0.0034422376 -0.114627145 0.012754141 -0.137601
-0.15903305 0.016142411 -0.13491197 -0.039339144 -0.016165053 -0.15060557 0.18053435 0.25661534
-0.20642465 0.10742693 0.16574332 -0.09618285 0.012010553 0.05023219 -0.07518102 -0.11271022
-0.6212069 -0.054576904 0.12617077 -0.019433327 -0.03782722 -0.1793348 0.15106563 0.02833114
0.1620165 0.095962085 -0.03703904 -0.037170645 -0.58460695 0.09291297 0.0022174919 -0.115790196
-0.14131354 0.015226229 -0.053168643 0.0439927 -0.207395 0.2597572 -0.006799331 0.22690341
0.06528273 -0.4153909 0.21998133 0.10574307 -0.029186146 0.29218525 0.06915131 -0.08724659
0.08867342 -0.73800147 0.12261145 -0.059412573 0.036515173 -0.24763654 -0.17483106 0.28639692
0.38384923 0.08251179 -0.03918912 0.18891928 -0.22484466 -0.193497 -0.5830781 0.035943504
-0.003972466 0.046563536 -0.16891912 0.15952551 0.16288674 0.036733333 0.022690615 0.039471805
-0.3133667 -0.15302218 -0.2846709 0.010649014 -0.33104026 -0.5518284 0.041928202 0.053805865
-0.13508384 -0.08753713 0.06986525 -0.3051949 0.10286666 -0.11468483 -0.637543 -0.14713839
-0.532491 -0.11622899 0.16072604 -0.0017250292 0.018875943 0.24415931 -0.2496138 0.056185976
0.023847135 -0.3494824 0.059474807 -0.1478766 -0.015126862 0.20994884 -0.49230117 -0.00439921
0.041345347 -0.15385514 -0.09897491 -0.51090556 0.13173757 -0.54499304 0.14725809 0.2698762
-0.10623383 0.079427384 0.005125703 -0.22300951 0.08451562 0.052964285 -0.4991342 0.14408112
-0.22263941 0.16721858 -0.093613096 -0.08173358 -0.10813922 -0.09195391 -0.6474547 -0.15219581
0.02879028 -0.055390492 0.05308165 0.03901431 0.16752638 -0.14504747 -0.06663787 0.0057097813
00000000: ccae 18be ea2d 8f3d bc94 143e e590 cebd
00000010: 17d6 253e 1aaf 943d fea8 073e 6165 46bd
00000020: 8a93 59be a6ef 4f3d 43c8 583b 95b7 a4be
00000030: 3d46 223c d8c4 d7bd a3a0 8e3e 3aaf 8c3c
00000040: 1734 c53d bf05 9d3c 0382 b7be bc98 eebd
00000050: be46 49bd f7b0 84bc d418 67bc 2b58 c33d
00000060: 6bc1 87bd 3371 b3bd e36a 973d f952 503e
00000070: 96b0 80bd d07b 843e b9b2 1a3f f348 e8be
00000080: 004e fa3c 29b2 eebe d386 42be 6f08 163e
00000090: e645 793d 8cf0 29be e41f 2b3e d244 4fbd
000000a0: 6470 0ebe 104b 8e3d f71a 3a3e a1fb b53e
000000b0: 9e2f c73d dc86 42be 25e0 f63d da9a a1bd
000000c0: b70b 33be 7872 0e3e eaa1 efbd 4b67 c2be
000000d0: 3703 7cbd 362e acbd 5f0a 953d 1723 863d
000000e0: 928f 563c 4558 d93e 6794 f4bd a746 fcbb
000000f0: 8039 d83d 773e bbbe 8eac f63d 1e82 543e
00000100: 973b 8d3e 6365 0fbe bfda 73bd 9cbc 47be
00000110: 178b bebc b565 263e dcc5 6d3d bd23 2abd
00000120: 1710 293e 6fe1 55bc f49b a93d a868 193e
00000130: 3cf4 03be 1623 7d3e d3c7 b4be 5e3f 3cbe
00000140: 68ee b0be 7a78 dfbd 1f6e 85bc 2284 a83d
00000150: 14f6 c03b 3232 2bbf 058f 18bc abcd 03bc
00000160: 559c 88bd 388c d43d 5fdc 9fbd 48d2 d4bc
00000170: ac62 813e 8eea 83be 610c 223e 83f1 2b3d
00000180: efef 173d f19c 6fbd 525f 09be 0486 46be
00000190: dabb 713d b2da 7c3d 2b5f e9bd decc 25be
000001a0: 1229 6bbe ed3d 90bd 984b 0ebd ae96 61bd
000001b0: 631c 5b3d cf47 98bd 8416 b03d 61c2 a3be
000001c0: 2be0 17bf d91b 153d f7f7 853c a0fc 403e
000001d0: 2a97 613b a3c1 eabd bff6 503c 47e7 0cbe
000001e0: 8fd9 22be 173d 843c 5d26 0abe 1522 21bd
000001f0: 936c 84bc 5938 1abe ffdd 383e 1663 833e
00000200: fc60 53be a602 dc3d 9eb8 293e 84fb c4bd
00000210: e9c7 443c 45c0 4d3d 82f8 99bd 9ed4 e6bd
00000220: 6a07 1fbf 088c 5fbd e932 013e a432 9fbc
00000230: b7f0 1abd 8ba3 37be f3b0 1a3e b516 e83c
00000240: a7e7 253e c587 c43d 40b6 17bd 3f40 18bd
00000250: cda8 15bf 2849 be3d 5753 113b 6923 edbd
00000260: 7fb4 10be 6f77 793c 5dc7 59bd b031 343d
00000270: 5b5f 54be e5fe 843e eccc debb 5e59 683e
00000280: f4b2 853d 1eae d4be c942 613e d38f d83d
00000290: c917 efbc 4e99 953e 349f 8d3d 57ae b2bd
000002a0: 699a b53d aaed 3cbf b61b fb3d 995a 73bd
000002b0: ef90 153d 6f94 7dbe ea06 33be 9ea2 923e
000002c0: e387 c43e f1fb a83d c584 20bd 0e74 413e
000002d0: ae3d 66be 1424 46be 9b44 15bf 7f39 133d
000002e0: 762b 82bb 68b9 3e3d 22f9 2cbe a85a 233e
000002f0: c8cb 263e b175 163d abe1 b93c 30ad 213d
00000300: 9a71 a0be d9b1 1cbe 62c0 91be 3479 2e3c
00000310: 1c7e a9be a044 0dbf e8bc 2b3d 8a63 5c3d
00000320: 6b53 0abe ab46 b3bd 8315 8f3d 8242 9cbe
00000330: c1ab d23d e1df eabd 0536 23bf 72ab 16be
00000340: 5551 08bf 7709 eebd 5e95 243e 601a e2ba
00000350: b9a1 9a3c e604 7a3e c39a 7fbe 4423 663d
00000360: 115b c33c 5bef b2be db9b 733d f76c 17be
00000370: a8d6 77bc d4fc 563e e60e fcbe 4027 90bb
00000380: bd59 293d 348c 1dbe 5cb3 cabd b5ca 02bf
00000390: 37e6 063e aa84 0bbf d3ca 163e 372d 8a3e
000003a0: 1f91 d9bd d3aa a23d 83f5 a73b 9b5c 64be
000003b0: 8616 ad3d 14f1 583d 858e ffbe 008a 133e
000003c0: 96fb 63be 593b 2b3e 39b8 bfbd ef63 a7bd
000003d0: 1878 ddbd 5552 bcbd 97bf 25bf 38d9 1bbe
000003e0: 98d9 eb3c 24e1 62bd 256c 593d 78cd 1f3d
000003f0: 098c 2b3e 5387 14be 7079 88bd 1e19 bb3b

fc2.bias f4 [128]
-0.0011073651 -0.026195584 0.029519707 0.054205485 -0.048728604 0.11547648 0.02226703 -0.1275777
0.018084018 -0.009391944 -0.05767995 -0.027806917 -0.02576642 0.003936609 -0.029520955 0.0057808002
-0.016184757 -0.0035492126 -0.007409943 -0.06365743 0.07135371 -0.018342538 -0.03570107 -0.048747618
0.005880714 0.02698941 0.07157069 0.0074803485 -0.030905748 0.07800034 -0.07393016 -0.037375312
-0.064616896 -0.06428875 -0.0912505 0.037430927 -0.078544505 0.037602868 0.032575127 -0.02447477
0.043814324 0.05280101 0.0037438858 0.045199156 -0.0067287325 0.07670971 0.019500501 -0.03871223
0.021747638 0.09496597 -0.04914306 -0.023372887 0.012180742 -0.14888993 -0.074061126 0.058925625
0.09240684 0.039649345 0.038621888 -0.04614793 -0.02202166 -0.0045842063 0.022286957 0.057595994
-0.026547056 0.026959494 -0.07599606 0.040881287 0.068769075 -0.050496675 -0.03724906 0.068609826
-0.10188713 0.055768814 0.035389747 0.16220449 -0.09392695 0.020572249 0.09883314 0.038668342
-0.033028033 0.02286219 0.08740474 0.010288216 -0.05735529 0.005586499 -0.032094028 0.006938757
0.035374045 0.01868997 0.13249265 -0.009096897 -0.08524917 0.046351142 -0.045648392 0.004676044
0.025322959 -0.016806925 -0.01298584 0.018412516 0.0041471752 -0.018716509 0.04287248 0.009433925
0.031892207 -0.030275198 0.026183344 0.054208193 0.0062892963 -0.007360988 -0.02089405 -0.06672087
0.024346627 -0.030559588 0.10256893 -0.10096652 0.056276057 -0.037618607 -0.013765271 0.044933435
-0.116045065 0.06454982 0.013843802 0.03763955 -0.08540272 -0.021556752 -0.07949723 -0.019752529
00000000: 0225 91ba 1f98 d6bc 50d3 f13c 9206 5e3d
00000010: a597 47bd ef7e ec3d 5969 b63c bba3 02be
00000020: ef24 943c abe0 19bc d041 6cbd 55cb e3bc
00000030: 1914 d3bc abfe 803b eed5 f1bc de6c bd3b
00000040: e595 84bc e899 68bb 1bcf f2bb d45e 82bd
00000050: e521 923d 1743 96bc 493b 12bd 95ab 47bd
00000060: 01b3 c03b e518 dd3c a793 923d b61d f53b
00000070: 0d2e fdbc a4be 9f3d b268 97bd db16 19bd
00000080: dd55 84bd d2a9 83bd 8be1 babd 2c51 193d
00000090: f1db a0bd 7705 1a3d 7f6d 053d 507f c8bc
000000a0: a676 333d df45 583d fb5b 753b c022 393d
000000b0: b37c dcbb fb19 9d3d 84bf 9f3c b790 1ebd
000000c0: 1a28 b23c 857d c23d 3c4a 49bd 7f78 bfbc
000000d0: bc91 473c 9a76 18be 5cad 97bd ff5b 713d
000000e0: cc3f bd3d 5a67 223d fc31 1e3d 9d05 3dbd
000000f0: c566 b4bc 1c37 96bb 2393 b63c c7e9 6b3d
00000100: 3679 d9bc 28da dc3c d3a3 9bbd 2373 273d
00000110: cdd6 8c3d 9ad5 4ebd 7892 18bd 4f83 8c3d
00000120: 33aa d0bd d76d 643d d7f4 103d ef18 263e
00000130: c65c c0bd 2287 a83c 0869 ca3d b262 1e3d
00000140: 6748 07bd 7d49 bb3c 4201 b33d e88f 283c
00000150: 61ed 6abd f30e b73b 0775 03bd 835e e33b
00000160: 60e4 103d b51b 993c 27ac 073e 270b 15bc
00000170: 1e97 aebd b2da 3d3d cff9 3abd 8039 993b
00000180: 1872 cf3c adae 89bc 90c2 54bc d8d5 963c
00000190: 07e5 873b 5d53 99bc 0e9b 2f3d c090 1a3c
000001a0: 67a1 023d b103 f8bc 747e d63c 6909 5e3d
000001b0: 7116 ce3b 7134 f1bb 002a abbc f4a4 88bd
000001c0: 9472 c73c 1a58 fabc a90f d23d 89c7 cebd
000001d0: b981 663d f815 1abd bb87 61bc 1f0c 383d
000001e0: 09a9 edbd b232 843d 1dd1 623c ee2b 1a3d
000001f0: 9fe7 aebd c997 b0bc 72cf a2bd 0ed0 a1bc

fc3.weight f4 [4, 128]
-0.78912497 -0.038640793 -0.061149538 0.05634895 -0.026549198 0.0023574587 -0.28156728 -0.3158051
-0.33508354 -0.008580725 -0.6791278 -0.25939566 0.108759284 0.080548756 -0.37521157 -0.49548158
-0.22706752 -0.61437416 0.2524967 -0.13930927 -0.35198745 -0.2299743 0.46624285 0.79911494
0.031109894 0.10567001 0.030397972 0.20466694 -0.010437284 0.09731504 -0.015870072 0.49000624
-0.3530769 0.04033599 0.29440936 0.11869388 -0.56557924 0.18426245 0.06327293 0.54406387
-0.08655224 -0.71712923 -0.5193939 0.24797785 -0.58642864 0.27328974 -0.25438976 -0.003759062
-0.075999625 0.19669539 0.028900225 -0.11991267 0.22179295 -0.0040152483 -0.21507414 0.2865044
0.037991747 -0.11457736 -0.57778037 -0.24376772 0.2319361 -0.2365834 -0.022306824 0.031112516
0.1463631 -0.14174643 -0.1086416 -0.56094515 0.043690436 0.30752948 -1.1920803 0.23274253
0.5677449 -0.06375745 -0.18162704 -0.09899168 -0.3901784 -0.07565772 -0.34013608 -0.42364222
-0.7046211 -0.114954054 0.15007113 -0.28584707 -0.35360077 0.7751675 0.11366902 0.06736831
0.4857056 -0.071758606 0.28775343 -0.42611566 -0.8556662 -0.05165277 0.19667335 0.31404072
-0.2486349 0.28586194 0.089888975 0.15099616 -0.0069871456 -0.14860918 0.119812675 0.12582602
-0.28010824 -0.39152914 0.60815144 0.3900767 -0.10174034 -0.015861996 0.27001035 0.0975574
-0.0077441977 -0.2325174 0.54001087 0.23645759 -0.093412355 -0.04787358 -0.39291447 -0.1776039
-0.4186691 -0.15165277 -0.62284756 -0.084275626 0.030900488 0.30903628 0.57114446 0.3424683
-0.4580065 0.47737423 0.14712799 0.13973413 -0.6594878 0.18995675 0.005128421 0.17297535
-1.0991659 0.05555953 -0.3614816 0.46783757 -0.49825457 0.7135006 -0.20631653 -0.2826483
0.07168136 0.3309937 -0.07405977 0.51785195 -0.30511594 0.5859236 -0.4351911 0.21658082
0.2517358 -0.23099537 0.21655573 0.033849556 -0.042765982 0.40567854 -0.0041728006 -0.3126592
0.095735826 -0.5243831 -0.41121578 -0.19230634 -0.33253232 -0.09876442 0.25228012 0.12141859
-0.112451345 -0.17891976 0.49889475 -0.046836454 -0.42759532 0.0825685 -0.05188454 -0.016731711
-0.06098284 0.006203813 0.20463839 0.189875 0.024051672 -0.599256 0.057783175 -0.1274553
-0.06348834 0.32284662 0.085390195 0.33269736 0.3047849 -0.5420115 -0.4164156 0.5307574
0.10080458 0.08903822 0.31298628 -0.20012304 0.25260553 -0.7392392 -0.023556326 -0.10172432
0.54354393 -0.34029707 0.39236218 0.2431275 -0.5106564 0.28661415 0.13352628 0.18073596
0.68764704 0.46884504 -0.36471117 0.17481281 -0.23748642 0.3178435 0.5593469 -0.08770767
-0.36722457 0.5367042 -0.015029972 0.38224053 -0.17805284 -0.22533318 -0.21251957 -0.17880517
-0.18388909 0.093759485 -0.40606725 -0.20175146 -0.28839272 0.048576225 0.04247541 -0.4520876
0.19506325 -0.4793771 0.20935102 -0.051324736 -0.4870485 -0.10076433 0.31212008 -0.2767654
0.96248233 -0.3592654 -0.038622502 -0.270414 -0.41236547 -0.08231709 0.66843444 -0.1514089
-0.49481943 0.066406004 -0.700158 -0.42294598 0.13364294 -0.19672607 0.19341491 0.042322055
00000000: 1804 4abf cf45 1ebd f077 7abd 28ce 663d
00000010: b47d d9bc 987f 1a3b 9629 90be 35b1 a1be
00000020: 1290 abbe 2b96 0cbc 52db 2dbf 82cf 84be
00000030: 30bd de3d bff6 a43d bb1b c0be c3af fdbe
00000040: 6384 68be a047 1dbf 3f47 813e 17a7 0ebe
00000050: b337 b4be 627e 6bbe 62b7 ee3e cc92 4c3f
00000060: 2dda fe3c 8569 d83d 2b05 f93c 3694 513e
00000070: 2401 2bbc 1c4d c73d f401 82bc 19e2 fa3e
00000080: 7fc6 b4be 5a37 253d d3bc 963e c715 f33d
00000090: cdc9 10bf 4caf 3c3e 3d95 813d c547 0b3f
000000a0: 4d42 b1bd c895 37bf 00f7 04bf e8ed 7d3e
000000b0: 3020 16bf a2ec 8b3e 603f 82be 985a 76bb
000000c0: b1a5 9bbd 846a 493e 2ac0 ec3c c694 f5bd
000000d0: b11d 633e 5892 83bb 653c 5cbe b4b0 923e
000000e0: 3c9d 1b3d 89a7 eabd 6ae9 13bf 3f9e 79be
000000f0: a880 6d3e eb42 72be cdbc b6bc addf fe3c
00000100: 35e0 153e fa25 11be 7d7f debd 1a9a 0fbf
00000110: bef4 323d 8174 9d3e 1696 98bf 0f54 6e3e
00000120: bb57 113f 4493 82bd 70fc 39be 26bc cabd
00000130: 77c5 c7be 6ff2 9abd 5126 aebe a2e7 d8be
00000140: 0c62 34bf 086d ebbd 3fac 193e 8c5a 92be
00000150: 290b b5be 6171 463f 4ecb e83d 66f8 893d
00000160: 68ae f83e 2df6 92bd 6b54 933e d52b dabe
00000170: f10c 5bbf db91 53bd bd64 493e f2c9 a03e
00000180: 269a 7ebe 7f5c 923e b617 b83d bd9e 1a3e
00000190: 6df4 e4bb 012d 18be 5960 f53d 89d8 003e
000001a0: 596a 8fbe 8276 c8be d0af 1b3f 22b8 c73e
000001b0: 3d5d d0bd 04f1 81bc cc3e 8a3e 2dcc c73d
000001c0: 0ac3 fdbb 0b19 6ebe 273e 0a3f f021 723e
000001d0: fa4e bfbd 1617 44bd 162c c9be ccdd 35be
000001e0: cc5b d6be dd4a 1bbe f072 1fbf b398 acbd
000001f0: 0523 fd3c 013a 9e3e 8636 123f 0158 af3e
00000200: d47f eabe 656a f43e b8a8 163e 7716 0f3e
00000210: 31d4 28bf 0684 423e 500c a83b 7320 313e
00000220: 78b1 8cbf 6492 633d 1e14 b9be 6888 ef3e
00000230: 391b ffbe faa7 363f a444 53be 47b7 90be
00000240: adcd 923d 0278 a93e a6ac 97bd f291 043f
00000250: 2838 9cbe 17ff 153f 5ed1 debe 5dc7 5d3e
00000260: 84e3 803e 0d8a 6cbe c9c0 5d3e d5a5 0a3d
00000270: 622b 2fbd 19b5 cf3e fdbb 88bb de14 a0be
00000280: 2511 c43d f93d 06bf e08a d2be f4eb 44be
00000290: ad41 aabe 0045 cabd dc2a 813e 4faa f83d
000002a0: e44c e6bd be36 37be 226f ff3e 95d7 3fbd
000002b0: c6ed dabe ac19 a93d e284 54bd f110 89bc
000002c0: 24c9 79bd 5b49 cb3b ba8c 513e 986e 423e
000002d0: 0308 c53c d768 19bf 0dae 6c3d a483 02be
000002e0: 2d06 82bd 274c a53e 0ee1 ae3d 4f57 aa3e
000002f0: c40c 9c3e 44c1 0abf 6d34 d5be b8df 073f
00000300: a272 ce3d ac59 b63d bd3f a03e 0eed 4cbe
00000310: 8355 813e c83e 3dbf 32f9 c0bc d754 d0bd
00000320: b225 0b3f 6b3b aebe b2e3 c83e 6af6 783e
00000330: 61ba 02bf 17bf 923e 1dbb 083e d912 393e
00000340: a309 303f 750c f03e 6cbb babe 2102 333e
00000350: a42f 73be 62bc a23e 5c31 0f3f 14a0 b3bd
00000360: dc04 bcbe 7265 093f 4640 76bc 08b5 c33e
00000370: 7c53 36be bebd 66be bb9e 59be b418 37be
00000380: 6c4d 3cbe f904 c03d 0ce8 cfbe ef97 4ebe
00000390: 36a8 93be ddf7 463d b2fa 2d3d 0778 e7be
000003a0: a9be 473e ea70 f5be 1d60 563e e339 52bd
000003b0: 6c5e f9be 875d cebd 34ce 9f3e 32b4 8dbe
000003c0: 3e65 763f a2f1 b7be a132 1ebd b473 8abe
000003d0: 9121 d3be dd95 a8bd 851e 2b3f ef0a 1bbe
000003e0: f958 fdbe dfff 873d 8e3d 33bf 608c d8be
000003f0: b2d9 083e 8f72 49be 8f0e 463e e459 2d3d

fc3.bias f4 [4]
0.07229892 -0.008840903 0.062886424 -0.07949256
00000000: 7511 943d 6fd9 10bc 99ca 803d ffcc a2bd
