checkpoints/banana_collector_qnetwork_local_checkpoint_2020-05-07 20:26:31.248032.pth (torch_old, 88913 bytes, 6 tensors)

model.mlp_layers.0.weight f4 [128, 37]
0	0xbc82e957	-0.015980406
1	0xbda6ab7c	-0.08138177
2	0x3c471233	0.012150335
3	0xbd3c00fd	-0.04589938
4	0xbe05ab6f	-0.13053678
5	0xbc801f15	-0.015639821
6	0xbd7e3ecf	-0.062071618
7	0xbdb03abb	-0.08604952
8	0xbc0f0ffb	-0.008731837
9	0x3c1788fc	0.009248968
10	0x3c0e32f2	0.0086791385
11	0x3d698282	0.057009228
12	0xbdd85080	-0.10562229
13	0xbe740674	-0.23830587
14	0xbeaea120	-0.34107304
15	0xbdedf3d6	-0.11618774
16	0x3d208086	0.03918507
17	0xbcdfc317	-0.027314706
18	0xba02946b	-0.00049812224
19	0x3da6cea2	0.08144881
20	0x3e8c7263	0.2743102
21	0xbe9818a2	-0.29706293
22	0xbe099910	-0.13437295
23	0xbe058785	-0.13039978
24	0xbf3b044c	-0.7305343
25	0x3d820bff	0.06349944
26	0x3d2ffeee	0.04296773
27	0x3e0a99d5	0.13535245
28	0x3d119eec	0.03555195
29	0xbdd57be5	-0.10424022
30	0x3d4ac05b	0.04949985
31	0x3d77c931	0.060494605
32	0x3e6fcb5a	0.23417416
33	0x3dda03fc	0.10645291
34	0x3eb89349	0.3604987
35	0x3c84b5c9	0.016199963
36	0x3b9d5a76	0.0048020435
37	0xbe56eecd	-0.20989533
38	0xbd0777f4	-0.03307338
39	0xbc22d0ef	-0.009937509
40	0xbdfff0bb	-0.124970876
41	0xbe17ac73	-0.14811878
42	0xbe7a715c	-0.24457306
43	0x3d891bc2	0.066947475
44	0x3daba038	0.08380169
45	0x3d86f678	0.06589979
46	0xbb1908c0	-0.0023351163
47	0x3c8d4d38	0.017248735
48	0x3da8e33d	0.08246467
49	0xbd968ac4	-0.07350686
50	0x3e1b714c	0.15179938
51	0x3e1df755	0.15426381
52	0xbe3c4b52	-0.18388107
53	0x3d3cb26d	0.046068598
54	0x3d858720	0.06519914
55	0xbe95a1b6	-0.29224938
56	0xbcc35651	-0.02384487
57	0xbcf2da4f	-0.029645113
58	0xbd6e92be	-0.058245413
59	0xbd9dd810	-0.07707226
60	0x3e05ba66	0.13059387
61	0x3e8cdb37	0.27510998
62	0xbe931269	-0.28724983
63	0xbdc23a67	-0.094837956
64	0xbde5b4d5	-0.112161316
65	0xbd9ec8c5	-0.077531375
66	0x3c1f5b44	0.009726349
67	0xbd569134	-0.05238457
68	0xbead40b4	-0.33838427
69	0xbcab4a42	-0.020909432
70	0x3e741a1d	0.23838086
71	0x3eadd9d1	0.33955243
72	0x3c0bf5e6	0.0085425135
73	0xbb9505da	-0.0045478167
74	0xbc496bd9	-0.012293779
75	0x3c892e2b	0.016745647
76	0xbc9f972f	-0.01948127
77	0xbdabb636	-0.08384363
78	0xbd49a14b	-0.049226087
79	0x3d15dd8a	0.03658823
80	0x3deb186c	0.114792675
81	0x3d5e4a33	0.05426998
82	0x3d5e0367	0.054202463
83	0x3d5a2858	0.05326113
84	0xbdca56c2	-0.09879829
85	0xbd9986f9	-0.07496447
86	0xbd7f130d	-0.062274028
87	0xbd294b88	-0.041331798
88	0x3c9ebecd	0.01937809
89	0xbc6e64f5	-0.014550437
90	0xbbc2df08	-0.0059469976
91	0x3cf9610c	0.030441783
92	0x3d8080c3	0.06274559
93	0x3d596abd	0.05308031
94	0xbc33560f	-0.010945811
95	0xbab5e5c3	-0.0013877678
96	0x3d295e6a	0.041349806
97	0x3d894bb3	0.067038916
98	0x3ded8602	0.115978256
99	0x3e000fa4	0.12505966
100	0xbe9d49be	-0.30720323
101	0xbec5ff1e	-0.386712
102	0xbeb80878	-0.3594396
103	0xbfa0955a	-1.2545578
104	0xbccb4e27	-0.02481754
105	0xbd3bed28	-0.045880467
106	0xbc6be7b3	-0.014398503
107	0x3c5b6a6b	0.013392071
108	0x3dd0d955	0.10197703
109	0x3ca51ff1	0.020156832
110	0x3b8c03e2	0.004272924
111	0xbd80c829	-0.062881775
112	0x3d8d2583	0.068919204
113	0xbdb5636a	-0.08856852
114	0xbcb49751	-0.02204481
115	0x3c991eaa	0.01869138
116	0xbe9171a8	-0.28407025
117	0x3d326703	0.04355527
118	0x3d34f421	0.044178132
119	0x3e799623	0.24373679
120	0x3e9c0788	0.30474496
121	0x3da5faf7	0.08104508
122	0x3e1a8b1d	0.1509213
123	0xbcfc19d9	-0.030774044
124	0x3ccb0f46	0.024787556
125	0xbe41c873	-0.18924122
126	0x3dd39177	0.103304796
127	0x3dc9da9e	0.09856151
128	0xbcfbf39e	-0.030755814
129	0x3c3b8476	0.011445155
130	0xbeaa97f4	-0.33319056
131	0x3cacd5d1	0.02109805
132	0x3c613ff7	0.013748161
133	0xbd9829bc	-0.07429835
134	0xbe710e9a	-0.23540726
135	0xbe981974	-0.2970692
136	0x3ce2659c	0.027636342
137	0x3d187a8b	0.03722624
138	0xbd695d35	-0.056973655
139	0xbc995d9b	-0.018721392
140	0xbe161574	-0.14656621
141	0xbdd8e29a	-0.10590096
142	0x3d97777b	0.07395836
143	0x3da2d31e	0.07950424
144	0x3dac67ad	0.08418212
145	0x3d64ecc2	0.055889852
146	0xbda80fc4	-0.08206132
147	0xbcd0fbd7	-0.025510712
148	0xbe51c3d6	-0.20484862
149	0xbe929151	-0.28626493
150	0xbdcff45b	-0.10154029
151	0xbd0379f7	-0.032098737
152	0xbd9988cc	-0.07496795
153	0xbc20834a	-0.009796927
154	0xbc3bf078	-0.011470906
155	0x3d88d3fc	0.06681058
156	0xbddd1de7	-0.10796719
157	0xbd7fe8b9	-0.0624778
158	0xbe546af1	-0.2074392
159	0xbdb3250b	-0.087473
160	0x3d93c02c	0.07214388
161	0xba90949d	-0.0011030618
162	0xbe14edfe	-0.14543912
163	0x3b2a58df	0.0025992913
164	0xbd5f0143	-0.054444563
165	0x3e212c20	0.15739489
166	0x3c800d5c	0.01563137
167	0xbd42e9a0	-0.047586083
168	0x3dc9ba49	0.09849984
169	0xbd91fd19	-0.07128353
170	0xbe05d304	-0.13068777
171	0xbe434840	-0.1907053
172	0xbe86d7b4	-0.26336443
173	0xbe113b65	-0.14182813
174	0xbe51e024	-0.20495659
175	0xb9a2b91a	-0.0003103696
176	0xbe6a8a72	-0.22904375
177	0xbebc5a67	-0.36787722
178	0x3d6e152d	0.058125664
179	0xbe62fddf	-0.22167157
180	0x3c1e29f9	0.009653562
181	0xbe9c243a	-0.3049639
182	0xbeca42a3	-0.39503965
183	0xbd1aca86	-0.037790798
184	0xbd273b18	-0.04082784
185	0xbcf2995f	-0.029614149
186	0xbe914085	-0.28369537
187	0xbdd26ea0	-0.10275006
188	0x3db9fd91	0.09081567
189	0x3cf4c35b	0.029878309
190	0xbe63d5a7	-0.2224947
191	0xbedcf88e	-0.43158382
192	0x3e1d149b	0.15339892
193	0xbd083bef	-0.033260282
194	0xbd65504e	-0.055984788
195	0xbe9949c5	-0.29939094
196	0xbd38ff01	-0.045165066
197	0xbe32bcda	-0.17454854
198	0x3e7c1869	0.24618687
199	0xbe0ee2a4	-0.13953644
200	0x3b661a09	0.0035110733
201	0xbe1d37fc	-0.15353388
202	0xbdcec21c	-0.10095617
203	0xbdfe6fe8	-0.12423688
204	0xbd5e3868	-0.054253012
205	0xbd0ce7bd	-0.03440069
206	0xbe5d6890	-0.21621919
207	0xbd89c325	-0.06726674
208	0x3da3d3d6	0.07999389
209	0x3de603d2	0.112311974
210	0xbdb8684d	-0.09004269
211	0xbe14328a	-0.14472404
212	0x3cb88b75	0.022527436
213	0xbe89a3b6	-0.26882714
214	0x3e3782ea	0.17921034
215	0xbcc08d0c	-0.023504756
216	0xbde10a5d	-0.10988305
217	0xbdc17e19	-0.09447879
218	0xbe11dfbf	-0.14245509
219	0xbd396d71	-0.045270387
220	0xbccdfc01	-0.025144579
221	0xbd54e6c0	-0.051977873
222	0x3dd7f68d	0.10545073
223	0xbe830e61	-0.25596908
224	0x3da2da74	0.07951823
225	0xbe98f5fe	-0.29875177
226	0xbe330e60	-0.17485952
227	0xbe3077b0	-0.17233157
228	0x3d661d5e	0.05618035
229	0x3bcb8bb2	0.0062117213
230	0xbd5daa75	-0.05411764
231	0xbe82b151	-0.25525907
232	0xbd783df2	-0.06060595
233	0xbcc1a8fe	-0.023640152
234	0xbdede523	-0.1161597
235	0xb870e82c	-5.7436686e-05
236	0xbd65e182	-0.056123264
237	0x3d25ee62	0.040510543
238	0xbe8f52bc	-0.2799281
239	0x3d8520bf	0.065003864
240	0x3cd12aaa	0.02553304
241	0xbef5cea1	-0.48009208
242	0xbd4fefb0	-0.050765693
243	0xbd6d14cf	-0.057881173
244	0x3e38294e	0.17984506
245	0xbd940d09	-0.07229049
246	0xbdfb9b31	-0.1228546
247	0xbd963585	-0.07334427
248	0x3e2606dd	0.16213556
249	0xbd4cae37	-0.04997083
250	0x3e1f2bf6	0.15544114
251	0xbed55804	-0.41668713
252	0x3dcc3f43	0.09973004
253	0xbe87fadd	-0.2655858
254	0x3c7fe5a8	0.015618719
255	0xbd2b8f44	-0.041884676

model.mlp_layers.0.bias f4 [128]
0	0xbe1ea1d7	-0.15491425
1	0xbd854d32	-0.065088645
2	0x3d6d1a4e	0.057886414
3	0xbd2c6961	-0.042092685
4	0xba16c53b	-0.00057514355
5	0xbe5164ba	-0.2044858
6	0xbc3014ef	-0.010747178
7	0xbe070a15	-0.1318744
8	0x3da8c6f7	0.082410745
9	0x3d8b6892	0.068070546
10	0xbc627ec5	-0.0138241695
11	0xbe632cac	-0.2218501
12	0xbddc60f9	-0.107606836
13	0xbe18b4ee	-0.14912769
14	0xbe108eb8	-0.14116943
15	0xbd771019	-0.060318086
16	0x3da470d4	0.08029333
17	0xbda6fdcc	-0.08153877
18	0x3d216668	0.039404303
19	0xbd0e5ef0	-0.03475851
20	0x3d07a378	0.03311488
21	0x3cf419eb	0.029797515
22	0xbdcfa1dd	-0.10138295
23	0x3c213e43	0.0098415045
24	0x3da8a4a4	0.08234528
25	0xbe037bf8	-0.12840259
26	0x3dca9a39	0.09892697
27	0xbe399d10	-0.18126321
28	0xbdd03e71	-0.1016816
29	0xbaadfc75	-0.0013274091
30	0xbde53f31	-0.111936934
31	0xbd6761c1	-0.05648971
32	0xbd3b7a24	-0.04577078
33	0x3da69e2d	0.081356384
34	0xbcf3952d	-0.029734218
35	0x3d8300ba	0.06396623
36	0xbd3c4b3a	-0.04597018
37	0xbda72f3d	-0.08163307
38	0xbe0ae5a3	-0.13564162
39	0xbdea0f84	-0.114287406
40	0xbe0d684c	-0.13809317
41	0xbcb8b5cd	-0.022547627
42	0xbd969e35	-0.07354394
43	0xbe0216fa	-0.12704077
44	0x3d8f3bc3	0.069938205
45	0xbd0f7dfc	-0.035032257
46	0x3cffeb48	0.03124012
47	0xbe2fd804	-0.17172247
48	0xbe4520f2	-0.19250849
49	0x3cfcf12b	0.030876717
50	0xbd0d9c6a	-0.034572996
51	0xbe15c3e3	-0.14625506
52	0xbdfba4ac	-0.12287268
53	0x3c551735	0.013006021
54	0xbe2a7f15	-0.1665004
55	0x3af24e85	0.0018486535
56	0xbdec00c6	-0.11523585
57	0xbe6e4a73	-0.23270588
58	0x3c6d095a	0.014467562
59	0xbe4fddd2	-0.20299461
60	0xbd2c14e7	-0.04201212
61	0xbd366172	-0.044526525
62	0xbe8231fa	-0.25428754
63	0xbc408856	-0.011751255
64	0xbdda10ec	-0.10647759
65	0x3d57db8d	0.052699614
66	0xbdf8cb84	-0.121481925
67	0x3da17300	0.07883263
68	0x3da10a4f	0.07863294
69	0x3d448b8e	0.047984652
70	0x3c9cacfe	0.019125458
71	0x3d6d4a75	0.057932336
72	0xbe5d77a3	-0.21627669
73	0xbe40c40d	-0.18824787
74	0xbe072c4f	-0.13200496
75	0xbb81d262	-0.003961847
76	0x3d965b86	0.073416755
77	0x3d8c0671	0.06837166
78	0xbe00a46d	-0.12562723
79	0xbd34c796	-0.044135652
80	0xbbd7c446	-0.006584677
81	0xbe1ffcc1	-0.15623762
82	0xbd78653f	-0.06064343
83	0xbe719c0c	-0.23594683
84	0xbe2e3791	-0.17013384
85	0xbe5e2674	-0.21694356
86	0xbe3f9b02	-0.18711475
87	0x3bcf61e6	0.006328809
88	0x3db9b1f4	0.09067145
89	0xbdbfc3fc	-0.09363553
90	0x3a94f79e	0.00113653
91	0x3cc332d3	0.023827946
92	0xbcf85ff5	-0.030319193
93	0xbd7db284	-0.061937824
94	0xbe49e1d7	-0.19715057
95	0xbcf40291	-0.02978638
96	0xbd3161e8	-0.04330626
97	0xbe3391e8	-0.17536128
98	0xbddeab03	-0.10872462
99	0xbdf82bc0	-0.1211772
100	0xbe97dd22	-0.29660898
101	0xbe2a9a58	-0.1666044
102	0xbe28e4d2	-0.16493538
103	0xbe2f3fb8	-0.1711415
104	0x3cf7909b	0.03022032
105	0xbd115057	-0.03547701
106	0xbd841d0b	-0.06450852
107	0x3deb9c32	0.11504401
108	0xbe21fad6	-0.15818343
109	0xbdf82aea	-0.1211756
110	0x3de11493	0.10990252
111	0x3db31ba3	0.08745506
112	0x3d44fa10	0.04809004
113	0x3da1457f	0.078745835
114	0xbc168905	-0.009187941
115	0x3cafdc65	0.021467397
116	0xbddc947d	-0.107705094
117	0x3d8bdc45	0.068291225
118	0xbdb08d04	-0.086206466
119	0xbd848721	-0.06471086
120	0xbe2f3f97	-0.17114101
121	0x3d4604bb	0.048344355
122	0xbdc139fb	-0.09434887
123	0x3d7e71a9	0.062120114
124	0x3d96a526	0.07355718
125	0xbe3776bd	-0.17916389
126	0x3d8c9709	0.06864745
127	0xbcf099df	-0.029370246

model.mlp_layers.3.weight f4 [128, 128]
0	0xbb82ca2b	-0.0039913855
1	0xbcd6879c	-0.02618771
2	0x3d199fd1	0.03750593
3	0xbd644f97	-0.055739965
4	0xbcf20a03	-0.02954579
5	0xbc9a2227	-0.018815113
6	0x3d4be26c	0.04977648
7	0xbd17f490	-0.037098467
8	0x3d9a809b	0.07544061
9	0x3d3e6d7f	0.046491142
10	0x3d6a74aa	0.057240166
11	0x3cecc3fc	0.028902046
12	0xbd4d250a	-0.05008415
13	0xbc65f959	-0.0140365
14	0x3e05bc10	0.13060021
15	0xbbc12bd9	-0.0058951196
16	0xbb848942	-0.0040446827
17	0x3c66a7d4	0.014078099
18	0x3c802224	0.01564128
19	0x3d9af7d5	0.075668015
20	0x3d17e0f3	0.037079763
21	0xbce4f85d	-0.02795046
22	0x3d20cd9a	0.039258577
23	0x3d1b4679	0.037909005
24	0x3d7917cd	0.060813714
25	0x3de68fc3	0.11257889
26	0x3cef6eb3	0.02922759
27	0x3c330ac2	0.010927858
28	0x3c61ba63	0.013777348
29	0xbd20fffc	-0.039306626
30	0x3a5cba8a	0.00084201305
31	0x3d9e0b7d	0.07717035
32	0x3be6a8e0	0.0070391744
33	0xbd96a466	-0.07355575
34	0x3b17e652	0.0023178053
35	0x3db7267c	0.08942887
36	0xbd3dbcd7	-0.04632267
37	0xbd1fe119	-0.03903303
38	0xbe0f6c00	-0.14006042
39	0x3e28306e	0.16424724
40	0xbdecc1fc	-0.11560437
41	0x3e85962f	0.26091143
42	0x3c7b6f34	0.015346337
43	0x3d9cabf6	0.076499864
44	0x3d5a87b5	0.053352077
45	0x3dc04add	0.09389279
46	0xbc53e4f5	-0.012933006
47	0xbdc68704	-0.09693721
48	0x3c25d81a	0.010122323
49	0x3d1e0779	0.038581345
50	0x3d50783e	0.050895922
51	0x3d498795	0.049201567
52	0xbcb473a5	-0.0220278
53	0xbd3c7e0b	-0.04601864
54	0x3da4b176	0.080416605
55	0x3c89653c	0.016771905
56	0x3dc8fb08	0.098135054
57	0xbd5f4d76	-0.054517232
58	0x3d392af1	0.045206968
59	0x3dd57ee8	0.10424596
60	0x3e5212a6	0.20514926
61	0xbd542f95	-0.05180319
62	0x3d78f57c	0.060780987
63	0x3d4eb331	0.05046386
64	0x3db97c03	0.090568565
65	0x3eb5ba51	0.3549371
66	0x3d7e1df4	0.062040284
67	0x3d37a45a	0.044834472
68	0xbdd83644	-0.10557225
69	0x3d5a8800	0.053352356
70	0x3d00d61a	0.031454183
71	0x3c51f345	0.012814348
72	0xbcc8ed9f	-0.024527369
73	0x3cf5ad9a	0.029990006
74	0xbe12010f	-0.14258216
75	0x3da32e68	0.07967836
76	0xbe018443	-0.1264811
77	0xbc366884	-0.011133317
78	0x3d3ce415	0.046115953
79	0x3ca9bcd5	0.020719925
80	0x3d53ac58	0.05167803
81	0x3d8b4d19	0.068018146
82	0x3d00998b	0.03139643
83	0xbe1a199d	-0.15048833
84	0xbcd18a6f	-0.025578706
85	0x3e3415cb	0.17586438
86	0x3d81a431	0.06330145
87	0xbd191108	-0.037369758
88	0x3dca3a17	0.09874361
89	0x3d0f139f	0.03493082
90	0x3ca9c161	0.020722093
91	0xbe069574	-0.1314295
92	0xbd24bcde	-0.04021918
93	0x3d9cfbd2	0.076652184
94	0x3d994f85	0.0748587
95	0xbd15efd5	-0.036605675
96	0x3d42b7a8	0.04753843
97	0xbbad9fed	-0.0052986057
98	0x3c821eb9	0.01588379
99	0xba48c09b	-0.0007658095
100	0xbd49c4b8	-0.04925987
101	0xbd32be3b	-0.04363845
102	0xbd470808	-0.048591644
103	0xbbb3371b	-0.0054692156
104	0xbe157242	-0.14594367
105	0x3d832d87	0.06405168
106	0x3d8be59b	0.06830903
107	0x3ddbc4f2	0.10730924
108	0x3d89bc2f	0.06725346
109	0xbcf448ec	-0.029819928
110	0x3e16af70	0.14715362
111	0x3c11c60b	0.008897315
112	0xbdeec85d	-0.1165931
113	0x3dd91be3	0.10601022
114	0xbce5be86	-0.02804495
115	0x3dfba3b5	0.12287084
116	0x3db6960c	0.08915338
117	0x3df27cca	0.11840208
118	0xbc760a0e	-0.015017046
119	0xbd491cf9	-0.049099896
120	0x3c5c3b40	0.013441861
121	0xb9965071	-0.00028670163
122	0x3d5bf784	0.053702846
123	0x3cc3b7a8	0.023891285
124	0x3dc5aec7	0.09652477
125	0x3d508d97	0.05091628
126	0x3d304028	0.043029934
127	0x3c82f0d1	0.01598397
128	0xbd22d4e0	-0.039753795
129	0xbd70282f	-0.058632072
130	0xbe36d694	-0.17855293
131	0xbcf28e67	-0.029608918
132	0x3dd73102	0.105073944
133	0xbdab787e	-0.083725914
134	0xbad9d868	-0.001662028
135	0xbdc0ea00	-0.09419632
136	0xbee5c068	-0.44873357
137	0xbe2a9129	-0.16656937
138	0xbd53bd14	-0.05169399
139	0x3c8869ac	0.01665195
140	0xbe94862f	-0.29008624
141	0xbdfd758b	-0.12375935
142	0xbd96a6ac	-0.07356009
143	0xbddc2791	-0.10749734
144	0xbe8b7d7e	-0.2724418
145	0x3d50f9e7	0.051019575
146	0xbec8b8d7	-0.39203522
147	0xbde3fe89	-0.11132533
148	0x3daae1b0	0.08343828
149	0xbeb7f94f	-0.35932395
150	0xbb5e5130	-0.0033922903
151	0xbd911481	-0.07083989
152	0xbe8cc646	-0.2749502
153	0xbdd0d004	-0.10195926
154	0xbe1e5709	-0.15462889
155	0xbd60d2aa	-0.054888405
156	0x3b994c74	0.0046783034
157	0xbef1def9	-0.47240427
158	0xbdd80765	-0.105482854
159	0xbe0b94ad	-0.13630934
160	0xbc9723d2	-0.018449698
161	0x3c526f73	0.012843954
162	0xbd9ff42a	-0.078102425
163	0xbe6fd630	-0.2342155
164	0x3cbaa477	0.022783501
165	0xbd71c362	-0.059024222
166	0xbdd96aad	-0.1061605
167	0xbe670ae8	-0.22562754
168	0x3cdc958e	0.026926782
169	0xbd3353c1	-0.043781046
170	0xbeb570aa	-0.35437518
171	0xbcd8c826	-0.026462626
172	0x3caeebd2	0.021352682
173	0xbef60b0e	-0.4805531
174	0xbe07720f	-0.13227104
175	0x3cfba04a	0.03071608
176	0xbcf528d4	-0.029926695
177	0xbe08e5aa	-0.1336886
178	0xbca52288	-0.020158067
179	0x3bcede09	0.0063130897
180	0xbe36e057	-0.17859016
181	0xbd4acad7	-0.04950985
182	0xbda53292	-0.08066286
183	0x3b5ddd71	0.0033853913
184	0xbe0e08f1	-0.13870598
185	0xbd8bf990	-0.0683471
186	0xbe3dbcdd	-0.18529077
187	0x3d3b7599	0.045766447
188	0xbe1a6531	-0.15077664
189	0xbd74f7a0	-0.059806466
190	0x3c651e07	0.01398421
191	0xbadab33c	-0.0016685496
192	0xbd7a0e82	-0.061048992
193	0xbe7c5f8b	-0.24645822
194	0xbcad74a3	-0.02117378
195	0xbebf4ece	-0.3736481
196	0xbe396248	-0.18103898
197	0xbebf7ef6	-0.3740155
198	0xbd76569c	-0.06014119
199	0xbd818b06	-0.06325345
200	0x3d2100d2	0.039307423
201	0xbe524d81	-0.20537378
202	0x3ca0acc5	0.019613633
203	0x3cae26a9	0.021258669
204	0xbf0372c0	-0.5134697
205	0x3a20812f	0.00061227655
206	0xbe0530a6	-0.13006839
207	0xbd9fc8f7	-0.07802003
208	0xbd4f3e32	-0.050596423
209	0x3ce4365d	0.027857954
210	0xbd897584	-0.067118675
211	0xbd49b949	-0.049248967
212	0xbe8c7d43	-0.27439317
213	0x3d651346	0.055926584
214	0xbca11100	-0.019661427
215	0x3c7cb155	0.015423139
216	0xbe6f5c98	-0.23375165
217	0xbdada362	-0.084784284
218	0x3cdd76b7	0.027034147
219	0xbee9b0e4	-0.4564277
220	0xbdcc8aef	-0.09987437
221	0xbe20dde1	-0.1570964
222	0xbc34fce6	-0.011046624
223	0xbc82d944	-0.015972741
224	0x3b58ec52	0.0033099842
225	0x3d00186a	0.031273283
226	0xbd0d3e29	-0.03448311
227	0xbe033ff0	-0.12817359
228	0xbd9a4c2a	-0.075340584
229	0xbd963355	-0.073340096
230	0xbbccc7f6	-0.006249423
231	0x3ca6af87	0.02034737
232	0x3dbd5000	0.092437744
233	0xbd986888	-0.07441813
234	0x3afc7077	0.0019259591
235	0xbe0c8d96	-0.13725886
236	0x3c2ddaa9	0.010611215
237	0x3deab3a8	0.11460048
238	0xbe63cbb5	-0.22245677
239	0xbdbcf092	-0.09225573
240	0x3d3f93bf	0.04677176
241	0xbeca1c35	-0.39474645
242	0xbd9fe75e	-0.07807802
243	0xbde3e60d	-0.11127863
244	0x3d55598d	0.052087355
245	0xbe7d1634	-0.24715501
246	0x3d8ff9f8	0.070301
247	0xbe2e7cd1	-0.17039801
248	0x38f33376	0.00011596728
249	0xbe008d36	-0.12553868
250	0xbec85854	-0.3912989
251	0xbe2a226c	-0.16614693
252	0xbd8400d3	-0.0644547
253	0x3d4395b3	0.047750186
254	0xbf1ee9f7	-0.6207575
255	0xbc3b83ad	-0.011444968

model.mlp_layers.3.bias f4 [128]
0	0x3e1936ef	0.14962362
1	0x3e12a7f7	0.14321886
2	0x3def5c4b	0.11687525
3	0x3deafa73	0.11473551
4	0x3e4695f4	0.1939314
5	0x3e25f09f	0.16205071
6	0x3a33bec1	0.00068567327
7	0x3e12ec71	0.14348008
8	0x3d2d1d02	0.042263992
9	0x3e08dd20	0.13365602
10	0xbd9d721e	-0.07687782
11	0x3e107646	0.14107618
12	0xbdebabf2	-0.11507405
13	0x3d7ca5a7	0.061681416
14	0x3deecb53	0.11659875
15	0x3e2ce8ba	0.16885653
16	0x3e18c2be	0.14918038
17	0x3e58f6c0	0.21187878
18	0xbebfbd85	-0.3744928
19	0x3d4a654d	0.049413014
20	0xbd7b1dbd	-0.061307658
21	0x3daf2d3b	0.08553549
22	0x3e3d13ce	0.18464586
23	0x3d83990b	0.06425675
24	0x3e2f7769	0.17135395
25	0x3e263dc3	0.16234498
26	0xbcb27d9e	-0.021788415
27	0x3b00e55e	0.0019667963
28	0x3d7f67eb	0.062354963
29	0x3dbfb5a8	0.0936082
30	0x3e18a1d5	0.14905484
31	0x3def5fb4	0.11688176
32	0x3e3f90d1	0.18707587
33	0x3dd3d067	0.10342484
34	0x3e553b7f	0.20823477
35	0x3e3d1af8	0.18467319
36	0xbe59e362	-0.21278146
37	0x3c52adec	0.012858849
38	0x3ca833f7	0.020532591
39	0x3c6b6b86	0.014368897
40	0x3e70b39e	0.23506019
41	0x3e05c480	0.1306324
42	0xbcc42e74	-0.023947932
43	0x3ddf4703	0.10902216
44	0x3ccc9687	0.02497412
45	0x3e406c84	0.18791395
46	0x3e4a2a3a	0.1974267
47	0x3e437539	0.19087686
48	0x3e3686bf	0.17824839
49	0x3dfb074f	0.122572534
50	0xbe1d55a6	-0.15364704
51	0x3e24564e	0.16048548
52	0x3e6acd4f	0.22929882
53	0x3d43cf54	0.047805145
54	0x3e2489cd	0.16068192
55	0x3d2121d3	0.039338898
56	0x3e33ea36	0.17569813
57	0x3e40313a	0.18768778
58	0x3e3ffb94	0.18748313
59	0xbd8c1611	-0.06840146
60	0xbe0c83a5	-0.13722093
61	0x3d5202f4	0.051272348
62	0xbe9d03cb	-0.30666956
63	0xbde4fa2d	-0.1118053
64	0x3e0be92f	0.13663171
65	0xbdc5e470	-0.096627116
66	0xbe9ebcdc	-0.31003463
67	0xbcdecf7b	-0.027198544
68	0x3dff73ec	0.12473282
69	0x3e2393d0	0.15974355
70	0xbe71ea18	-0.23624456
71	0x3e1724f7	0.14760195
72	0x3c98c42e	0.018648233
73	0x3dff58fb	0.124681436
74	0xbdaf8d46	-0.08571868
75	0xbdfa7759	-0.12229795
76	0x3d76eb2e	0.06028288
77	0x3e306f58	0.17229974
78	0x3e2b1a68	0.16709292
79	0x3e39ea5a	0.18155804
80	0x3e40ed70	0.18840575
81	0xbd91e792	-0.07124247
82	0x3e1658a6	0.14682254
83	0x3b9bee07	0.0047585997
84	0x3e03e6ae	0.12880966
85	0x3db70953	0.08937325
86	0x3e13c097	0.14428936
87	0x3df69ee3	0.12042024
88	0x3e1b1364	0.15144116
89	0x3d9b5b08	0.07585722
90	0x3cf9eb33	0.03050766
91	0x3b8afe05	0.0042417073
92	0x3dc55a1c	0.096363276
93	0x3e2830bc	0.1642484
94	0x3d6c135c	0.05763565
95	0x3e1fbf43	0.15600304
96	0x3e22a98e	0.15884992
97	0x3da02f95	0.078215756
98	0xbd9ea65f	-0.077465765
99	0x3da0e5e0	0.07856345
100	0x3df89089	0.12136943
101	0xbe2805d0	-0.16408467
102	0x3e27bbe1	0.16380264
103	0x3dd83e64	0.10558775
104	0x3da5b920	0.080919504
105	0x3dfff580	0.12497997
106	0x3debee32	0.115200415
107	0x3d5e1be4	0.054225817
108	0x3d32a9d0	0.043618977
109	0x3e149e98	0.14513624
110	0x3d7c0deb	0.06153671
111	0x3dc1f594	0.094706684
112	0x3e36791d	0.17819639
113	0x3e2f540b	0.17121904
114	0x3e3e29cb	0.1857063
115	0x3e2319e2	0.15927842
116	0x3e4cc233	0.19995956
117	0x3db53fb9	0.08850045
118	0xbd1f3a7f	-0.038874146
119	0x3e408293	0.1879981
120	0x3e31a0fc	0.17346567
121	0x3e0be549	0.13661684
122	0x3ddd8d41	0.10817958
123	0x3e280973	0.16409855
124	0xbdf66fae	-0.1203302
125	0x3e725b5a	0.2366766
126	0x3d52a034	0.051422313
127	0x3e0d75e5	0.13814504

model.mlp_layers.6.weight f4 [4, 128]
0	0x3d308fde	0.043105952
1	0xbe5a6e22	-0.21331075
2	0x3d26d7c3	0.04073311
3	0x3d92cf9b	0.07168504
4	0x3d39cbc2	0.045360334
5	0x3d32e976	0.043679677
6	0x3da86f51	0.08224357
7	0x3d711e32	0.058866687
8	0x3e017940	0.1264391
9	0x3d9d20f5	0.07672302
10	0x3d1e1f48	0.03860405
11	0x3d28f1d6	0.041246258
12	0xbd5d1664	-0.05397643
13	0xbdeb1781	-0.114790924
14	0x3d823544	0.06357816
15	0x3d3eae84	0.04655315
16	0x3d1f6ba8	0.03892103
17	0x3d3831f5	0.044969518
18	0xbe8bdcf4	-0.2731701
19	0x3e137432	0.14399794
20	0xbc718123	-0.014740261
21	0x3d5851ab	0.05281226
22	0x3dc340e9	0.09533865
23	0x3d7ef8b6	0.062248908
24	0x3d2a3fb8	0.041564673
25	0xbe62ff22	-0.22167638
26	0xbe168b9f	-0.14701699
27	0x3dc7cb00	0.09755516
28	0x3db3faff	0.08788108
29	0xbd9d40da	-0.07678385
30	0x3d511f79	0.051055405
31	0x3de6a492	0.11261858
32	0x3d4959a1	0.049157742
33	0xbe70a7ad	-0.23501463
34	0x3d571caa	0.05251757
35	0x3d4c5894	0.049889162
36	0xbdf5323b	-0.11972471
37	0x3e1b17dd	0.15145822
38	0x3dbdc6e3	0.0926645
39	0xbe0da68b	-0.13833062
40	0x3d8b68c3	0.06807091
41	0x3d13b5f3	0.036062192
42	0xbe83c757	-0.25738022
43	0x3dc99fb5	0.09844915
44	0x3e2681a4	0.16260391
45	0x3d31cc15	0.04340752
46	0x3d44c013	0.04803474
47	0x3d336ac4	0.04380299
48	0x3d7a2622	0.061071523
49	0x3d981dbc	0.074275464
50	0x3d164680	0.036688328
51	0xbe62e735	-0.22158511
52	0x3d38881b	0.045051675
53	0x3da69500	0.08133888
54	0x3d3055dc	0.043050632
55	0x3dc4a4de	0.096017584
56	0xbe1d7316	-0.15375933
57	0x3d7f45aa	0.062322296
58	0x3d43af4e	0.047774605
59	0xbda257b5	-0.07926885
60	0x3d346f5f	0.044051524
61	0xbe2d12c4	-0.1690169
62	0xbe53d7e0	-0.20687819
63	0x3c523520	0.012830049
64	0x3d38a427	0.045078423
65	0x3ba1635a	0.0049251737
66	0xbdd30434	-0.10303536
67	0xbe062150	-0.13098645
68	0xbe9d4814	-0.30719054
69	0x3da102a0	0.07861829
70	0xbd4353e0	-0.04768741
71	0x3d73c0a1	0.059509877
72	0x3de432eb	0.11142524
73	0x3d45ae39	0.048261855
74	0xbd7b3728	-0.061331898
75	0xbcf7c805	-0.030246744
76	0xbe21dfbf	-0.15808009
77	0x3d428d01	0.047497753
78	0x3d32aeb4	0.04362364
79	0x3d6289df	0.055307265
80	0x3d7234ba	0.059132315
81	0xbe1577dd	-0.14596505
82	0x3dd4e36c	0.1039494
83	0x3e0f8dc8	0.14018929
84	0x3d827c0e	0.06371318
85	0x3d452e1e	0.048139684
86	0x3d594cab	0.053051632
87	0x3d661488	0.056171924
88	0xbdee03b7	-0.11621802
89	0x3dfe27dc	0.12409946
90	0x3d3fdc76	0.046841107
91	0x3dab39ff	0.08360671
92	0x3dc3e4ef	0.0956515
93	0x3d552b13	0.052043032
94	0xbd08879a	-0.033332445
95	0x3d21f644	0.039541498
96	0x3d328899	0.0435873
97	0x3dadc26d	0.084843494
98	0xbe154a24	-0.14579064
99	0x3dbd61ab	0.09247144
100	0x3d8b4fd8	0.06802338
101	0xbe4df200	-0.20111847
102	0x3d92839a	0.07154007
103	0xbe253516	-0.16133532
104	0x3d8233c3	0.06357529
105	0x3d49509e	0.04914915
106	0xbe945f8c	-0.28979146
107	0xbe8242b4	-0.25441515
108	0xbddf67c6	-0.10908465
109	0x3d28d38e	0.04121738
110	0xbdcda854	-0.10041872
111	0xbe53e51a	-0.20692864
112	0x3d6c6452	0.05771286
113	0x3d28bdbb	0.041196566
114	0x3d4c5146	0.049882196
115	0x3de0add8	0.10970658
116	0x3d2eb65c	0.04265438
117	0x3dbaaf7f	0.091155045
118	0xbdcda671	-0.10041512
119	0x3d4d5051	0.050125424
120	0x3dbc6b82	0.09200193
121	0x3d89916b	0.067171894
122	0x3db7554d	0.08951817
123	0xbe372611	-0.17885615
124	0xbcd95743	-0.026530867
125	0x3d42e629	0.04758278
126	0xbdf5318e	-0.119723424
127	0x3d924bc8	0.071433604
128	0x3d99094f	0.074724786
129	0xbeabb4c3	-0.33536348
130	0x3d1cf8e9	0.038323317
131	0x3d8e3079	0.06942839
132	0x3d5b4771	0.05353493
133	0x3d4a30f3	0.049363088
134	0x3e38c4ea	0.18043867
135	0x3da5f564	0.08103445
136	0x3dc642e1	0.09680725
137	0x3dd51407	0.104042105
138	0x3c2bae53	0.010478574
139	0x3d5b5998	0.05355224
140	0x3d0e7676	0.034780942
141	0x3db9cf37	0.09072726
142	0x3d55ece3	0.052227866
143	0x3d0e114b	0.03468446
144	0x3d352022	0.044220097
145	0x3d18e13f	0.037324186
146	0xbe60aab0	-0.21940112
147	0x3deb16d0	0.114789605
148	0x3d2d1761	0.042258624
149	0x3d3a9a62	0.045557387
150	0x3de216dd	0.11039517
151	0x3d83332c	0.06406245
152	0x3d33836e	0.043826513
153	0xbe73dc3c	-0.23814481
154	0xbcb780a4	-0.022400208
155	0x3db80208	0.089847624
156	0x3d7867c4	0.060645834
157	0x3dda905c	0.106720656
158	0x3d264c4f	0.040600117
159	0x3dfe8916	0.12428491
160	0x3d311d4e	0.043240838
161	0x3d94f4b2	0.072732344
162	0x3d786274	0.060640767
163	0x3d454da5	0.04816975
164	0xbdbeebab	-0.09322294
165	0x3df32eef	0.11874186
166	0x3dafa821	0.0857699
167	0xbaa4342e	-0.0012527758
168	0x3de7c2ac	0.113164276
169	0x3d4a8ab7	0.049448695
170	0xbac0026a	-0.0014649157
171	0x3e057573	0.13033085
172	0x3e1e749e	0.15474173
173	0x3d5df9a2	0.054193147
174	0x3d89c13d	0.067263104
175	0x3d95090c	0.07277116
176	0x3d3cc303	0.046084415
177	0x3d213d9d	0.0393654
178	0xbc5f89a1	-0.013643653
179	0xbe68cdc5	-0.22734745
180	0x3d49a5d2	0.049230404
181	0x3dbce535	0.09223405
182	0x3d87df55	0.06634394
183	0x3deb0557	0.11475628
184	0xbe60e3f0	-0.21961951
185	0x3d5702f8	0.052493066
186	0x3d3931df	0.045213576
187	0xbda1fcd6	-0.07909553
188	0x3c419d5b	0.011817302
189	0xbc95c936	-0.018284421
190	0xbe47f078	-0.19525325
191	0x3a6ac436	0.00089556293
192	0x3d4ddb00	0.050257683
193	0x3e762309	0.24036802
194	0xbd5e926a	-0.05433885
195	0x3d019e25	0.03164496
196	0xbe81424c	-0.25245893
197	0x3d0160c8	0.03158644
198	0xbc8d516d	-0.01725074
199	0x3d4618dd	0.048363555
200	0x3db3731c	0.0876219
201	0x3d444f8b	0.04792742
202	0xbd531671	-0.051535074
203	0xbd2160ab	-0.03939883
204	0x3d1bf6f4	0.03807731
205	0x3cb308ed	0.021854842
206	0x3d6daf79	0.058028672
207	0x3d9ba6c5	0.07600168
208	0x3d3b2b8e	0.045695834
209	0xbdd555eb	-0.10416778
210	0x3dd12890	0.10212815
211	0x3db609e8	0.08888608
212	0x3dac5836	0.084152624
213	0x3d1f4679	0.038885567
214	0x3d6b544d	0.057453442
215	0x3dc768ed	0.0973681
216	0xbde0916e	-0.109652385
217	0x3e123b12	0.14280346
218	0x3dc299f9	0.09502024
219	0x3e45b6a1	0.19307949
220	0x3dea4c67	0.11440354
221	0x3d20964a	0.039205827
222	0x3d916472	0.070992365
223	0x3d7ba608	0.061437637
224	0x3d29db6f	0.041469034
225	0x3de10329	0.10986931
226	0xbe003b5b	-0.12522642
227	0x3db76314	0.089544445
228	0x3db386ac	0.08765921
229	0xbc7b69b7	-0.015345029
230	0x3d714348	0.058902055
231	0xbcf9a064	-0.030471988
232	0x3d712e38	0.05888197
233	0x3d969cf3	0.073541544
234	0xbdd97986	-0.10618882
235	0x3d16fff5	0.036865193
236	0x3db097b8	0.08622688
237	0x3d722960	0.05912149
238	0x3d2f7d3c	0.042844042
239	0xbcafd7e8	-0.021465257
240	0x3d9e8d19	0.07741756
241	0x3d4e39bb	0.050348025
242	0x3d5e58ef	0.054284032
243	0x3ddb6226	0.1071208
244	0x3d5219ac	0.051294014
245	0x3d9ff325	0.07810048
246	0xbdcbc80c	-0.09950265
247	0x3d8fd7b3	0.07023563
248	0x3d49d7e2	0.049278148
249	0x3d563b52	0.052302666
250	0x3da138b7	0.078721456
251	0xbe4e7865	-0.20163114
252	0xbbdad5f4	-0.006678337
253	0x3d8bea2f	0.06831776
254	0x3cb97064	0.0226366
255	0x3d35a4d4	0.044346645

model.mlp_layers.6.bias f4 [4]
0	0x3f942f39	1.1576911
1	0x3f7553ea	0.9583117
2	0x3f80659e	1.0031011
3	0x3f815b2b	1.0105947
