tasks/banana_collector/solutions/ray_tracing_banana/solution_checkpoint/ray_tracing_banana_solution.pth (torch_old, 608047 bytes, 9 tensors)

features.mlp_layers.0.weight f4 [512, 37]
000000 2a b6 13 bd 61 a5 45 bd 2d 29 8a bc ab 6f 53 be
       -0.036062397 -0.04825342 -0.016865337 -0.20648067
000010 67 e4 92 be 40 8d 68 3e 84 f6 95 be dd ea 7a be
       -0.28689882 0.22710133 -0.2928964 -0.24503656
000020 27 15 3f be c7 67 82 bc 6a 3a 63 be 69 cb 72 3e
       -0.18660413 -0.015918626 -0.22190252 0.23710407
000030 2b 51 c8 be 96 a7 24 be 04 5d 0b be 83 7e b9 bc
       -0.39124426 -0.16079554 -0.13609701 -0.022643333
000040 2f 72 c0 be 18 dc 2f 3e 08 f6 08 be f5 ff c1 bd
       -0.37587115 0.17173803 -0.13375103 -0.09472648
000050 26 26 98 3e 11 17 2b be ae 47 1d be 07 59 f9 bd
       0.29716605 -0.16708018 -0.15359375 -0.12175184
000060 a4 24 4f be 65 52 07 3e de 8d 8d bd c5 e4 06 3d
       -0.20228821 0.13215025 -0.06911825 0.032933015
000070 02 b8 ff 3c be fb 07 bf fe 72 1a 3e 47 d6 e2 3d
       0.031215671 -0.53118503 0.15082929 0.110760264
000080 9e e8 87 bd df d7 fb 3d aa 4a ca bd ac c0 e5 3c
       -0.06636165 0.122970335 -0.09877522 0.028045975
000090 a9 7c 23 bd 83 b8 53 be 4e 68 e0 bd f5 b9 70 bd
       -0.039913807 -0.20675854 -0.109573945 -0.058771092
0000a0 4d 45 a6 3d cc 82 69 be e3 5b 91 bd 55 2c 01 3d
       0.08118687 -0.22803801 -0.07097604 0.03153642
0000b0 31 0b 22 be 90 25 35 3e 71 cf da b7 1a 39 10 3d
       -0.15824582 0.1769011 -2.6084223e-05 0.035210706
0000c0 42 f1 ea 3d 24 6d eb 3c c8 65 96 bd 95 3d 23 3d
       0.114717975 0.028738566 -0.07343632 0.03985365
0000d0 c0 6a 89 bd 66 e8 26 3e 16 5d 89 bd b7 a1 9a be
       -0.06709814 0.1629959 -0.06707208 -0.30201504
0000e0 82 2d 65 be e9 57 90 3d 76 e4 b5 bd 4a b9 d5 bd
       -0.22380641 0.070480175 -0.08881466 -0.10435732
0000f0 99 2d 14 3d 98 10 a0 3e 14 80 80 be 6a 55 c3 bc
       0.036176298 0.3126266 -0.25097716 -0.02384444
000100 1d de 38 be 96 d2 dc 3c 2e b7 e0 3b 1e a1 27 bd
       -0.1805348 0.026955884 0.006857774 -0.040925138
000110 12 45 27 be 11 b9 60 3d b9 86 f5 3d 39 ae 74 3e
       -0.16334942 0.054863993 0.11988587 0.23894586
000120 e4 76 56 be 41 87 24 bb c0 dd 22 3c 9a 2d d3 3b
       -0.2094379 -0.0025105032 0.009940565 0.006444645
000130 ea 0f 01 3e e3 1c 44 be c9 d4 cd bd ad fc 30 3e
       0.12603727 -0.19151644 -0.10050351 0.17283888
000140 59 29 4a bd d0 79 44 bb 7a 1a bc 3d 89 76 e1 bd
       -0.04935584 -0.0029979832 0.091847375 -0.11008937
000150 8c 28 75 be c2 b2 e3 bd 69 f0 55 3d 50 df 48 3e
       -0.23941249 -0.1111808 0.052231226 0.19616437
000160 59 21 54 3d d8 ed de bc 42 8f 5c be 8a c4 1a 3e
       0.051789615 -0.027213022 -0.21539024 0.15114036
000170 22 07 23 3e 5a c0 f2 3d b1 14 4d be dc 32 d2 bc
       0.1592069 0.118530944 -0.20027424 -0.025659017
000180 95 3a 7f 3e 23 05 36 3e a3 1c 9a 3e f5 65 3a be
       0.24924691 0.17775397 0.30099973 -0.18202956
000190 58 1f 5a 3e fa f1 56 be 38 3f 46 3e 38 56 03 be
       0.21301019 -0.20990744 0.19360054 -0.12825859
0001a0 ce 54 01 bc 71 0b 68 bd bd 66 0e be 68 b5 99 3e
       -0.007893754 -0.056651536 -0.13906379 0.30021214
0001b0 43 b6 08 3f 52 a0 00 bc 7a d2 f8 b9 09 ac a6 bd
       0.5340311 -0.007850723 -0.00047459063 -0.08138282
0001c0 8d 6e e9 3d a3 3c 43 3a f2 78 8a 3d 10 df 07 3e
       0.11398039 0.0007447695 0.0676135 0.13268685
0001d0 b1 70 b1 bc 56 94 f1 bd 83 2d 18 3d ae 63 92 3e
       -0.02166018 -0.11795871 0.03715278 0.28591675
0001e0 1d 38 00 3e f5 9d 02 3e f6 bb 96 3d 35 02 96 3d
       0.12521406 0.12755568 0.073600695 0.0732464
0001f0 fc e1 c0 3d f8 60 7f bc 2d e1 56 3e ed f6 b5 3d
       0.09418103 -0.015587084 0.20984335 0.08884988
000200 b5 f2 2e 3d a8 1e e4 3d 3b be 44 be 04 3c 98 3e
       0.042711932 0.1113866 -0.19213192 0.29733288
000210 64 66 76 bd b4 74 47 bf bf 40 98 be e7 eb 63 bf
       -0.06015624 -0.7791245 -0.29736897 -0.89031833
000220 6d 1c 32 3e 28 79 ab 3d 91 7b 03 3d e5 b3 cb bd
       0.17393656 0.08372718 0.032100264 -0.099464215
000230 8f ac 10 be 72 52 14 3e 17 18 9b 39 08 65 ef 3c
       -0.14128326 0.14484575 0.00029581852 0.02922298
000240 d5 2c fe 3c a6 be 1d be 23 f5 48 bc 67 f6 f1 3b
       0.031027237 -0.15404758 -0.012265476 0.00738411
000250 fd 7a 7b be b6 b5 e6 be b8 2f dc bd 58 ec 01 3e
       -0.24558635 -0.4506051 -0.10751289 0.12687814
000260 34 15 21 be 8e e3 b9 3c d2 ef b8 3d 8b 21 84 3d
       -0.15730745 0.022691514 0.09030117 0.0645171
000270 80 a9 b1 be ef 25 01 be 3f ea 86 be bd a4 4b 3d
       -0.3469963 -0.12612127 -0.2635059 0.049717654
000280 e9 25 65 be e4 a7 4a 3e 60 5d e1 be 86 aa 55 3e
       -0.22377743 0.19790608 -0.44016552 0.20865831
000290 c8 73 ec bd e3 71 16 3d f3 d3 85 be fc 0f 2b bd
       -0.11545521 0.036729705 -0.26138267 -0.04176329
0002a0 8c d3 a9 3d 7c 18 18 3e db 3b a7 be c6 12 2e be
       0.082923025 0.1485309 -0.32662854 -0.16999349
0002b0 63 74 5e be 9f 8f 2f bd b5 52 1c be 09 6c e5 bc
       -0.21724086 -0.042861577 -0.15265925 -0.028005617
0002c0 ab 66 9b be 8b 46 19 bf cd 9c 20 3d 36 ea 40 bc
       -0.30351767 -0.59873265 0.039212037 -0.01177459
0002d0 a9 2e ac 3d b3 f5 89 be b5 cd 85 3d 36 06 1b bd
       0.08407337 -0.26945266 0.06533376 -0.03784772
0002e0 4b 75 40 bb ee 05 ea 3c c2 d7 9a bd f2 b1 22 be
       -0.0029366787 0.02856728 -0.07560684 -0.15888193
0002f0 a9 01 08 3e db 12 c7 be 9c ae e6 bd 9c 0a 04 bf
       0.13281883 -0.38881573 -0.11263773 -0.5157869
000300 cf ed 2d 3e e7 48 32 bd 0b 42 c4 be 4c 5c a4 be
       0.16985248 -0.043526556 -0.38331637 -0.32101667
000310 93 c8 37 3e dd 2c 62 be 9e d7 29 3e dc a3 d3 3d
       0.17947607 -0.22087426 0.16586158 0.10333988
000320 de e4 83 bd 84 a2 b3 be 4c b4 4f 3d a5 65 37 3d
       -0.06440137 -0.35084927 0.050709054 0.04477467
000330 93 0f 2c bf a6 b3 cf bd 0f 8d 5a bd 50 db b8 3d
       -0.67211264 -0.10141687 -0.05335718 0.090262055
000340 3c d0 c9 bd e6 91 6d bd f2 85 1b be c2 ef 53 be
       -0.09854171 -0.058000468 -0.15187815 -0.20696929
000350 c8 45 92 3e 61 fe 8b be 96 0d 72 bd 7a 9e d1 be
       0.28568864 -0.27342513 -0.059094988 -0.4094122
000360 32 43 81 3d 5e b3 95 3b 6e 07 80 3e 41 eb af be
       0.063116446 0.0045685014 0.25005668 -0.34359172
000370 f2 f0 1e be 8f 87 d7 bd f4 4b 04 3e 32 6b b7 be
       -0.15521601 -0.105239026 0.12919599 -0.3582397
000380 03 4b 2e 3e 65 f4 be be 4a e3 5f be ab d6 7c bd
       0.17020802 -0.37295833 -0.21864048 -0.06172816
000390 ad b8 5e bd aa 3f 3c 38 e7 64 0e be a1 56 c0 be
       -0.05437534 4.4881985e-05 -0.13905679 -0.37566093
0003a0 72 29 0c bc 04 5d ca bd fb bb 11 3d 13 a8 ae be
       -0.008554803 -0.098810226 0.035579663 -0.34112605
0003b0 ae 5e 58 bd 17 bf cf 3c cf 59 72 be 51 f2 3e 3e
       -0.05282467 0.025359673 -0.23667072 0.18647124
0003c0 e1 b4 34 be b0 48 3d be fa 36 b5 bd 89 58 96 3c
       -0.17647125 -0.1848476 -0.088483766 0.018352764
0003d0 2e 8d 3d 3e ea d2 61 be fd 34 2d be a2 09 13 be
       0.18510887 -0.22053114 -0.16914745 -0.14359143
0003e0 a8 53 16 3e 60 dc 11 3e ed 0b 0e 3e 41 af 28 be
       0.1468035 0.14244223 0.13871737 -0.16473104
0003f0 63 6d 85 3e 1e 75 77 be 5e 29 fb bd f6 50 e0 bc
       0.26060018 -0.2416577 -0.122637495 -0.027382355

features.mlp_layers.0.bias f4 [512]
000000 9d d6 5a 3d 4b 6e a3 3c 93 76 f3 bc 1a 54 91 3d
       0.053427327 0.019950053 -0.029719627 0.07096119
000010 55 a7 9e bc 38 f5 1f 3d d3 5c d8 3d 71 b9 b4 3d
       -0.0193669 0.03905222 0.1056458 0.08824433
000020 bf c2 e8 bd b4 9e 24 3c 5c 4a 7b be b7 29 c1 bd
       -0.1136527 0.010047603 -0.24540085 -0.094317846
000030 8f 55 d7 3d e1 0b 28 3e fc e1 0d bc 8d 8d 81 bc
       0.10514366 0.16410781 -0.008659836 -0.015814567
000040 68 98 e5 bb 6a 3f b9 3d 37 19 05 be e0 a7 9a bd
       -0.0070066936 0.090452984 -0.129979 -0.07551551
000050 a7 7e ca b9 f5 4d 36 be 55 cf f2 3c 2f 76 94 bd
       -0.00038622806 -0.17803176 0.02963988 -0.07249104
000060 31 9f 97 3d 1c 11 a6 3c 7c e9 2f bd 3e 4e 9d bc
       0.0740341 0.02027183 -0.042947277 -0.019202348
000070 4f 9b a9 bc c2 bf f0 bd 17 1f f3 3c c5 aa 9d 3b
       -0.02070394 -0.11755325 0.02967791 0.004811617
000080 d6 ed cf 3c 40 d6 81 bd 3b b4 6e be cf ef 1f bd
       0.025381964 -0.06339693 -0.2331094 -0.03904706
000090 99 1e ad bd 3c f5 66 bd 15 22 f3 bd e2 4f e8 bd
       -0.08453102 -0.056386217 -0.11871735 -0.113433614
0000a0 df 7b 9a 3d cd f9 84 bc a3 4f ee bd df f5 dc 3d
       0.07543158 -0.016232396 -0.11636283 0.10789084
0000b0 f4 4c 13 be 4e e8 36 be 4d 86 d8 bd 75 96 12 3d
       -0.14384824 -0.17862055 -0.10572491 0.03578802
0000c0 06 9c 0a be 4b da bf bd 71 9a a0 3d 6e 17 ea bd
       -0.1353608 -0.09367808 0.07841957 -0.1143025
0000d0 64 75 94 3d d8 c3 56 3e c7 2b 45 3c 49 21 32 be
       0.07248953 0.20973146 0.012034363 -0.1739551
0000e0 39 32 c9 3d 17 5c 7f be 97 4e f3 bd 33 de 2e 3d
       0.09824032 -0.24937473 -0.11880224 0.042692374
0000f0 81 66 17 be f5 3c 24 bc e2 b8 bc bc 4d f5 a1 3d
       -0.14785196 -0.010024299 -0.023037378 0.079081155
000100 26 7d 17 3d 91 4e e5 bd c6 b2 90 bd 92 4b 2d bb
       0.036984585 -0.11196626 -0.07065348 -0.0026442748
000110 a4 87 0a 3d 91 82 2b 3d 1e 22 fc bc 02 f7 0c 3e
       0.033820763 0.041872565 -0.030777987 0.13766101
000120 e7 a8 d1 bd 6a 57 c2 bd c1 cc bc 3d 2f 99 4b bc
       -0.10237294 -0.09489329 0.09218741 -0.0124266585
000130 7c 2e 16 3d 63 26 54 3c 81 f5 0d bd 20 36 b2 3c
       0.036665425 0.012948605 -0.03465796 0.021754324
000140 5c 7d 64 bd 5f 22 30 3e cd c0 13 be 6d 2f 5b be
       -0.055783615 0.17200612 -0.14429016 -0.2140481
000150 c6 23 20 be 6f 0e 4e 3d ec 4d db 3c 6f 6e 13 be
       -0.15638646 0.050306734 0.026770554 -0.14397596
000160 f4 5a aa 3c 0b 7d ca 3d ea 7d d5 bd 26 f6 38 be
       0.020795323 0.09887131 -0.10424407 -0.18062648
000170 39 af 13 3d 4b 30 19 3c 43 cf b2 bd 77 3e 89 bd
       0.036055777 0.009349893 -0.08730938 -0.06701367
000180 7f c3 14 3e 78 b2 22 bd 7a 5e 86 bd a9 66 97 3d
       0.14527701 -0.039720982 -0.06560989 0.07392628
000190 84 7b 0b be 29 a9 98 bd 34 33 34 3e 7f af 7f bc
       -0.13621336 -0.0745414 0.17597657 -0.015605806
0001a0 41 b3 88 be 60 cd 4a be 80 15 3f be 25 2d 19 be
       -0.2669926 -0.19804907 -0.18660545 -0.14958628
0001b0 56 e3 92 3b af 70 ef bd e0 4e 3b be f5 a7 da bd
       0.004482667 -0.116914146 -0.18291807 -0.106765665
0001c0 49 41 3c 3e 76 6e a5 3d 19 f8 79 3c 1c fd ea bd
       0.1838428 0.080777094 0.015256905 -0.11474058
0001d0 71 7c 1a be 3a db 12 3e 39 ff cc bd 67 64 d6 bc
       -0.15086533 0.14341441 -0.10009617 -0.026170922
0001e0 f5 04 61 bd 18 15 61 3c 8c 52 5e 3c 73 6b 73 3d
       -0.054936368 0.013737939 0.013569485 0.059428643
0001f0 7c b0 26 bd 7c 49 91 3b 37 45 12 bd d6 d7 fa bd
       -0.040695652 0.004433809 -0.03571054 -0.12248199
000200 99 26 4f bd 45 bc 52 be ab 5f 0d be 23 40 17 be
       -0.05057392 -0.20579632 -0.13806026 -0.1477056
000210 98 4e f2 bd d3 e2 2f 3d 03 bb a2 be c6 69 04 3e
       -0.11831397 0.042940926 -0.31783304 0.12930974
000220 b3 6a 4c be d2 8f 95 3d 42 b2 3c 3c dc 58 3e be
       -0.19962578 0.07302822 0.011517109 -0.18588585
000230 f0 1a 29 3c e0 b5 11 bd 65 72 d5 3d 64 f4 0f bc
       0.010321364 -0.03557384 0.1042221 -0.008786295
000240 67 46 08 3d fd 43 c7 3c e8 0c 0a be 31 09 55 3d
       0.033270266 0.024324412 -0.13481486 0.05201072
000250 90 ad 99 3d 98 84 3d bc 38 b7 33 be 08 66 7e 3c
       0.075038075 -0.011567257 -0.17550361 0.015527256
000260 9b 72 3a be c7 c8 c7 3c 10 7e b8 bd ff bc 92 bd
       -0.18207781 0.02438773 -0.090084195 -0.071649544
000270 51 0b 95 bd 78 37 ba 3d 9c 53 b1 bd 62 f2 db 3b
       -0.07277549 0.09092611 -0.08658525 0.006712244
000280 37 c5 0b 3e b8 90 10 bd c8 4d 5b be 2c 12 58 3d
       0.1364945 -0.035294265 -0.2141639 0.052751705
000290 4c 79 97 3d 5c a7 19 be a9 da 18 3e 02 11 05 3b
       0.073961824 -0.15005249 0.14927162 0.0020304327
0002a0 f0 3c 55 bd aa a1 b8 bd ed 0e 34 be b9 35 73 3d
       -0.052060068 -0.0901521 -0.17583819 0.059377406
0002b0 66 95 9c bd 2d 2d 08 be 62 0b 31 be 50 1e 5c 3c
       -0.07645683 -0.13298483 -0.17289498 0.013434961
0002c0 10 1c 22 be 53 8d 36 be 46 4a 5d 3d f8 02 93 3d
       -0.15831017 -0.17827348 0.05402591 0.071783006
0002d0 da 30 42 be 6d 98 98 3c 3e 05 54 3d 17 fd 04 be
       -0.18963948 0.01862737 0.05176281 -0.12987171
0002e0 44 18 16 3d 8a 8d c9 3d 1a 3f d8 3d 86 a9 20 3d
       0.036644235 0.098414496 0.10558911 0.03922417
0002f0 61 da d4 3d 27 27 cf bd dd dc af bd 43 00 ef bd
       0.10393215 -0.101148896 -0.08587048 -0.11669972
000300 91 a2 4e be 51 d7 2c be 41 48 d8 bd c7 4e 95 bc
       -0.20179202 -0.16879012 -0.10560656 -0.01822604
000310 c5 12 55 bd 5e 1d 17 be dc 56 16 be b1 d3 0e be
       -0.052019853 -0.14757296 -0.14681572 -0.13947941
000320 a8 a6 1c 3d 47 87 77 be dd 39 f3 bb a9 fa 20 be
       0.038244873 -0.24172698 -0.0074226693 -0.1572062
000330 01 61 d0 bc ee 1d 08 3e a5 7b d0 bd 8a 63 df 3d
       -0.02543688 0.13292667 -0.10179833 0.109076574
000340 39 da df 3c d8 ae 1b be 48 b7 bc bb d7 13 c3 3c
       0.027325736 -0.15203416 -0.0057591535 0.023813171
000350 bd 8f 49 bd f5 81 ec bd 6c e4 75 bd 74 c2 63 be
       -0.049209345 -0.11548225 -0.060032293 -0.22242147
000360 92 ca 0b 3e bc 8f 97 bd 58 4d eb bd 2d ff c2 bd
       0.13651493 -0.07400462 -0.114893615 -0.09521327
000370 75 28 9d 3d 3a 88 30 be 9a b6 8e 3d f2 82 89 be
       0.07673732 -0.17239466 0.06968422 -0.26857716
000380 48 56 da bd 0f 03 27 be a8 d8 5d bd e8 47 2c be
       -0.10660988 -0.1630976 -0.054161698 -0.16824305
000390 df 7c 1d bc 0b b7 12 bd 9f 31 fc bd b6 f6 90 bd
       -0.009612291 -0.035819095 -0.12314152 -0.070783064
0003a0 63 a8 45 3d 18 d2 02 3e 38 62 6d be d1 5f 5b be
       0.04825629 0.12775457 -0.23181999 -0.2142327
0003b0 f8 c1 a6 bc b8 dd b0 bd 39 f4 74 bd 17 64 b7 bd
       -0.020356163 -0.086360395 -0.05980322 -0.089546375
0003c0 1a f8 c7 3d b3 2a e5 3d f5 c6 07 be d8 48 13 be
       0.097641185 0.11189785 -0.1325949 -0.14383256
0003d0 5f 51 3a bd 7c 2f ea bc ff 24 a5 3c 6c 16 b3 3d
       -0.045487758 -0.028587095 0.020159243 0.08744511
0003e0 a2 62 d2 3c 8b ba 24 3e ce 9c 99 be 4d 95 35 bd
       0.025681797 0.16086785 -0.30002445 -0.044331837
0003f0 c0 c8 9f bd 6c 05 65 3d 63 c5 27 be 4c ef 10 3d
       -0.07801962 0.055913374 -0.16383891 0.03538446

output.advantage.mlp_layers.0.weight f4 [128, 512]
000000 65 54 f9 bd 5c bb 3a bd b6 2d 32 bd 6f 07 6b 3c
       -0.121743 -0.045588836 -0.043500625 0.014345034
000010 ba 17 05 bd de 0f 8f 3c bc 05 e2 3d c9 a0 58 bd
       -0.03249333 0.01746362 0.1103625 -0.05288771
000020 80 85 83 bd 24 e8 8b bd 1c b8 d9 bd 5d 04 ac bc
       -0.064219475 -0.06831387 -0.10630819 -0.020998174
000030 55 42 b4 bd 3d 57 90 3d 51 c0 a5 bc 0f 63 46 bd
       -0.08801714 0.070478894 -0.020233305 -0.048434313
000040 df c2 a5 bd b5 b4 89 3d 54 0a 6d bc be 6b b8 3d
       -0.08093809 0.0672392 -0.014467794 0.09004925
000050 86 13 c2 3d 48 8b 61 bd 42 a0 9c bd cd 9d 21 bd
       0.0947638 -0.05506447 -0.07647754 -0.03945713
000060 ca b6 de bd 11 fd aa 3d 00 46 d9 bd 2d ab e4 bd
       -0.10874708 0.0834905 -0.106090546 -0.11165462
000070 ef ad b5 bd c8 fc c1 3c 4a 25 16 bc f2 5f 7e bc
       -0.08871066 0.023680106 -0.009164164 -0.015525805
000080 ce f0 82 3d 50 ae 7a bd 9c be 07 3c 90 95 12 be
       0.06393586 -0.061201394 0.008285191 -0.14314866
000090 64 ad f8 3d f8 2e bb bd 3a 4e 52 bd 0b 28 cb bd
       0.12142447 -0.09139818 -0.051344134 -0.09919747
0000a0 54 ee ce bb 0b fc 91 3c 97 7a 7f 3d 31 79 e2 bd
       -0.006315032 0.017820379 0.06237277 -0.11058272
0000b0 74 4b 27 3d dc ed d7 bd 47 eb c3 bd ea cc 51 3d
       0.040843442 -0.10543415 -0.0956636 0.051220812
0000c0 47 ef 01 bd 55 7d 4e be bd f2 d8 3c 32 e3 55 3d
       -0.031722333 -0.20164998 0.026482934 0.052218623
0000d0 9a 65 a7 bd 8a d2 87 bd 33 1f 8d bc b9 80 b2 3d
       -0.08173676 -0.06631954 -0.017226791 0.08715958
0000e0 0f 97 d5 3c 5e 84 16 be f2 47 b3 3d fc 5a ad bd
       0.026073007 -0.14698932 0.08753957 -0.084646195
0000f0 c3 86 47 bd f1 de 54 3b 86 3f 98 bc 28 9c 15 3c
       -0.048712503 0.0032481516 -0.018584978 0.009131469
000100 a5 af 2d bd 32 cc 1d 3d 53 e7 9b 3c 2b 5a 67 3d
       -0.042403836 0.038524814 0.019031202 0.056482475
000110 60 0a ee bd 4d 44 59 3d 6b 56 34 3c af 51 cd bd
       -0.116230726 0.053043652 0.011006932 -0.100253455
000120 8d 49 32 be 4f 87 01 be 71 a6 6b bc 5e 96 87 3d
       -0.1741087 -0.12649272 -0.014382944 0.06620477
000130 bc ef 0c bd a0 41 09 bd 0a 8a a6 3d da 18 04 be
       -0.034408316 -0.03350985 0.081317976 -0.12900105
000140 25 e1 7a bd b9 da a6 3d cd 32 87 bd e1 a8 5a bd
       -0.06124987 0.08147187 -0.06601486 -0.05338371
000150 9f 28 6d bd f4 48 a6 bc 9b ae 94 3d 62 b0 06 bc
       -0.057900067 -0.020298459 0.07259866 -0.008220764
000160 b1 05 a5 bd 10 a2 a8 bd e0 ce 68 bd 00 51 97 3d
       -0.08057726 -0.08234036 -0.056837916 0.073884964
000170 76 52 a1 bd 4a a6 08 be cd 0d 05 be a1 d2 63 bd
       -0.07877056 -0.13344684 -0.12993546 -0.055620793
000180 55 be 1d 3b 46 11 29 3d 61 e2 53 3e cd 6d 77 be
       0.0024069746 0.04127624 0.20691825 -0.2416298
000190 3a 9f f4 bd 7a 72 23 be f9 26 d7 3d 14 be 40 3d
       -0.119444326 -0.15961638 0.1050548 0.047056273
0001a0 a1 4d 03 be 83 6b 8f bd 6d 49 29 3c e9 14 b3 3c
       -0.12822582 -0.07002928 0.0103324475 0.021860557
0001b0 7f f7 ff bc 7d 2c 7f bd 95 d5 1b 3d 37 2d c2 bd
       -0.031245945 -0.062298287 0.038045485 -0.0948128
0001c0 5b 5f fe bd 89 25 06 be 28 47 a1 3c 77 be 85 bd
       -0.12420531 -0.13100256 0.01968725 -0.06530469
0001d0 e2 cd 52 bd 3e 7c 0e be cb 67 76 3c c0 aa 8e 3d
       -0.051465876 -0.13914582 0.015039395 0.06966162
0001e0 7a c8 45 bd 7e 4f 07 bc 4f 15 ba bd 0a 06 10 3d
       -0.048286892 -0.0082586985 -0.090860955 0.03516201
0001f0 bc 32 98 bd 8a b3 9c bd 2b 78 27 3d 5e 29 8c 3d
       -0.07431552 -0.07651432 0.040886085 0.06843828
000200 1a 8a 48 bd ac aa 28 bd 51 09 ae bc 33 47 e8 bc
       -0.04895983 -0.04117839 -0.021244677 -0.028354263
000210 ed 8c 52 b8 f6 bd 8b 3d c7 b1 8f bd f7 19 35 bc
       -5.019915e-05 0.068233415 -0.0701633 -0.011053554
000220 44 c4 1d bd 90 49 d3 bd 8d 2c 07 be d3 06 5f 3e
       -0.03851725 -0.10316765 -0.13200589 0.21779947
000230 f0 85 c8 3d e0 b5 51 bd 24 e1 1c be ac 9b 08 3d
       0.097911716 -0.05119884 -0.1532026 0.033351585
000240 d9 99 14 be 5c b2 88 bc 16 cd d9 3a 5f 09 ac ba
       -0.14511813 -0.01668661 0.0016616907 -0.0013125351
000250 ef 6b 7e 3c 57 ff 96 bd 89 71 0b bb f6 96 8e bd
       0.015528663 -0.07372921 -0.002127739 -0.06962387
000260 b1 a5 12 bd 60 e0 b1 bd fb c2 2e bd 40 8c 8b bd
       -0.035802547 -0.08685374 -0.042666417 -0.0681386
000270 6c 10 84 bb 68 68 75 3d 78 4e cd bd 59 da 03 be
       -0.004030278 0.059914023 -0.10024732 -0.12876262
000280 17 65 83 bd f6 a3 22 3d 36 8e 91 bd 7f 3d a7 bd
       -0.06415766 0.039707147 -0.07107203 -0.08166026
000290 86 d6 c1 3d bc 9a 69 3c 9e 6f 2b 3b 00 04 1d bd
       0.09464745 0.014258083 0.0026159058 -0.038333893
0002a0 55 3c 0c be 17 06 c9 bb 45 d5 36 3d 57 cf 48 bd
       -0.1369489 -0.006134759 0.044636983 -0.04902586
0002b0 2c 30 79 3d 47 51 c2 bb 8f e2 ac 3c fc 24 50 be
       0.060836956 -0.005930099 0.021104125 -0.20326608
0002c0 4e 5a 04 3e 42 97 0d 3e 60 19 89 3d 7f b4 cc bd
       0.12925074 0.13827232 0.06694293 -0.099953644
0002d0 dd 0f 11 3e a8 d5 95 bc ce b1 85 bb 28 ac b2 bd
       0.14166208 -0.018290356 -0.004080034 -0.087242424
0002e0 bc 4d ea bd 5c 89 24 3c 8b b6 0d bd f8 11 35 be
       -0.11440608 0.010042515 -0.034597915 -0.17682636
0002f0 39 af a9 3c c3 37 37 3d bd 3e 73 bd 2c ce 47 be
       0.020713435 0.044730913 -0.059386004 -0.19512242
000300 cc 21 a8 bd fe 22 0c be b4 f8 93 bc ca d7 21 3b
       -0.08209571 -0.13685223 -0.018062927 0.002469527
000310 1a 11 0d 3c 5f 4b 2a bd c4 0e 41 bd 05 5c d3 bd
       0.008610034 -0.041575786 -0.047133222 -0.10320286
000320 4b ea 06 3d 63 5b 0a 3b f9 1f e5 bd 57 69 7a bd
       0.032938283 0.00211116 -0.11187739 -0.061135616
000330 70 41 93 3d 1e b8 0f 3d 52 4f 0b bd 2f 30 14 bd
       0.071902156 0.035087697 -0.034011193 -0.036178764
000340 98 6c 36 be 8b 90 dc 3d 39 72 01 bd 0c 8a 9d bb
       -0.17814863 0.10769757 -0.03160307 -0.0048077162
000350 78 ea 89 bd 68 c8 6e be e3 df c2 bd 91 8d 2c bd
       -0.067341745 -0.23318636 -0.09515359 -0.042127196
000360 43 1c 94 bd 54 b9 14 3d 5d 9d 16 bc c1 5c 71 bd
       -0.07231953 0.036309555 -0.009192792 -0.058926348
000370 61 1d 98 bd 1b 94 67 bd 39 3c 45 bd 56 1e 58 bd
       -0.074274786 -0.05653773 -0.048153136 -0.052763306
000380 1c 1c 3d bd a9 21 79 bd 6f 4b 06 3c 4d 94 9c 3c
       -0.046169385 -0.060823116 0.008196696 0.019113684
000390 a5 a4 82 3d f3 42 d1 3d 44 fd ad bd 58 05 b4 3d
       0.0637906 0.10217848 -0.08495572 0.08790082
0003a0 97 b5 0a 3e c7 d0 4e 3d 17 e9 a9 3b a7 89 f4 bc
       0.13545834 0.050492074 0.005185257 -0.029850794
0003b0 49 b6 c6 3d ac b0 99 3d d1 18 d0 bd fa de 58 bd
       0.09702737 0.075044006 -0.10160983 -0.052947022
0003c0 8e b4 db bd 6c db 18 bd 57 dc f5 bc df 78 ed bd
       -0.107277974 -0.037318632 -0.030012293 -0.1159532
0003d0 07 0a b2 bd 77 39 13 be 28 b8 cd ba 6b 50 a4 3d
       -0.08693319 -0.1437739 -0.0015695142 0.08023151
0003e0 08 84 ab bc 24 c5 e2 bd b8 78 06 3d 51 a7 07 3b
       -0.02093698 -0.11072758 0.03282997 0.0020699094
0003f0 51 cf b5 bc 0f cb 88 bd 2f b1 5c bd d6 86 89 bc
       -0.022193583 -0.06679355 -0.053879913 -0.016787928

output.advantage.mlp_layers.0.bias f4 [128]
000000 5d bb e2 bd 12 ec 2b bd 7e 4e 29 bd d8 67 64 bd
       -0.11070893 -0.04197318 -0.04133462 -0.055763096
000010 8c 51 4e bc fc 2a 28 bd bd ef 91 bd be 9a a0 bc
       -0.0125926845 -0.041056618 -0.071258046 -0.019605037
000020 46 58 e0 bd 38 cb b0 bb 29 cc 37 bd 57 31 5f bc
       -0.10954337 -0.0053953193 -0.044872437 -0.013622603
000030 c5 11 40 bd ec 5c 9a bd be f9 3b bd 89 af 0f bd
       -0.046891946 -0.07537255 -0.04589247 -0.035079513
000040 75 a2 51 bd df 9c d2 3b 96 c9 9d bd e8 37 73 bd
       -0.05118032 0.006427392 -0.07704465 -0.05937949
000050 8d fe 65 bd a8 bf ad 3c bf 41 93 bc b1 ae 3c bd
       -0.05615096 0.021209553 -0.017975686 -0.046065036
000060 87 e6 2a bd bc 55 86 bd 21 a6 d8 bc 81 4b 49 bd
       -0.041723754 -0.06559321 -0.026446404 -0.04914427
000070 79 d8 f3 bd 28 84 c7 bb 4a b0 8f bd a3 3f 07 bd
       -0.11906523 -0.0060887523 -0.07016046 -0.033019673
000080 df e3 83 3a d7 73 81 3c 95 24 92 bd 38 f4 c6 bc
       0.0010062418 0.015802307 -0.07135884 -0.024286374
000090 1e ba dc 3c 79 e5 ba 3c 3d 3f 93 bd a9 60 9a bd
       0.026944216 0.0228145 -0.07189796 -0.07537968
0000a0 5c be 35 bd e8 d1 1f bd 1a 3b 83 bc 63 8f 57 3c
       -0.044370994 -0.03901854 -0.016019393 0.013156745
0000b0 7c f4 3e bd fc 14 73 bd de a0 ce bc 29 fb aa bc
       -0.046619877 -0.059346184 -0.025223192 -0.020871716
0000c0 4d 5e da bc 0a 01 bf bc 59 75 a6 bd b6 ee 8d bd
       -0.026656294 -0.023315925 -0.08127851 -0.06930296
0000d0 82 a3 c4 bd d4 57 51 3c ac 03 42 bd 78 6f f5 3c
       -0.09601499 0.0127772875 -0.047366783 0.029960379
0000e0 38 9a 48 bc ca b8 33 bd 61 6b 9d 3b 18 17 92 bd
       -0.0122438 -0.0438774 0.0048040603 -0.07133311
0000f0 b5 2c e9 3c 35 1f b4 bd ac ad f1 3a e8 24 9b 3c
       0.0284637 -0.08795015 0.0018438599 0.018938497
000100 38 c0 11 bd 27 88 01 bd 6e e5 64 3d d2 80 2a bd
       -0.035583705 -0.031623986 0.055882864 -0.04162676
000110 e0 3a f3 bc 54 db 94 bd ed 53 70 bd 35 de dd bc
       -0.02969116 -0.07268396 -0.058673788 -0.027083496
000120 53 a4 f7 bc a5 44 01 bd a0 8d 0a bd fe d2 f8 bd
       -0.030229723 -0.031559605 -0.03382647 -0.121496186
000130 27 02 e0 bc b7 f5 d5 bc 29 ce 04 be 44 b7 a8 bc
       -0.027344776 -0.026118143 -0.12969269 -0.0205952
000140 b9 40 b5 bd 38 03 2e bd 0f e7 cf bd e7 6c 18 bd
       -0.088502355 -0.04248354 -0.10151493 -0.037213232
000150 db 28 8a 3b ca 95 4d bd ed 8c 76 bd 67 fa 17 bd
       0.004216296 -0.050191678 -0.06019299 -0.037104037
000160 f0 6d 49 bd 22 79 8a bd dd 57 05 3c 30 f7 c0 bd
       -0.04917711 -0.067613855 0.008138624 -0.09422147
000170 ad e3 45 bc cf d9 14 bc b2 e1 c0 bd 94 55 95 bd
       -0.012078208 -0.009085133 -0.09418048 -0.07291713
000180 0d 44 58 bc da b1 a7 3d 5e 72 80 bd ec 2f 90 bd
       -0.013199818 0.08188219 -0.06271814 -0.0704039
000190 26 2e 78 bd 84 9b 88 bd 1f bf 42 bd 5d 02 63 bd
       -0.060590886 -0.06670287 -0.04754555 -0.055422176
0001a0 98 e5 c1 3c 83 6a 86 3b 1f 9f f4 bb 98 59 50 bd
       0.02366905 0.0041020527 -0.007465258 -0.050866693
0001b0 b5 b0 6a bd 9c 54 18 bc 97 da 6f bd cc 3d 89 3c
       -0.057297427 -0.009297516 -0.058558073 0.0167531
0001c0 77 e1 9b bd 4e 1b f6 bd 5a 97 34 bc 8c 66 ab 3c
       -0.076113634 -0.12016927 -0.011022413 0.020922922
0001d0 05 e9 0e bd 07 09 0e bc 63 d2 62 bc c0 f2 0a 3d
       -0.034890193 -0.0086691445 -0.013844105 0.03392291
0001e0 9e 4e c8 bd 3d 65 3e bd 1f ca cc bd 9d 86 93 bd
       -0.0978062 -0.046483267 -0.09999489 -0.0720341
0001f0 59 d0 bd bc dd 1f 44 bd 0a de c0 bd 4d 1e f1 ba
       -0.023170637 -0.04788195 -0.094173506 -0.0018395871

output.advantage.mlp_layers.2.weight f4 [4, 128]
000000 e0 fe 00 be 79 3a f2 3d 9a 76 b8 be ee 3a 5d bd
       -0.12597227 0.11827559 -0.36027986 -0.054011278
000010 69 95 d1 3d 01 a6 ae bc 04 61 3c 3d ae d5 bb 3c
       0.10233576 -0.021319391 0.04599096 0.022929039
000020 9a e3 5b be 87 d0 d4 bd bb 7a 9b 3d 78 cf e8 3d
       -0.21473542 -0.10391336 0.07591768 0.113676965
000030 89 4d 0a 3c 73 80 f7 bd a1 10 14 bc 13 a0 43 3d
       0.008441337 -0.120850466 -0.009037168 0.04776008
000040 8a 59 e5 be 05 30 0c 3e fc 97 eb 3d ae 46 c3 bd
       -0.44794875 0.13690193 0.11503598 -0.095349655
000050 8a 7c 7f 3e 92 8e 54 3d 3b e8 05 bd ed 98 0e 3d
       0.24949852 0.05189378 -0.032692175 0.03481381
000060 a8 c3 a1 3d 58 d7 33 bd c2 bd 47 3e 4d cc c1 3d
       0.078986466 -0.04390654 0.1950598 0.094627954
000070 df f9 ee 39 f4 5b 15 bd 21 29 1e 3b e8 ef c1 bd
       0.00045581066 -0.036464646 0.0024133401 -0.094695866
000080 6b b2 0a be c0 73 03 3d e0 4f 38 3e e7 a7 a8 bd
       -0.13544624 0.03209281 0.1799922 -0.0823515
000090 23 2d 9e 3d 80 9c 4c 3e e0 51 0f 3e ff a0 74 be
       0.07723453 0.19981575 0.13996077 -0.2388954
0000a0 4b 95 99 ba 92 20 9a 3d c2 77 05 3d 10 38 84 3d
       -0.0011717466 0.075257435 0.032584913 0.064560056
0000b0 fc b5 04 bd 6d 5d de 3c f4 d9 35 3d 61 4e da 3b
       -0.032400116 0.027144158 0.04439731 0.0066621755
0000c0 ba 21 7f bd 5f ee 41 3d c1 ec 2d be 8a ae 4f 3d
       -0.062288024 0.04734647 -0.16984846 0.050703563
0000d0 07 f0 35 3e e1 c4 b4 bc 62 5c 1f 3d 09 a5 0b 3e
       0.17767344 -0.022066535 0.038906462 0.13637175
0000e0 25 45 17 be e4 bc a1 3d b7 97 34 3d 91 03 ad 3d
       -0.1477247 0.07897356 0.04409 0.08447946
0000f0 20 d6 41 bd c9 48 47 bb a4 b0 b3 bd c9 20 79 3d
       -0.047323346 -0.0030408374 -0.08773926 0.060822282
000100 7e 25 29 3d d8 ea 0b bd c1 ce f5 bb 68 13 4e 3b
       0.04129552 -0.03415951 -0.0075014536 0.0031444672
000110 3b 4f 23 bd 3d 96 d7 bc 52 0b 9e bc 9c 53 94 bb
       -0.039870482 -0.026316756 -0.019292507 -0.0045265686
000120 55 5b c7 bd c5 90 63 3d 41 13 b1 bd 9b b7 5b bd
       -0.09734217 0.055557985 -0.086462505 -0.053641897
000130 41 20 c6 3d 71 79 60 3e 81 30 41 bd 8a 57 13 3d
       0.09674121 0.21921326 -0.047165398 0.035972156
000140 35 0d 5e 3e f3 cb f0 3d ff d3 81 3e 0a 55 56 3c
       0.21684726 0.1175765 0.25357053 0.013081798
000150 69 7e c5 3c 5e da 48 be 9a 0a 60 3c 3c 6d da 3c
       0.024108129 -0.1961455 0.013674403 0.026663415
000160 78 d1 11 3d a1 b9 1a 3e 67 67 54 3d f2 c6 b2 bd
       0.035600156 0.15109874 0.051856425 -0.08729352
000170 11 78 99 be 64 e7 35 be 49 97 56 bd 38 21 1d bd
       -0.29974416 -0.1776405 -0.05239037 -0.038361758
000180 2b d8 60 bd f0 2e 0a 3e 5b c5 89 3d d8 1b b4 3d
       -0.054893654 0.13494468 0.06727096 0.08794373
000190 01 a1 54 3e 29 97 ac 3d ad 35 8b 3d 44 95 b9 3c
       0.20764543 0.08427269 0.06797347 0.022654183
0001a0 63 39 d8 bd f5 50 99 bd cd a4 df be c3 03 57 3d
       -0.10557821 -0.074861445 -0.4368042 0.05249382
0001b0 b6 62 83 bd 86 cf 1e 3b d5 d4 50 bd 1c c5 b2 3c
       -0.06415312 0.002423258 -0.050984222 0.021822505
0001c0 f4 f0 f6 bd b2 f2 35 be 71 c2 1c 3e d8 ed 89 bd
       -0.12057677 -0.17768362 0.15308549 -0.06734818
0001d0 e2 a2 2a be 0c cf 86 bc f9 12 42 bb 22 f7 08 3e
       -0.16663697 -0.01645615 -0.002961336 0.13375524
0001e0 f7 9a 0f be 4b ee dc 3c 48 ef 53 3d bd 30 c9 3d
       -0.14023958 0.026969096 0.05174187 0.09823749
0001f0 56 ad 63 3d 7f 14 14 ba 16 23 f5 bd 65 f7 ce 3d
       0.055585228 -0.0005648806 -0.11969583 0.101057805
000200 46 3d b0 bc cd 16 71 be 24 1c 2e bd 0d 47 1e 3d
       -0.021513592 -0.23543854 -0.042507306 0.038641978
000210 e8 5c c8 3e 03 a0 d8 3d 47 d9 6d be dd c3 2c bd
       0.39133382 0.10577395 -0.23227416 -0.042178977
000220 84 d7 9f bd cd a8 07 be c0 31 c0 bb aa 1a e2 3d
       -0.07804778 -0.13247986 -0.0058653057 0.11040242
000230 10 67 e0 3c 8b da 15 be 1f 0c 5d be e0 b5 08 3d
       0.027392894 -0.14634149 -0.21586655 0.033376575
000240 98 95 e9 bb 6f e1 7e be fc a8 15 3d ea 72 36 3b
       -0.0071284287 -0.24890684 0.03653811 0.002783949
000250 30 86 44 3e 57 f7 2b be 73 6b ca 3a 18 ad 3b be
       0.19191813 -0.16793571 0.0015443399 -0.18327749
000260 03 9c 56 3e 45 fa 30 3c 0c c4 09 bd 0b 18 ab 3c
       0.20957951 0.010801856 -0.03363423 0.020885488
000270 6f f0 56 be 80 30 65 bd 2b 0c 06 bd 2f 00 04 bd
       -0.20990156 -0.055954456 -0.032726448 -0.032226738
000280 03 95 07 bd f2 ca 8a 3c 4a b7 e7 3b 80 3f 8c bd
       -0.033101093 0.016942475 0.0070714103 -0.06848049
000290 1f dd 6c be 00 e4 02 3e 3c ab c3 3d 30 63 a2 3d
       -0.23131226 0.12782288 0.09554145 0.07929075
0002a0 a3 32 c2 3d df 2d 46 3d 3b c8 58 bd 0c 81 35 bd
       0.094823144 0.04838359 -0.05292533 -0.04431252
0002b0 c7 6f 2c 3d cd 94 11 3d 8c 71 90 3d bf 2e 8e bd
       0.042098787 0.035542298 0.07052907 -0.0694251
0002c0 bd 77 2a bd 92 b7 91 bd 13 26 0e 3d 26 95 95 3c
       -0.041618098 -0.071150914 0.03470428 0.018259596
0002d0 f2 f3 32 be b9 46 86 3c b9 05 87 bd d5 6a 33 bd
       -0.1747587 0.016391145 -0.065928884 -0.043803055
0002e0 b2 71 0e 3d 33 04 48 be 45 f2 0f 3d e6 72 0d 3d
       0.034776397 -0.19532852 0.035143156 0.034533404
0002f0 53 52 e5 3d 55 e1 54 bd 57 17 30 bd af 8b 7b 3c
       0.11197343 -0.051972706 -0.04299101 0.015353127
000300 50 9c ec ba c1 35 ed bc df 81 e3 bb 40 90 17 3d
       -0.0018051956 -0.028956296 -0.006942972 0.037002802
000310 55 50 99 3d 6a 5f 12 bd d9 2f 4f bd 97 72 a9 bd
       0.07486025 -0.035735525 -0.05058274 -0.082738094
000320 a1 7c 28 3e 41 19 f0 bc 20 4d 4e 3d 99 3a 86 3e
       0.16453792 -0.029308917 0.05036652 0.2621658
000330 a9 d2 81 3d 47 67 a0 3d 43 59 02 3e fd 10 89 bd
       0.06339008 0.078321986 0.12729363 -0.066926934
000340 a0 b3 fb bd ea 3d f3 3c bf 71 bb 3d 68 87 f5 ba
       -0.1229012 0.029692609 0.09152555 -0.0018732371
000350 17 c9 ea bb 60 69 95 be d2 a2 78 3e d5 68 82 3d
       -0.007165085 -0.29181957 0.24280861 0.063676514
000360 00 95 84 3d 40 88 1c bd a4 b2 9e bd db 03 b1 bd
       0.06473732 -0.038215876 -0.07748917 -0.086433135
000370 58 00 25 3d ed 8c c1 bd a6 ef 38 3e b2 ac 10 3c
       0.04028353 -0.094507076 0.18060169 0.008830236
000380 75 5d 4f bd de ab fc 3d c1 d1 05 bd a7 9a 54 bb
       -0.050626237 0.123374686 -0.03267074 -0.0032440813
000390 5c 37 8c bc 8a ba 89 bd 27 0a a7 3c d0 61 2b 3c
       -0.017116241 -0.06725033 0.020390583 0.010460332
0003a0 f7 a1 d2 3d 94 68 a3 3c 29 e0 1f 3e f6 9b 4b 3e
       0.102847986 0.019947328 0.15612854 0.19883713
0003b0 09 bf 74 bd 93 7e af 3c f0 12 48 3e 75 de f2 3d
       -0.059752498 0.02142266 0.19538474 0.118588366
0003c0 76 b6 31 bd f7 69 00 3e 28 1b 89 bd c1 a2 33 3c
       -0.0433869 0.12540422 -0.06694633 0.0109640965
0003d0 04 c6 10 bc df 65 14 bd c2 38 14 bd 3a ae f0 3d
       -0.008836273 -0.036229964 -0.03618694 0.11751981
0003e0 96 cc 5f 3d a7 75 36 3e 2f da fb bc 1d 8d 82 3e
       0.054638468 0.17818318 -0.030743686 0.25498286
0003f0 2e 0a 1b 3e 1d 13 43 3d f7 41 41 3c 22 99 6d be
       0.15140602 0.04762565 0.011795512 -0.23202947

output.advantage.mlp_layers.2.bias f4 [4]
000000 53 f5 db 3d 5c 4f 2b bd b2 63 43 bd 50 fd a2 3c
       0.10740151 -0.04182373 -0.0477025 0.01989618

output.value.mlp_layers.0.weight f4 [128, 512]
000000 e1 e2 d0 3d 36 6b 18 be 43 36 9b 3d e6 5d aa bd
       0.10199524 -0.14884648 0.07578709 -0.08318691
000010 56 f2 df bd 0a 97 b4 3c 1c ce 7a be 49 6a 58 3c
       -0.10934894 0.022044677 -0.24492687 0.013208934
000020 c4 63 03 3e 7e a6 c2 bd f2 d7 bd bd 94 cc d4 bb
       0.12831026 -0.09504412 -0.09269704 -0.006494114
000030 5a c9 6f bd e7 ea 54 3d d3 e3 90 bd a8 e8 cf bd
       -0.058541633 0.051981833 -0.07074704 -0.101517975
000040 c9 4d 2a be 2d 7e a2 bd fe e6 50 be 24 cb 21 3e
       -0.16631235 -0.07934222 -0.20400617 0.15800148
000050 ee 4c bc ba 69 90 94 3a d4 5f 2d be a1 c9 d5 bd
       -0.0014366189 0.0011334541 -0.16931087 -0.10438848
000060 cf 80 5a be 69 00 47 3e 14 3f d3 bd c5 cf bc 3c
       -0.21338199 0.1943375 -0.103147656 0.023048291
000070 02 1b b1 bc aa 2b 63 bd 07 bd 0c 3d b5 e8 44 bd
       -0.021619324 -0.055461563 0.034359958 -0.04807349
000080 5d 44 a2 bb b6 ef 8d 3d 7c 25 75 3d 79 62 06 3e
       -0.004951997 0.06930487 0.0598502 0.13123502
000090 fd 9d df bd 6d b4 68 3b e5 d1 25 be 21 4a 59 be
       -0.10918806 0.0035507933 -0.1619335 -0.21219684
0000a0 8e 15 ae 3d 52 9f d0 3c a5 27 c4 bd cb 85 3c be
       0.08500205 0.025466595 -0.09577874 -0.18410413
0000b0 5b 87 a6 3d fd 00 20 bd 75 39 d8 3d f6 5c 36 3e
       0.08131286 -0.039063442 0.10557834 0.178089
0000c0 d0 88 2e 3e ec a2 c9 b9 ce a1 ba 3e 72 f3 cb 3d
       0.17044377 -0.00038459094 0.36451572 0.09958543
0000d0 c2 21 9c bd d5 5b 88 3c 26 14 4d be 09 f4 02 3c
       -0.07623626 0.016645351 -0.20027217 0.007992753
0000e0 fb 4c 95 be e1 21 7f bd fd 54 26 3d ca 88 91 be
       -0.29160294 -0.06228817 0.040608395 -0.28424674
0000f0 9f 27 52 bd 37 46 56 be 73 da 2f 3d 84 b7 88 bc
       -0.051307317 -0.20925222 0.04293294 -0.01668907
000100 a5 b6 91 bd 9d d5 8e bd 91 76 1d be 8b fe 85 3d
       -0.07114915 -0.06974337 -0.1537726 0.06542691
000110 4c 64 3d bc c0 5f a6 bd f2 fa 7a 3c a3 59 b3 3d
       -0.011559557 -0.081237316 0.015318619 0.08757331
000120 3b ab ce bc 58 15 18 bc d8 c9 5a 3d 00 58 0b bd
       -0.025228133 -0.0092824325 0.05341515 -0.03401947
000130 ca af a2 bc f7 af f8 bd 09 35 f9 3a d3 1a a4 bb
       -0.019859213 -0.12142938 0.0019012998 -0.0050080805
000140 d0 4c 36 be d7 cb 5a be 99 af 61 3d cb 8d 02 bf
       -0.17802739 -0.21366821 0.055099104 -0.5099761
000150 fd 0e ad bd 77 c7 10 be 97 39 ac 3d 70 66 99 3c
       -0.084501244 -0.1413859 0.08409422 0.018725604
000160 59 d3 68 3d 7c c1 19 3d d6 f6 40 3e 88 07 ac bd
       0.05684218 0.037538037 0.1884416 -0.08399874
000170 50 5f 07 bd e2 21 86 be e7 6a a6 3d db 0c ff be
       -0.03304988 -0.26197726 0.08125859 -0.49814495
000180 41 74 e3 3d f1 b0 06 3d 04 f1 67 3c 92 c5 19 3d
       0.11106158 0.03288359 0.014156584 0.037541933
000190 a8 11 4d bd da 19 2f be 82 63 91 bd d4 65 89 be
       -0.050065666 -0.17099705 -0.07099058 -0.268355
0001a0 c5 f9 cf bd 03 45 46 be 86 9f 48 be 66 7d 77 bd
       -0.10155062 -0.19362263 -0.19592103 -0.060422324
0001b0 a2 17 a0 3c 94 78 cb bc 7b 27 e8 bc 3e e5 89 be
       0.019542519 -0.02483777 -0.028339138 -0.2693271
0001c0 e6 4e 08 3b d1 5b c9 bd 04 f8 3c 3e ef 1b d0 bd
       0.002079898 -0.09831966 0.18453985 -0.10161578
0001d0 90 be bb bd 94 f5 4f bd 8a 23 ed 3d 32 e8 cb 3d
       -0.09167206 -0.05077131 0.11579044 0.09956397
0001e0 09 b7 42 be f2 13 fe bc 39 6d 01 be b1 86 1d be
       -0.19015135 -0.03101537 -0.12639321 -0.15383412
0001f0 38 f6 a8 bd 7e 6f 02 be 57 59 ef bd ad 14 dd bc
       -0.082500875 -0.12737843 -0.11686962 -0.026987398
000200 bd 02 e1 bd 02 6d b5 be f5 79 f2 3c 10 15 e9 bd
       -0.109868504 -0.3543473 0.02959917 -0.113809705
000210 27 0e 12 3e 20 10 76 bd 22 89 37 3c 36 44 96 3c
       0.14263211 -0.06007397 0.011202129 0.018343072
000220 af 9b 4e bd 39 71 f7 bc 9f e1 48 3c a5 c8 08 be
       -0.05044144 -0.030205356 0.0122608235 -0.1335779
000230 c0 76 6c 3d b4 a8 62 bd 02 21 27 be 99 b7 f3 bc
       0.057730436 -0.05533667 -0.16321185 -0.029750632
000240 51 9e 82 bd 83 21 05 be dd 5f c4 bb 2d 99 4e bd
       -0.06377853 -0.13001065 -0.005992873 -0.05043905
000250 fd b6 de bd de 25 e1 bd 87 60 4c bc 07 2e 73 be
       -0.10874746 -0.10993551 -0.012474186 -0.23748027
000260 52 4b 08 be 08 2e 49 3c 1d d7 f0 3d d2 71 27 3e
       -0.13309982 0.012279041 0.117597796 0.16352013
000270 fa 1b bb 3b c7 98 f5 3d b0 22 0a be 5e d0 f6 bd
       0.005710122 0.119920306 -0.13489795 -0.12051462
000280 d5 6c 07 3e f5 a6 90 bc b1 ef 4d be 10 f1 b8 bd
       0.1322511 -0.017657736 -0.20110966 -0.09030354
000290 da 5c 41 3b 2d 4f 52 3c b0 80 45 be 0d c0 9f bb
       0.0029504807 0.01283626 -0.19287372 -0.004875189
0002a0 f9 d3 41 3c 45 d6 ad bc 02 d7 00 be 41 58 af bd
       0.011830323 -0.021220336 -0.12582019 -0.08561755
0002b0 f5 2f ad 3d 21 e1 ca 3d 08 88 bc bd 69 39 3e bc
       0.08456413 0.09906221 -0.092056334 -0.011610367
0002c0 48 d4 f8 bd e6 07 50 3d d4 3f b5 3d 2b 23 ff 3d
       -0.121498644 0.050788783 0.08850065 0.1245788
0002d0 18 c8 06 bd 4b 09 c5 bd dd 53 44 3b 0f 30 8e bd
       -0.032905668 -0.09620913 0.0029957213 -0.0694276
0002e0 37 ca a7 be be 48 82 bc e6 7f f9 3d aa 00 0c 3e
       -0.32771465 -0.015903827 0.12182598 0.13672128
0002f0 b5 ee 31 be 08 e7 f4 3d 65 3b 2b be 57 46 34 be
       -0.17376216 0.11958128 -0.16721876 -0.17604958
000300 4e ad 49 3c 56 b3 9f 3d 52 c9 26 3d 16 af de bd
       0.012309385 0.077978775 0.040719338 -0.10873239
000310 bf 42 ed bd 81 77 e1 3d 57 e5 98 bd 79 44 e7 3d
       -0.115849964 0.11009122 -0.07465618 0.11292357
000320 73 d9 82 3c 8c fb b4 3d 70 55 40 3b 9f 7b 98 3c
       0.015972828 0.08837041 0.00293478 0.018613635
000330 48 ed 91 be e6 2f ab bd 6a 95 34 bc 8c 7c 32 bd
       -0.28501344 -0.08358745 -0.011021951 -0.04357581
000340 15 32 2c bc 15 58 29 bb 19 78 a1 3c 2e e5 4d 3d
       -0.010509987 -0.0025839854 0.019710587 0.05026739
000350 61 9e 89 3c 5e b5 36 be 35 73 d0 bc 22 74 cc bc
       0.016799154 -0.17842624 -0.02544556 -0.02495772
000360 79 cd c9 3a 83 b2 ed bc e1 88 33 3d 66 76 20 3d
       0.0015396319 -0.029015785 0.04383171 0.039175414
000370 96 36 86 bc a3 0a fc bd 69 e9 df 3d 75 7b af bd
       -0.01638345 -0.12306716 0.10933191 -0.085684694
000380 b6 85 b0 3d 30 fd db bd ab 78 d3 3c eb a7 a3 bd
       0.08619253 -0.10741651 0.025814375 -0.07991012
000390 3e 3c 1a 3e a1 14 5c bd c1 8c 2c be 7f 88 61 3c
       0.15062043 -0.05373061 -0.16850568 0.013765453
0003a0 78 89 3a bd 56 59 54 be 85 0b b8 bc b3 3e e8 3d
       -0.045541257 -0.20737204 -0.02246643 0.11340084
0003b0 81 b0 31 3e 8d 24 02 3d 8d 53 3c bd ab 54 d7 bd
       0.17352487 0.03177314 -0.045978118 -0.10514196
0003c0 66 77 3f bd 61 87 3f bd 3a 7b 07 be fa 83 96 bb
       -0.046744727 -0.046759967 -0.13230601 -0.0045933696
0003d0 f3 2d 53 3d a3 b1 19 bc 0c d1 20 be e0 93 61 be
       0.051557492 -0.009380731 -0.15704745 -0.22029066
0003e0 af d8 63 3e e3 dd bf bc 24 3d 49 3d a3 b4 8a be
       0.22250627 -0.023421234 0.049130574 -0.2709094
0003f0 c9 e9 c5 3d cf ab be bd 2e 30 8a bd 6a 0d e1 bd
       0.096637316 -0.09310114 -0.06747471 -0.10988887

output.value.mlp_layers.0.bias f4 [128]
000000 a7 b8 ae bb df 66 a8 bc 82 d1 3e bd 16 3b 06 bd
       -0.005332071 -0.020556865 -0.04658652 -0.032771192
000010 4c b3 84 bd e1 b8 bf bd 2e 6b 9e bd 4b 3b 26 3c
       -0.06479511 -0.09361435 -0.07735287 0.0101459725
000020 3e a7 56 bc 99 77 1b bd 80 2b 88 bd 14 db 40 bd
       -0.013101397 -0.037955854 -0.06648922 -0.04708393
000030 da 75 40 bd c3 34 bb bc 35 34 56 bd f4 cb 04 3e
       -0.046987392 -0.022852307 -0.052295882 0.12968427
000040 aa 97 dc bc 66 46 75 bd 38 20 60 bd 43 16 9f bc
       -0.026927788 -0.05988159 -0.054718226 -0.019419795
000050 44 cb 0d bc da 86 c6 bd 7b 85 33 3c c6 a8 80 bd
       -0.008654419 -0.0969369 0.010957117 -0.06282191
000060 ca 0b 15 bc d5 6a 28 3d da 9a ac bd df 33 6d bd
       -0.009097049 0.041117508 -0.08427973 -0.057910796
000070 7a 18 87 bc 11 0e d4 bd 38 ff 4c bd af 4e c0 bb
       -0.016491164 -0.103542455 -0.050048083 -0.005868755
000080 76 49 fc 3a aa d6 95 bd 6a d8 ce bc af b7 03 bd
       0.0019247967 -0.073163345 -0.025249679 -0.032157596
000090 5c 39 76 bd e9 8c 07 3d c9 89 f8 bc de 05 83 bd
       -0.060113296 0.033093367 -0.030339139 -0.063976035
0000a0 cb e1 4b bd d3 4b 0e bd 43 7f 72 bd 4a eb 22 bd
       -0.04977588 -0.03474028 -0.059203397 -0.03977517
0000b0 5b 05 61 bd 99 75 bd bc af 31 0f bd 33 1d f7 bc
       -0.054936748 -0.023127364 -0.03495949 -0.03016529
0000c0 64 e8 c5 bd 77 32 ab 3d 53 6c c3 bd 17 e8 09 bb
       -0.096634656 0.08359235 -0.095421456 -0.0021042877
0000d0 3b 98 5c 3c 5b f2 85 bd 20 9b c7 bd 50 66 ee ba
       0.013464029 -0.06540366 -0.097463846 -0.001818845
0000e0 f5 1d f3 bd f1 a7 68 ba 37 4a 19 bd 4d 73 51 3c
       -0.11870948 -0.0008875123 -0.037424292 0.0127838375
0000f0 76 55 95 bd 9b b3 8e 3c fc b9 dc bd 7b 48 d9 bd
       -0.07291691 0.017419627 -0.10777661 -0.10609528
000100 5b 27 60 bd c8 63 e7 bd fb 53 89 bd a2 a4 4a bd
       -0.054725032 -0.11298329 -0.06705471 -0.049473412
000110 cb c5 a5 bd dd cc f8 bd c2 ad f2 3b 5c 7a 3a 3c
       -0.08094367 -0.121484496 0.0074059675 0.011381712
000120 ec 97 7f bd 9d 17 06 3e b6 d7 52 bd f8 54 df bc
       -0.062400743 0.13094945 -0.05147525 -0.027262196
000130 3f 20 57 bd fb 96 cb 3b d8 18 57 3e da 33 1b bd
       -0.052520987 0.0062130666 0.21005571 -0.037891246
000140 f0 8d 5b bd 8f 0f da bc 1f 8c 06 be 35 a5 22 bc
       -0.05360216 -0.026618747 -0.1313939 -0.009927084
000150 2d 5c 20 bd 24 69 67 bd 78 64 63 3d b7 b3 4f bd
       -0.039150406 -0.056496754 0.055515736 -0.0507085
000160 44 dd 60 bb 36 bf 74 bd dd 5e a5 bd 51 a1 e5 bd
       -0.0034311572 -0.059752665 -0.08074734 -0.11212409
000170 79 6c 62 bd fa 4f b1 bd 75 b3 c3 bd 0f c6 93 bd
       -0.05527923 -0.086578324 -0.09555713 -0.07215511
000180 68 26 d9 bd 7e 6c b0 bc d0 e0 2d 3c a8 73 14 be
       -0.106030285 -0.021536108 0.0106126815 -0.14497244
000190 d7 02 2d bd 02 0d 60 bd 78 cd 9a bc 6e 76 e3 ba
       -0.042239036 -0.054699905 -0.018896803 -0.001735402
0001a0 7b 9f 89 bd ef 97 b5 bc 53 d8 14 bd 34 2f 5a bd
       -0.067198716 -0.022167174 -0.036339115 -0.053267673
0001b0 62 6a 9e bd 0e 8c db 3e 10 2c 41 bd 40 5e ce bd
       -0.07735135 0.4288029 -0.047161162 -0.100765705
0001c0 5f 60 f3 bb 08 bf 6f bd 23 5e 89 bc 78 65 c8 bd
       -0.00742726 -0.05853179 -0.01676852 -0.09784979
0001d0 3b eb c0 bc 26 12 58 3d 6c 57 15 3b fd d9 5b bd
       -0.023549667 0.052751683 0.0022787703 -0.053674687
0001e0 9a ba 6b bd a7 96 0f bd b4 31 2e 3d d1 43 a9 bc
       -0.057551004 -0.035055783 0.04252787 -0.02066222
0001f0 c8 d6 b5 bc 78 83 83 3c 6d 2a f1 3d d4 00 d4 3d
       -0.022197142 0.0160539 0.1177567 0.103517205

output.value.mlp_layers.2.weight f4 [1, 128]
000000 f9 95 2e 3e 76 49 40 be 26 31 1f bc 54 28 8a 3e
       0.17049398 -0.18778023 -0.009716308 0.26983893
000010 33 8c 04 3e 09 68 5b 3e 13 ff 05 be 87 cf 3f bd
       0.12944107 0.21426405 -0.13085584 -0.046828773
000020 c9 f4 0d 3d 0f b3 8c bc c0 30 01 bc f2 2e 4b bd
       0.034657273 -0.017175226 -0.007885158 -0.049605317
000030 79 6f 15 3e d7 6a 60 3c 3c 99 ab 3a dd f0 5c 3d
       0.14593305 0.013697348 0.0013091932 0.053940643
000040 0c fe 39 3d c0 a6 41 3d a2 cc 66 be eb 17 20 3c
       0.045408294 0.047278166 -0.22538999 0.0097713275
000050 c5 53 a1 3b 6e 80 e0 3d 81 de e8 bc 57 f5 87 3d
       0.004923316 0.10961996 -0.02842641 0.06638592
000060 a3 88 83 bc 5f 12 5c 3e 09 5f bd 3e 21 c3 76 3a
       -0.016056364 0.21491383 0.3698657 0.0009413232
000070 c4 84 f7 3d cc c7 5e bd f4 94 b2 bd e7 4e 2d bd
       0.1208587 -0.05438976 -0.08719817 -0.042311575
000080 c8 d2 9c bd d4 c0 83 be 66 12 74 be ce c8 b7 bc
       -0.07657391 -0.25733054 -0.23835143 -0.022434618
000090 88 f3 8a 3e a6 5a 36 3e b4 03 72 bd b9 f9 5a 3d
       0.27138925 0.17808017 -0.059085563 0.05346081
0000a0 f0 95 0a 3d d1 c2 69 bb 55 8e b0 bb 8f f9 46 3d
       0.033834398 -0.0035669098 -0.005388061 0.04857784
0000b0 c9 80 a3 3e ca 26 29 3d ad 1d 2b 3e 11 34 73 bd
       0.31934193 0.041296758 0.16710539 -0.059375826
0000c0 7c 99 0f 3e b1 d4 45 3d c2 20 f8 bd 3d b2 d2 3d
       0.14023393 0.04829854 -0.12115623 0.102879025
0000d0 46 96 3e 3d 61 0f 94 3e 3d c7 69 3e 99 58 63 bd
       0.04653003 0.28917983 0.2282991 -0.055504415
0000e0 c8 15 97 bd a0 17 97 3d a7 48 d6 38 3a 1e f4 3d
       -0.07377201 0.07377553 0.00010217848 0.11919828
0000f0 90 8b f5 bd 36 f4 25 3e fc 1f 30 be 5e 36 06 be
       -0.1198951 0.1620644 -0.17199701 -0.13106677
000100 bc fe a5 3d dd 61 4e 3e 95 72 9b be 03 2e 1d 3e
       0.08105227 0.2015452 -0.30360857 0.15349583
000110 f9 a7 e7 bd df e1 23 be 5c cb 82 3d a2 a5 e1 3d
       -0.11311335 -0.16004132 0.06386444 0.1101792
000120 d4 f8 25 3d 79 a3 b3 3d 52 89 a0 3e 08 4d 5f be
       0.040520504 0.08771414 0.31354767 -0.21806729
000130 b8 1b 4f bc 01 1c db 3a 8d 96 9d 3d 80 9d 49 3e
       -0.012640886 0.001671672 0.07694731 0.19688988
000140 9e 93 0a 3e 3f aa b5 3a 16 a1 8f 3d d8 d7 59 be
       0.13532874 0.0013859941 0.070131466 -0.21273744
000150 ed a4 9e bd e1 92 bc bc 72 92 28 3c 49 ca 29 3e
       -0.07746301 -0.023019256 0.0102888215 0.16581072
000160 96 1e ed 3d 89 6c b8 bd 40 ad 1e 3d 7f 68 96 be
       0.115780994 -0.090050764 0.038739443 -0.293766
000170 60 a0 69 bb 32 cd f5 3d 1b ac 81 3d fc 50 1d b9
       -0.003564857 0.120020285 0.06331655 -0.00015002856
000180 2f 0e 20 3e 26 47 cb 3c 7e 06 16 bd 6b a7 e5 bd
       0.1563041 0.0248142 -0.036627285 -0.11213573
000190 e6 5f 8b 3d 8b 22 4c 3e 7d 3b 81 3e d7 3c 04 3e
       0.068054006 0.19935052 0.25240698 0.12913834
0001a0 45 82 1b 3d 61 9c 56 be 7e cf 24 be 1a 66 23 3e
       0.03796603 -0.20958091 -0.16094777 0.15956917
0001b0 ad 29 c0 bd 8a a5 35 3e b8 31 27 be 7e c7 0d be
       -0.09382949 0.1773893 -0.1632756 -0.13845631
0001c0 f8 59 82 bc 34 4f bf bd b8 95 a3 3b 28 99 d9 3e
       -0.015912041 -0.09341279 0.004992213 0.4249966
0001d0 ac a9 ee 3d 21 19 8f 3d 0a 67 3a 3c dc 94 39 bd
       0.11653456 0.06987215 0.0113771055 -0.04530798
0001e0 21 06 54 bc 44 09 4a bd 47 5d 07 3e d7 fb 94 bc
       -0.012940914 -0.049325243 0.13219176 -0.018186493
0001f0 5b 7c 0a 3e 55 c5 91 bb b7 74 2b 3d e1 2e d9 3d
       0.13524 -0.0044485726 0.041859355 0.106046446
