tasks/banana_collector/solutions/ray_tracing_banana/solution_checkpoint/ray_tracing_banana_solution.pth (torch_old, 608011 bytes, 9 tensors)

features.mlp_layers.0.weight f4 [512, 37]
-0.097732425 -0.033675704 -0.085779704 0.046594486 -0.16763662 0.19503286 -0.1476234 -0.31630075
-0.16436805 0.14451203 -0.0692924 0.031354286 -0.2547048 -0.06946478 -0.1747655 0.043935295
-0.168431 -0.06588572 -0.0711566 -0.0016085661 0.19504991 -0.024449907 -0.026772061 0.014285924
-0.14070298 0.0139178615 -0.16361654 0.17123757 0.044827506 -0.18672064 0.076545484 0.11330458
0.10168748 -0.04174211 0.17044318 0.03374413 -0.07324092 -0.13426955 -0.12755142 0.047644205
-0.11016957 -0.107860155 -0.16147852 0.23035538 0.02601989 -0.059825625 -0.11530187 -0.14595835
0.12561013 0.19172366 0.0036510164 0.045683052 -0.017946072 0.032581374 -0.012702088 -0.2255841
-0.18593743 0.06672044 -0.016486099 -0.15335089 0.04240797 0.09035803 -0.328208 -0.12672338
-0.08041435 0.093012 -0.18223801 -0.14635241 -0.22826548 0.09611238 0.21494219 -0.0976922
-0.08739167 -0.0914255 -0.0061839432 -0.08644869 0.14207582 -0.120967634 -0.004200466 0.110005215
-0.027275888 -0.025900876 0.055805188 -0.16646239 -0.07330346 -0.13375683 -0.06206973 0.045924857
0.116122365 0.008863704 -0.1944568 0.15161584 0.098158926 0.22762524 -0.10342663 -0.049014296
0.17711522 0.14978652 0.24042071 -0.08773864 0.16089728 -0.21516839 0.029392805 0.009022864
-0.04737472 -0.145642 -0.0937678 0.2717289 0.14019316 -0.008860702 0.05362844 -0.13437429
0.066414215 -0.0070392354 0.07747063 0.025619876 -0.030201245 -0.08226864 0.12281157 0.12260316
-0.20798759 0.02990844 0.2283211 -0.087730244 0.19630231 -0.1964646 0.09238158 0.07206418
0.04465746 0.122416206 -0.11573565 0.11288031 -0.11731284 -0.026722945 -0.1343817 -0.51501393
0.1250585 0.010737543 -0.0052715223 -0.11200153 -0.016307669 0.0075904685 0.033591747 0.19252236
-0.06180184 -0.16153905 -0.098783866 -0.015384534 -0.20123346 -0.20709603 -0.10111847 0.032156374
-0.17417915 0.11804196 0.0647821 0.09633358 -0.14278321 -0.16070066 -0.31187674 0.032017354
0.18962017 0.0967826 -0.2416328 0.18627034 0.10285439 0.0932713 -0.058805354 0.13854374
0.045084562 0.12385906 0.075985454 -0.32042408 -0.08659382 -0.006084877 -0.10063017 -0.08753239
-0.21925908 -0.17141823 0.16292278 -0.07254344 -0.022288425 0.02108051 -0.02759257 -0.1223327
-0.017843017 -0.12073613 -0.10710811 0.06354106 0.18370697 -0.20075543 -0.09926424 -0.1621228
-0.0021716224 0.086982265 -0.20865105 -0.24340323 0.10887696 -0.04095532 0.16362822 0.18162766
-0.021982687 -0.005464721 0.09362768 -0.15555856 -0.23954292 -0.10807176 0.09860325 -0.0669246
0.005788691 0.2482805 -0.09118863 -0.06544684 0.16101743 -0.1933828 -0.05233745 -0.038769484
0.11866231 -0.18463965 -0.0008767918 -0.029216237 -0.2091972 -0.073116966 0.061925333 -0.07728698
0.060829397 -0.19817333 -0.11525434 -0.17039266 0.07312027 -0.086461104 0.057891935 -0.22930658
-0.15867047 0.11239347 -0.08251498 -0.1456297 0.086725995 -0.0074381437 -0.19234693 0.048339453
0.07670527 -0.1270183 -0.164091 -0.0003195108 0.10502009 0.16607392 -0.17170227 -0.10774104
0.16764049 0.053661924 0.08573875 -0.16203259 0.12722805 -0.07806276 -0.086983345 -0.010237016
00000000: f027 c8bd 89ef 09bd 45ad afbd dcd9 3e3d
00000010: efa8 2bbe b2b6 473e 972a 17be 2cf2 a1be
00000020: 1950 28be f6fa 133e 2ce9 8dbd 5a6d 003d
00000030: ab68 82be 8d43 8ebd baf5 32be 7ff5 333d
00000040: 2d79 2cbe 18ef 86bd 8dba 91bd 86d6 d2ba
00000050: 2abb 473e 2c4b c8bc 1551 dbbc 820f 6a3c
00000060: 7114 10be be07 643c 188b 27be e758 2f3e
00000070: 0c9d 373d b233 3fbe e1c3 9c3d 3b0c e83d
00000080: 8741 d03d c6f9 2abd a888 2e3e 4937 0a3d
00000090: 56ff 95bd f57d 09be d79c 02be 9226 433d
000000a0: 95a0 e1bd c9e5 dcbd a05a 25be 48e2 6b3e
000000b0: aa27 d53c b70b 75bd 6323 ecbd 1b76 15be
000000c0: f19f 003e 3553 443e e445 6f3b 271e 3b3d
000000d0: a403 93bc 0c74 053d 6b1c 50bc 85ff 66be
000000e0: 6266 3ebe baa4 883d db0d 87bc 0408 1dbe
000000f0: fbb3 2d3d a10d b93d e10a a8be c6c3 01be
00000100: 47b0 a4bd 137d be3d 9a9c 3abe 68dd 15be
00000110: 6dbe 69be 91d6 c43d ce19 5c3e d912 c8bd
00000120: 67fa b2bd 4b3d bbbd ada2 cabb 030c b1bd
00000130: 537c 113e e1bd f7bd 10a4 89bb 6a4a e13d
00000140: af71 dfbc 132e d4bc fb93 643d 1e75 2abe
00000150: 2020 96bd 8df7 08be d43c 7ebd b41b 3c3d
00000160: 90d1 ed3d 1239 113c af1f 47be 2f41 1b3e
00000170: 8c07 c93d 9716 693e 57d1 d3bd 37c3 48bd
00000180: b15d 353e a361 193e d930 763e 51b0 b3bd
00000190: 42c2 243e 1a55 5cbe 2ec9 f03c a2d4 133c
000001a0: ff0b 42bd 2d23 15be 5509 c0bd 0d20 8b3e
000001b0: cc8e 0f3e 7a2c 11bc 7fa9 5b3d 6a99 09be
000001c0: 2d04 883d 63a9 e6bb eca8 9e3d c6e0 d13c
000001d0: 9a68 f7bc 767c a8bd a284 fb3d 5e17 fb3d
000001e0: b3fa 54be 8b02 f53c 02cd 693e eaab b3bd
000001f0: 7903 493e 042e 49be 8e32 bd3d 6396 933d
00000200: beea 363d 59b5 fa3d d006 edbd cb2d e73d
00000210: b741 f0bd 14ea dabc 5b9b 09be f4d7 03bf
00000220: 560f 003e 85ec 2f3c bcbc acbb 0f61 e5bd
00000230: a997 85bc 77b9 f83b 8097 093d 9524 453e
00000240: ed23 7dbd 7e6a 25be 324f cabd 6a0f 7cbc
00000250: 2510 4ebe fb10 54be 3317 cfbd 67b6 033d
00000260: 055c 32be fcbf f13d 7aac 843d 8a4a c53d
00000270: c335 12be b78e 24be 4fae 9fbe a124 033d
00000280: ca2b 423e f535 c63d 976e 77be a7bd 3e3e
00000290: 53a5 d23d 0605 bf3d e2dd 70bd 69de 0d3e
000002a0: 97aa 383d d2a9 fd3d 439e 9b3d a00e a4be
000002b0: 1a58 b1bd a663 c7bb 3117 cebd 2f44 b3bd
000002c0: 7485 60be 4388 2fbe 3bd5 263e a891 94bd
000002d0: 3796 b6bc 09b1 ac3c d009 e2bc 9189 fabd
000002e0: 852b 92bc 8144 f7bd 7f5b dbbd d121 823d
000002f0: ae1d 3c3e d592 4dbe 0d4b cbbd 8503 26be
00000300: c751 0ebb c223 b23d 9fa8 55be b23e 79be
00000310: e2fa de3d c4c0 27bd 288e 273e 9afc 393e
00000320: 0915 b4bc 6711 b3bb debf bf3d be4a 1fbe
00000330: bd4a 75be ba54 ddbd 80f0 c93d c40f 89bd
00000340: 0faf bd3b 3e3d 7e3e 1bc1 babd fe08 86bd
00000350: c1e1 243e 2406 46be cb5f 56bd c0cc 1ebd
00000360: 3a05 f33d 2d12 3dbe 80d8 65ba e456 efbc
00000370: ca37 56be 59be 95bd 6ba5 7d3d a348 9ebd
00000380: 3f28 793d f3ed 4abe 780a ecbd 6a7b 2ebe
00000390: 15c0 953d 8512 b1bd 1820 6d3d 58cf 6abe
000003a0: 837a 22be 8c2e e63d 9dfd a8bd f41f 15be
000003b0: 669d b13d acbb f3bb 98f6 44be 97ff 453d
000003c0: a717 9d3d 1611 02be 7907 28be 0384 a7b9
000003d0: c614 d73d 480f 2a3e b8d2 2fbe 56a7 dcbd
000003e0: f3a9 2b3e 9bcc 5b3d cc97 af3d dfeb 25be
000003f0: 1248 023e 5edf 9fbd 5324 b2bd 28b9 27bc

features.mlp_layers.0.bias f4 [512]
0.03076536 0.021930298 -0.064962074 0.04349838 0.05055328 0.04944114 0.08881505 0.12722309
-0.1404201 -0.008041093 -0.13948292 -0.08279698 0.13202953 0.14184739 -0.041382506 0.02862525
0.08747774 0.025868295 -0.11263599 -0.17267206 0.012993297 -0.11954398 -0.035728272 -0.111332804
0.17552966 0.10758963 0.008436835 0.0076463586 0.09764492 -0.06810482 0.13649075 -0.021714723
0.10246306 0.00028950887 -0.13721256 0.02708848 0.03245542 -0.026389815 -0.07119899 -0.027167404
0.071575604 0.0007223174 -0.10463 0.12068575 -0.1544763 -0.098593436 -0.15314937 0.13256846
-0.10328593 -0.08960783 0.094336756 0.007110017 0.16104925 0.11551132 0.14585708 -0.11661631
0.051417056 -0.12577145 -0.17152922 0.14228737 -0.074144185 0.12111599 -0.04912362 0.044980057
0.1103783 -0.10615758 -0.07938201 0.018984756 0.007127271 0.09537255 -0.007590306 0.06170108
-0.09747467 -0.09143568 0.047097046 0.032093454 0.035082635 0.012789825 0.031270806 -0.003184754
0.034007065 0.15903366 -0.15115853 -0.17129605 -0.14650318 0.03484406 0.016527485 -0.09341157
0.026228558 0.002601064 -0.097486205 -0.09621761 0.053763874 0.005884061 -0.10191314 -0.005915267
0.01119435 -0.03653714 0.09316154 0.0060798386 -0.18178587 -0.04778639 0.10156035 0.045138285
-0.20308119 -0.09352876 -0.14818287 -0.104447365 -0.004791303 -0.073595904 -0.16298978 0.034730528
0.13788335 -0.0034243104 0.09330397 -0.16218467 -0.14196655 0.1163916 0.01658888 -0.012233483
-0.08634815 0.07416632 0.05624032 0.12150062 0.0030477333 0.12555945 -0.052073974 -0.17160329
-0.06707964 -0.20559339 -0.08230349 -0.092183605 -0.07237757 0.1163002 -0.17810264 0.0464473
-0.11058701 0.11923052 0.17861126 -0.0989311 0.16855235 0.043060806 0.11510955 0.077715375
0.036296066 -0.019274864 -0.13728817 0.09088216 -0.0005439871 0.13289998 -0.07265975 -0.02199647
-0.16463187 -0.072563305 -0.047466606 -0.1031781 -0.0463205 0.10079589 -0.0680074 0.047062594
0.15387627 -0.026321238 -0.18741857 0.054762553 0.06137143 -0.030348368 0.11690864 -0.03375849
-0.09997531 -0.06375724 -0.12955666 0.014036653 0.04361328 -0.024028447 -0.18030438 0.051217105
-0.1983944 -0.16778345 0.051875353 -0.019357257 -0.18503967 0.04747391 -0.002708185 -0.108672366
0.006338426 0.13233887 0.020810667 0.047937028 0.1050372 0.020658797 -0.11403193 -0.038721174
-0.18867798 -0.13503216 -0.05788501 0.032913256 -0.15889566 -0.08663761 -0.13775194 -0.0987467
0.15281211 -0.14966555 0.038710937 -0.04122254 0.06412065 0.096210025 -0.07442764 0.12607253
0.10408244 -0.071524695 0.012316462 0.12558277 -0.008979254 -0.095712714 0.05913425 -0.061610874
0.15769085 0.031671472 -0.05516707 -0.16571291 0.09495653 -0.08182285 0.0909407 -0.106857695
-0.032731403 0.018946098 -0.0601627 -0.10320394 0.006272273 -0.09320004 -0.102040134 -0.052053053
0.15079671 0.12604174 -0.18655594 -0.14995112 0.09953466 0.08038746 0.030180126 -0.015758127
0.08429549 0.15199964 -0.13925512 -0.10738366 0.025057761 0.082841754 0.10536111 0.09717685
0.061422043 0.08825376 -0.14999019 -0.020954771 -0.001708444 0.14594305 -0.07272822 -0.031684607
00000000: a307 fc3c 2ba7 b33c d60a 85bd 5b2b 323d
00000010: f510 4f3d cb82 4a3d aae4 b53d c546 023e
00000020: 49ca 0fbe cabe 03bc 9cd4 0ebe 7791 a9bd
00000030: c032 073e 7140 113e b480 29bd 807f ea3c
00000040: 8827 b33d bfe9 d33c b3ad e6bd f2d0 30be
00000050: d6e1 543c 79d3 f4bd cf57 12bd 7402 e4bd
00000060: 0cbe 333e f457 dc3d a73a 0a3c 4e8e fa3b
00000070: 0ffa c73d 8a7a 8bbd 3bc4 0b3e 13e3 b1bc
00000080: 27d8 d13d 39c9 9739 7381 0cbe a9e8 dd3c
00000090: f9ef 043d 742f d8bc c7d0 91bd 2d8e debc
000000a0: 3b96 923d e659 3d3a 4148 d6bd 172a f73d
000000b0: 092f 1ebe 5beb c9bd 30d3 1cbe 07c0 073e
000000c0: 9387 d3bd 4f84 b7bd a133 c13d 25fb e83b
000000d0: 18ea 243e 3391 ec3d 8f5b 153e 88d4 eebd
000000e0: b19a 523d 3bca 00be 5ba5 2fbe c8b3 113e
000000f0: e8d8 97bd a90b f83d d935 49bd 023d 383d
00000100: 050e e23d 2569 d9bd 0993 a2bd eb85 9b3c
00000110: e28b e93b af52 c33d 1ab8 f8bb 46ba 7c3d
00000120: cda0 c7bd a142 bbbd d5e8 403d 6d74 033d
00000130: cfb2 0f3d 6a8c 513c d115 003d 4eb7 50bb
00000140: fe4a 0b3d b8d9 223e 4dc9 1abe 3b68 2fbe
00000150: ee04 16be a5b8 0e3d a664 873c 914e bfbd
00000160: 46dd d63c 9d76 2a3b d9a6 c7bd bd0d c5bd
00000170: 8237 5c3d 15cf c03b d6b7 d0bd dbd4 c1bb
00000180: 8268 373c f8a7 15bd 7acb be3d 6239 c73b
00000190: 1326 3abe a9bb 43bd dffe cf3d ece2 383d
000001a0: 84f4 4fbe 028c bfbd 40bd 17be 80e8 d5bd
000001b0: 5d00 9dbb 73b9 96bd cbe6 26be 9941 0e3d
000001c0: 4b31 0d3e 656a 60bb 2716 bf3d bd13 26be
000001d0: ae5f 11be b85e ee3d 67e5 873c f26e 48bc
000001e0: 4dd7 b0bd 83e4 973d 405c 663d 51d5 f83d
000001f0: 7bbc 473b a892 003e 854b 55bd c6b8 2fbe
00000200: 0d61 89bd 1387 52be bb8e a8bd c2ca bcbd
00000210: b13a 94bd cd2e ee3d 8a60 36be 863f 3e3d
00000220: 717b e2bd 222f f43d dfe5 363e 639c cabd
00000230: fd98 2c3e 8760 303d 8ebe eb3d 3d29 9f3d
00000240: 2fab 143d 52e6 9dbc 4595 0cbe 6d20 ba3d
00000250: 5b9a 0eba ef16 083e a3ce 94bd f131 b4bc
00000260: 4295 28be 129c 94bd 586c 42bd 0a4f d3bd
00000270: 91ba 3dbd 136e ce3d 7747 8bbd b5c4 403d
00000280: be91 1d3e a39f d7bc a7ea 3fbe b34e 603d
00000290: 9c60 7b3d 249d f8bc cc6d ef3d 5846 0abd
000002a0: dbbf ccbd 2893 82bd 80aa 04be fdf9 653c
000002b0: d7a3 323d 4ed7 c4bc b6a1 38be 07c9 513d
000002c0: e727 4bbe 6dcf 2bbe 407b 543d 1c93 9ebc
000002d0: 0a7b 3dbe 0174 423d ce7b 31bb 9e8f debd
000002e0: 92b2 cf3b d783 073e 227b aa3c 9e59 443d
000002f0: be1d d73d a33c a93c 9389 e9bd 189a 1ebd
00000300: cd34 41be df45 0abe d518 6dbd 0dd0 063d
00000310: 8bb5 22be 0f6f b1bd d80e 0dbe b63b cabd
00000320: c77a 1c3e ed41 19be 5c8f 1e3d f7d8 28bd
00000330: b051 833d c309 c53d 856d 98bd 2819 013e
00000340: 2d29 d53d 8a7b 92bd fcca 493c c598 003e
00000350: b91d 13bc 0705 c4bd c136 723d af5b 7cbd
00000360: b679 213e f2b9 013d def6 61bd a5b0 29be
00000370: 9278 c23d bd92 a7bd 1e3f ba3d 35d8 dabd
00000380: 5d11 06bd d934 9b3c 2a6d 76bd 965c d3bd
00000390: a487 cd3b aadf bebd 6bfa d0bd 9535 55bd
000003a0: 746a 1a3e 1611 013e 8508 3fbe c98c 19be
000003b0: d4d8 cb3d 2ea2 a43d 503c f73c 3017 81bc
000003c0: 1da3 ac3d cba5 1b3e e598 0ebe f7eb dbbd
000003d0: ef45 cd3c f0a8 a93d 91c7 d73d a804 c73d
000003e0: ae95 7b3d 63be b43d 0797 19be 57a9 abbc
000003f0: deed dfba 1872 153e 88f2 94bd b8c7 01bd

output.advantage.mlp_layers.0.weight f4 [128, 512]
0.06723806 -0.003907328 0.006813119 0.004064029 -0.044532243 -0.051731475 -0.025320536 0.053016167
-0.025857564 0.07699878 -0.016502012 0.06418454 0.023702288 0.034394145 0.03747201 -0.014426159
0.030084725 -0.028265525 -0.080251455 0.10762153 0.024005571 0.0027465746 -0.045046333 -0.0010990979
0.051105544 -0.070264526 -0.031449236 0.06713014 0.026767496 -0.060343772 -0.118445955 0.075985454
0.016890643 0.014212899 0.036445364 -0.0054159723 -0.03813986 -0.041937146 -0.02568712 -0.10229713
-0.029699555 -0.14385617 -0.07971924 -0.13230936 0.04826721 0.0008679685 0.010451197 0.04686033
-0.006714372 -0.060892787 -0.020194035 0.02307166 0.10148145 0.0004891906 -0.01865662 -0.04743212
-0.10920041 -0.046116132 0.004518626 -0.053273547 0.017473258 0.031732827 -0.015246935 0.0017526061
-0.029917024 -0.016926851 -0.028674027 -0.023685306 -0.038774993 0.078698166 0.04007863 0.025082432
0.074342206 -0.03176759 -0.037857573 -0.05525452 -0.0066886162 -0.017892506 -0.022464415 -0.057233144
-0.058430724 0.03435603 -0.053905286 0.04750765 0.003946927 -0.054888114 0.11697487 0.05764741
-0.08626747 -0.07298791 0.002976792 -0.04054265 -0.07188392 -0.04137166 -5.5136938e-05 0.029415268
-0.0139250485 -0.0948833 0.020125113 -0.028914183 0.015850844 -0.1020448 0.078222096 -0.04753419
-0.03817983 0.005656931 -0.0023641428 0.024529984 -0.0048195585 -0.040138047 0.053028263 0.024220109
-0.10030677 -0.01648403 -0.004452945 -0.0034041868 -0.013788283 -0.014058865 -0.039309427 0.04980421
-0.011139812 0.019034218 0.08280318 -0.07289756 -0.062401485 -0.010474313 -0.06944278 0.019167958
0.042766377 -0.047098167 0.11102685 0.05132207 -0.04331972 0.06459667 -0.083936594 0.039932236
0.13127941 -0.032507572 -0.011940106 -0.093282565 0.03574431 0.0027597817 -0.02965828 0.057013948
-0.09988997 -0.050781325 0.1366656 -0.06933535 0.010183257 -0.051785704 0.038450982 -0.03823969
0.051505417 0.043033063 0.018300999 0.0009778297 -0.009931093 0.0027466866 -0.07611828 3.3323562e-05
-0.028958308 0.08679368 -0.030410262 0.029440034 0.0905908 0.031993713 -0.15864539 0.036855377
-0.04608549 0.078232326 0.09462352 -0.041124262 0.014268214 -0.03970344 0.07452904 -0.07316643
0.05174902 -0.016952185 -0.029037172 0.038960863 -8.480689e-05 0.118746385 0.01242803 -0.025373006
-0.06892852 0.011163552 0.038545765 0.0031090684 0.013809715 -0.08089115 -0.13272426 -0.02864913
0.025490692 -0.06365788 0.016180763 0.006109032 0.00026883653 0.008118641 -0.030181687 0.022504749
-0.020453842 0.036326274 -0.08247658 0.053902708 -0.0115738865 0.06420786 0.0063710096 -0.002175004
-0.036941733 0.032082 -0.0303129 0.0068216207 -0.05276496 -0.053238526 -0.031011958 0.020702364
0.05658907 0.016430786 0.027129017 0.06580091 0.052358955 -0.0074836677 -0.0044229925 -0.045125257
0.053730153 0.00840986 0.030712169 0.042406052 0.063504346 0.035133116 -0.034629546 0.06416968
-0.032803208 -0.026667474 0.08223298 -0.021317573 0.010253511 0.04291196 0.019639987 0.08639758
-0.012778014 0.004776783 -0.12006049 -0.05146888 -0.011758266 -0.070567355 0.043786854 0.0658
-0.028265322 -0.039653167 0.048979964 0.06408364 -0.05566702 -0.016056055 -0.035966456 -0.16688319
00000000: 1cb4 893d 0b09 80bb 9640 df3b 8c2b 853b
00000010: 7167 36bd 62e4 53bd 036d cfbc 7b27 593d
00000020: 3ed3 d3bc 89b1 9d3d 3a2f 87bc 2f73 833d
00000030: 4d2b c23c e0e0 0c3d 407c 193d b25b 6cbc
00000040: 3e74 f63c 1a8d e7bc e05a a4bd ad68 dc3d
00000050: 55a7 c43c e0ff 333b 8182 38bd 9b0f 90ba
00000060: 0c54 513d d9e6 8fbd ead0 00bd 877b 893d
00000070: 8247 db3c 082b 77bd cb93 f2bd 439e 9b3d
00000080: 3f5e 8a3c 38dd 683c bc47 153d 7878 b1bb
00000090: 8b38 1cbd 49c6 2bbd cc6d d2bc 2881 d1bd
000000a0: 7b4c f3bc 084f 13be d743 a3bd 1b7c 07be
000000b0: d7b3 453d 6188 633a 7f3b 2b3c 9ef0 3f3d
000000c0: 3c04 dcbb b76a 79bd f66d a5bc c700 bd3c
000000d0: 82d5 cf3d 073d 003a c5d5 98bc 2f48 42bd
000000e0: 77a4 dfbd 45e4 3cbd fb10 943b 5d35 5abd
000000f0: 1424 8f3c 48fa 013d 48ce 79bc b4b7 e53a
00000100: 8c14 f5bc 2eaa 8abc cbe5 eabc b007 c2bc
00000110: 87d2 1ebd 812c a13d 7d29 243d ac79 cd3c
00000120: ba40 983d bc1e 02bd 8b10 1bbd 9052 62bd
00000130: 2e2c dbbb 4e93 92bc 4b07 b8bc 4d6d 6abd
00000140: 0e55 6fbd e9b8 0c3d cacb 5cbd 6297 423d
00000150: 3955 813b 5cd2 60bd 8590 ef3d b11f 6c3d
00000160: 00ad b0bd af7a 95bd 4816 433b 0d10 26bd
00000170: e037 93bd 5475 29bd d642 67b8 4af8 f03c
00000180: e325 64bc 2d52 c2bd 6cdd a43c 70dd ecbc
00000190: a1d9 813c ddfc d0bd e832 a03d 36b3 42bd
000001a0: 7462 1cbd c75d b93b bcef 1abb 1bf3 c83c
000001b0: 63ed 9dbb cb67 24bd 2a34 593d 4069 c63c
000001c0: a36d cdbd 8409 87bc 03ea 91bb c718 5fbb
000001d0: 40e8 61bc 2757 66bc ec02 21bd 80ff 4b3d
000001e0: c283 36bc a6ed 9b3c b794 a93d 514b 95bd
000001f0: b398 7fbd 749c 2bbc 0438 8ebd 1f06 9d3c
00000200: cc2b 2f3d 02ea 40bd 0c62 e33d 1737 523d
00000210: 0570 31bd 424b 843d f3e6 abbd fc8f 233d
00000220: 1c6e 063e a926 05bd 6fa0 43bc ee0a bfbd
00000230: a068 123d 74dd 343b ecf5 f2bc 7587 693d
00000240: 1d93 ccbd 1400 50bd 11f2 0b3e b1ff 8dbd
00000250: add7 263c 3f1d 54bd c77e 1d3d 39a1 1cbd
00000260: 58f7 523d 7043 303d faeb 953c 852a 803a
00000270: 06b6 22bc c101 343b e7e3 9bbd e7c4 0b38
00000280: f939 edbc e3c0 b13d f11e f9bc 3a2c f13c
00000290: ab87 b93d d70b 033d f073 22be aaf5 163d
000002a0: 24c4 3cbd 4538 a03d fac9 c13d ea71 28bd
000002b0: 3ac5 693c 13a0 22bd aea2 983d 48d8 95bd
000002c0: c8f6 533d 4fdf 8abc 5ddf edbc 6d95 1f3d
000002d0: 5ada b1b8 4e31 f33d f09e 4b3c 0ddb cfbc
000002e0: 652a 8dbd 55e7 363c 2ae2 1d3d 83c1 4b3b
000002f0: 2542 623c 42aa a5bd dee8 07be 95b1 eabc
00000300: dbd1 d03c 105f 82bd 858d 843c 462e c83b
00000310: a1f2 8c39 0c04 053c 963f f7bc e15b b83c
00000320: d18e a7bc dcca 143d 7be9 a8bd 16c9 5c3d
00000330: 66a0 3dbc 697f 833d e7c3 d03b 838a 0ebb
00000340: 3750 17bd 6a68 033d c252 f8bc e787 df3b
00000350: 1220 58bd a410 5abd ca0c febc 0198 a93c
00000360: f1c9 673d db99 863c ac3d de3c a1c2 863d
00000370: 5876 563d 8e39 f5bb c0ee 90bb 43d5 38bd
00000380: 2614 5c3d 82c9 093c 1698 fb3c f8b1 2d3d
00000390: 910e 823d bee7 0f3d b6d7 0dbd 656b 833d
000003a0: a85c 06bd bf75 dabc c469 a83d 31a2 aebc
000003b0: 58fe 273c 74c4 2f3d 0ae4 a03c 37f1 b03d
000003c0: e05a 51bc 8f86 9c3b 46e2 f5bd 08d1 52bd
000003d0: bea5 40bc 9e85 90bd d859 333d 27c2 863d
000003e0: ad8c e7bc 5c6b 22bd 379f 483d 493e 833d
000003f0: 1a03 64bd fd87 83bc 9051 13bd 6de3 2abe

output.advantage.mlp_layers.0.bias f4 [128]
-0.035616104 -0.021097131 -0.009159825 -0.035788447 0.011731776 0.03645001 0.014473127 0.012196871
-0.028279467 0.008387163 -0.026949069 0.002090114 -0.037896127 -0.017792927 0.021897864 0.010778607
0.0064404965 -0.0036985793 -0.0047190203 -0.042169284 0.016217409 0.019102614 0.017046817 -0.026435746
-0.023710111 -0.060134314 -0.055673096 0.01914899 -7.5100797e-06 0.04969335 -0.04837169 0.01776141
-0.043748215 0.03415339 -0.02963562 0.0065156776 0.017814241 0.028332004 -0.03688991 0.0041128485
0.0153229 0.006063901 0.0028154294 0.023075337 -0.03382753 -0.035722308 0.016642028 0.040985964
-0.028281404 -0.01345874 -0.034979165 -0.06496703 -0.057058707 0.035849657 -0.024920192 -0.001961625
0.027424283 -0.019017622 0.0076973885 -0.062272374 0.059618376 -0.09135872 0.012565009 0.021665465
-0.006658513 -0.04732117 -0.03879049 0.034480456 -0.0063256994 -0.044734813 0.004222982 -0.019076172
-0.009923307 -0.010775353 -0.019911531 -0.04473546 -0.039507583 -0.009643326 -0.033019926 -0.016257746
-0.041465968 -0.04736058 0.006186271 -0.046445616 0.00766334 0.0041032415 0.00535988 0.031142777
-0.04567294 0.010921907 0.034440115 -0.02623326 0.048153527 -0.00038904528 -0.04165471 -0.028409848
-0.0026603348 0.045363516 -0.044147454 -0.055625305 0.05550137 -0.04646585 -0.04591599 -0.05948262
0.036066864 0.026794028 0.00488056 0.07456445 -0.012188612 -0.018378574 -0.034637358 -0.015012345
-0.038726505 -0.05013357 0.0054613366 0.049366515 0.025449889 0.013063083 -0.0037118103 -0.029864943
-0.05739306 -0.012559112 -0.03822986 -0.0050949436 -0.050146475 -0.049226094 0.0075412155 0.02171057
00000000: 31e2 11bd e4d3 acbc 1713 16bc e896 12bd
00000010: a336 403c 9b4c 153d b220 6d3c 63d5 473c
00000020: 57aa e7bc 506a 093c 4bc4 dcbc 4bfa 083b
00000030: f838 1bbd 79c2 91bc 2663 b33c c198 303c
00000040: cd0a d33b dd63 72bb 03a2 9abb b3b9 2cbd
00000050: 5fda 843c 167d 9c3c c4a5 8b3c c78f d8bc
00000060: b53b c2bc 664f 76bd 7909 64bd 58de 9c3c
00000070: 18ff fbb6 418b 4b3d 6521 46bd 6080 913c
00000080: 5431 33bd 6de4 0b3d 66c6 f2bc 7781 d53b
00000090: 2cef 913c 8518 e83c e019 17bd 13c5 863b
000000a0: e70c 7b3c b0b3 c63b 1183 383b 7d08 bd3c
000000b0: bc8e 0abd 8e51 12bd dd54 883c e6e0 273d
000000c0: 67ae e7bc 0c82 5cbc 5046 0fbd 6f0d 85bd
000000d0: 64b6 69bd 17d7 123d 6e25 ccbc 9b8e 00bb
000000e0: e4a8 e03c d8ca 9bbc 603a fc3b 5111 7fbd
000000f0: 6632 743d 481a bbbd 78dd 4d3c c67b b13c
00000100: a82f dabb d8d3 41bd c7e2 1ebd 613b 0d3d
00000110: d047 cfbb da3b 37bd f160 8a3b a245 9cbc
00000120: 5e95 22bc 1b8b 30bc 821d a3bc 883c 37bd
00000130: b4d2 21bd 0aff 1dbc e73f 07bd f72e 85bc
00000140: 38d8 29bd 2bfd 41bd 34b6 ca3b c23d 3ebd
00000150: c11c fb3b 7c74 863b efa1 af3b 231f ff3c
00000160: 8c13 3bbd ccf1 323c 1411 0d3d 22e7 d6bc
00000170: a23c 453d c6f8 cbb9 219e 2abd c5bb e8bc
00000180: 0359 2ebb 18cf 393d f6d3 34bd 5cd7 63bd
00000190: 6855 633d fa52 3ebd 6812 3cbd 0ca4 73bd
000001a0: d9ba 133d 267f db3c 1bed 9f3b 3fb5 983d
000001b0: beb2 47bc aa8e 96bc e7df 0dbd 57f6 75bc
000001c0: af9f 1ebd dc58 4dbd 03f5 b23b 8b34 4a3d
000001d0: 497c d03c 8b06 563c d841 73bb 53a7 f4bc
000001e0: fc14 6bbd bcc4 4dbc ea96 1cbd 7cf3 a6bb
000001f0: 6466 4dbd 4da1 49bd 4d1c f73b 5eda b13c

output.advantage.mlp_layers.2.weight f4 [4, 128]
-0.036464084 0.048172545 -0.024923883 -0.025266407 0.04038517 0.10345626 0.04265414 0.049382154
-0.028134972 -0.039082732 0.0709734 0.043850444 -0.060342073 0.031440187 0.028658165 0.11016367
-0.04689593 0.05461045 0.052310325 -0.082548484 -0.002032225 -0.15294708 -0.019543368 -0.1722278
0.07773403 -0.067803875 0.05230524 0.045707982 -0.2438391 -0.019073008 -0.008144764 -0.023969058
-0.08085756 0.027769623 0.10531712 -0.1540319 0.18405661 0.044864256 0.05823219 0.026349684
-0.022117479 0.05831741 0.09595363 0.08017206 -0.02688225 0.01743295 0.20295598 -0.024188146
0.059168693 0.04570616 0.02682485 -0.052159104 0.019393548 -0.028959814 0.1006204 0.048284505
-0.12948851 0.047474243 -0.030760197 0.013272434 0.26388872 0.07286437 -0.1392198 0.07838254
0.0845386 -0.14723518 -0.057099964 -0.15401784 -0.029888684 -0.06558171 0.019130826 -0.015338856
0.037755005 0.06401362 -0.10576894 -0.09732997 0.02418657 0.0795412 0.093573466 0.035950184
0.004113422 0.060546484 -0.04038745 0.023705466 0.044474594 -0.04147146 0.003428292 0.05004989
0.003002094 0.0994285 0.12744634 -0.07428931 0.00776563 -0.12643693 -0.116690874 -0.04113627
-0.23846522 0.11308176 0.059588384 0.07363876 0.091938004 0.07057208 0.06390972 0.035972424
-0.043259557 0.052661754 -0.09499526 0.09973536 -0.09749587 -0.12564844 -0.0026465566 0.071241714
-0.07400955 0.15656553 0.017410474 0.029790426 0.020074606 -0.025383765 -0.076805435 0.041426323
-0.07225075 0.018031081 0.026519684 0.024585199 0.040880077 -0.0052575995 0.063659355 0.011285313
0.0400411 -0.22078615 0.20097591 0.078207366 -0.1647149 0.13726611 -0.029173847 -0.0150276115
-0.07896083 -0.039261173 -0.025661763 -0.027801566 0.30075073 -0.08000809 -0.0049388735 0.066739395
0.07019077 -0.085836425 -0.024656018 0.028376754 0.035995863 -0.070949085 0.025627116 -0.048591103
0.07241744 0.04234516 0.20817079 -0.06576199 0.052177906 -0.038347293 -0.06854508 -0.012827567
-0.06963033 0.15496808 0.04552306 -0.16805026 0.08415642 0.006087985 0.0619717 -0.021163056
-0.03443615 -0.09861749 -0.09275893 0.027167654 0.053872377 -0.041447725 0.14332217 -0.22919911
-0.053177547 -0.06821554 0.007077883 0.2433399 -0.084443934 0.012969142 -0.22155158 0.045193866
0.01867396 -0.052748505 0.07281565 -0.0018576278 0.09148299 0.073865026 0.047325447 0.03368123
0.0065629045 0.0018270187 0.24206169 0.06726023 0.18509433 -0.032426428 0.009490802 -0.081329525
0.07260801 -0.06086032 -0.06420957 0.04805822 0.14423347 0.033600815 0.15808026 -0.0605817
-0.006654189 0.15515046 0.01938589 -0.02398857 -0.04492772 -0.092124835 0.019233916 -0.02017146
0.08834792 -0.05319603 -0.02359903 -0.04213977 -0.0281209 -0.10882911 0.26736242 -0.022437489
0.036700055 -0.09426664 -0.07091388 -0.02156472 0.040108122 -0.07902721 -0.0027141997 -0.009329577
0.03272301 0.04273146 0.0820696 0.055617996 -0.04732462 -0.08889591 0.020179778 -0.06879597
0.18305586 0.0480687 0.16049702 0.24088494 0.023548614 -0.02876729 -0.1668594 0.020619506
0.0073614027 0.03616701 -0.07490261 0.075939044 -0.0373197 0.050985493 -0.21764985 -0.066962466
00000000: 5d5b 15bd 9350 453d 2c2d ccbc 7ffb cebc
00000010: ec6a 253d e0e0 d33d 1cb6 2e3d f144 4a3d
00000020: 507b e6bc 3715 20bd 805a 913d 869c 333d
00000030: 4029 77bd 6dc7 003d 87c4 ea3c 7d9d e13d
00000040: f215 40bd 35af 5f3d 5a43 563d 2e0f a9bd
00000050: 142f 05bb 299e 1cbe 6a19 a0bc 7c5c 30be
00000060: 0533 9f3d c2dc 8abd 053e 563d 4b38 3b3d
00000070: f5b0 79be ff3e 9cbc 9e71 05bc c25a c4bc
00000080: a698 a5bd 1f7d e33c 81b0 d73d 8aba 1dbe
00000090: 5679 3c3e 95c3 373d e084 6e3d 4bdb d73c
000000a0: b72f b5bc 3dde 6e3d 5683 c43d 4031 a43d
000000b0: 2a38 dcbc 8ccf 8e3c b1d3 4f3e 3826 c6bc
000000c0: df5a 723d 6236 3b3d cabf db3c c9a4 55bd
000000d0: 38df 9e3c 223d edbc 1112 ce3d f9c5 453d
000000e0: a398 04be 5a74 423d cffc fbbc 9f74 593c
000000f0: 6c1c 873e ea39 953d a38f 0ebe 0687 a03d
00000100: 9322 ad3d d2c4 16be a7e1 69bd dab6 1dbe
00000110: 1dd9 f4bc b44f 86bd 40b8 9c3c d34f 7bbc
00000120: fea4 1a3d 9319 833d 639d d8bd ef54 c7bd
00000130: ea22 c63c 7fe6 a23d 72a3 bf3d 8040 133d
00000140: e2c9 863b 97ff 773d 506d 25bd f731 c23c
00000150: fe2a 363d fadd 29bd 32ad 603b 1d01 4d3d
00000160: c8be 443b 2ba1 cb3d 4b81 023e fe24 98bd
00000170: d376 fe3b af78 01be a0fb eebd 817e 28bd
00000180: 3a30 74be 6997 e73d f312 743d ebcf 963d
00000190: fe49 bc3d 1888 903d 19e3 823d d257 133d
000001a0: ef30 31bd dab3 573d e08c c2bd 0d42 cc3d
000001b0: eaab c7bd fca9 00be da71 2dbb 2de7 913d
000001c0: 5292 97bd b752 203e 69a0 8e3c 0d0b f43c
000001d0: 8073 a43c 9df1 cfbc 2b4c 9dbd a6ae 293d
000001e0: 34f8 93bd ebb5 933c cf3f d93c e666 c93c
000001f0: de71 273d f147 acbb d65f 823d 09e6 383c
00000200: 2302 243d c415 62be a1cc 4d3e 2f2b a03d
00000210: 06ab 28be 7d8f 0c3e fefd eebc 5f36 76bc
00000220: 37b6 a1bd 53d0 20bd 9e38 d2bc 1cc0 e3bc
00000230: 00fc 993e 48db a3bd 46d6 a1bb aaae 883d
00000240: 2ec0 8f3d 02cb afbd 6bfb c9bc 5e76 e83c
00000250: 6670 133d c14d 91bd f5ef d13c 7707 47bd
00000260: 984f 943d 1e72 2d3d b92a 553e 39ae 86bd
00000270: 80b8 553d 0d12 1dbd 5d61 8cbd b72a 52bc
00000280: 599a 8ebd f4af 1e3e 6376 3a3d 5e15 2cbe
00000290: 335a ac3d b87d c73b 0ad6 7d3d 255e adbc
000002a0: ec0c 0dbd f7f7 c9bd 65f8 bdbd b38e de3c
000002b0: 48a9 5c3d 17c5 29bd 0cc3 123e 2cb3 6abe
000002c0: b3d0 59bd 97b4 8bbd 96ed e73b 182e 793e
000002d0: f1f0 acbd 867c 543c 6bde 62be 341d 393d
000002e0: 22fa 983c d10e 58bd 5f20 953d a57b f3ba
000002f0: 6f5b bb3d 8c46 973d 54d8 413d 54f5 093d
00000300: a20d d73b 9378 ef3a 05df 773e bbbf 893d
00000310: 5e89 3d3e 93d1 04bd 4f7f 1b3c 1890 a6bd
00000320: 82b3 943d ac48 79bd 4f80 83bd b2d8 443d
00000330: f0b1 133e 02a1 093d cbdf 213e 8424 78bd
00000340: 620b dabb c3df 1e3e 28cf 9e3c ad83 c4bc
00000350: 2106 38bd f2ab bcbd 7290 9d3c 9e3e a5bc
00000360: c1ef b43d 15e4 59bd c152 c1bc c09a 2cbd
00000370: cd5d e6bc cce1 debd bae3 883e d3ce b7bc
00000380: cc52 163d de0e c1bd 4c3b 91bd 7fa8 b0bc
00000390: 6a48 243d 05d9 a1bd b7e0 31bb 15db 18bc
000003a0: 9008 063d 2f07 2f3d 1b14 a83d b2cf 633d
000003b0: 76d7 41bd 0f0f b6bd 1050 a53c e7e4 8cbd
000003c0: ff72 3b3e afe3 443d 5559 243e 8baa 763e
000003d0: 06e9 c03c 61a9 ebbc 31dd 2abe 3dea a83c
000003e0: ec37 f13b dc23 143d 8a66 99bd ee85 9b3d
000003f0: 8bdc 18bd 2ad6 503d 9adf 5ebe 9e23 89bd

output.advantage.mlp_layers.2.bias f4 [4]
0.039871372 0.024830746 0.020831352 -0.01521696
00000000: 2a50 233d d969 cb3c 83a6 aa3c 8e50 79bc

output.value.mlp_layers.0.weight f4 [128, 512]
-0.045079 -0.012070575 -0.030338384 -0.013068445 -0.06284892 0.034552068 -0.036171958 -0.051692195
-0.033324 0.0056856913 -0.017795023 -0.0026754725 -0.040295344 -0.032290574 -0.020391045 -0.032505527
-0.03716486 -0.0048403116 -0.024583038 0.010920212 0.03156194 -0.0027356916 0.008876209 0.031585403
-0.032560006 -4.735409e-05 -0.04486084 0.030056877 0.021879042 -0.04858656 0.02047282 -0.010233233
0.01880808 0.013106856 0.03439444 -0.007440447 -0.047670916 -0.03440793 -0.040181816 -0.0082823215
-0.011033143 -0.050868325 -0.0089677535 0.02806698 -0.01605483 -0.011502617 -0.010315902 -0.0017547017
0.03797851 0.001745546 0.0011213928 0.0044086785 -0.01155959 0.0062338673 -0.021726541 -0.040792007
-0.032732714 0.033643905 -0.001720123 -0.02454321 -0.00717679 0.026713468 -0.057403106 -0.042390537
-0.05116275 -0.012835777 -0.018768704 -0.009248717 -0.057117503 0.017880924 0.0056115254 0.009738126
-0.034713298 -0.044517424 0.009864462 -0.0014953852 0.015745353 -0.049683303 -0.008796671 0.013733528
0.022437338 -0.021073781 -0.0039699757 0.007468847 -0.031093435 -0.014400082 -0.049271658 0.03217751
0.017106842 0.0034819313 -0.037467837 0.039151814 -0.008419702 0.042033818 -0.029550094 0.025341792
0.036321335 0.0118362615 0.030999618 -0.02195619 0.021863354 -0.05498163 0.00034719452 -0.028155692
-0.0137436455 -0.017555049 -0.007367185 0.014448788 0.018593103 0.004936136 0.021107078 -0.043338284
0.0048268517 -0.012505736 -0.035898894 0.0094867125 -0.04148862 -0.010815572 0.0021647674 0.007690431
-0.032782488 0.009008309 0.026560923 -0.04870766 0.039006103 -0.041233335 -0.0050487067 0.0053037745
0.000686103 0.035472896 -0.021350417 0.0005520581 -0.0039925873 -0.042161472 -0.039273847 -0.042996306
0.00497407 -0.014556644 -0.007994236 -0.03859514 -0.016939996 -0.04833395 -0.006469029 0.026151437
-0.005387701 -0.026695112 -0.043906987 0.025729032 -0.03577535 -0.06440412 -0.032165438 -0.04016745
-0.0058422103 0.016108995 0.014237582 0.030592531 -0.036400773 -0.01830737 -0.040484414 0.015227094
-0.003390491 0.024659447 -0.029268403 0.020271298 0.019594027 0.03325891 -0.014825954 0.042805467
0.012371871 0.01393647 -0.006614344 -0.06165739 -0.016128168 0.0104893185 -0.04817146 -0.03351313
-0.04522177 -0.035224427 0.0018570613 0.004296836 -0.023490146 -0.0075915055 0.018252153 -0.056644052
-0.046387218 -0.032663707 -0.027866343 0.003001984 0.021981644 -0.05588367 -0.051603634 -0.046777662
0.004934185 0.02478338 -0.036495607 -0.023262938 0.010886971 -0.04408344 0.05037678 0.00692564
-0.022617143 0.0027735422 -0.004807673 -0.021332178 -0.04185707 -0.013703004 0.0010333656 -0.0077117113
-0.014366272 0.025557848 -0.025880786 -0.037359234 -0.0051118666 -0.048715457 0.0081647085 -0.03131613
-0.005468494 -0.037681196 -0.02035294 0.0029579592 -0.05413521 -0.056406472 -0.0024337235 -0.03355701
0.030018214 -0.06340682 -0.03734302 -0.047897175 0.0071312604 -0.008732652 -0.041723516 -0.04121752
-0.047316622 0.0010918075 -0.008056373 -0.042120762 -0.0019070681 -0.019711532 -0.046099037 0.014170908
0.021381153 -0.015345145 -0.05839416 -0.008332278 0.022424327 0.017613003 -0.036498703 -0.023776708
0.022404693 0.011326728 0.0040452466 -0.042976197 0.031486366 -0.05998887 -0.040959865 -0.014326593
00000000: c2a4 38bd a9c3 45bc 3488 f8bc 081d 56bc
00000010: efb6 80bd 7886 0d3d 0c29 14bd 32bb 53bd
00000020: bf7e 08bd 094f ba3b dec6 91bc fb56 2fbb
00000030: bb0c 25bd 1f43 04bd 1f0b a7bc 8424 05bd
00000040: 2e3a 18bd 7a9b 9ebb 5e62 c9bc b0ea 323c
00000050: 1847 013d 4a49 33bb 856d 113c b25f 013d
00000060: a45d 05bd 119e 46b8 00c0 37bd d739 f63c
00000070: ad3b b33c b302 47bd 9eb6 a73c 4aa9 27bc
00000080: 6713 9a3c 23be 563c 2fe1 0c3d fece f3bb
00000090: 9442 43bd 54ef 0cbd b095 24bd 93b2 07bc
000000a0: 5bc4 34bc 4e5b 50bd 7ced 12bc b9ec e53c
000000b0: 6b85 83bc 7975 3cbc 0704 29bc 05fe e5ba
000000c0: 5b8f 1b3d ceca e43a b3fb 923a ad76 903b
000000d0: 6f64 3dbc 7845 cc3b dcfb b1bc 8515 27bd
000000e0: bd12 06bd 31ce 093d c075 e1ba d80e c9bc
000000f0: 472b ebbb 34d6 da3c 851f 6bbd b3a1 2dbd
00000100: 0890 51bd 274d 52bc d3c0 99bc ee87 17bc
00000110: 0bf4 69bd 047b 923c e3e0 b73b a98c 1f3c
00000120: 882f 0ebd e757 36bd 8d9e 213c cd00 c4ba
00000130: 66fc 803c b880 4bbd ea1f 10bc 9702 613c
00000140: 82ce b73c eca2 acbc 9216 82bb 3bbd f43b
00000150: a9b7 febc 52ee 6bbc 14d1 49bd 91cc 033d
00000160: a623 8c3c 1d31 643b e077 19bd a75d 203d
00000170: caf2 09bc a72b 2c3d 0a13 f2bc 9799 cf3c
00000180: aec5 143d e1ec 413c e9f2 fd3c 78dd b3bc
00000190: c71a b33c 6b34 61bd a907 b639 c4a6 e6bc
000001a0: 072d 61bc 9bcf 8fbc 6d68 f1bb 9cba 6c3c
000001b0: 9050 983c 4fbf a13b c0e8 ac3c 7c83 31bd
000001c0: 912a 9e3b dce4 4cbc b80a 13bd 286e 1b3c
000001d0: f9ef 29bd cc33 31bc c5de 0d3b 0300 fc3b
000001e0: ee46 06bd 9697 133c 4b96 d93c af81 47bd
000001f0: ddc4 1f3d 49e4 28bd 9f6f a5bb 49cb ad3b
00000200: 98db 333a 074c 113d 12e7 aebc feb7 103a
00000210: 40d4 82bb 82b1 2cbd 9ddd 20bd e51c 30bd
00000220: 86fd a23b fd7e 6ebc 42fa 02bc f015 1ebd
00000230: bfc5 8abc d2f9 45bd 26fa d3bb 8a3b d63c
00000240: 508b b0bb b5af dabc d0d7 33bd b1c5 d23c
00000250: 2c89 12bd 4fe6 83bd e8bf 03bd a086 24bd
00000260: 0370 bfbb 03f7 833c bf44 693c 309d fa3c
00000270: fa18 15bd 56f9 95bc fcd2 25bd 107b 793c
00000280: 0033 5ebb 9c02 ca3c 4ac4 efbc fe0f a63c
00000290: a783 a03c 7f3a 083d 8fe8 72bc c954 2f3d
000002a0: 63b3 4a3c cb55 643c 24bd d8bb 768c 7cbd
000002b0: 381f 84bc 64db 2b3c 704f 45bd 1045 09bd
000002c0: 763a 39bd 7d47 10bd a368 f33a 79cc 8c3b
000002d0: 686e c0bc 2ac2 f8bb 8a85 953c 9803 68bd
000002e0: 8600 3ebd 61ca 05bd f547 e4bc efbc 443b
000002f0: d912 b43c 46e6 64bd 555e 53bd ef99 3fbd
00000300: f2ae a13b 8406 cb3c 6b7c 15bd eb91 bebc
00000310: 445f 323c d690 34bd e257 4e3d 7bf0 e23b
00000320: 9647 b9bc 51c4 353b af89 9dbb d2c0 aebc
00000330: 5272 2bbd 9182 60bc ff71 873a 86b2 fcbb
00000340: 8360 6bbc b15e d13c f103 d4bc ff05 19bd
00000350: 7281 a7bb dc89 47bd 45c5 053c 5845 00bd
00000360: 0d31 b3bb 9957 1abd 35bb a6bc 52da 413b
00000370: e2bc 5dbd 790a 67bd 1b7f 1fbb 1373 09bd
00000380: c2e8 f53c 6fdb 81bd fff4 18bd d42f 44bd
00000390: 59ad e93b 6613 0fbc 47e6 2abd b4d3 28bd
000003a0: 13cf 41bd fb1a 8f3a e1fe 03bc d286 2cbd
000003b0: 96f6 f9ba 147a a1bc 58d2 3cbd 192d 683c
000003c0: 8727 af3c 346a 7bbc b72e 6fbd 1b84 08bc
000003d0: 39b3 b73c 2549 903c aa7f 15bd 5fc7 c2bc
000003e0: 0c8a b73c be93 393c fd8d 843b cf07 30bd
000003f0: d9f7 003d e4b6 75bd 88c5 27bd 16ba 6abc

output.value.mlp_layers.0.bias f4 [128]
-0.033368845 0.029309016 -0.075672835 -0.021392014 -0.011560338 -0.013053401 -0.04754535 0.027846243
3.618707e-05 -0.01595866 -0.041979365 -0.030879537 0.0016547439 -0.0021186178 -0.036187306 0.008162128
-0.033948347 -0.05089306 0.026717013 -0.01844714 -0.01863547 -0.04523775 0.0190969 -0.016009634
0.03520638 0.03509481 -0.016555421 -0.009035114 0.0010202113 -0.018439539 -0.011009998 0.032356914
0.004874911 -0.036771677 0.032791372 -0.040233724 0.009374003 0.06557946 -0.028306276 -0.01265297
-0.028188115 0.029057775 -0.04628865 0.009881258 -0.020144282 0.0761872 0.04833699 -0.022564039
-0.04001265 -0.028962811 0.016634915 0.02645123 0.042651474 0.0078100627 -0.041358765 0.008120717
0.0478486 0.044166774 -0.030785616 0.039611287 0.009412966 0.013036722 -0.007781107 -0.040631868
-0.0053756037 -0.03337867 -0.040280074 0.036922105 -0.0006628598 -0.051704675 0.005779782 0.034698877
-0.041395605 0.048005078 0.0016780207 -0.053977177 -0.079623744 0.01746236 -0.015760368 0.060985815
-0.03482597 -0.0026679486 -0.055496853 0.0282544 -0.015783822 -0.059759766 -0.025583467 -0.006700173
0.016872706 0.019787235 -0.013267728 -0.04352958 -0.04543113 -0.035795357 -0.05184563 -0.036578316
-0.05268614 -0.003140905 0.02316915 -0.043580454 -0.030618642 -0.03587067 0.02836473 -0.005802108
-0.052338976 0.016483877 -0.08128746 -0.04356598 -0.0018606734 0.024224266 -0.0017525933 -0.055296082
-0.0077664685 -0.057868693 -0.0134106185 -0.034724038 -0.011564574 0.16159199 0.025892988 -0.030405339
-0.04991977 -0.040217932 -0.010635367 -0.009031874 0.020416902 -0.00545485 0.07285275 0.026693638
00000000: c5ad 08bd 7619 f03c 5cfa 9abd 4e3e afbc
00000010: 9267 3dbc efdd 55bc eabe 42bd ce1d e43c
00000020: 92c7 1738 bcbb 82bc 8ef2 2bbd 15f7 fcbc
00000030: fee3 d83a 82d8 0abb 2439 14bd 72ba 053c
00000040: 6c0d 0bbd 3e75 50bd a3dd da3c 751e 97bc
00000050: 6aa9 98bc 384b 39bd 1a71 9c3c a326 83bc
00000060: 9134 103d 93bf 0f3d 3c9f 87bc 0408 14bc
00000070: 9cb8 853a 840e 97bc 4763 34bc af88 043d
00000080: b8bd 9f3b e69d 16bd 3f50 063d 1ecc 24bd
00000090: 6b95 193c 864e 863d 90e2 e7bc 674e 4fbc
000000a0: c3ea e6bc 920a ee3c 2b99 3dbd 00e5 213c
000000b0: 9f05 a5bc 0908 9c3d 02fd 453d 38d8 b8bc
000000c0: 4ee4 23bd 6b43 edbc f245 883c 40b0 d83c
000000d0: 50b3 2e3d 8eeb ff3b cf67 29bd c10c 053c
000000e0: e5fc 433d 38e8 343d 1e32 fcbc 723f 223d
000000f0: d738 1a3c fa97 553c a8f8 febb 9a6d 26bd
00000100: d525 b0bb 13b8 08bd b8fc 24bd a23b 173d
00000110: c5c3 2dba 48c8 53bd 5364 bd3b 6920 0e3d
00000120: 708e 29bd f9a0 443d 08f1 db3a 2c17 5dbd
00000130: c611 a3bd 390d 8f3c e31b 81bc 43cc 793d
00000140: ada5 0ebd c0d8 2ebb ab50 63bd c575 e73c
00000150: 134d 81bc a8c6 74bd 6b94 d1bc 208d dbbb
00000160: a138 8a3c d718 a23c e260 59bc 134c 32bd
00000170: fe15 3abd 279e 12bd 155c 54bd 25d3 15bd
00000180: 6ccd 57bd a4d7 4dbb 3bcd bd3c 6b81 32bd
00000190: f2d3 fabc 20ed 12bd 265d e83c 9c1f bebb
000001a0: 6561 56bd 3209 873c 0a7a a6bd 3e72 32bd
000001b0: d7e1 f3ba f871 c63c 46b7 e5ba 257e 62bd
000001c0: dc7d febb b907 6dbd 36b8 5bbc cb3a 0ebd
000001d0: 5779 3dbc 5f78 253e 881d d43c 9e14 f9bc
000001e0: ac78 4cbd 8fbb 24bd f63f 2ebc 6dfa 13bc
000001f0: 5941 a73c 99be b2bb d333 953d 9eac da3c

output.value.mlp_layers.2.weight f4 [1, 128]
0.036484305 -0.10653096 -0.17344333 0.15082443 0.08506509 0.1896646 -0.051056277 -0.17896445
0.11916896 -0.14225365 -0.14096129 -0.2382559 -0.0053073512 0.23410594 -0.12917943 0.19999917
0.14274585 0.056923382 -0.19343714 -0.09769659 -0.13769314 0.16227727 -0.012694839 0.20580205
-0.16159125 0.00211539 0.18905464 0.00052932714 0.1743313 -0.00980226 -0.22591908 -0.22131936
-0.07698979 -0.18560281 -0.15209559 -0.09279602 0.21081078 0.13233013 -0.05645284 0.14067365
0.15170804 -0.01579303 -0.15870911 0.08019524 0.1514504 0.10157652 0.08280563 -0.05873289
0.22549267 0.22257552 -0.14469211 0.13332626 0.12364263 0.14410998 0.057446484 -0.06499731
-0.20352402 0.19938517 -0.0008155274 0.14338069 -0.26786608 -0.0090865735 -0.24409229 -0.062926255
0.24407579 0.26296687 -0.033533 0.2798739 -0.25618765 -0.06957476 0.2998093 0.11690667
0.11944059 0.14305545 -0.006963271 0.1496623 -0.20056292 -0.13945056 0.18783057 0.3012961
0.25120276 0.13675603 0.27093843 -0.074925676 -0.17749497 -0.14202808 0.25762412 0.13008595
0.17790319 -0.12000038 -0.19994472 -0.04940938 0.0058327923 -0.0066264328 0.049094874 -0.011618451
0.2902459 0.21473248 -0.027771251 -0.10013121 0.082176894 0.04310261 0.009839186 0.2954424
0.046711773 -0.035668157 -0.25340757 0.2338189 -0.06684554 0.20156398 -0.025802402 -0.03237837
-0.15907216 -0.027261002 -0.0025449495 0.13534194 -0.09244121 0.1754281 -0.0073374575 -0.09425437
-0.05263727 -0.04005557 -0.12830101 -0.018282704 -0.00011330046 -0.30686578 0.10660788 0.156959
00000000: 9170 153d e72c dabd 219b 31be b871 1a3e
00000010: 9b36 ae3d 7037 423e 6320 51bd 7542 37be
00000020: db0e f43d f1aa 11be 2858 10be 5bf9 73be
00000030: 4ae9 adbb 78b9 6f3e 9d47 04be 95cc 4c3e
00000040: f82b 123e 7e28 693d 6314 46be 2615 c8bd
00000050: 6eff 0cbe 032c 263e 04fe 4fbc c6bd 523e
00000060: 2d78 25be 5ba2 0a3b 8a97 413e 8bc2 0a3a
00000070: e883 323e a999 20bc 5557 67be 8ba1 62be
00000080: d3ac 9dbd aa0e 3ebe f2be 1bbe d70b bebd
00000090: c8de 573e 8d81 073e 183b 67bd c10c 103e
000000a0: 5a59 1b3e 6260 81bc a484 22be 673d a43d
000000b0: d015 1b3e 5a07 d03d 0096 a93d e691 70bd
000000c0: 8de7 663e d6ea 633e 2b2a 14be ae86 083e
000000d0: 5938 fd3d 9191 133e 014d 6b3d 4f1d 85bd
000000e0: 9a68 50be a02b 4c3e 1ec9 55ba 63d2 123e
000000f0: be25 89be dadf 14bc 54f3 79be 7bdf 80bd
00000100: 01ef 793e 98a3 863e e659 09bd a24b 8f3e
00000110: 072b 83be 367d 8ebd 9b80 993e c46c ef3d
00000120: 459d f43d 217d 123e 272c e4bb 1341 193e
00000130: 5e60 4dbe 21cc 0ebe a856 403e 7b43 9a3e
00000140: a69d 803e c609 0c3e 71b8 8a3e a272 99bd
00000150: 3ec1 35be cf6f 11be 4fe7 833e 4035 053e
00000160: 412c 363e c2c2 f5bd 4fbe 4cbe 7d61 4abd
00000170: 0221 bf3b 8c22 d9bb b517 493d 515b 3ebc
00000180: 1c9b 943e d5e2 5b3e 8980 e3bc 9811 cdbd
00000190: 5c4c a83d 5d8c 303d 8a34 213c 3a44 973e
000001a0: d854 3f3d c618 12bd a3be 81be 396e 6f3e
000001b0: 51e6 88bd ca66 4e3e 8f5f d3bc 2f9f 04bd
000001c0: d0e3 22be 7752 dfbc 2bc9 26bb 1497 0a3e
000001d0: d151 bdbd 6da3 333e 0e6f f0bb 6f08 c1bd
000001e0: 2e9a 57bd 4f11 24bd 5761 03be 9cc5 95bc
000001f0: b99b edb8 831d 9dbe 3b55 da3d dcb9 203e
